lightning_logs/version_39/checkpoints/epoch=999-step=4000.ckpt (torch, 196557 bytes, 50 tensors)

model.model.pos f4 [50, 32]
000000 dc d6 9c 3d 3f d0 00 3e da e3 4a 3e 2f 3d 41 be
       0.07658169 0.1257944 0.19813481 -0.18870996
000010 fd 4f fe bd 6c 4e 9d bd f6 fe a6 bd 1c 3d bf 3d
       -0.124176 -0.076809734 -0.08154099 0.093378276
000020 28 43 3f bd 40 bc 53 be 57 ef fb 3d 07 b3 4f be
       -0.046694905 -0.2067728 0.1230151 -0.20283137
000030 9b eb 60 3e fb 30 39 3e 36 94 75 3c be ae ff bc
       0.21964876 0.18085091 0.0149889495 -0.031211253
000040 b3 2a 16 3e 28 97 b5 3c 06 f4 9c 3d d2 a5 63 be
       0.14664726 0.022166803 0.07663731 -0.22231224
000050 52 a3 78 be db 59 f0 bd fc b1 77 be c0 52 84 bc
       -0.24281052 -0.117358886 -0.2418899 -0.01615274
000060 4a 23 0a be e2 72 0c 3e 78 77 55 3e 14 10 d2 bd
       -0.13490024 0.137157 0.20846355 -0.10256973
000070 20 20 cb bd f0 6d 71 3e ea e8 84 be a4 16 12 be
       -0.09918237 0.23577094 -0.2595895 -0.14266449
000080 9a 26 83 3e 9d 94 76 3c 97 19 46 be 72 a6 02 3e
       0.25615388 0.015050081 -0.19345699 0.12758806
000090 34 ff 90 bd 68 5f d6 bd 75 d4 80 3d bc 30 90 be
       -0.07079926 -0.10467416 0.06290523 -0.2816218
0000a0 75 5f 8d 3e bb de 53 be c1 92 f2 3d 2d 25 42 3e
       0.2761189 -0.20690434 0.11844397 0.18959494
0000b0 54 d8 8c 3d 02 b5 9c 3e 33 67 05 3e d6 a9 fb 3d
       0.06877199 0.30606848 0.13027649 0.12288253
0000c0 45 bc 04 3e da 1e f3 3d b2 f0 91 be 7d db 9b 3e
       0.12962444 0.11871119 -0.28503948 0.30440894
0000d0 45 a3 6e bd 71 f9 ac 3d a6 c3 30 be b6 7d e0 bd
       -0.058261175 0.08446015 -0.17262134 -0.109614775
0000e0 f1 04 2f 3e 99 67 b0 3d 7b 49 32 be 78 70 9e bd
       0.17091729 0.0861351 -0.17410843 -0.077362955
0000f0 04 09 fd 3d ee f0 e4 3d 46 14 2f bd 0b 9e 15 3d
       0.12355235 0.11178766 -0.042743944 0.036527675
000100 aa ca f7 bc 8e 11 40 3e af 29 a6 3d 2f 0c 0e 3e
       -0.030248005 0.18756697 0.08113419 0.13871835
000110 ec 49 0d be 3c 05 3c 3e 3b 19 61 be 9d 9e c5 bd
       -0.1379773 0.18361372 -0.21982281 -0.09649394
000120 6e b5 59 be 1e c9 c6 3b 66 92 ab 3d 58 32 11 3e
       -0.21260616 0.0060664555 0.08377533 0.14179361
000130 b1 4d 81 3d 32 6b 80 3e ee df e0 3d 12 1c 17 3c
       0.063136466 0.25081784 0.10980211 0.009223001
000140 55 91 35 be 9a 92 2c 3e b0 9c 5c 3e 04 ab 80 bd
       -0.17731221 0.16852799 0.21544147 -0.06282619
000150 3c fa 07 bd d0 eb 67 be 8f b1 37 3e 83 26 8e bd
       -0.033197626 -0.22648549 0.17938827 -0.06940939
000160 63 ba c2 bd ca c6 48 bd f5 9c 50 be 9c ac 6e bd
       -0.09508207 -0.049017705 -0.20372374 -0.058270082
000170 a3 5f 2f 3c e8 df 26 3d 0c 74 12 3c 44 e7 53 3e
       0.010703954 0.040740877 0.008938801 0.2069369
000180 86 ef 6c 3e 1f a1 73 3e 21 df 78 3e ab f1 1e be
       0.23138246 0.23791932 0.24303867 -0.15521877
000190 fe 84 5f be e1 8a 19 3e 5c 6e 7d be 9c 13 e6 bd
       -0.21828076 0.14994384 -0.2474913 -0.11234209
0001a0 a9 65 3b be cb 19 43 3e 68 86 d6 bc 06 4b 69 3d
       -0.18300499 0.19052808 -0.026187137 0.056956314
0001b0 ec 72 89 bc 96 18 25 3e 02 d8 3a 3e 90 62 65 3e
       -0.016778432 0.1612266 0.18246463 0.2240088
0001c0 21 04 76 3e 08 0b 4c bc 7c 60 34 3e ce 2d cc bd
       0.24025013 -0.012453802 0.17614931 -0.09969674
0001d0 c8 84 53 be 00 6f 35 be 05 fd 54 ba 87 73 99 3e
       -0.20656121 -0.17718124 -0.0008124861 0.29970953
0001e0 a3 fd 11 3e df 88 a0 be 4c c4 7a bd 3c 60 93 3e
       0.14256911 -0.31354424 -0.06122236 0.28784359
0001f0 7f d0 1a be 65 e8 3a 3d f3 47 ae bd 1b 1e 42 3d
       -0.15118597 0.045631785 -0.08509817 0.047391992
000200 75 89 7a bd b0 13 02 3d 1c 20 5f 3e f1 e9 36 3e
       -0.061166245 0.031757057 0.21789593 0.17862679
000210 57 af 0c be 6b 96 81 3e 49 28 98 3d da e6 8a bd
       -0.13738762 0.25310072 0.07429559 -0.06782313
000220 bb 8c 17 3e ba b9 21 bd 6d 85 69 3e 04 59 f6 3d
       0.14799778 -0.039483763 0.22804804 0.12028697
000230 a5 d2 3e be 33 75 b7 3c 6b 01 89 3d 83 0c a7 bd
       -0.18635042 0.022394752 0.066897236 -0.08156683
000240 5a 47 53 3e 89 97 d1 bd 7d ce 42 3e 34 7e bc 3d
       0.20632687 -0.10233981 0.19024082 0.09203759
000250 86 3f 53 be 22 94 43 3e c0 c4 9e 3d 34 1c b2 3d
       -0.20629701 0.19099477 0.07752371 0.086967856
000260 b0 23 29 be b6 0d 5f 3e 47 73 a7 3a a8 06 0d be
       -0.1651752 0.21782574 0.0012775444 -0.1377207
000270 da 73 e4 3c d9 fe cb bd 91 13 2a bd 64 33 9b 3d
       0.027887274 -0.09960718 -0.041522566 0.07578161
000280 6e 5f 53 be 1c 21 cd 3d 59 ff 63 3e 6a 97 75 3d
       -0.20641872 0.10016081 0.22265376 0.059958853
000290 38 4b 6c bc 9d 82 16 bd 49 e6 4b 3e 0d 57 09 3e
       -0.01442223 -0.036745656 0.19912066 0.13412113
0002a0 72 f7 6f be 6a a0 e2 3b 44 0b 28 be 78 0b 85 3e
       -0.23434237 0.0069160955 -0.16410547 0.25985312
0002b0 e4 8b c7 bd 7d 51 07 be 5f 0e 67 3d 2a b2 11 be
       -0.09743479 -0.13214679 0.05641019 -0.1422812
0002c0 42 9b 2a 3d ec cf 5b bd 77 35 84 be fb 24 32 bb
       0.04165197 -0.053665087 -0.2582204 -0.0027182687
0002d0 6d ea fb bd dc a6 7a 3e 00 97 3a 3d f3 46 5e bd
       -0.123005725 0.24477714 0.04555416 -0.05426688
0002e0 4b 18 d3 3d 96 53 9f bc 2f f7 e0 bc 38 01 4f be
       0.10307368 -0.019449037 -0.027461616 -0.20215309
0002f0 db dd 96 bd 19 25 5c be 52 42 6a 3e c2 3f 64 be
       -0.07366534 -0.21498527 0.22876862 -0.22289947
000300 42 de bb 3b 80 c8 ae 3d 17 6c 7b be aa 8f 82 3d
       0.0057332823 0.08534336 -0.24552952 0.06375058
000310 37 25 b7 3d 11 34 36 be 49 41 d9 3d 3e f4 0a 3d
       0.08942645 -0.177933 0.10608155 0.033924334
000320 a0 06 76 bd 00 04 49 bd bf 9d 03 3e 0c 99 d5 bd
       -0.06006491 -0.04907608 0.12853144 -0.10429582
000330 bc 5a 81 bb 63 60 82 bd 02 88 54 3c d9 0c d7 3d
       -0.003947584 -0.063660406 0.01297188 0.10500497
000340 6e 1b 31 be f2 dc 5d bd 30 4c 43 3e 5f aa a7 bd
       -0.1729562 -0.054165788 0.19072032 -0.081867926
000350 6e a6 1a be a8 5a fb bd 89 fd 37 3e 73 4b 8d 3d
       -0.1510255 -0.12273151 0.1796781 0.068991564
000360 81 25 26 be e9 12 d6 3c 44 35 74 be cd cf 94 bc
       -0.16225244 0.026132064 -0.23848444 -0.018165493
000370 89 84 21 be 11 f6 c1 bd f1 3c dd 3d 2f 7c 66 be
       -0.15773214 -0.094707616 0.10802639 -0.2250831
000380 cd 00 38 3e 27 4b 69 be a8 76 25 3e ea 51 77 be
       0.17969055 -0.22782575 0.16158545 -0.24152341
000390 88 47 4a be 78 c2 82 3e 48 bd 5a be d8 56 15 3d
       -0.1975385 0.25538993 -0.21361268 0.036459774
0003a0 d2 ad 67 3e 9f 6b e3 bc b5 c9 7d bd 03 a7 51 3e
       0.22624901 -0.027761279 -0.06195994 0.20473866
0003b0 98 a4 bc bd 3a f0 4d 3e 41 cb af bd fb 0a 15 be
       -0.09211081 0.2011117 -0.085836895 -0.1455497
0003c0 62 27 13 be ee 8d fb 3d 5a 7b bb bc 9b 92 0a be
       -0.14370492 0.1228293 -0.022885967 -0.13532488
0003d0 e2 9c 2f be 89 13 22 be fc 4c 6e bd d8 54 14 be
       -0.1714969 -0.15827765 -0.058178887 -0.1448549
0003e0 33 cc 70 3d 34 2f 2a be ea 2c 77 be a8 de 29 be
       0.05878849 -0.16619569 -0.24138227 -0.16588843
0003f0 61 b9 79 be 97 6a bb bb c1 cc 0a be 8c 6c 67 be
       -0.24387123 -0.0057194936 -0.1355467 -0.22600001

model.model.embed.weight f4 [2, 32]
000000 00 00 00 00 00 00 00 00 00 00 00 00 00 00 00 00
       0.0 0.0 0.0 0.0
000010 00 00 00 00 00 00 00 00 00 00 00 00 00 00 00 00
       0.0 0.0 0.0 0.0
000020 00 00 00 00 00 00 00 00 00 00 00 00 00 00 00 00
       0.0 0.0 0.0 0.0
000030 00 00 00 00 00 00 00 00 00 00 00 00 00 00 00 00
       0.0 0.0 0.0 0.0
000040 00 00 00 00 00 00 00 00 00 00 00 00 00 00 00 00
       0.0 0.0 0.0 0.0
000050 00 00 00 00 00 00 00 00 00 00 00 00 00 00 00 00
       0.0 0.0 0.0 0.0
000060 00 00 00 00 00 00 00 00 00 00 00 00 00 00 00 00
       0.0 0.0 0.0 0.0
000070 00 00 00 00 00 00 00 00 00 00 00 00 00 00 00 00
       0.0 0.0 0.0 0.0
000080 c8 61 77 be be 34 5f bf d0 ee bb 3f 8f bc 77 3f
       -0.24158394 -0.87189853 1.4682255 0.9677209
000090 43 a7 88 be c5 1b 8b 3f 3e a7 9a 3c 15 83 23 bf
       -0.2669011 1.086785 0.018878575 -0.6387189
0000a0 8e e3 f0 be f3 67 59 3f d0 93 9e bf 83 74 92 bf
       -0.4704861 0.8492424 -1.2388859 -1.1441807
0000b0 f8 19 1d bf 05 33 2a bf a2 ff d7 be 2b 8b 2c be
       -0.6136775 -0.664841 -0.4218722 -0.16849963
0000c0 c1 2a 98 bf d6 61 9e bf 51 3f bb 3f fe 68 00 40
       -1.1888047 -1.2373607 1.4628698 2.0064082
0000d0 d5 0a f3 3f 1a c8 cc 3c ff 5a 79 3e 3a 8a 87 3f
       1.8987681 0.02499776 0.24351119 1.0589058
0000e0 33 fe c6 bb 01 b3 ec 3e 86 13 0a 3f 14 dd 9f 3e
       -0.0060727834 0.4623032 0.5393604 0.31223357
0000f0 0a 8b 6b 3f ff 73 92 3d 5f 69 e2 3c 95 f8 80 be
       0.9200903 0.07151031 0.027638135 -0.25189653

model.model.decoder.encoder.layers.0.self_attn.in_proj_weight f4 [96, 32]
000000 4e 30 1e be 73 9b b1 3d 10 1a e3 bc 25 94 54 be
       -0.15448114 0.08672228 -0.027722389 -0.20759638
000010 c7 9b 0d be 02 71 bb bd c7 fa c1 bd 52 4a fe bd
       -0.13828956 -0.09152414 -0.0947166 -0.12416519
000020 80 e4 f5 bd 7e 76 28 be 55 b8 03 3e 8f b5 30 be
       -0.120064735 -0.16451451 0.12863286 -0.17256759
000030 77 7c 3e 3e 9b c7 39 be 93 45 b5 3d 0e 5c 81 bd
       0.18602167 -0.1814255 0.08851161 -0.06316386
000040 48 98 2e 3e 54 b8 2e be 7f 20 8e bd 90 85 cf 3d
       0.17050278 -0.17062503 -0.06939792 0.10132897
000050 42 7d 55 be e1 41 15 be d8 3d 8c bc e1 76 47 be
       -0.20848563 -0.14575912 -0.017119333 -0.19478942
000060 57 23 ed bd ec 10 0f 3e c6 71 38 3e 2f 9b e1 bc
       -0.11579006 0.13971299 0.18012151 -0.027539818
000070 1e f1 11 be f2 d5 16 3e 0f f7 82 3d 7a df 46 3e
       -0.14252135 0.14730051 0.06394779 0.19421187
000080 23 c7 60 bd dd 9e 9d bd 29 7e 17 3e 1a da 34 3e
       -0.05487741 -0.076963164 0.1479422 0.17661324
000090 1f 36 46 be 28 b1 b5 3d 4b 56 50 be 3d 83 0b 3e
       -0.19356583 0.088716805 -0.20345418 0.13624282
0000a0 e9 b2 86 3d a0 8d 24 3e c9 25 10 be 69 7f 48 3e
       0.06577093 0.1606965 -0.14076914 0.19579853
0000b0 d6 f0 be bc 36 fd 05 3e 9d d0 b8 3b 9f 36 da bd
       -0.023308199 0.13084874 0.005640103 -0.106549494
0000c0 d3 2b e7 bd d0 a2 3a 3e 57 16 90 bd 32 54 c6 bb
       -0.11287656 0.1822617 -0.07035511 -0.0060525173
0000d0 fa 77 55 be db 75 a2 bd bd db 04 3e 23 d9 00 3e
       -0.20846549 -0.079326354 0.12974449 0.12582831
0000e0 76 c0 05 3e 44 38 72 3d 16 48 36 be 8a 68 36 3d
       0.130617 0.05913569 -0.17800936 0.04453329
0000f0 8e 76 40 3d bf 4f 60 3e 46 90 2e bd dc c9 64 bd
       0.046988063 0.2190542 -0.04261806 -0.05585657
000100 03 02 5a be 4e bd 20 3e 9a b4 1a 3d 31 52 72 3d
       -0.2128983 0.15697214 0.03776989 0.059160415
000110 0c ce 1a 3e bc 40 55 3e 9e 6f 44 3d 75 ea b2 3c
       0.15117663 0.20825475 0.04795801 0.021840313
000120 5f 43 7f 3d ad e5 d1 3d f8 c5 1f 3e 68 e7 67 bd
       0.06232011 0.10248885 0.15602863 -0.05661717
000130 f4 b3 97 bd f5 e3 24 be e7 d0 db 3d 68 1a 3a 3e
       -0.0740737 -0.16102584 0.10733204 0.18174136
000140 67 c1 46 3e 70 a8 d3 bd 90 e3 d8 3d 97 27 c4 bd
       0.19409715 -0.10334861 0.10590279 -0.09577864
000150 bd 01 71 bd 22 00 59 3d 62 14 e1 3d ab 4a ee bd
       -0.05883955 0.052978642 0.10990216 -0.116353355
000160 f0 a7 31 be a0 87 db bd f5 22 3d 3e c3 8c 7b 3d
       -0.1734922 -0.10719228 0.18470366 0.061413538
000170 b7 88 01 be 63 a8 bb bd 40 00 14 be 5b 40 aa 3d
       -0.12649809 -0.091629766 -0.1445322 0.08313056
000180 5a b8 1a be 1b 15 93 bd e2 86 07 3e 0b f0 84 3d
       -0.15109387 -0.0718176 0.13235047 0.06491097
000190 84 b0 5d be f1 e5 49 3d ba 65 43 be c8 92 0d 3e
       -0.21649367 0.049291555 -0.19081774 0.13825524
0001a0 42 24 dc bd 4b 45 15 be 57 8e c4 bd 6f df 1b 3e
       -0.10749103 -0.14577214 -0.09597462 0.15221952
0001b0 17 53 2c be a9 d1 62 3d c5 85 38 be 9d 72 13 bd
       -0.16828571 0.05537573 -0.18019779 -0.035997976
0001c0 c5 0f 7a 3d 10 24 4a be 81 9b 2e 3c 63 fe b0 bd
       0.061050195 -0.19740319 0.010657192 -0.086422704
0001d0 ec a8 16 3e 45 6b 09 3e 64 56 c5 bc c6 ea 18 bc
       0.14712876 0.13419826 -0.024089046 -0.009333318
0001e0 a0 da ea bd fd c8 ed 3d 42 8e 18 3e c3 e6 d4 3b
       -0.11467481 0.11610601 0.14898017 0.0064972355
0001f0 bb 25 96 bc e9 df aa 3d 28 71 e1 bd 5d 38 12 be
       -0.018328538 0.08343489 -0.11007911 -0.14279313
000200 f3 3f 71 3d 6a 2b a1 bd dd 4b 10 3e 5b 37 9b 3d
       0.058898877 -0.07869609 0.1409144 0.075789176
000210 4a f1 4f bd 61 70 6f bd 4f 5d b7 bd 00 33 03 be
       -0.05076722 -0.058456782 -0.08953344 -0.12812424
000220 22 17 39 be a7 60 4c be 7a e8 37 3e 91 7d 45 be
       -0.1807523 -0.19958745 0.17959777 -0.19286181
000230 7e ff 86 bd 5f 6d 08 bd a1 03 47 3d 02 a0 0c bd
       -0.065917 -0.03330743 0.048587445 -0.034332283
000240 6d 3f 22 bd e2 1e 6f bd f4 9d 42 3d aa 26 06 3e
       -0.03961127 -0.05837906 0.047513917 0.13100687
000250 22 19 cc 3c b7 00 31 3e a6 15 9d 3a 24 61 d7 3d
       0.024914328 0.17285429 0.0011984601 0.10516575
000260 3e b4 36 be bd b8 f0 3d e2 05 16 be 98 f2 82 bd
       -0.17842194 0.11753986 -0.14650682 -0.06393927
000270 e1 7a 49 3e 56 d8 53 3d bf 9c 8b 3c 78 7d 4d 3e
       0.19675781 0.051719986 0.017042516 0.20067394
000280 99 a7 10 3e 47 43 d0 bc c9 1a 8d bd 8a 6d 6a 3d
       0.14126433 -0.025422705 -0.068898745 0.05723337
000290 1c a0 b0 3d cd 89 3a 3e 77 8f ca 3d d3 8a 2d be
       0.086242884 0.1821663 0.09890645 -0.16947488
0002a0 38 9c 3e be 4b 4d 34 3d b8 69 28 3e f4 24 2c 3d
       -0.1861428 0.044019025 0.16446579 0.04202743
0002b0 5c 32 2d 3d c0 41 ca 3c 07 6e fb 3d c1 d8 98 3c
       0.042284355 0.024689555 0.122768454 0.018658044
0002c0 00 61 28 3e 53 83 27 be 54 a1 0e be c5 40 4d bd
       0.16443253 -0.1635869 -0.1392873 -0.050110597
0002d0 eb e1 3b 3e b5 8e 77 3d 45 55 66 bd 3d 3d 66 3c
       0.183479 0.06043883 -0.056233663 0.014052686
0002e0 17 75 24 3c 01 fc 46 3e da 67 c5 bd 54 33 28 3e
       0.010037682 0.1943207 -0.09638949 0.1642583
0002f0 06 32 d7 bd 51 13 3c be 73 da 0a 3e 8a ee 8c bd
       -0.10507588 -0.18366744 0.13559894 -0.06881435
000300 d5 6c 09 3e 95 d7 35 3e 7e d2 d7 3c 52 a9 f2 bd
       0.13420422 0.1775802 0.026345488 -0.118487015
000310 f1 23 99 3d 13 96 1d bc 30 fd 2a be 15 a3 16 be
       0.074775584 -0.0096183 -0.16698146 -0.14710648
000320 c7 42 ab bd af 12 fe 3d b1 d9 a4 bd c7 af d8 bd
       -0.08362346 0.12405907 -0.08049334 -0.10580402
000330 63 07 a7 bd 3e aa 92 3b 0b ee a3 3c d7 e3 23 be
       -0.08155706 0.004475861 0.020010969 -0.16004883
000340 19 0a 5a 3e be af 7a bd 0b 22 09 3e d3 4f 5f bc
       0.21292914 -0.061202757 0.13391893 -0.013629871
000350 2b 8f d0 bc 1a ba da 3d 41 69 21 be 5d 3b e4 bd
       -0.025458893 0.10680027 -0.15762807 -0.11144135
000360 7b 48 cf bd 65 8a 94 3d fa 7a 9e bc f0 e4 91 3d
       -0.101212464 0.07252959 -0.01934575 0.071237445
000370 3f af 11 bd e2 3f b8 bc 84 ff e8 bd 17 f4 de 3d
       -0.03556752 -0.0224914 -0.11376861 0.108864
000380 8c cd 46 3e 7a 21 97 bd cd 02 05 bd 0b 98 e2 3d
       0.19414347 -0.07379432 -0.032473374 0.11064156
000390 8f 33 00 be 34 20 b5 3d 51 be 5e bd 21 03 3f 3e
       -0.12519668 0.08844033 -0.05438072 0.18653537
0003a0 f9 30 56 3d 13 f6 38 be 88 6a e4 3c d9 59 74 3d
       0.052292798 -0.1806262 0.02788283 0.059655998
0003b0 f5 19 d8 3d 43 f3 da 3d 3b a4 9d 3d 2d 7d 4a be
       0.10551826 0.1069093 0.0769734 -0.19774313
0003c0 4a c3 f4 3d 73 e6 27 bc 21 29 ce 3d 3d cb 50 3e
       0.11951311 -0.0102478145 0.100664385 0.20390029
0003d0 ee 97 3e be 2a f1 50 3e 6c 6f 02 3e 27 31 9d bd
       -0.18612644 0.20404497 0.12737817 -0.07675391
0003e0 2c 28 1b be 04 0e d6 bd 91 a1 aa bd 46 e1 52 3e
       -0.15152043 -0.10451892 -0.083315976 0.20593747
0003f0 4a 4a 92 3d 88 07 2a 3c 15 08 ba bc 4d 68 a9 bd
       0.07143076 0.010377772 -0.022708932 -0.08271847

model.model.decoder.encoder.layers.0.self_attn.in_proj_bias f4 [96]
000000 c7 41 ab bb 4e 08 5b 3a d6 f6 bc 3b c7 11 8e 3b
       -0.005226347 0.00083554245 0.00576673 0.0043356153
000010 41 05 98 3b df db 40 3b ee 14 8d bb 8c 39 c4 3b
       0.004639298 0.0029427928 -0.0043054735 0.0059883054
000020 d1 1c e5 bb 73 19 22 3b fc 28 2d 3b 08 61 de bb
       -0.0069919606 0.0024734407 0.0026422134 -0.0067864694
000030 e6 be 34 bb 0d 4e e1 bb 9e 0a a2 bb 94 07 48 3b
       -0.0027579605 -0.0068757595 -0.0049451133 0.0030522095
000040 e6 f8 71 b9 90 df b2 3b dc 87 45 3b 97 b2 42 3b
       -0.00023076273 0.0054587796 0.0030140793 0.0029708499
000050 8f b8 29 bb 7f 75 5b 3b 60 1e 3f ba 7a dc d0 3a
       -0.002589736 0.0033486781 -0.0007290598 0.0015934848
000060 a7 a8 bb 3a b7 24 04 bb c0 8a be 3b cb e2 48 bb
       0.001431723 -0.0020163485 0.00581488 -0.0030652757
000070 13 b5 b7 3b c9 db 69 3c d4 95 08 3c fc 10 a2 bb
       0.0056063025 0.014273592 0.008336503 -0.0049458724
000080 55 84 3b bb 42 f7 ad 39 07 74 3a ba 86 53 6d 3b
       -0.0028612812 0.00033181353 -0.00071126263 0.0036213114
000090 c2 55 86 3b c7 c4 e2 39 d0 68 db 39 6e d8 1f ba
       0.0040995786 0.0004325269 0.00041849026 -0.0006097619
0000a0 8a 93 b4 bb a0 6f 6c 3a f7 c1 14 bb d6 65 a4 3a
       -0.005510752 0.0009019319 -0.002269862 0.0012542557
0000b0 0a 26 05 bb 29 68 9d 3a ef 8b cf 3a b8 87 27 3b
       -0.0020316863 0.0012009192 0.001583455 0.0025563072
0000c0 1f 03 50 bb c0 94 10 bb b4 35 23 bb ae 47 84 3b
       -0.0031740142 -0.0022061318 -0.0024903836 0.004036865
0000d0 81 2b 5b 3a 0b f8 60 bb b0 64 02 3b 06 52 c7 3a
       0.00083606696 -0.0034327533 0.001989644 0.001520694
0000e0 95 de 2e 3b d3 e9 fd b9 db 2e 89 ba 55 34 ca ba
       0.0026682962 -0.00048430133 -0.0010466235 -0.0015426973
0000f0 cb e3 1c 3b 99 84 0a 38 6f 09 70 ba 3e e7 e3 ba
       0.0023939486 3.3025255e-05 -0.0009156679 -0.0017387641
000100 8a c2 4a bc 28 87 26 3b 1f 70 19 3c eb 43 8c 3a
       -0.012375483 0.002541015 0.009365111 0.0010701393
000110 b0 5e 43 3c a0 a2 a5 3b d1 aa 25 bc 2e a0 5d 3b
       0.011924431 0.005054787 -0.010111527 0.0033817398
000120 b9 52 5b bb bf 5d 5b 3a 95 f9 76 3c b2 bd ff bc
       -0.0033466055 0.0008368156 0.015074153 -0.031218383
000130 b6 9e ae bc a8 5c c8 3c ff 49 47 bc 30 3c 34 bc
       -0.021315914 0.024458244 -0.012163638 -0.011000678
000140 f6 64 ef 3a b5 09 12 3c ca 1c 93 bb 44 0a fc 3c
       0.0018264342 0.008913447 -0.004489516 0.030766614
000150 eb 84 75 3b ab e2 73 bb 49 f5 44 ba 43 49 2e 3c
       0.0037463258 -0.0037213962 -0.0007513357 0.010637584
000160 f8 c0 0b 3d 82 70 cf 3c 97 99 28 bc 92 1b 7e 3c
       0.034119576 0.025322203 -0.010290525 0.015509503
000170 0c b5 03 3c 2c 15 65 3c cb 7a 15 bc 28 fc b0 3b
       0.00803877 0.013982099 -0.009123514 0.005401153

model.model.decoder.encoder.layers.0.self_attn.out_proj.weight f4 [32, 32]
000000 00 bf b2 bd c1 21 f8 bd 18 cd 6d 3d 62 4f 9c 3d
       -0.087278366 -0.12115813 0.05805692 0.076323286
000010 ef 8e 8f bd bd 0b 04 3e ef 34 ed bd 39 64 1c 3d
       -0.07009684 0.12895103 -0.11582362 0.038181517
000020 13 e7 22 3e 3a f3 f9 bc 2b 33 38 3e b8 43 32 3d
       0.1590846 -0.030511487 0.17988269 0.043521613
000030 a3 70 cd 3c dd 09 0b be 9c 76 ef bd 63 2f af 3d
       0.025078123 -0.13577981 -0.11692545 0.0855396
000040 aa fc 4d bd 3c b8 ce 3d 5d 81 9c 3d 58 06 19 be
       -0.050289787 0.10093734 0.076418616 -0.14943826
000050 d9 fa 6d 3d 7f 4d 7c 3c 6a 4a e0 3d 88 ec 0d 3d
       0.058100555 0.015399336 0.10951693 0.034649402
000060 58 f6 d6 bd c7 42 85 3d da 5b 88 3d 0e bd 4c 3d
       -0.10496205 0.065068774 0.06658144 0.049984984
000070 8b 4f 05 be da e4 69 3b b3 e7 c2 ba 3c ad 14 be
       -0.13018624 0.0035689385 -0.0014870077 -0.14519209
000080 66 a6 1f be c3 dd ec 3d 2f 9d 92 bd df 35 f4 3d
       -0.1559082 0.11565735 -0.07158887 0.119243376
000090 da 9c 21 be 05 55 0f be 86 1c 1a bd af 6f df 3d
       -0.1578249 -0.13997276 -0.03762486 0.10909974
0000a0 3a fb 1d 3d c0 15 26 3e 34 94 1e be e9 b4 d0 bd
       0.038569666 0.16219234 -0.15486223 -0.10190756
0000b0 95 22 b9 3d cb ab 2a 3e 01 50 01 be 79 f7 22 bd
       0.09039799 0.16667096 -0.12628175 -0.03978679
0000c0 cc b4 2c 3e c7 74 ab bc b9 34 71 3d b1 d2 05 be
       0.16865844 -0.020929707 0.05888817 -0.13068654
0000d0 a0 49 83 3c 6f 86 c2 3d 8c 39 9d 3d a8 d5 27 be
       0.016026318 0.094982974 0.07676992 -0.16390097
0000e0 62 ae ba 3c 54 06 03 3d 40 b4 57 bc 8f ab c9 bd
       0.02278823 0.031988457 -0.013165534 -0.09847175
0000f0 da 6f 9c 3d d6 d4 12 3c 15 84 23 be f5 f2 f0 bd
       0.076385215 0.008961877 -0.15968354 -0.117650904
000100 60 0e bb 3d 96 9e 37 bc e9 8e 72 3a 58 24 fe bd
       0.09133601 -0.011207243 0.00092528627 -0.12409276
000110 7a 0f 5e 3d 76 86 5c bd 9b 44 ce bd bc 88 54 bd
       0.05421398 -0.05383917 -0.10071679 -0.051888213
000120 5e 28 e6 3d 77 c2 ad 3d 38 1f cd bd e0 e2 9c 3d
       0.11238168 0.08484357 -0.1001572 0.076604605
000130 31 7f 59 3d 75 e6 c8 3d cf 0a 4e 3d ca f1 b5 3d
       0.053099815 0.09809581 0.050303277 0.08884008
000140 76 7b 08 3e ec 46 a6 bd 33 d7 99 bc 66 d9 d0 bd
       0.13328347 -0.08118996 -0.018779373 -0.101977155
000150 3a 45 db 3d e5 45 1d 3e bf 6c f9 3d 32 ce b4 3d
       0.10706563 0.15358694 0.12178945 0.08828391
000160 f4 40 56 3d 10 12 18 3c 5d 67 ce 3d 3f a9 d3 bd
       0.052308038 0.00928165 0.10078309 -0.103350155
000170 c5 35 e3 bb 41 0f 8a bd c8 f8 b2 bd 2f a8 31 3d
       -0.0069339 -0.06741191 -0.087388575 0.043373283
000180 1e 75 8f bd 58 21 26 be 69 96 bb 3c 00 a1 8d 3c
       -0.0700476 -0.16223657 0.02289887 0.017288685
000190 dc 35 cd bd 37 a3 de 3c 64 10 da 3d 5e 57 8c 3b
       -0.100200385 0.027177436 0.106476575 0.004282876
0001a0 85 a5 02 be cd 5b f9 bd af fe d5 3c ce da 0d bd
       -0.12758453 -0.12175713 0.02612242 -0.034632497
0001b0 8b 10 cf bd 08 9b ae 3d 91 67 9b bc 0f ba 21 3c
       -0.10110577 0.085256636 -0.018970283 0.00987102
0001c0 c1 b3 d7 bd b7 91 2f 3d 8c 36 13 3e 71 34 2b 3e
       -0.10532332 0.042863574 0.14376277 0.16719224
0001d0 e6 69 e9 3d d0 57 fb bd f2 01 08 3d 7c ae 05 be
       0.11397152 -0.12272608 0.03320498 -0.13054842
0001e0 7a 39 f2 3c fc b9 cb bb e7 b8 0c be 8e 11 cf bc
       0.029568423 -0.0062172394 -0.1374241 -0.025276925
0001f0 17 3a 87 3d aa 79 e9 bd 0c 00 92 3c e7 5c 37 bc
       0.06602877 -0.11400159 0.017822288 -0.011191583
000200 0f 9d d4 bc 9b 48 35 bd 77 c4 99 bc ab 65 00 bb
       -0.025953798 -0.044258695 -0.01877044 -0.0019591849
000210 c4 6d 80 bd 2f 87 03 be 1a 21 27 bc b4 0d 3e be
       -0.06270936 -0.12844537 -0.010200763 -0.18559915
000220 0a b9 4c 3e 94 44 ad bd eb 5d 0c bd 68 6e e7 3c
       0.19992462 -0.08460346 -0.034269255 0.028250888
000230 67 8a b1 3d 95 e2 d8 3d 31 14 b9 3d 54 d7 57 3d
       0.08668976 0.10590092 0.09037054 0.052695587
000240 a8 35 e3 bd 99 14 09 3d 46 93 a8 bb c0 a6 19 3e
       -0.110942185 0.03346691 -0.0051445095 0.15005016
000250 5e 57 2c be 3d 48 1e 3e c1 85 5a 3d 22 a6 fd 3d
       -0.16830203 0.15457244 0.053350214 0.12385203
000260 70 7e fc bd e7 c9 72 bd a7 05 18 3d 98 7b ec bd
       -0.123288035 -0.05927458 0.037114765 -0.11547011
000270 f0 dc f5 3d 1c 18 f6 bc 88 b8 0a 3e c9 84 ff 3a
       0.12005031 -0.030040793 0.13546956 0.0019494529
000280 fb 55 04 3e 81 05 f1 3d 9a 10 4b 3d 4b d5 f0 3c
       0.12923424 0.11768628 0.04957638 0.029398581
000290 68 4c e0 3d 6e 30 29 bd 2b d3 4f bd b8 c4 0f 3e
       0.10952073 -0.04130595 -0.050738495 0.14039886
0002a0 fd 51 82 3d 36 fc 36 be 57 81 5d 3d 8c 05 bc bd
       0.06363294 -0.17869648 0.054078426 -0.091807455
0002b0 8e 75 8c bc 0d e9 e9 bd b5 35 02 3e ef 7e 6f 3d
       -0.017145898 -0.11421404 0.127158 0.058470663
0002c0 ba 53 e6 bd 31 54 de 3d cd 89 3d 3d e3 c9 10 3e
       -0.11246438 0.10855902 0.046273995 0.14139514
0002d0 54 89 2b 3e d5 79 70 bc 22 3b 9e 3c 39 e3 0e be
       0.16751605 -0.0146774845 0.019315306 -0.13953866
0002e0 dc 6c cb bd 51 db 93 bd 0e f9 31 be 39 2a d1 bc
       -0.09932873 -0.07219566 -0.17380163 -0.025532829
0002f0 4d 68 18 bd cb 44 00 be eb 45 1b be 04 fa 57 bd
       -0.037208844 -0.12526242 -0.1516339 -0.052728668
000300 c8 4e 9c 3d 8a f0 33 be 56 c7 e9 3c 96 33 20 3b
       0.07632214 -0.17572227 0.028537434 0.002444481
000310 e7 cd b3 bd 0d 42 69 3d 6e 18 17 3e 18 96 94 bd
       -0.08779507 0.056947757 0.14755413 -0.072551906
000320 d1 fb e6 3d a3 1d e0 3d fb 24 96 3b 8b b9 26 be
       0.11278499 0.10943153 0.004582045 -0.16281717
000330 17 a6 23 3e 82 1d 1b be 45 cb be bc 3b 07 00 3e
       0.15981327 -0.15147975 -0.023290286 0.12502758
000340 a4 d3 03 be 3a ad 01 3b 11 3a 95 3d fb d7 bf 3a
       -0.12873703 0.001978709 0.07286466 0.0014636511
000350 78 ff 2a bd 4d 44 e9 bd 1b 10 0a 3e e2 e9 f9 bd
       -0.04174754 -0.113899805 0.13482706 -0.12202813
000360 14 6d 46 bd 34 d9 7d 3d ca c0 33 be ef 01 a9 3d
       -0.04844387 0.06197472 -0.17554012 0.08252322
000370 f0 df 0b bd 97 e2 ab 3c be 35 0b 3e 11 72 38 be
       -0.03414911 0.02098207 0.1359472 -0.18012263
000380 7a fa cd 3d 88 8e c2 bd be a2 81 3d 76 79 11 be
       0.1005754 -0.09499842 0.06329869 -0.1420649
000390 4b c6 1a be f1 c1 1e be 23 57 80 3c 57 4a da bd
       -0.15114705 -0.1550367 0.01566655 -0.106587104
0003a0 c3 61 fd bc 20 36 4b bc 22 04 f2 3d a7 ef eb bc
       -0.030930405 -0.012403041 0.118171945 -0.028800799
0003b0 fd 41 ba 3d 69 e2 f8 3d d4 05 fa bd 20 e6 e5 3d
       0.090946175 0.12152559 -0.12208143 0.112255335
0003c0 90 58 f3 bd 72 1b ee 3d 8a 0d 04 3e 96 4d 86 bd
       -0.11882126 0.116263285 0.1289579 -0.06557767
0003d0 36 72 56 bc dd 49 82 3d 10 5a 96 bd 06 e1 82 3d
       -0.013088753 0.063617446 -0.07341397 0.06390576
0003e0 87 4b 1d 3e 0f 7a 2e 3d d1 11 c2 bd 58 16 1c be
       0.15360843 0.042596873 -0.094760545 -0.15242898
0003f0 bc 57 23 3e 74 e7 9d bc aa 42 97 bd 0a 9f 78 3d
       0.15951437 -0.019275405 -0.07385762 0.060698546

model.model.decoder.encoder.layers.0.self_attn.out_proj.bias f4 [32]
000000 e5 e1 b5 3b 49 d0 15 bb 3f c9 27 bc f8 eb 85 3b
       0.0055506104 -0.0022859743 -0.010240852 0.0040869676
000010 82 3d 55 bb c3 db 3a 3c 0f 5f 2f bc 59 f9 63 bb
       -0.0032537882 0.011404934 -0.010703816 -0.0034786074
000020 7e ec 41 3c 92 df 1b bc 7a ba ba bc 69 24 df 3a
       0.011836169 -0.009513753 -0.022793997 0.0017024401
000030 6d c5 cc ba 43 ad 64 3c d5 df 8e bb b1 a9 ac 3a
       -0.0015622802 0.013957324 -0.004360179 0.001317313
000040 44 cb c9 bb 2e 36 7b 39 58 30 fb ba c6 6e 47 3c
       -0.0061582644 0.00023957409 -0.0019164188 0.012172407
000050 6e 12 de 3b 21 91 41 3c 63 c6 ef ba 83 4b 94 bc
       0.0067770993 0.011814387 -0.0018293377 -0.018102413
000060 76 3d 32 3d 16 0c 97 bb 27 55 52 3c 80 b4 bd bb
       0.043515645 -0.004609595 0.012837685 -0.0057893395
000070 36 fa 82 3c 9e 72 40 bd 02 b2 3b bc b6 d3 3e 3c
       0.01598845 -0.046984307 -0.011456015 0.0116471555

model.model.decoder.encoder.layers.0.linear1.weight f4 [128, 32]
000000 a3 73 3c bd f0 a0 6e bd 90 8a f1 3c f0 1f 23 bd
       -0.046008717 -0.05825895 0.029485017 -0.03982538
000010 a8 3d e5 b9 08 a6 0b be fc 10 cc bd f1 ec 28 bc
       -0.0004372422 -0.13637555 -0.09964177 -0.0103103975
000020 05 4a 09 3e 49 2a 23 3e b1 06 db bd c1 50 83 bd
       0.13407142 0.159341 -0.10694636 -0.06411887
000030 00 74 af bc 81 b1 05 be ed 7a ca bb 4c bf 01 3c
       -0.021417618 -0.13055994 -0.0061792047 0.007919144
000040 ed c8 1d 3d 50 0b 6b 3c 0f 38 4f bd d6 4f e1 bd
       0.038521696 0.014345959 -0.05059057 -0.110015556
000050 ee c6 a1 bd 21 00 32 be d4 c8 15 be aa cc f3 bd
       -0.07899271 -0.17382862 -0.14627391 -0.11904271
000060 b0 c5 b6 3d da c1 23 3e d0 c7 19 3e 98 ca cd 3d
       0.08924425 0.15991917 0.15017629 0.10048407
000070 ab d1 da 3d 60 98 42 3d 6d cc 6d bd 4e 82 15 be
       0.10684522 0.047508597 -0.058056284 -0.14600489
000080 eb 63 ae 3d 27 4b 15 3e a8 71 23 be 0d 71 89 3d
       0.085151516 0.1457945 -0.15961325 0.06711016
000090 fb d2 ca 3d 72 a8 aa 3d ca 96 0e 3c 81 92 55 3c
       0.099035226 0.0833291 0.008702943 0.013035418
0000a0 b5 a6 ef 3c 25 7d 2f 3e e1 5e 31 3d 5b 8a a7 3d
       0.029254297 0.17137583 0.043303374 0.08180686
0000b0 b6 79 f3 3d bb dd 38 bc 6a a0 19 be 05 0b 25 3e
       0.11888449 -0.011283333 -0.150026 0.16117485
0000c0 22 32 86 bd 47 a4 de 3d 06 8f c0 bb 5f bf 2a be
       -0.06552531 0.10871177 -0.0058764247 -0.16674565
0000d0 a7 27 66 bb 90 28 ad bd 9b fc 91 bd cf 59 89 3d
       -0.003511885 -0.08455002 -0.07128259 0.06706583
0000e0 35 87 34 be 6d f2 23 3e 89 23 87 3d e9 3c 67 3d
       -0.17629702 0.16010447 0.06598575 0.056454573
0000f0 41 9e 1d 3e 20 9a db 3a 68 a3 b7 bd bf 72 d7 bd
       0.153924 0.0016754307 -0.08966714 -0.10519933
000100 42 2c fd 3d 02 a6 fc bd e4 f3 f1 bc 18 30 97 bd
       0.12361957 -0.12336351 -0.029535241 -0.0738222
000110 18 1b 5d 3d 29 84 e3 3d 7f f5 52 3e a3 f3 6a bd
       0.053980917 0.11109192 0.20601462 -0.057361256
000120 c9 1d c4 3d 87 62 1b be 85 cc e5 bd 17 b9 20 be
       0.095759936 -0.15174304 -0.1122065 -0.15695606
000130 0d 8b 79 bb 89 3f cf bd b6 23 94 bd 1c a6 bd ba
       -0.0038077265 -0.1011954 -0.07233374 -0.001446906
000140 dc ac 8c bd 12 a4 ea 3d 2f 0e f4 3b c8 76 9a 3d
       -0.06868908 0.11457075 0.00744798 0.07542187
000150 73 4a 6b 3d 8f 9f 2f 3d c8 1f 08 be 87 56 48 bd
       0.057444047 0.042876776 -0.13293374 -0.048910644
000160 a0 db ea 3b d2 9a 13 be 0f 05 23 3e e5 64 cc bd
       0.0071672946 -0.14414528 0.15919898 -0.099801816
000170 30 a1 ae bc 36 c5 3c 3d 18 1e e6 3d 77 8c 3c 3c
       -0.021317095 0.046086513 0.11236209 0.011508099
000180 7e 16 d9 3d b9 5c 0f 3e 99 ed f9 bd 94 60 02 be
       0.10599993 0.14000215 -0.12203521 -0.12732154
000190 c4 60 a4 bd c1 ee 08 be 1b 77 05 bd e0 0e cd bd
       -0.08026269 -0.13372327 -0.03258429 -0.10012603
0001a0 5e a5 fe bd 0e f0 d4 bc fe ad 31 be d0 25 b9 bd
       -0.12433885 -0.025993373 -0.17351529 -0.09040415
0001b0 3c b4 16 3e dd 03 20 3c 4e ec f8 bd a0 0c 02 be
       0.14717191 0.009766546 -0.121544465 -0.12700129
0001c0 05 89 ae bd e1 c0 80 3c d3 53 ad bd b9 e3 8f 3b
       -0.08522228 0.015716972 -0.08463254 0.0043911603
0001d0 8c 00 04 be 18 03 08 3d 03 92 17 3e 5f 95 5c 3d
       -0.12890834 0.033206075 0.14801793 0.05385339
0001e0 93 2e e8 bd 0f bb a1 3d aa 2c 1d be fa a9 78 bd
       -0.11337008 0.07897007 -0.15349069 -0.060708977
0001f0 1a c8 05 bd 48 84 da bd af b4 b7 3b c6 44 71 3d
       -0.032661535 -0.10669762 0.005606256 0.058903478
000200 e0 f4 4a be af e1 80 3d fb bc 02 3e 26 03 0a be
       -0.19819975 0.06293046 0.12767403 -0.13477764
000210 08 eb 0c be cc 93 fc bd 28 63 fe bd ff 0c c7 3d
       -0.13761532 -0.123328775 -0.12421256 0.09719276
000220 84 38 85 bd 0b 73 68 3d e6 11 27 3d dc 01 8d bc
       -0.0650492 0.05675034 0.040788554 -0.0172128
000230 29 99 2d be 82 36 1d be a8 c1 0c be 54 cf 10 3e
       -0.16952957 -0.15352824 -0.13745749 0.1414159
000240 87 11 92 bc b9 b2 03 3e 60 dd 1b 3e 70 ab 61 bd
       -0.017830623 0.12861146 0.15221167 -0.055095136
000250 29 a9 0a 3e 3c a8 ad 3d 8d cf e0 3d a5 09 98 bc
       0.13541092 0.08479354 0.10977087 -0.018559286
000260 a3 f8 fa bd 97 7b 12 3e f6 58 15 3d 58 1a 0c 3e
       -0.12254455 0.14304958 0.036461793 0.13681924
000270 ea 82 09 3e 50 0f af 3d 02 69 44 3c e1 64 9e 3d
       0.13428846 0.085478425 0.011987926 0.07734085
000280 8d fc a9 3d db e4 31 be 70 35 df 3d b0 89 23 3e
       0.08300123 -0.17372458 0.10898864 0.15970492
000290 8a 69 d9 bd bb 72 ca bd d2 15 dd bd 6b 39 d0 3d
       -0.10615833 -0.09885164 -0.107951775 0.101672016
0002a0 96 39 e5 3d 31 7a 17 bd 25 eb 32 3d 41 55 07 3e
       0.11192624 -0.036981765 0.043681283 0.13216116
0002b0 5f 39 8c bd f3 87 3c be 2c ad 14 be 7e 0d 1c 3e
       -0.0684688 -0.18411236 -0.14519185 0.15239522
0002c0 df bb 14 be 79 e9 39 be 94 5d 21 3c dd 46 24 3d
       -0.14524792 -0.18155469 0.009848971 0.040106643
0002d0 dc 96 65 bc 8b ad b9 3c 39 38 e0 3d 9e ce cd bd
       -0.014013018 0.02266576 0.109482236 -0.10049175
0002e0 f1 1a 98 3d 87 a7 e0 3d 00 94 0d 3e f2 21 a6 bd
       0.07427014 0.10969453 0.13825989 -0.08111943
0002f0 9c 9f eb bd 63 74 26 3e bb 4c f9 bd b3 98 1d be
       -0.115050524 0.16255336 -0.12172838 -0.15390281
000300 e3 25 46 3d a0 c1 1f 3e 37 4c 1d bb 44 29 25 3e
       0.048375975 0.15601206 -0.0024001726 0.16129023
000310 ff 86 1f 3e 7f e6 38 3d 9a fb 87 bd b0 ca 2a 3e
       0.1557884 0.045141693 -0.06639786 0.16678882
000320 6e 0c 72 bb 4b 9f ce 3d 54 e3 9a 3d c8 19 cd bd
       -0.0036933678 0.100889765 0.07562891 -0.10014683
000330 c5 2c 09 3e 14 66 b8 3c 75 65 0b 3e 74 2f fa 3c
       0.13395984 0.022509612 0.13612922 0.030540206
000340 95 ef 98 bd 69 fa 22 3e 4b c3 93 bd b3 9d 7f bb
       -0.07467572 0.15915836 -0.072149836 -0.0039003908
000350 92 31 05 3e c8 66 db bb 44 03 e2 3d 35 6b bb 3d
       0.13007191 -0.006695602 0.11035779 0.091513075
000360 88 ea 08 be e6 f3 0a 3d fa 83 08 be 7b be bd bc
       -0.13370717 0.033924006 -0.13331595 -0.023162117
000370 4f ac cc bd 31 b8 8b 3d bd 68 c9 bd 3f d9 0f be
       -0.09993803 0.06822241 -0.0983443 -0.14047717
000380 97 c3 83 3d 5f 1d 1a 3e e1 f6 b4 bd bb 7b c2 bd
       0.0643379 0.15050267 -0.08836151 -0.09496256
000390 c5 47 68 3e e5 e8 84 bd 8b 66 09 3e 62 64 81 bd
       0.22683628 -0.064897336 0.13418023 -0.063179746
0003a0 e3 8a ab 3c 7a 00 a3 bc bc 34 fc 3d 88 c9 ed bd
       0.02094025 -0.019897688 0.12314746 -0.11610705
0003b0 ac a8 d2 3d 06 24 19 bd 03 cb ff 3d 44 85 c7 3d
       0.10286078 -0.03738787 0.12489893 0.09742215
0003c0 3c 4c a0 ba fc bc 0a be e5 2b 85 3d d5 0e 0c be
       -0.0012229751 -0.13548654 0.06502513 -0.13677533
0003d0 3a 4c 19 be ce 1f 06 3e 4a 9b a2 be 24 9f 09 bb
       -0.14970484 0.1309807 -0.317591 -0.0020999396
0003e0 9d 0c 0e be 5c 65 44 bc 0c 68 dd bd 98 de 04 3e
       -0.13871999 -0.011987057 -0.10810861 0.12975538
0003f0 c0 0f 29 be 48 d0 9a 3d 81 79 72 3e 06 0d d1 be
       -0.16509914 0.07559258 0.23679163 -0.4083025

model.model.decoder.encoder.layers.0.linear1.bias f4 [128]
000000 4a 54 00 be 45 8d 0a 3e f5 d6 be bc 0e 18 94 3d
       -0.12532154 0.13530453 -0.023295859 0.072311506
000010 ec 49 a1 bd 43 15 e1 3d 02 84 e2 bc 36 7c 8a bd
       -0.078754276 0.109903835 -0.027650837 -0.067619726
000020 df a9 9a bc 95 0f 23 3e 38 9c 19 3e 8d 55 c2 bd
       -0.018879829 0.15923913 0.15000999 -0.09488974
000030 b7 77 f5 bd f1 ed 0c be 7a 71 03 3e 83 1c 6d 3d
       -0.119857244 -0.13762642 0.12836257 0.05788852
000040 f0 32 50 3d 12 ad 5e ba 03 17 ce bd d2 21 c1 bd
       0.050829828 -0.00084944174 -0.10062983 -0.09430279
000050 31 7e 16 be c8 88 07 be 8a 41 1f 3e 39 ad 85 bd
       -0.14696576 -0.13235772 0.15552345 -0.0652718
000060 66 79 58 bd 05 12 ba bc 42 06 5e 3d 49 a3 2a 3d
       -0.05285015 -0.02271367 0.054205187 0.041659627
000070 21 82 47 3e 11 2f 3e 3e b2 34 66 bc 86 71 31 3c
       0.19483234 0.18572642 -0.0140506495 0.010830289
000080 7a ee db bc 62 67 20 3e da ae e6 bd 17 b4 dc bd
       -0.026847113 0.15664437 -0.11263819 -0.10776537
000090 70 87 71 3b cd 23 5e 3d fd d9 00 3e 2e ad f9 bd
       0.0036854409 0.05423336 0.12583156 -0.121912345
0000a0 d6 81 9f 3d a6 49 34 be fc 86 04 3e fb 48 12 3d
       0.07788436 -0.1760622 0.12942117 0.03571413
0000b0 1e 83 4e 3e 86 6d 77 bd 91 08 d6 3d a6 96 0c 3e
       0.20167205 -0.060407184 0.10450853 0.13729343
0000c0 55 ba 7b 3c 31 a2 7f bd d7 a8 bf bd 52 92 68 3d
       0.015364249 -0.062410537 -0.093583755 0.056780167
0000d0 3c e4 4b 3d bb ee 0c be af 8d 65 3a b5 b2 bc 3d
       0.049778208 -0.13762943 0.0008756769 0.09213773
0000e0 7d 24 35 3d c5 1b 24 be 92 25 c6 bd 88 67 8b bd
       0.04422425 -0.16026218 -0.09675135 -0.068068564
0000f0 13 9b 8e 3d 90 a2 a2 b9 1c 2d 71 3d 90 37 28 bd
       0.06963172 -0.00031020166 0.05888091 -0.041068614
000100 91 ac d2 bd d1 35 22 bd 3b 52 c7 3d 2e 76 fe bd
       -0.10286821 -0.039602105 0.09732481 -0.12424885
000110 01 89 c5 3d f0 cd 6c bc 37 e3 c1 3d a6 55 1f 3e
       0.09645272 -0.014453396 0.09467166 0.15560016
000120 ec ac 19 3e 71 45 e5 3d 9b a4 eb 3c 7b 59 02 bd
       0.1500737 0.111948855 0.028765013 -0.031823616
000130 6a 53 f0 bd 9a 4a b3 3d e7 28 48 bd 2a db 01 be
       -0.1173466 0.087544635 -0.048867133 -0.1268126
000140 a8 c9 2d 3d 5e 99 2e bb 93 43 29 3b eb 32 cd 3d
       0.042428643 -0.0026641707 0.002582763 0.100194775
000150 0c 17 a6 bd 5f 71 8a bd 39 18 dd 3c 24 df 8e bd
       -0.081098646 -0.06759905 0.02698909 -0.069761544
000160 8a 2b 1d be 6f 5d 2e bc f8 57 ca 3c 7c a0 fc 3d
       -0.1534864 -0.0106423935 0.02470015 0.123352975
000170 4b e6 b2 bd b0 ed 13 3e 4c be ff 3d 3a fe 6a bc
       -0.08735331 0.1444614 0.12487468 -0.014342839
000180 9f f5 75 bd 99 22 62 bd b4 c5 4b 3c 02 19 98 3d
       -0.060048696 -0.055208776 0.012437273 0.07426645
000190 c3 b4 10 be 87 93 3b bd e8 19 9b 3d 1c ac 07 3e
       -0.14131455 -0.04579499 0.075733006 0.13249248
0001a0 57 b3 2b 3d 3f df 48 3e 4e 59 1e 3e 4b a2 32 3e
       0.04191908 0.19616412 0.15463755 0.17444722
0001b0 3a 94 51 bc 31 ab e3 3c c8 d3 ca bd b8 45 92 bd
       -0.012791688 0.027791591 -0.09903675 -0.07142204
0001c0 f0 1b f2 3d 2e ec 3b bd 0c 0c 32 3e 7b 93 18 bd
       0.11821735 -0.045879535 0.17387408 -0.037250023
0001d0 71 e6 d1 3d ad 28 2b 3e f4 87 13 be d0 94 8c bd
       0.10249031 0.16714735 -0.14407331 -0.06864321
0001e0 ed 1c ac bd 0c b6 eb 3b b4 ce 37 3d bb cd 33 3c
       -0.08403955 0.0071933325 0.04487486 0.010974343
0001f0 14 86 b7 bc 7a 41 d9 bd 83 7f ae bb d9 b7 ca bd
       -0.0224028 -0.10608192 -0.005325259 -0.098983474

model.model.decoder.encoder.layers.0.linear2.weight f4 [32, 128]
000000 bb f6 2a bd 58 92 ec 3c 22 28 af bc ae e4 21 bd
       -0.041739207 0.028878376 -0.021381442 -0.039524727
000010 d9 2e 4f 3d b3 12 21 bd e7 c6 5d bb 26 d2 71 3e
       0.050581787 -0.039324474 -0.003384048 0.23615322
000020 78 13 35 bd 82 69 4c bc 69 d1 9a bd 98 89 dd 39
       -0.04420802 -0.012476327 -0.07559473 0.0004225492
000030 e4 5a 8a bd fd a7 04 3d c1 c2 a5 3d 50 fe 92 3b
       -0.06755617 0.03238677 0.08093787 0.004485883
000040 10 fe 0a 3d e3 e0 87 bd 00 b4 8c 3d 7a 23 de 3c
       0.0339337 -0.066346906 0.0687027 0.027116526
000050 df f8 72 bd 49 68 3e bd a3 51 a6 bd 59 6a cb 3d
       -0.059319373 -0.046486173 -0.0812104 0.099323936
000060 a6 ee e3 3c 68 d7 9d 3c a9 77 e6 3d 9c 87 87 3d
       0.027823757 0.019267753 0.11253292 0.06617662
000070 ce 52 8d 3d 55 a6 f2 3c 46 da 93 3d 88 84 02 3d
       0.06900559 0.029620329 0.07219367 0.031864673
000080 2b 5d ac 3d c6 4b 7c bd 48 50 21 3d 9e cd 8e 3d
       0.08416208 -0.0615957 0.039383203 0.06972812
000090 fa 7c d9 3d dc ac 48 3d 5a eb d7 3d c1 a1 a0 bd
       0.106195405 0.048992977 0.105429366 -0.07843352
0000a0 2d 40 9c 3d 7b a7 d6 bd 45 44 de 3b 6a ae db 3c
       0.07629428 -0.10481163 0.0067830407 0.026816566
0000b0 d9 ca 80 3c 4e e9 2c 3d d8 27 18 bd f0 27 6e bd
       0.015721725 0.042214684 -0.037147373 -0.058143556
0000c0 e0 94 a8 3d 41 09 c0 bc 2d ad c5 3b 31 44 49 bd
       0.08231521 -0.023441913 0.006032607 -0.049137298
0000d0 99 08 33 3e e9 5a 9c bd c7 11 4c bd 0d 38 ae 3c
       0.17483748 -0.07634527 -0.04982164 0.021266961
0000e0 64 d7 b2 bd 3e 4b f7 3c ae 7c 4d 3d fa 95 06 3d
       -0.08732489 0.030187245 0.050167732 0.032857873
0000f0 5d 72 e1 3d c0 0e 35 bd d5 a8 00 bd f7 e9 4e bd
       0.11008141 -0.04420352 -0.03141101 -0.050516095
000100 b1 74 66 bc fa da 46 bc a1 da f0 bc f7 79 35 3d
       -0.014065907 -0.012137169 -0.029401125 0.044305768
000110 da a4 f5 3c 89 70 05 bd 75 55 97 3c 66 7b 03 bd
       0.029985834 -0.032578025 0.018473366 -0.032100104
000120 fc 9a ab 3a f3 da a2 3c 36 4e 43 bd c1 ce 93 bd
       0.0013092454 0.019879794 -0.04768201 -0.072171696
000130 60 de 3d 3d 2f 5b d7 bc d2 20 13 3d f6 74 06 3e
       0.04635465 -0.026288597 0.03591997 0.13130555
000140 93 cd 48 3e 09 15 98 3b 72 bd 9a bd 22 c9 f7 3b
       0.1960967 0.0046411795 -0.07555665 0.0075618187
000150 45 2a 9a bd f7 ce 88 bd 85 b3 fb 3b 89 37 ba ba
       -0.075275935 -0.066801004 0.0076813125 -0.0014207225
000160 cf 44 d0 bc 06 b4 ae 3d 19 d0 e7 3c d6 82 06 be
       -0.025423435 0.085304305 0.02829747 -0.13135847
000170 8f 79 29 3e 22 5c 34 bd a8 03 2d 3d a6 02 cd bc
       0.16550277 -0.044033177 0.042239815 -0.025025677
000180 e7 0c f3 3d a6 8d 74 3d 14 f0 2c 3d 75 f0 91 bc
       0.11867695 0.0597054 0.042221144 -0.017814854
000190 e7 26 84 3d 81 83 84 bd 04 07 a9 3d fc 06 67 3d
       0.064527325 -0.06470395 0.08253291 0.056403145
0001a0 ca 27 41 bd 3e 2c 79 bd 43 23 2c bd cc 4b 57 bd
       -0.047157086 -0.06083321 -0.042025816 -0.05256252
0001b0 06 7c 33 bd 81 af 2c 3d 2c 8b af 3b 4e 30 8b 3d
       -0.04381945 0.04215956 0.0053571668 0.06796323
0001c0 35 d8 78 3d 1d 69 53 bc d0 70 10 bd ad be 54 3d
       0.060753066 -0.012903479 -0.035263836 0.051939655
0001d0 05 f7 a4 bb c5 52 e9 3b 1d fb ba 3d 12 67 b8 bb
       -0.00503433 0.0071204626 0.09129927 -0.0056275213
0001e0 e5 83 c2 bd 19 9f c8 3d fe 58 75 3e a2 fe 92 3b
       -0.09497813 0.097959705 0.23959729 0.004485921
0001f0 70 da af bd 89 d3 75 bd 14 b3 eb bb e3 78 c2 3d
       -0.085865855 -0.06001619 -0.0071929786 0.094957136
000200 6c c1 76 bc f6 c0 72 3d 31 b9 97 3a da b1 0f bd
       -0.015060764 0.059266053 0.0011575577 -0.03508172
000210 e5 dc 88 3d e9 c8 b7 3d e5 36 be bd 7c 00 16 be
       0.06682757 0.089738674 -0.09287814 -0.14648622
000220 ad 41 a3 bd c5 90 94 3b 58 bc 18 bd db 2a d9 bc
       -0.07971511 0.0045338594 -0.037288994 -0.026509693
000230 53 0e 1a bd 98 dc c8 bd 5f 33 62 bd 60 e6 6e bd
       -0.037611317 -0.098077 -0.055224773 -0.05832517
000240 13 a2 96 bd ae 11 b3 bd 58 d9 33 3c d4 e6 35 bd
       -0.07355132 -0.087436065 0.010977112 -0.044409588
000250 67 16 72 bd ae 3c 66 3d f4 4a 46 3d 1b 5e 04 be
       -0.059103396 0.056210212 0.048411325 -0.12926523
000260 5b 10 40 bd 38 08 09 bd f3 25 2b be 0e 00 6a bc
       -0.046890598 -0.033455104 -0.16713695 -0.01428224
000270 dd fe 2b bd 76 94 b1 3d b0 9c f4 3c 93 b5 ef 3c
       -0.041991103 0.08670895 0.02985987 0.029261386
000280 ab a9 55 be 94 60 a4 bd e3 e2 e2 bd 10 b3 9a bd
       -0.20865504 -0.08026233 -0.110784315 -0.07553685
000290 b3 95 a3 bd b2 b5 6f 3d f3 13 c3 bd e1 c1 d5 3b
       -0.07987537 0.058522888 -0.095252894 0.0065233563
0002a0 92 e3 47 bd b5 73 ef 3c 87 f2 2d 3c 40 2d b8 3d
       -0.048801012 0.029229978 0.010616905 0.08993006
0002b0 53 65 40 b9 03 fc 9a bd e8 87 c6 3d 3c 95 75 bc
       -0.00018348293 -0.07567599 0.09693891 -0.0149891935
0002c0 e9 59 63 3d e1 a0 6b bd 19 25 cb bc 6d e4 5a 3c
       0.055505667 -0.057526473 -0.024797963 0.013360125
0002d0 e8 e3 20 be be e7 29 3d 08 6a 5a bd a5 f3 3c 3d
       -0.1571194 0.041480772 -0.053323776 0.046130795
0002e0 76 74 5f 3c 1f 38 a2 bc f3 9a 93 3d 05 f4 e4 bb
       0.013638606 -0.019802151 0.072072886 -0.006987097
0002f0 43 7a 3c bd f1 b4 49 bd 26 5e 97 bb 51 d3 cf bc
       -0.046015035 -0.049244825 -0.0046193777 -0.025369318
000300 b2 65 3b 3c c7 fe 15 3d 31 0a a8 3d b5 e6 da bc
       0.01143782 0.036619928 0.08205069 -0.026721338
000310 a2 14 a2 3d e3 66 be 3d cd 2e db 3c d9 fa 24 3c
       0.07914092 0.09296968 0.026755715 0.010069572
000320 47 48 f4 bc 7d a5 25 3d d0 c4 3a 3d 09 d2 4a 3d
       -0.02981962 0.040441025 0.04559785 0.04951671
000330 0f 81 c6 3c 1c a3 8e 3d cb 20 ce 3c ff 0f 77 3a
       0.024231462 0.069647044 0.025162121 0.0009424686
000340 9c 21 9d bd 1c 45 b4 bd 91 48 52 3d 06 b7 76 3d
       -0.07672426 -0.08802244 0.051338736 0.06023314
000350 6a b4 25 bd d4 b2 b7 3c 94 5b 3a 3d b4 7d ce bd
       -0.04045526 0.02242414 0.045497492 -0.1008257
000360 d9 e0 40 bd 90 cc b5 bc 89 f2 0b bd 2f 8b 0d 3d
       -0.04708943 -0.02219227 -0.034166846 0.034556564
000370 0d 16 58 be e4 cf 8e bd 7b 16 19 3c 0f fa 8e 3d
       -0.21102162 -0.06973246 0.009343739 0.06981289
000380 c7 8c fa 3c d4 61 6e bd 11 96 02 bd c8 0e 09 bd
       0.030584706 -0.058198765 -0.031881396 -0.033461362
000390 93 52 76 3d 63 e3 8f 3d 2a a2 55 3d 7a f2 e0 bd
       0.060137343 0.070257924 0.052156605 -0.10983749
0003a0 be 36 5b 3d 82 3c a3 3b 4b e6 78 3d 45 26 17 3d
       0.053519003 0.0049815783 0.0607665 0.03690173
0003b0 89 40 2b bd 2d 89 b3 bd 8c 89 12 3d c8 57 e0 3c
       -0.041809592 -0.087663986 0.035775706 0.027385607
0003c0 bd 83 be 3d fa 3d 01 3d ef 72 7c 3d ef f4 cf bd
       0.09302471 0.031553246 0.061633047 -0.10154139
0003d0 62 18 a0 bc 13 4d 1a b9 06 cb 8a 3c 8e c0 5a bd
       -0.019542877 -0.00014715297 0.016942512 -0.05340629
0003e0 34 4f 40 bc b9 5b 5c bd 88 a9 4b be 40 3b 1a 3d
       -0.0117376335 -0.05379841 -0.1988889 0.03765416
0003f0 e1 ef 13 3c 6b c6 93 3d be 68 59 3d 93 3e d4 3b
       0.00902936 0.072155796 0.053078406 0.006477186

model.model.decoder.encoder.layers.0.linear2.bias f4 [32]
000000 96 b0 85 bd 03 72 89 bd 1d 23 3e 3d ab 14 4d bd
       -0.06527822 -0.06711199 0.046420205 -0.05006854
000010 7c f4 a3 bd e9 33 6e 3d 25 f7 87 3d 52 0b 30 bd
       -0.08005616 0.058154974 0.06638936 -0.042979546
000020 0b 17 0c bd 11 ca ee 3b 4f 62 a5 3b bf 94 a8 bc
       -0.034201663 0.007287272 0.0050471197 -0.02057874
000030 ca 67 ad 3c 9e 0f 1a 3d 24 5a 7a bd b0 03 12 bd
       0.021167655 0.03761255 -0.06112112 -0.035648048
000040 f5 52 1a bd af 23 6e 3d d0 88 7e bc b0 43 c6 bd
       -0.03767677 0.0581395 -0.015535548 -0.09680879
000050 59 b7 6b 3c 87 a4 75 bd b3 f4 7d 3d 04 ee a5 bd
       0.014386975 -0.05997136 0.06200094 -0.081020385
000060 d9 13 58 3c 35 10 32 3d d9 9c 43 3d e1 19 16 3d
       0.013188326 0.043472487 0.047757003 0.036645774
000070 c0 35 7d 3d 27 05 17 bd 6f 68 44 3c 3c 9c b8 3d
       0.061818838 -0.036870148 0.0119877895 0.09014174

model.model.decoder.encoder.layers.0.norm1.weight f4 [32]
000000 82 fd 7b 3f 70 10 73 3f 4f ee 72 3f 31 71 77 3f
       0.984337 0.94946957 0.9489488 0.9665709
000010 29 f7 77 3f c0 3c 72 3f 63 35 7f 3f 49 df 76 3f
       0.9686151 0.9462395 0.99690837 0.96434456
000020 a9 72 77 3f ac 19 76 3f c7 13 78 3f f9 ee 72 3f
       0.9665933 0.9613292 0.9690518 0.94895893
000030 17 21 7b 3f 96 86 74 3f b4 fd 6f 3f db 79 75 3f
       0.98097366 0.9551786 0.93746495 0.9588906
000040 b9 41 75 3f d7 1a 67 3f 08 5d 75 3f 1e bb 77 3f
       0.9580341 0.9027533 0.9584508 0.96769893
000050 c2 39 6e 3f 5b de 70 3f 68 45 7c 3f a7 ed 78 3f
       0.9305688 0.9408929 0.98543406 0.9723763
000060 0c f6 79 3f c7 f4 7d 3f cf eb 6d 3f 09 98 76 3f
       0.9764106 0.99201626 0.9293794 0.9632574
000070 d0 50 77 3f 2d 1b 7c 3f 3a 72 7e 3f b8 60 7a 3f
       0.96607685 0.98478967 0.99393046 0.9780383

model.model.decoder.encoder.layers.0.norm1.bias f4 [32]
000000 d8 a2 a3 3c 6b 3d c1 ba e7 d2 6c bb 8e 00 40 bc
       0.01997511 -0.0014743035 -0.003613645 -0.011718882
000010 0b b6 99 bb 83 a3 59 3b 4c 16 2b bb 71 b6 65 3c
       -0.0046908907 0.0033209033 -0.002610582 0.014020548
000020 4e 4d e5 3b 30 76 29 ba 03 72 9a bc a5 9c 24 3c
       0.006997741 -0.00064644497 -0.018853193 0.010047113
000030 c8 4e 11 3b ad e3 53 3c ec bc 09 3b 06 89 30 3c
       0.0022172201 0.0129327 0.0021017147 0.010774856
000040 17 77 fe 3b de e0 da 3c d2 33 c8 3a 8c b8 d2 bb
       0.0077656615 0.026718553 0.0015274233 -0.006430691
000050 55 70 48 39 c9 1d 2d 3c ee 89 f0 bb 99 74 65 3b
       0.00019115333 0.010566183 -0.0073406613 0.0035012125
000060 7d aa af 3c 87 62 3e bc 0a 21 f2 ba a0 63 0c 3c
       0.0214436 -0.01162017 -0.0018472981 0.008568674
000070 68 de f8 3b 2b 1f a7 bc 3d 67 8a bc 8d 80 2b 3c
       0.0075948723 -0.020400604 -0.016894931 0.010467661

model.model.decoder.encoder.layers.0.norm2.weight f4 [32]
000000 0a 28 88 3f d0 06 7a 3f af 30 7b 3f 2d 9f 80 3f
       1.0637219 0.97666645 0.9812116 1.0048577
000010 f2 48 7c 3f f1 f1 75 3f 69 98 7a 3f 58 c6 7c 3f
       0.98548806 0.960723 0.9788881 0.9874015
000020 b5 fb 7d 3f 9d b0 7f 3f d2 5e 7b 3f 61 99 77 3f
       0.992122 0.99878865 0.9819156 0.9671841
000030 57 f1 79 3f 8a fa 85 3f 39 b2 80 3f 07 3e 80 3f
       0.9763388 1.0467083 1.0054389 1.0018929
000040 da ce 7f 3f 3b e6 79 3f 76 e3 7e 3f f9 74 7e 3f
       0.99925005 0.9761693 0.9956583 0.99397236
000050 6e aa 77 3f f6 25 79 3f a6 6e 7e 3f 26 cf 85 3f
       0.9674443 0.9732355 0.99387586 1.0453842
000060 6e 56 7f 3f 4a f2 83 3f e4 43 7c 3f 97 c5 7b 3f
       0.99741256 1.0308316 0.9854109 0.98348373
000070 cf 78 7d 3f 87 02 75 3f a1 7a 7f 3f 84 33 82 3f
       0.99012464 0.9570698 0.9979649 1.0171971

model.model.decoder.encoder.layers.0.norm2.bias f4 [32]
000000 fc 78 9f 3b b7 02 7d bb 71 0b 76 bc ba 82 6e bb
       0.0048667174 -0.0038606355 -0.015017376 -0.0036393837
000010 26 65 5c bb 5c 52 20 3b ce 94 80 bb 88 c4 4f 3b
       -0.0033629625 0.0024463153 -0.003923989 0.0031702835
000020 c6 bf 79 bb 51 48 69 3b e2 d8 84 bb 80 aa 5b bb
       -0.003810869 0.0035596082 -0.0040541748 -0.0033518374
000030 78 47 1b 3a 4b 2a 7b bb fb 1d 75 bb aa ef 66 3b
       0.00059234304 -0.003832477 -0.0037401903 0.0035238066
000040 9d 1b 78 3b d6 4e 5d bb 9f 45 58 3b 29 2e 6a bb
       0.0037858256 -0.0033768914 0.0033000482 -0.003573308
000050 3a 88 d6 3b 7c 47 5b 3b de 2f 84 bb 9b 3d de 3a
       0.006547001 0.0033459356 -0.0040340265 0.0016955616
000060 7e f6 9d 3a fa bf 66 bb 6a 58 6c bb d8 04 67 3b
       0.001205161 -0.0035209642 -0.003606344 0.003525069
000070 2c b1 6c 3b a2 ba 5d 3b 94 21 64 bb 3f 05 89 3b
       0.0036116345 0.0033833166 -0.0034810053 0.0041815336

model.model.projection.weight f4 [2, 32]
000000 e0 54 ce bb 8e db b3 3d 66 f0 1e 3e 5d 33 55 3c
       -0.006296739 0.08782111 0.15521392 0.013012734
000010 13 48 06 be 1d fc 9a 3b ad 31 9b 3c f7 51 01 3e
       -0.13113432 0.0047297613 0.018944586 0.12628923
000020 8b f8 34 3e 7c 50 c0 3d 6d 88 df 3c a7 1d 83 bc
       0.17672937 0.09390351 0.027286733 -0.01600535
000030 21 ac 29 3e aa 4c 81 3d cd a5 13 be f5 a8 2b be
       0.16569568 0.06313451 -0.14418717 -0.1676367
000040 76 37 ec 3d b0 e6 b8 3d 34 98 ca 3c fd 89 09 3e
       0.11534016 0.09028375 0.02473078 0.13431545
000050 bb 2f 1f 3e c2 3d 2d be ee 16 97 3d 82 16 d0 bd
       0.15545551 -0.1691809 0.0737742 -0.10160543
000060 b9 d1 b7 bd 54 29 e4 3d b7 62 e2 bd 2f 6b bf bd
       -0.08975548 0.11140695 -0.110539846 -0.093466155
000070 85 b9 e9 bd a7 05 19 3e 8a 9e 71 bd 93 e6 f6 bd
       -0.11412338 0.14943562 -0.058989085 -0.12055697
000080 f9 ed 8d 3b e1 46 01 3e 9e fb 1f be 4b c9 8d 3d
       0.004331347 0.12624694 -0.15623328 0.06923159
000090 83 53 16 3e c9 3e 16 3d e5 e7 08 3e 9e e8 eb 3d
       0.14680295 0.03668097 0.1336971 0.115189776
0000a0 08 73 12 3e cf 7f 63 3d e9 b6 e9 bd 70 0d f8 3d
       0.14301693 0.05554181 -0.114118405 0.12111938
0000b0 22 37 95 bd 40 aa 3b bb 07 5b 59 3d 80 f1 dd 3d
       -0.072859064 -0.0028635412 0.053065326 0.10837078
0000c0 35 d7 34 bd ce 28 7e bd 39 96 34 3e 86 9f 05 3e
       -0.04415055 -0.062050633 0.1763543 0.13049135
0000d0 81 c0 33 be 65 c0 79 3d ee 16 58 bd 67 c5 34 3e
       -0.17553903 0.060974497 -0.052756242 0.17653428
0000e0 40 d0 8e ba 85 e8 d6 bd 6a 85 8a bd 80 93 18 be
       -0.0010895804 -0.10493568 -0.06763728 -0.14900017
0000f0 4c 7a 33 bd e7 8d 10 be 6e ba 31 3b 0e 5f 31 3e
       -0.043817803 -0.14116631 0.0027119177 0.17321417

model.model.projection.bias f4 [2]
000000 08 9f f0 3c 5b 45 21 3e
       0.029372707 0.15749113
