lightning_logs/version_37/checkpoints/epoch=33-step=136.ckpt (torch, 196493 bytes, 50 tensors)

model.model.pos f4 [50, 32]
000000 ca a0 47 be 64 f9 53 3e 69 8c ee bd 51 95 7d 3e
       -0.1949493 0.20700604 -0.11647875 0.24763991
000010 1e 07 99 bd c6 08 16 3e ea 57 33 bc 1b 3f 03 be
       -0.074720606 0.14651784 -0.010946253 -0.12817042
000020 dc 01 04 be f1 c6 9f 3d 2d 2f 68 be f4 09 a8 bd
       -0.12891334 0.07801617 -0.22674246 -0.082050234
000030 83 64 9f 3d 2d 6a a1 3d 84 e1 43 3e 2a 10 82 be
       0.07782843 0.078815795 0.19128996 -0.25402957
000040 31 a6 9f 3c 8f 1f 39 be 85 b3 a4 3d ae d6 b5 bd
       0.019488426 -0.18078445 0.08042053 -0.088788375
000050 97 d3 84 bd 4b 41 bc 3d f3 69 cf bc 7d 95 21 3d
       -0.0648567 0.09192141 -0.025319075 0.039449204
000060 e4 ba a2 bd 58 28 72 be 49 06 83 be 3f 05 70 be
       -0.07945803 -0.23648202 -0.25590733 -0.23439501
000070 93 7e f6 3d ee b8 e8 bd 7f 88 90 bd 37 2c 0d be
       0.12035861 -0.113633975 -0.070572846 -0.13786398
000080 19 26 87 be 6b 55 75 3e ef 92 f2 3c 18 de 80 3e
       -0.26396254 0.23958366 0.029611079 0.25169444
000090 3f a6 95 3b 6f b2 b9 bc c0 b8 6e be c4 8a 56 3e
       0.004566937 -0.022668092 -0.23312664 0.20951372
0000a0 a3 dd 51 be 8a 62 23 bd c8 35 5c be fd 0f 3d be
       -0.20494704 -0.039888896 -0.21504891 -0.1846313
0000b0 0b 5e 2e 3e 59 83 f8 3d 31 e5 b4 bd 53 9f 23 3e
       0.17028062 0.121344276 -0.08832777 0.15978746
0000c0 91 ae 9b bc f6 4c 0a 3d 08 00 67 3e 4f f2 7c be
       -0.019004138 0.033764802 0.22558606 -0.24701808
0000d0 b6 36 cf bd 82 b4 06 3e 72 9d 4f 3e 5a 61 07 3e
       -0.10117857 0.13154796 0.20274904 0.1322073
0000e0 76 12 10 3d 61 a3 eb 3d 5f 6d bd bc 34 85 13 3e
       0.035173856 0.115057714 -0.023123441 0.14406282
0000f0 cc 9c 46 3e 4a d9 3b 3e be 4e 62 3e 0f 9b 7d be
       0.19395751 0.18344608 0.2210035 -0.24766181
000100 84 9c 04 3d 20 f5 2d 3e 98 d9 5b 3e 55 c2 42 be
       0.032375827 0.16988039 0.21469724 -0.19019444
000110 52 1c 56 3d d8 eb b8 bd 68 7a 7e be 23 c6 2c be
       0.052273102 -0.090293586 -0.24851382 -0.16872458
000120 1c c6 85 3e a7 bb 74 3d d5 10 d3 3d a7 3f 62 be
       0.26127708 0.05974927 0.10305945 -0.22094594
000130 eb 5d 19 be d3 23 4f be a5 e0 07 3e 60 da 6a 3e
       -0.14977233 -0.2022851 0.13269289 0.22934866
000140 94 b4 0c 3e 5e 99 65 bd a4 95 d8 3c 92 44 91 3c
       0.1374076 -0.056054465 0.026438542 0.017732892
000150 03 05 48 3c 56 ff 78 3e 32 a4 22 3d 4a ca 7c bd
       0.012208226 0.24316153 0.03970737 -0.061716355
000160 4d 0d 05 3d e1 03 4f 3e 78 27 00 be 05 23 39 3e
       0.032483388 0.20216323 -0.12515056 0.18079765
000170 71 32 43 be 69 c1 7b be 04 51 db 3c 0a c3 03 be
       -0.1906221 -0.24585499 0.02677203 -0.1286737
000180 59 96 df 3d c6 9e 13 3e b3 4c 82 bd 0d d3 db 3d
       0.109173484 0.14416036 -0.063622855 0.10733614
000190 c2 1f e7 bd fc 16 90 3d 37 bd 0b 3e 6d ac 50 3e
       -0.11285354 0.07035634 0.13646398 0.20378275
0001a0 16 51 97 bd 0f 01 51 bc 5d 7c 68 bd 1f 9b 03 be
       -0.07388513 -0.0127566 -0.056759227 -0.12852143
0001b0 3f 49 10 3e fa 61 7c 3e e7 48 46 3e 5b eb 67 be
       0.14090441 0.2464675 0.19363748 -0.22648375
0001c0 16 0f 86 bc 20 42 8b 3b 18 cc a2 3d 29 06 29 be
       -0.016364615 0.004249826 0.07949084 -0.16506256
0001d0 24 03 b3 bd 70 fb 27 3e 3a 31 fc bc 2b 69 2a 3d
       -0.087408334 0.1640451 -0.030785192 0.041604202
0001e0 8d 1b 2c be ad 2f 29 3d af 4d fb bd 88 a6 f9 bd
       -0.16807385 0.041305233 -0.12270676 -0.121899664
0001f0 ff 30 37 3c 31 0d a8 bd cc a1 4a 3e 05 03 76 3d
       0.011181115 -0.08205641 0.19788283 0.060061473
000200 82 af f6 3d 81 1f 8c bd 52 58 f1 bd a4 10 87 be
       0.12045194 -0.068419464 -0.11784424 -0.26379883
000210 0d 8f 48 3d 98 ff c2 bb 01 5e 78 be b8 83 68 3e
       0.04896455 -0.0059508793 -0.2425461 0.22706497
000220 fe 65 06 3d 7a 11 af bd b4 07 5f be de 9b ac 3b
       0.03281211 -0.08548255 -0.21780282 0.0052676043
000230 1a 9b d7 bd 91 1f c8 3c e0 09 c6 bd ef 4d a9 bd
       -0.1052763 0.024429115 -0.09669852 -0.08266818
000240 ee c7 71 bd 96 05 53 3e fa 4d 2d 3e 4e 0c 28 3e
       -0.05902856 0.206076 0.16924277 0.16410944
000250 ba e9 c4 bd 2a 17 9a 3d d3 b2 28 3e a2 26 40 3e
       -0.09614892 0.075239494 0.16474466 0.18764737
000260 a0 4c f7 3c 46 e6 86 be e2 e3 91 bd 79 87 67 3d
       0.030187905 -0.2634756 -0.07123543 0.05652568
000270 72 b3 04 3e 02 d1 0d 3e d2 94 1f be f6 ad 8f 3d
       0.12959078 0.13849261 -0.15584114 0.07015602
000280 ea d0 5f 3e 0e 8a 7f 3d 29 b3 70 be 74 03 44 3e
       0.21857038 0.06238752 -0.23505844 0.19141942
000290 12 b8 54 be 47 ad b5 3d 7b 65 fe 3d a9 5b cb 3d
       -0.20773342 0.08870941 0.124216996 0.09929592
0002a0 99 37 6c be b4 09 8a bc da 2d 86 3e c5 f0 53 3e
       -0.23068084 -0.01685033 0.26206857 0.20697315
0002b0 22 8d d9 3c aa b4 4d be 00 d5 2e be 38 b5 11 3d
       0.026556555 -0.20088449 -0.1707344 0.035573214
0002c0 4e df 78 3e e2 ff 46 3e b6 c1 41 be 38 00 9c bd
       0.24303934 0.19433549 -0.18921551 -0.07617229
0002d0 51 2c 69 3e bf aa 63 be 18 79 2d be c5 58 19 be
       0.22770812 -0.22233103 -0.16940725 -0.14975269
0002e0 06 05 42 bd 60 ff 82 3e 14 3b 88 be 2a db 4e be
       -0.047368072 0.2558546 -0.26607573 -0.20200792
0002f0 0c d9 dc bd 95 64 d5 bd 27 38 53 3d f9 8d 2f 3e
       -0.10783586 -0.10419575 0.051567223 0.17144002
000300 eb 63 97 3d 8a 4d 84 3d 2c c9 a8 3d 33 4f 59 be
       0.07392105 0.06460102 0.082414955 -0.21221618
000310 7f ff 4a 3e b7 cb fe 3d d6 e1 45 3e 83 9a 7b bd
       0.19824027 0.12441199 0.19324431 -0.06142665
000320 62 c5 3c bc 0d 75 06 be d2 91 42 3e f6 e6 32 be
       -0.011521669 -0.13130589 0.19000939 -0.17470917
000330 d4 52 5e 3e 78 ea dd 3d de 0a 94 bd de dd 65 be
       0.21711284 0.10835737 -0.07228635 -0.22447917
000340 5a 38 2e bd 2d e3 40 3e 47 53 80 bd 65 9c 69 3e
       -0.04253421 0.1883666 -0.06265884 0.22813566
000350 31 61 91 3d b1 a8 59 bd c7 82 76 be f3 38 01 3e
       0.07098616 -0.053139392 -0.24073325 0.1261938
000360 58 30 81 3e 74 e8 32 be 19 66 17 3d bc f9 87 bd
       0.25232196 -0.17471486 0.036962602 -0.0663943
000370 a5 dc 88 3d 59 7f e1 bc 4f b5 48 ba ce d6 d2 bd
       0.066827096 -0.027526544 -0.00076564116 -0.10294877
000380 41 68 1d be 2a 18 6b be 87 87 fd 3c 39 4f 08 3e
       -0.15371801 -0.22958437 0.030948414 0.13311471
000390 94 63 7e 3e be b2 6b 3e 24 3c d7 bd b2 96 7e 3d
       0.24842674 0.23017403 -0.10509518 0.062155433
0003a0 4c 8b 8f bd 71 7d 3b 3e 2c 5b 08 be ff 41 5f 3e
       -0.07008991 0.18309571 -0.1331603 0.2180252
0003b0 0d f8 05 be e5 ed 80 3d 44 73 eb 3d 55 45 ce bd
       -0.13082905 0.06295375 0.114965945 -0.10071818
0003c0 39 fd 06 3e aa 92 fb bd b7 cf d1 bd 2e b5 44 be
       0.13182534 -0.12283833 -0.102446966 -0.1920974
0003d0 5b 1c c9 bd 48 ce 3f bc 6e ab 25 be 6c 63 0e 3c
       -0.098198615 -0.011706896 -0.16178676 0.008690696
0003e0 3d f6 2f 3d d6 f3 09 3e 2b 0c 89 3c 41 81 e5 bd
       0.04295944 0.13471922 0.016729435 -0.11206294
0003f0 35 78 45 bd 64 50 83 3c 06 36 7c 3d 1f 74 4c 3e
       -0.04821034 0.016029544 0.06157496 0.19966172

model.model.embed.weight f4 [2, 32]
000000 00 00 00 00 00 00 00 00 00 00 00 00 00 00 00 00
       0.0 0.0 0.0 0.0
000010 00 00 00 00 00 00 00 00 00 00 00 00 00 00 00 00
       0.0 0.0 0.0 0.0
000020 00 00 00 00 00 00 00 00 00 00 00 00 00 00 00 00
       0.0 0.0 0.0 0.0
000030 00 00 00 00 00 00 00 00 00 00 00 00 00 00 00 00
       0.0 0.0 0.0 0.0
000040 00 00 00 00 00 00 00 00 00 00 00 00 00 00 00 00
       0.0 0.0 0.0 0.0
000050 00 00 00 00 00 00 00 00 00 00 00 00 00 00 00 00
       0.0 0.0 0.0 0.0
000060 00 00 00 00 00 00 00 00 00 00 00 00 00 00 00 00
       0.0 0.0 0.0 0.0
000070 00 00 00 00 00 00 00 00 00 00 00 00 00 00 00 00
       0.0 0.0 0.0 0.0
000080 1c 33 0d bf 1c 3f bf 3e 2b 7d 7a bf 51 28 c9 3f
       -0.5515611 0.37352836 -0.9784724 1.5715429
000090 8d 0d 8a bf b4 d0 a1 3f 8b da 0b 3f 95 69 a3 be
       -1.0785385 1.2641816 0.54630345 -0.3191649
0000a0 ad 09 cd 3f 5f 34 0a c0 ce 6b 24 c0 99 dc b0 bf
       1.6018578 -2.1594465 -2.5690799 -1.3817321
0000b0 9c 4f b2 bf 4c 07 80 3e ee a8 e9 3e 66 30 04 c0
       -1.3930545 0.25005567 0.45636696 -2.065454
0000c0 94 40 2d 3f 33 c5 7c bf a8 a8 90 bf 97 a0 3a bf
       0.67676663 -0.987384 -1.130147 -0.7290129
0000d0 8e 26 98 be cd 21 4e 3f 12 76 1c bf 35 cc db be
       -0.29716915 0.80520326 -0.6111766 -0.42929235
0000e0 22 72 74 bf 28 a3 d3 3f 38 97 1c bb c4 32 aa bf
       -0.9548665 1.6534166 -0.0023893844 -1.3296742
0000f0 73 7e a4 3e 52 fd bd 3c d9 50 e8 3d 58 a2 0c 3f
       0.32127723 0.023192082 0.113435455 0.54935217

model.model.decoder.encoder.layers.0.self_attn.in_proj_weight f4 [96, 32]
000000 43 21 87 bc ce 9a c4 3d 0d de 22 3d da 76 f1 3d
       -0.016495353 0.09599839 0.039762545 0.11790247
000010 a8 50 58 be a2 a5 06 3e d8 e1 5a be 29 27 50 be
       -0.21124518 0.13149121 -0.21375215 -0.20327438
000020 fe 57 3b bd 5e 90 71 3a e1 42 e1 bd d3 66 4d 3e
       -0.045738213 0.0009214933 -0.10999084 0.20058756
000030 30 93 41 3e 58 8b 37 3e 1f 68 4c be 8d d8 29 bc
       0.18903804 0.17924249 -0.19961594 -0.010366571
000040 4c f9 6d bd 8c 4c 1d be 0c c7 4c 3e f5 c8 1c 3e
       -0.058099076 -0.15361232 0.19997805 0.15311034
000050 12 25 63 bd 6d 41 15 bd 3b 57 58 be fa fb 30 be
       -0.055455275 -0.036439348 -0.21127026 -0.17283621
000060 b4 7a db 3d c9 73 5e 3e c1 2c c0 3d 18 7a 0e 3e
       0.10716763 0.21723856 0.09383536 0.13913763
000070 fd 2b 36 be 3f e0 09 be 66 64 18 3e 86 36 35 3e
       -0.17790218 -0.1346445 0.14882049 0.1769658
000080 d4 ec f8 3d 93 46 c6 3d 60 55 70 3d 4b f4 cc 3d
       0.121545464 0.0968143 0.05867517 0.10007533
000090 b5 45 81 3c 9e 73 05 3d 3f 8e 01 be 82 7c 48 be
       0.01578031 0.032580964 -0.12651919 -0.19578746
0000a0 26 87 12 3e 49 e7 11 be b8 c3 15 be a5 72 1c be
       0.14309368 -0.14248385 -0.14625442 -0.15278108
0000b0 15 c7 22 be 48 9d 80 bd e9 70 3f 3d 12 a7 09 be
       -0.15896256 -0.06279999 0.04673854 -0.13442639
0000c0 5b 76 ec 3d a8 ea f8 3c 85 22 10 3e e8 44 79 3d
       0.11546012 0.03038533 0.14075668 0.06085673
0000d0 0f af 46 3e 1e 77 0d 3e 85 8d 27 be 0c f7 08 be
       0.19402717 0.13814971 -0.16362579 -0.13375491
0000e0 c2 30 e7 bd 33 5f eb bc 72 52 58 bd d0 44 58 3e
       -0.11288597 -0.028731918 -0.052813 0.2112
0000f0 14 3f d6 3d 34 61 32 be be 1e f2 bd 9f 75 3b 3e
       0.1046125 -0.17419893 -0.1182227 0.18306588
000100 8e 95 32 be b9 fc 00 3d fe 7b 38 be 91 35 b7 3d
       -0.17439863 0.031491015 -0.1801605 0.08945764
000110 fc ed b9 bd 8d b4 34 be ac a8 d5 3b 80 79 29 3e
       -0.09078595 -0.17647 0.0065203514 0.16550255
000120 cd 1d d5 bb 73 78 89 3d b5 0a 69 3d bb 86 d0 bd
       -0.0065037967 0.06712427 0.056894977 -0.10181948
000130 19 60 09 be c1 1c 9b 3d e5 d6 80 bc de 78 09 be
       -0.13415565 0.07573844 -0.01572747 -0.13425013
000140 d4 bf 5b be b4 2d 9f 3c 13 18 29 3c 8d 8d 42 3d
       -0.21459895 0.019430973 0.010320681 0.047498275
000150 cd ae 25 be e1 8b 02 3e 6b 69 e4 bd 72 93 51 3e
       -0.16179962 0.12748672 -0.111529194 0.20466402
000160 a2 3d ed 3d 23 4d 31 3e 9b 91 9c bb 9c 2e 89 3b
       0.11584021 0.17314582 -0.0047780997 0.0041864645
000170 dd 34 48 be 02 d9 d2 3d a8 ee ef 3d 0c 4a 07 bd
       -0.19551416 0.10295297 0.11715442 -0.0330296
000180 30 29 a9 bd 18 2d d6 bd 51 5d 0e be ea 07 82 3d
       -0.08259809 -0.1045782 -0.13902785 0.06349166
000190 e8 19 99 bd cd fa 40 be 44 90 ed 3d 7e 78 f2 bc
       -0.07475644 -0.18845673 0.11599782 -0.02959847
0001a0 b5 39 14 3e db aa 50 3e 4f c8 47 3e 57 70 2b be
       0.14475138 0.20377676 0.19510005 -0.16742073
0001b0 e6 d2 1e be 60 cf b2 bd d3 1a 87 bd 37 23 84 3d
       -0.15510139 -0.0873096 -0.06596913 0.06452029
0001c0 a3 f6 f4 bd 7a 47 a6 3c 4d f7 21 bd 43 de 19 be
       -0.11961105 0.020297755 -0.039542485 -0.15026192
0001d0 7f 08 ba bd 70 b9 93 3d e1 b2 74 bd 11 7b 06 bc
       -0.09083652 0.07213104 -0.059740905 -0.008208052
0001e0 bf a5 20 be 6e 92 24 3e 67 7f 1a be f9 9c 0a 3e
       -0.15688227 0.16071483 -0.15087663 0.13536443
0001f0 c3 24 dc 3d c4 f4 4c 3e 60 b1 50 bd d7 f2 4d be
       0.10749199 0.20015246 -0.050950408 -0.20112167
000200 15 e7 5d 3e 8a 74 70 3d bc 08 2f 3e 60 36 2b 3e
       0.21670182 0.05870489 0.17093176 0.16719961
000210 24 c4 5a be 93 db 8b bd de 12 90 3c 1c 49 12 be
       -0.21363884 -0.0682899 0.017587122 -0.14285702
000220 6c 3e 87 3d d5 2b 0c 3e a0 19 b5 3d e2 0d 0b be
       0.06603703 0.13688596 0.08842778 -0.13579515
000230 f4 f9 27 3d 9e 64 d9 3d 1b 4b e7 bd 9b b9 a6 3d
       0.04100986 0.10614894 -0.11293622 0.0814087
000240 76 73 29 be 63 8a fb bd 52 2d 8a bd 6f 29 a4 bb
       -0.16547951 -0.122822545 -0.067469254 -0.005009822
000250 c8 8b 91 bd ff e9 bb bd d6 f0 10 3e 84 2c 1a bc
       -0.07106739 -0.091754906 0.14154372 -0.009410027
000260 44 57 d5 3d ac 16 c0 3d 14 89 7d 3d 2e e5 b3 3d
       0.10417035 0.09379324 0.061898306 0.08783947
000270 40 e8 ba 3d 0c de 3c 3d 5d ac 58 3e 76 66 b3 3d
       0.091263294 0.046110198 0.21159501 0.08759777
000280 e1 ab cd bc 40 0b 51 be dc ac 91 bd f0 72 3a 3e
       -0.025106372 -0.20414448 -0.071130484 0.18207908
000290 7f ef 82 3d 4a 99 2b 3e 93 6e 12 bc 6a 38 28 3d
       0.063933365 0.16757694 -0.008937496 0.041069426
0002a0 48 79 dd bd 04 d6 f9 3d 86 0e 6f 3d 8d 80 d8 3d
       -0.10814148 0.12199023 0.05836346 0.10571394
0002b0 7b 95 56 3e 17 fd 5a be fa 01 72 3c a7 24 4c 3e
       0.2095546 -0.21385609 0.014770979 0.19935857
0002c0 16 e5 f2 3d 01 04 56 3e c8 0f 42 be aa 80 fc bd
       0.11860101 0.20899965 -0.18951333 -0.12329228
0002d0 02 75 0d 3e 20 85 b3 ba 61 c8 5c 3e 1e 6c 3d be
       0.13814166 -0.001369629 0.21560813 -0.18498275
0002e0 2f 41 d8 3d 50 0e 4b be 45 e9 74 3d 49 c3 32 3c
       0.10559308 -0.19829679 0.059792776 0.010910817
0002f0 6d 8a 22 be 6c 0f 50 be b3 0e 02 be 69 29 40 3e
       -0.15873118 -0.20318383 -0.1270092 0.18765797
000300 62 5d 10 3e e6 62 fe 3d 6c b4 26 be 61 8e d3 3d
       0.14098123 0.12421207 -0.16279763 0.10329891
000310 19 d3 e5 bd d3 0f b3 3d 27 21 3b be b0 4f 05 be
       -0.11221904 0.087432526 -0.18274365 -0.1301868
000320 b1 7a 31 bc 3d ba 77 bd 76 df d6 bd 3c 7f 52 bd
       -0.010832475 -0.060480345 -0.104918405 -0.05139087
000330 f8 de 48 be 75 8c 51 be 40 21 5e bd 7b 17 e1 bd
       -0.19616306 -0.20463736 -0.05423093 -0.10990807
000340 c3 35 27 be ef 4c 3d 3d e0 46 03 be fc b3 23 3e
       -0.16329102 0.046215948 -0.12820005 0.15986627
000350 91 69 57 3d ab d3 1d 3d 78 86 35 3e 1d 57 6e 3d
       0.05259091 0.03853194 0.17727077 0.058188546
000360 48 a2 1a 3e 99 85 e0 bc c9 f9 56 3e e4 eb 32 3e
       0.15100968 -0.027407454 0.20993723 0.17472798
000370 f7 3b 36 be 76 a4 27 be 94 f7 88 bb bc 75 f3 3d
       -0.17796312 -0.1637133 -0.0041799042 0.118876904
000380 1f ee 04 3d ab 71 27 3e f8 21 4e 3e e3 8e c1 3d
       0.032453652 0.16351955 0.20130146 0.094510816
000390 62 9e 06 3e 52 02 0a be 59 0b 1d 3e 91 c6 20 be
       0.13146356 -0.13477448 0.1533636 -0.15700747
0003a0 57 0a c7 3d ce 78 98 bb 3b e0 d2 3c 69 ef 87 3d
       0.09718769 -0.004653073 0.025741687 0.06637461
0003b0 49 e0 a4 3a 67 a2 81 3d 36 4a 23 3e a2 51 3e be
       0.0012579049 0.06329804 0.15946278 -0.18585828
0003c0 8a 06 71 bb 6e 28 98 bc 9d 44 58 3e d9 81 18 bd
       -0.003677758 -0.018573966 0.21119924 -0.037233207
0003d0 e9 13 ba 3c d9 e4 d4 bd 8c e4 4c be 63 02 ad bc
       0.022714572 -0.10395212 -0.20009059 -0.021119302
0003e0 7a e2 9f 3d d4 15 01 bd e3 17 1b be 04 af e4 3d
       0.07806869 -0.031514958 -0.15145831 0.11166194
0003f0 41 8c f5 3c e8 88 1e be f3 96 10 be 44 fe bd 3d
       0.029974105 -0.15481913 -0.14120083 0.09277013

model.model.decoder.encoder.layers.0.self_attn.in_proj_bias f4 [96]
000000 5e 64 03 3b 1e 3b 02 3b a4 fc f6 ba 76 91 01 3b
       0.0020048837 0.0019871662 -0.0018843603 0.001977054
000010 c4 28 02 bb a1 38 02 bb 2d 4b 05 3b f9 dc 01 bb
       -0.0019860724 -0.001987018 0.0020338998 -0.0019815548
000020 66 83 00 3b d9 40 01 bb 95 0e 01 3b ec f8 00 bb
       0.001960957 -0.001972249 0.001969253 -0.001967962
000030 54 13 01 bb c0 32 00 3b 37 a1 92 ba a7 34 02 3b
       -0.0019695358 0.00195615 -0.0011186962 0.001986781
000040 0e c3 02 bb 32 c2 00 bb 73 de 00 3b 57 bf 00 bb
       -0.0019952687 -0.0019647 0.001966384 -0.0019645297
000050 d0 40 01 3b 25 19 01 bb 30 93 02 3b 73 36 03 bb
       0.001972247 -0.0019698825 0.0019924156 -0.0020021468
000060 52 f1 01 bb 5d 4d 02 bb bd 6b 04 bb 4d ef ea ba
       -0.0019827676 -0.0019882538 -0.0020205819 -0.00179241
000070 7c 38 01 bb 52 2f 01 3b db aa 02 bb 3a c2 00 bb
       -0.0019717505 0.0019712043 -0.0019938264 -0.0019647018
000080 d6 61 ba b7 ff 96 dd 38 61 dd 29 38 48 95 a4 b7
       -2.2218486e-05 0.000105662264 4.0498915e-05 -1.9619838e-05
000090 bd 82 62 b8 29 8f de b8 81 76 85 38 bc 52 04 b8
       -5.400436e-05 -0.000106124506 6.364007e-05 -3.1548305e-05
0000a0 23 b4 9a b8 e6 e1 29 b8 d1 c0 3e 37 e2 40 96 38
       -7.376845e-05 -4.0503124e-05 1.1369776e-05 7.164643e-05
0000b0 84 cc 16 38 be 51 1e b8 1f 8d d0 37 39 e6 cc 37
       3.5953257e-05 -3.7746264e-05 2.4861247e-05 2.44259e-05
0000c0 d1 1f bf b7 56 c7 33 37 ac 42 19 b5 ec 4a 53 38
       -2.278379e-05 1.0715643e-05 -5.709396e-07 5.0376097e-05
0000d0 fb ec 82 b5 fc 7e 8e 38 84 a4 bc 35 b5 e4 03 b9
       -9.754725e-07 6.79474e-05 1.4054972e-06 -0.00012578334
0000e0 13 0a 69 b8 25 04 85 b8 6b 14 66 b8 38 c8 76 b8
       -5.556091e-05 -6.342706e-05 -5.485529e-05 -5.883744e-05
0000f0 c0 1e 69 38 5c 26 90 b8 24 f8 08 b7 d5 4f 8b 37
       5.5580167e-05 -6.8736e-05 -8.164006e-06 1.6607266e-05
000100 af 64 a3 bb f9 28 71 3a 9c c8 d4 3b f2 ef 35 bb
       -0.0049863677 0.0009199526 0.006493641 -0.0027761427
000110 f8 a1 41 3a ab 3e 1c bb 74 f6 a9 ba 9d b1 b6 3b
       0.0007386501 -0.0023841064 -0.0012967126 0.0055753724
000120 b4 b8 a9 ba 91 e2 d8 ba 3a 55 64 3b 8b 58 83 3a
       -0.0012948723 -0.0016547014 0.0034840838 0.0010020895
000130 6a 85 a2 3a 3a 87 ca ba 42 98 74 ba e0 a6 a3 3a
       0.001239938 -0.0015451678 -0.00093305495 0.0012485646
000140 f0 7f 28 3b 4b 46 00 bc d6 10 1c 3b 99 c0 a3 39
       0.0025711022 -0.007829259 0.0023813746 0.0003123328
000150 57 09 d5 3a f8 26 28 3b 44 56 0a 3b 49 b6 bb b9
       0.0016253394 0.0025657993 0.0021108547 -0.00035803232
000160 6d e2 c6 3a 20 12 ce ba 38 37 f1 b9 8a 84 50 ba
       0.0015173681 -0.0015721954 -0.00046008243 -0.000795432
000170 5c dc 1c 3b 67 b1 3f 3b 90 31 29 3b d0 64 a1 b9
       0.0023935055 0.0029250027 0.0025816895 -0.00030783424

model.model.decoder.encoder.layers.0.self_attn.out_proj.weight f4 [32, 32]
000000 d3 49 af 3d bc 09 8a bd e6 0b 18 be 21 29 03 be
       0.08559003 -0.06740138 -0.14848289 -0.12808658
000010 ab 91 f2 bc 76 5c ee bd 22 26 27 be d7 c8 bf bb
       -0.029610476 -0.11638729 -0.1632314 -0.0058527994
000020 39 7a e8 3d 44 9b 0f bc 2a 42 e6 bd 99 08 16 3e
       0.11351437 -0.008765046 -0.112430885 0.14651717
000030 69 56 da bc 11 a3 bc 3d c5 ec 21 be 8c 0f 34 3e
       -0.026652532 0.0921079 -0.15812977 0.17584056
000040 d0 87 0f be 65 d0 6c 3d 32 bb 06 be c7 21 ca bd
       -0.14016652 0.057815928 -0.13157347 -0.09869724
000050 94 66 d8 3d e2 dc 4a bd 92 b2 41 bd 88 33 d2 3d
       0.1056644 -0.049527057 -0.04728944 0.10263735
000060 58 c2 22 3e e9 15 75 bc db 69 cf bd 00 9a f7 3d
       0.15894449 -0.014958837 -0.10127612 0.1208992
000070 2e cb ec bd b3 ee 9c 3d 88 df 92 3d 88 6e f9 3d
       -0.11562191 0.07662716 0.071715415 0.12179285
000080 02 96 2d 3d 5c 01 03 be 2c 66 11 be e5 f4 29 be
       0.042379387 -0.12793487 -0.14199132 -0.16597326
000090 c3 03 11 be 4c a5 8f 3d f2 00 ce 3d 85 ee 26 3e
       -0.14161591 0.0701395 0.10058774 0.16301925
0000a0 7a a9 dc 3d e6 11 01 be 95 c2 cf bd 48 af 19 bc
       0.107745126 -0.12604484 -0.101445355 -0.009380169
0000b0 76 27 19 3e 5e c6 0b be a9 5d a4 3d b7 e1 01 3e
       0.1495646 -0.1364989 0.08025677 0.1268376
0000c0 a4 d6 31 3d 8d fe 22 3d 4e 9c 71 bd 9a 66 21 be
       0.043417588 0.03979354 -0.058986954 -0.15761796
0000d0 b2 25 7e 3c f9 cd c1 bd 55 27 47 bd 0c 41 1f 3e
       0.015511917 -0.09463114 -0.048621494 0.15552157
0000e0 b1 0a c7 3c 16 d8 ca 3d 4d 80 b1 bd d3 72 bb bc
       0.02429709 0.09904496 -0.086670496 -0.0228819
0000f0 b7 6b c5 3c c9 1e 32 3d 0e 99 27 be 96 66 6c bd
       0.024099214 0.04348639 -0.1636698 -0.05771502
000100 36 f2 2d 3d 54 4d 63 bb 0e 96 0c bd 19 12 9e bd
       0.04246732 -0.0034683542 -0.03432279 -0.077182956
000110 dd ff 9a bc 05 f7 0c be b1 76 a2 3d 34 aa c6 3d
       -0.018920833 -0.13766105 0.07932795 0.097004324
000120 28 7d 60 b9 48 12 28 bd d0 9b 07 bd e8 00 1e 3e
       -0.00021408929 -0.04103306 -0.03310758 0.15430033
000130 fa a7 3f 3d d1 a4 89 bd 12 2c bf 3d c8 78 39 be
       0.046791054 -0.06720889 0.093345776 -0.1811248
000140 fd 0e 82 bd e9 a5 09 be fc bb b3 bd e8 fd 2c be
       -0.06350515 -0.13442196 -0.087760895 -0.16893733
000150 63 da 27 3e 58 ee 20 3a 66 20 78 3c 58 cd 2e 3d
       0.16391902 0.00061390316 0.015144443 0.0426763
000160 2e 2d 17 be c1 01 07 bc cd 44 80 3d d3 91 06 be
       -0.14763328 -0.008240164 0.06263123 -0.13141565
000170 24 ea fa 3d 07 9e 8c bd 99 de 21 3e a5 44 e0 bd
       0.1225169 -0.06866079 0.1580757 -0.10950593
000180 a1 48 04 bd 38 24 cf 3d 5c af 14 be aa ea 0b be
       -0.032295827 0.1011433 -0.1452002 -0.13663736
000190 25 eb fa bd 83 a8 38 3e 9f 3b 15 3e d1 eb 82 3d
       -0.122518815 0.18033032 0.14573525 0.06392635
0001a0 b8 3f 0a be de fa 61 3c 43 3c 04 be ad ad 37 bc
       -0.1350087 0.013792722 -0.12913613 -0.011210841
0001b0 db 47 c4 bc e3 78 63 bd d6 4c 18 3d 3e 65 d2 3c
       -0.023960045 -0.05553521 0.03718265 0.025683042
0001c0 d2 b6 8b 3d d4 91 6d 3c e6 77 9a bd c4 4a 25 be
       0.068219796 0.0145001 -0.075424 -0.16141802
0001d0 10 2e 53 3b 3a d2 f7 bd 6a d1 2c bd cb 96 2e 3b
       0.00322235 -0.121006444 -0.0421919 0.0026640173
0001e0 da 0f cb bd d9 41 c7 3d 49 ed 06 3e 1b e4 16 3e
       -0.09915133 0.09729356 0.13176455 0.14735453
0001f0 80 bf f1 3d 45 4d 0f 3e 03 be b5 3d 4c e7 b4 3d
       0.11804104 0.1399432 0.088741325 0.08833179
000200 6a 6e dc 3c 88 9d e4 3d a3 a7 d5 3c 6f cc 17 3e
       0.026908118 0.11162859 0.026080912 0.14824079
000210 c1 5a ae bc 69 10 0e bd a6 d7 03 bd d9 16 41 3d
       -0.02128351 -0.03468362 -0.03218808 0.04714093
000220 b2 d8 81 3d 06 07 f8 3d 71 94 23 3e 19 4b 9c 3d
       0.063401595 0.121107146 0.15974595 0.07631511
000230 21 cc 91 bc 60 9a 0c 3e 8a 0d c9 bd 20 2f 33 3d
       -0.017797532 0.13730764 -0.098170355 0.043746114
000240 f6 08 10 3e 79 ac 1d be 59 71 0e be cf be ef 3c
       0.14065918 -0.15397824 -0.13910426 0.02926579
000250 e0 a6 d4 3c a0 81 ac 3d 9b c1 08 3d c5 3b 55 bd
       0.025958478 0.084231615 0.03338776 -0.052058954
000260 45 15 cd 3c cd 54 12 3e 9e 79 1e bd 5c 5a 4a bb
       0.025034556 0.14290161 -0.038690202 -0.0030876612
000270 bf ea 68 3c f7 a1 0b 3e 1d c7 b9 3d d4 de 1b be
       0.014216124 0.13636003 0.09071181 -0.15221721
000280 d7 8f 08 3e f0 83 27 3e 90 6c d5 bd bc c8 f0 3d
       0.1333612 0.16358924 -0.10421097 0.11757037
000290 3d 1a 16 3e 23 b2 d4 bb 55 0f 28 3e 2b 6c 1f be
       0.14658447 -0.006490962 0.16412099 -0.15568607
0002a0 95 30 ed 3d fa 2f e5 bd 14 7c 12 be 6a f9 07 be
       0.11581532 -0.111907914 -0.14305145 -0.13278738
0002b0 3e 13 55 bd ac 91 f6 3d 85 77 c0 bd 2b 70 d0 bc
       -0.052020304 0.120395035 -0.093977965 -0.02544411
0002c0 81 2a d0 bd ea 02 3a bc 03 c0 11 be cd b0 ec bd
       -0.10164357 -0.011353234 -0.14233403 -0.115571596
0002d0 cf 1a 93 3c b4 98 84 bc 87 5c fa ba a4 4d f8 3c
       0.01795712 -0.016186096 -0.0019101062 0.03031046
0002e0 ab cd 4e 3c ce 45 57 bd f7 a9 e2 3d 7b e0 e5 3d
       0.012622277 -0.052556805 0.110675745 0.11224457
0002f0 4b 72 b0 3c e3 2f af 3d 19 e6 1f be f8 c7 24 be
       0.021538874 0.085540555 -0.15615119 -0.16091907
000300 eb 1f b2 bd d3 d7 16 3d b0 29 f1 3c 33 ac 69 bd
       -0.08697494 0.03682692 0.029438823 -0.057048988
000310 f4 f0 20 be 2d 33 f1 3d 29 5b 2f 3e 62 75 35 3d
       -0.15716916 0.11777339 0.17124619 0.044301398
000320 8d b3 92 bd 56 0a ec bd 65 b6 e3 3d 85 34 db 3d
       -0.07163153 -0.11525409 0.11118773 0.10703377
000330 6d a1 08 3e c9 e7 98 3d 1f 5e 68 bc f9 be bf 3d
       0.13342829 0.074660845 -0.0141825965 0.09362597
000340 c1 91 b7 3d d9 95 de bd b5 c5 33 bd 26 34 13 be
       0.08963347 -0.10868425 -0.04388972 -0.14375362
000350 6c 19 a7 bd 9c 6b bb 3d 98 19 ec bd 22 65 0a be
       -0.08159146 0.09151384 -0.11528319 -0.13515142
000360 4a 25 d7 3b 1b 92 25 3e c9 6a 23 3e 1a 23 0c 3e
       0.0065657245 0.16169016 0.15958704 0.13685265
000370 f2 8a 8c bd 97 c8 9f 3d 81 56 0f 3d 59 db 06 3e
       -0.06862439 0.07801931 0.034994606 0.13169612
000380 46 25 07 be 9d ec 5f 3d ff 2b be bd 00 fc a1 bd
       -0.13197812 0.05466901 -0.09285735 -0.07909393
000390 e2 c5 45 bc 54 60 e0 3d fd 6b d7 3d d3 75 95 bd
       -0.012071105 0.10955873 0.10518644 -0.07297864
0003a0 ef 1e 8a bc 87 5e 08 3d cf c6 a0 bc 37 45 e8 3b
       -0.016860453 0.033293273 -0.01962605 0.007088329
0003b0 33 91 e7 3d 9b 69 fb bd 9d ec e7 3d b0 82 d4 bd
       0.113069914 -0.12276002 0.11324427 -0.10376489
0003c0 6c bc 13 be 08 f9 22 be 55 21 1e bc 54 02 b4 bd
       -0.14427346 -0.1591531 -0.009651502 -0.087895066
0003d0 54 b0 33 be ec bc d3 bd 1c d1 46 bd 7f aa e9 3d
       -0.17547733 -0.10338768 -0.048539266 0.11409473
0003e0 f2 49 70 bd 68 06 d8 bc ee 26 0c be df 6b b9 3d
       -0.05866427 -0.026370242 -0.13686725 0.09053778
0003f0 53 b7 e4 3d 29 7f 15 be bc b6 8f bd a1 6a 01 3e
       0.11167779 -0.14599289 -0.07017276 0.12638332

model.model.decoder.encoder.layers.0.self_attn.out_proj.bias f4 [32]
000000 bc fb 3e bb 2a a4 c4 ba 8f c5 e8 3a 0b 43 3f 3c
       -0.0029141745 -0.0015002538 0.0017759072 0.011673699
000010 de d4 1b 3b 8b 4f 11 bb a2 eb 88 ba 4f dd 99 bb
       0.0023778002 -0.0022172655 -0.0010446201 -0.0046955715
000020 66 4c 26 bc 47 46 a3 ba f1 33 ea ba cc 26 c4 3a
       -0.010150051 -0.0012456857 -0.0017868263 0.0014965176
000030 ec 46 ef 3a f0 6b 67 3a c0 e3 52 3b 57 ba 00 3b
       0.0018255389 0.00088280346 0.0032179207 0.0019642317
000040 f8 2d d9 3a cf b8 d1 39 61 9e b3 3a e6 ec 23 bb
       0.0016569486 0.0004000128 0.0013703817 -0.0025013029
000050 ee 64 5c 3b 12 30 43 3b 02 0f cb ba 70 88 f3 3a
       0.0033629495 0.002978329 -0.0015492144 0.001858009
000060 d7 3a b9 ba 4a 20 2c 3b 67 1d ff b7 52 ea 0b bb
       -0.0014131916 0.0026264363 -3.041206e-05 -0.0021349383
000070 8b 0d b6 3b 65 5f 29 bb 0a 7c 0c 3b 86 8a 68 ba
       0.0055558137 -0.0025844213 0.0021436238 -0.0008870739

model.model.decoder.encoder.layers.0.linear1.weight f4 [128, 32]
000000 18 7d a9 bd 12 26 ca bd 74 84 dd bd bb 24 f1 bd
       -0.08275813 -0.098705426 -0.10816279 -0.11774584
000010 ff 64 6f 3d 5e b8 77 ba bd 7e ea 3c 39 21 ca bd
       0.058445927 -0.0009449775 0.028624887 -0.09869618
000020 fc 58 57 bb 82 7a 1f be 17 48 15 be 2b 77 63 bd
       -0.0032859435 -0.15574077 -0.14578281 -0.05553357
000030 05 0c a1 3d 74 e3 99 bd 1c 0d 09 3e 45 2f 17 3e
       0.07863621 -0.07514086 0.13383907 0.14764126
000040 c8 1d b9 bd 16 5e 03 be 93 9b c8 3d c0 d1 12 3d
       -0.090388834 -0.1282886 0.097952984 0.035844564
000050 84 8a 1a be e2 67 2a 3e b7 9f fd 3c eb 80 1e 3d
       -0.15091902 0.1664119 0.030959947 0.038697165
000060 9b de d4 3d 77 f5 20 3e 54 22 b6 bd fa 33 ad bc
       0.10394021 0.15718637 -0.08893266 -0.021142948
000070 bb 3a b6 3d 07 c2 32 3e 1e b4 24 be 52 fc 1f 3e
       0.08897921 0.17456828 -0.16084334 0.15623596
000080 e9 27 14 3e 86 db 17 bd 27 6b a1 3d 54 98 d9 3d
       0.1446835 -0.03707459 0.07881766 0.106247574
000090 58 22 c1 3d e1 74 4a bd b9 c4 d5 3d 37 e9 0b 3e
       0.09430379 -0.04942787 0.104379125 0.13663183
0000a0 e9 10 aa 3d 1b d9 0e be 21 49 d6 bd d6 52 f6 3d
       0.083040066 -0.13950007 -0.10463167 0.120275185
0000b0 0b 27 e5 bd c2 a2 e3 bd 0e f2 8c bd 00 90 00 3e
       -0.111890875 -0.11115028 -0.06882106 0.12554932
0000c0 97 88 89 3d a9 92 7a bd 82 6d 62 bd 2d 6c 96 bd
       0.067155056 -0.061175022 -0.055280216 -0.07344852
0000d0 0b ae 48 bd 62 4c 7e 3c c5 53 5d 3d c6 41 58 3d
       -0.048994105 0.015521141 0.054034967 0.0527971
0000e0 51 8e d8 bd 8b 7a 01 3e b3 36 b8 bd 27 3a d0 3c
       -0.1057402 0.12644403 -0.08994808 0.025418354
0000f0 39 56 bc 3d ed b9 c0 3d 6d 08 a5 3b 3a e0 26 bd
       0.09196133 0.094104625 0.005036405 -0.040741183
000100 87 f3 cc 3c 26 ed fe bd c9 52 80 3c 10 4c 1b 3e
       0.025018467 -0.12447576 0.015664475 0.15165734
000110 a4 56 7b 3d c1 94 a6 3d 77 cc 11 3e 13 3b 3d bc
       0.061361924 0.08133841 0.14238153 -0.011549729
000120 b6 44 5d bd d7 2b 1a 3e 67 ce 37 3c a2 63 dd 3d
       -0.054020606 0.15055786 0.011218644 0.10810019
000130 12 ad ce bd 1b 3b c0 3c a3 c0 a4 3c f5 07 2d 3e
       -0.10091604 0.023465684 0.020111388 0.16897567
000140 60 3f 81 3d ba 3a 13 3d 38 00 5b 3d 03 20 3e 3d
       0.06310916 0.035944678 0.053467005 0.046417248
000150 2a 13 62 3c 1f 12 8f bd 8f e0 a8 3d 9c db 13 3e
       0.013798514 -0.06985878 0.08245956 0.14439243
000160 8a ad 5d 3d 05 37 8e bb 74 ff be bd 75 fa 9c 3d
       0.054120578 -0.004340055 -0.093260676 0.076649584
000170 5c 27 2b 3e b9 48 c2 3d 08 5f 2d be b3 11 dc bd
       0.16714233 0.09486527 -0.16930783 -0.10745563
000180 09 bf cf bd 58 5b 17 3e 66 d0 8a 3d ad 09 a9 3c
       -0.10143859 0.14780939 0.0677803 0.020634497
000190 f9 68 e3 bd 80 6e ee 3d 3a eb 04 bb ca b6 e9 3c
       -0.11104006 0.1164217 -0.0020281808 0.028529543
0001a0 eb 5f d4 3d 89 66 05 3e 6a e9 74 bd 05 a0 21 be
       0.103698574 0.13027395 -0.059792913 -0.15783699
0001b0 5b be cc 3d 38 b8 44 3d f0 0e 82 3c 47 0f 3e bd
       0.09997245 0.048027247 0.015876263 -0.04640129
0001c0 ff 00 0f 3e 8e a2 64 bc 95 3c 0f be 7f 14 17 bc
       0.13965224 -0.013954772 -0.13987954 -0.009221195
0001d0 60 81 ac bb 0d 7c cb 3d 3f a2 97 3d e3 0a ac bd
       -0.005264446 0.0993577 0.07403993 -0.08400514
0001e0 12 dd 1d be bf bc 9a bd 23 75 a6 bd f0 da 00 3e
       -0.15416363 -0.07555532 -0.08127811 0.12583518
0001f0 d6 49 52 3d 20 53 3a 38 37 5a fe bd 5b d3 fa 3d
       0.051339947 4.4423272e-05 -0.12419551 0.12247344
000200 58 b8 e8 bb e0 df 47 3d b5 db d0 bd 07 1f 09 be
       -0.0071020536 0.04879749 -0.10198156 -0.13390742
000210 c1 93 24 be d1 7a d8 3d b2 f1 0c be f2 c6 c3 3d
       -0.16071989 0.105703 -0.13764074 0.0955943
000220 c0 8d 5a 3d 15 3b 05 bd 19 9c 1e be 67 e9 c4 3d
       0.05335784 -0.03252705 -0.15489234 0.096148305
000230 3b 8c 05 be af 08 99 3d ec 2c 00 3e 02 f1 b2 bd
       -0.13041775 0.074723594 0.12517136 -0.08737375
000240 ae f6 4b bd 2a a3 a7 bd a0 32 81 3d 80 63 d6 3c
       -0.0497958 -0.08185418 0.06308484 0.026170492
000250 f1 0d 62 bd 15 8d c1 3b 33 c8 8f bd 50 65 b2 3d
       -0.055189077 0.005906711 -0.07020607 0.0871073
000260 49 d4 82 3d df 6c 54 3c dd f6 00 be d1 5e 5a bd
       0.063881464 0.01296541 -0.12594171 -0.05331308
000270 24 a8 93 3d 7c f4 db bd b5 21 9f 3c 16 5c f7 bd
       0.07209805 -0.10739991 0.019425252 -0.12078111
000280 a3 63 21 be 04 7f c0 bd 4f 8d b1 3d d5 ad bb 3d
       -0.15760665 -0.09399226 0.086695306 0.09164015
000290 77 66 36 bd 5a bd 65 3d 89 a3 9c bd db c9 f2 3d
       -0.04453131 0.056088783 -0.07648379 0.11854907
0002a0 81 89 a3 3d c9 06 c4 bd f2 f9 9f bd e9 3c 1c be
       0.07985211 -0.09571607 -0.07811345 -0.1525761
0002b0 c4 4e 2f be 79 72 3c bd 93 bc 34 3d 58 b7 7d bd
       -0.1711989 -0.046007607 0.04412515 -0.06194243
0002c0 45 9d 88 3d 80 86 e5 bd e5 7a 34 3e 75 fc 1d be
       0.06670622 -0.112072945 0.17625006 -0.15428336
0002d0 68 50 d2 bd f7 6c 5e bd 49 f2 74 bc c5 d6 81 3d
       -0.102692425 -0.054303136 -0.014950343 0.06339792
0002e0 a2 29 2a 3e 29 55 11 be 15 20 1f 3d d7 64 fd 3c
       0.16617444 -0.14192642 0.038848955 0.030931873
0002f0 6f a1 f8 3d 60 42 86 3d 64 4c 32 bd 97 e0 32 3e
       0.12140166 0.06555629 -0.043529883 0.17468487
000300 a6 1d 9e bc 22 d8 dd bd 1a 8d 53 3d 64 a0 0e 3e
       -0.019301247 -0.1083224 0.051648237 0.13928372
000310 27 72 65 3d 89 8c 2a bd 98 10 02 3e 50 38 a8 bd
       0.056017067 -0.04163793 0.12701643 -0.08213866
000320 95 3e ec bd d9 4c cf 3d d4 86 d6 3d aa e3 42 3d
       -0.11535374 0.101220794 0.10474935 0.0475804
000330 82 5d 11 3e 07 f0 1a 3e 07 e0 9c bd 9d 4e fc bc
       0.14195827 0.15130626 -0.07659917 -0.030799204
000340 b4 46 12 3e 04 f9 9e 39 a4 de 9e 3d b9 cf a7 bd
       0.14284784 0.0003032164 0.07757309 -0.08193917
000350 04 ff ab 3d e5 23 d2 3d 68 cc f5 bd f1 13 6b bc
       0.0839825 0.102607526 -0.12001878 -0.014348016
000360 fa 87 05 3e c4 5b d6 bc 5d 72 04 3e 9d cd 71 3c
       0.13040152 -0.026166804 0.12934251 0.014758495
000370 5f 61 2d 3e 41 01 b7 bb 2b 31 1b 3e 8f 2e 62 bd
       0.16931675 -0.0055848663 0.15155475 -0.055220183
000380 c1 75 ed 3d d3 a6 2c be 71 50 f9 ba 19 c1 0f be
       0.115947254 -0.16860513 -0.0019021166 -0.14038505
000390 d2 32 22 3e 82 e3 bd bd 17 02 88 3d fe 14 18 bd
       0.15839699 -0.09271909 0.066410236 -0.037129395
0003a0 ca c4 e0 3d b5 e6 9a bd d0 53 e0 bd f3 8e 04 3d
       0.109750345 -0.07563535 -0.10953486 0.03236289
0003b0 74 ed ef bd 2e 61 46 bd d9 d4 b9 3d 78 b9 27 3e
       -0.117152125 -0.04843252 0.090738006 0.16379344
0003c0 29 cf 90 3d 60 ef 0e be b3 2f b0 bc c4 c1 bb bd
       0.07070763 -0.13958502 -0.02150712 -0.09167817
0003d0 aa d1 a5 3d 14 64 b9 3d 96 1d aa bd 22 40 08 3d
       0.08096631 0.090522915 -0.08306424 0.033264287
0003e0 fd 6b 45 bd 15 83 dc bd 5a 12 dd 3c 56 a1 14 be
       -0.04819869 -0.107671894 0.02698629 -0.1451467
0003f0 73 d1 3b 3e b1 45 a1 3d e0 bc 3d be d8 ac 27 be
       0.18341617 0.07874621 -0.18529081 -0.16374528

model.model.decoder.encoder.layers.0.linear1.bias f4 [128]
000000 5c 6b c7 bd db 89 13 3c a6 a0 15 3d 23 f8 c1 3b
       -0.09737274 0.009005035 0.03653016 0.005919473
000010 be 24 27 3e fa 71 f1 3c 96 af 35 3e 2b c1 43 3d
       0.1632261 0.029473294 0.17742762 0.04779164
000020 c1 41 1c be 8a ea 9f bc 05 f8 1b be a4 fc e7 bd
       -0.15259458 -0.019521017 -0.1523133 -0.11327484
000030 ec 47 a2 bc 59 93 26 be 3d 2e 33 bc fb a5 47 3d
       -0.019809686 -0.16267146 -0.010936317 0.048742276
000040 11 2c ca bd 8a 58 00 be 0c 95 db bc 3d 84 02 be
       -0.09871686 -0.12533775 -0.02680447 -0.12745757
000050 8b da 2d 3e 74 9b 05 3e c7 8c 24 be 8b db 5d 3d
       0.16977899 0.13047582 -0.16069327 0.05416445
000060 66 a2 1a be 17 b2 49 3d 39 bb 0a 3e a6 ca 08 be
       -0.15101013 0.049242105 0.13547982 -0.13358554
000070 49 8f a5 bd 0b f4 02 3e f6 b4 0b 3c 99 f7 ca 3c
       -0.0808397 0.12788408 0.008527031 0.024776267
000080 cd 81 32 3e da f7 d8 3d 85 80 62 bd b4 ed 78 bb
       0.17432328 0.10594149 -0.055298347 -0.003798348
000090 fb d9 26 3e ff 7a 2e be 0b 37 15 3e 96 5d 31 be
       0.1629409 -0.17039107 0.14571778 -0.17320856
0000a0 89 40 10 3e fb e6 07 be 1e 01 84 3d e8 90 fc 3d
       0.14087118 -0.13271706 0.064455256 0.12332326
0000b0 c4 91 30 3e c7 6a 6c bc c9 d8 8e bd 56 e5 33 3d
       0.17243105 -0.014429755 -0.06974942 0.043919884
0000c0 3f 1c c8 3d 7b 8e 74 3d b4 95 c9 3c 24 98 13 be
       0.097710125 0.059706192 0.024607517 -0.14413506
0000d0 90 de 4f bd cf de 29 be 3b 89 25 3e 58 d8 2e 3e
       -0.05074936 -0.16588901 0.1616563 0.17074716
0000e0 58 45 a3 bd 4a 5e c3 bd 02 1a bb 3d 36 32 14 3e
       -0.07972211 -0.095394686 0.0913582 0.14472279
0000f0 f2 0a 1b be 18 67 cc 3d b5 be ea 3c 76 fa 2e 3e
       -0.15140894 0.09980601 0.02865539 0.17087731
000100 39 74 d2 bd 77 5c 00 3e ed 1c 29 be 5a 37 6e bc
       -0.10276074 0.12535273 -0.1651494 -0.014539564
000110 9b 77 af bd 4c fa a8 bd b1 0f fc 3d 82 5a 04 3e
       -0.08567735 -0.08250865 0.123076804 0.12925151
000120 3f f0 0d be a5 00 60 3d 31 e5 f5 bd c0 3c f8 3d
       -0.13861178 0.054688115 -0.120066054 0.12120962
000130 9f 9c 0f 3e e7 54 36 3c 22 03 0a be 83 9b 65 bd
       0.1402459 0.011128641 -0.13477758 -0.05605651
000140 55 69 7c bd 1f 44 74 3b a6 1e 17 3e 8b 26 cb bd
       -0.06162389 0.0037272049 0.14757785 -0.09919461
000150 8a 68 90 bd 3c 9b 52 bd 02 99 15 3e 4a b7 01 3e
       -0.07051189 -0.051417574 0.14609149 0.12667575
000160 00 30 9a bd e6 15 1c be da a0 0d 3e 6a 88 bd 3d
       -0.075286865 -0.15242729 0.13830891 0.092545345
000170 74 f3 34 3d b1 1b e9 3c 4c 59 a9 3d 1b e7 1a 3e
       0.044177487 0.028455587 0.08268985 0.15127222
000180 19 cd 8c bd 49 1d e2 bc 3f 6a f0 3d 1c 85 ed bd
       -0.06875057 -0.027601855 0.11739015 -0.11597654
000190 f9 9a 31 3e 4a f9 c5 3c d8 c8 2e be 22 3a ee bc
       0.17344274 0.024166722 -0.17068803 -0.029080454
0001a0 2d 02 1d bd 0b c9 92 bd 00 2d d6 3d b8 60 46 bd
       -0.038332153 -0.07167252 0.10457802 -0.048432082
0001b0 20 9b 18 3e f0 ab c8 3c fc 42 5b 3d 73 b1 25 3e
       0.14902925 0.024496049 0.05353068 0.16180973
0001c0 18 f5 24 3e 0f 5e 2c 3e 4d 47 d0 3d f6 54 04 3e
       0.16109121 0.16832756 0.101698495 0.12923035
0001d0 5b 18 6a 3c d0 23 90 bd 08 ae 49 3d 5e 4e 06 bd
       0.014288033 -0.07038081 0.049238235 -0.03278958
0001e0 19 4b 32 3e 60 64 23 3d c3 12 1e 3c f7 b6 56 3d
       0.1741146 0.039890647 0.009648028 0.052420583
0001f0 30 7d 5f bd 91 64 2f 3e f6 76 31 3e ec 3a 0e 3e
       -0.054562747 0.17128207 0.17330536 0.13889664

model.model.decoder.encoder.layers.0.linear2.weight f4 [32, 128]
000000 e0 21 ae bc 63 df d4 3c 10 6a 1a bc 2f 86 9e 3d
       -0.021256387 0.025985425 -0.009424701 0.07740437
000010 ee 80 57 3d f0 4b 19 3c 34 54 89 bc ca 4f 99 3d
       0.05261319 0.009356484 -0.016763784 0.07485922
000020 81 72 a2 bd da 17 d5 3a 46 b5 47 bd 27 53 3d bd
       -0.07931996 0.0016257719 -0.04875686 -0.04622188
000030 48 96 5d 3d 29 00 04 bd f7 00 4d bc 75 f0 47 3d
       0.054098397 -0.032226715 -0.012512437 0.048813302
000040 ee 24 48 bd 76 7c b2 3c 61 79 8d 3d 90 d7 56 3d
       -0.048863344 0.021787863 0.06907917 0.05245167
000050 6c 25 a0 bd 58 73 8b bb e4 5a 00 3d c1 c6 73 3d
       -0.07819638 -0.0042556934 0.03133668 0.05951572
000060 7f 66 91 bd 1e fd 14 3d 96 a5 0e 3d 4b e6 19 3d
       -0.07099628 0.036374204 0.034825884 0.03757314
000070 e8 4e 6b 3d 34 1c de 3c 86 fe 9c ba f4 fb cb bc
       0.057448298 0.027113058 -0.0011977709 -0.024900414
000080 ff af 63 bc 81 eb a4 bd 48 b6 ae bb 36 fd a0 3d
       -0.013896941 -0.08052731 -0.005331788 0.07860796
000090 44 23 ad bc 4d e9 87 3d a3 ad aa 3d fd 31 02 bd
       -0.02113498 0.066362955 0.083339 -0.031785954
0000a0 94 a8 26 3d 90 18 a4 3c 49 c6 95 bd d5 de a7 3c
       0.040688112 0.020031244 -0.073132105 0.020491997
0000b0 a6 3c af bd 1c 9f 79 3d d8 1c 2c 3d 49 b2 d2 3c
       -0.0855649 0.060942754 0.042019695 0.025719779
0000c0 5a 07 47 bb ff 9b 28 bd 0d b5 18 3d ed f4 1e 3c
       -0.0030369372 -0.041164394 0.03728204 0.00970195
0000d0 2e 18 74 bd bf 2e 29 3d 0c d2 4d 3c d1 eb bf 3c
       -0.059593372 0.041304346 0.012562286 0.023427876
0000e0 1e 45 f7 3b 5a 35 52 bd 2f 8c 99 bd ea ba b3 bd
       0.007546081 -0.05132041 -0.07497441 -0.087758854
0000f0 c0 e9 88 bd 8c 9a 8d 3d 1d 07 37 3d ea 8c fa 3c
       -0.06685209 0.06914243 0.044684518 0.030584771
000100 b2 15 09 bd 72 a9 b3 3c f0 de 21 bc de f1 15 bd
       -0.033467956 0.021931384 -0.009879813 -0.036607616
000110 2b 03 a3 3d aa 1f 75 bc 22 9e 54 bd af 01 53 bd
       0.079595886 -0.014961163 -0.05190862 -0.051515277
000120 52 c9 2f 3d e8 8e d6 bc fa 0b 71 bc 0c 50 4b bd
       0.042916603 -0.02619119 -0.014712328 -0.049636886
000130 b3 54 86 bd 98 46 48 bc 37 43 b2 bc 2c c3 c5 bc
       -0.06559124 -0.012223862 -0.021760566 -0.024140917
000140 b6 8f 6a 3d 08 2a 97 3d 61 04 7c 3d 5a ce cf bc
       0.05726596 0.07381064 0.061527614 -0.02536695
000150 ca 75 92 3d 01 97 cb 3c b4 b9 34 bc 5b 78 0e 3d
       0.07151373 0.024852278 -0.011030603 0.03478275
000160 76 f7 6a bd 52 09 72 3a af f1 6d bd 1f 04 45 bb
       -0.057364903 0.0009232956 -0.058091816 -0.003006227
000170 b6 31 84 bd 57 1d 72 bd 96 e6 7a bd ac c2 e6 bc
       -0.06454794 -0.059110012 -0.06125506 -0.028168999
000180 e5 90 dd bc 9e 84 a0 3d 80 b0 72 bc 30 d1 8c bd
       -0.02704663 0.07837795 -0.014812589 -0.06875837
000190 ce b2 3e 3d f3 6c 03 3d 90 88 2f 3c 8c bb 6d 3d
       0.04655724 0.032086324 0.010713711 0.058040187
0001a0 a5 62 93 3c 23 3e c4 3c 56 55 d8 3a f0 95 42 bd
       0.017991373 0.02395541 0.0016504924 -0.047506273
0001b0 6a a4 9e 3c e9 ff 32 3c 67 d3 02 3a 34 01 8c 3d
       0.019365508 0.010925272 0.0004990608 0.06836167
0001c0 7e 76 09 bc 31 65 aa bd f8 1e ec bc e6 95 79 bd
       -0.008390067 -0.08320082 -0.02882336 -0.06093397
0001d0 fd d7 e9 3c be ce 93 bd 22 fd 92 3d 7a 28 99 bd
       0.028545374 -0.07217167 0.071771875 -0.074784234
0001e0 c2 7e 27 3c 0b 09 6c bd eb cf 70 bd 30 af 46 3d
       0.0102230925 -0.05762581 -0.058792036 0.048506916
0001f0 81 89 0b 3d 4d 28 86 3c 65 d8 a1 3d 0d 18 14 3c
       0.03406668 0.016376639 0.07902602 0.009038937
000200 1b 8c 81 3d 25 c1 90 bd 9f df 0d bd ef 8f 1c 3c
       0.06325551 -0.070680894 -0.03463709 0.009555801
000210 91 44 fd 3c f2 b0 2b bd 0a 02 3a 3d 92 5e dd bb
       0.030916484 -0.041916795 0.0454121 -0.0067556584
000220 9b 48 ba 3d 33 86 15 3d a9 db 85 3c 20 ec 87 bd
       0.0909588 0.036504935 0.016340094 -0.06636834
000230 36 c7 a4 bd 7a 1b 83 bd a5 1b 82 3d f4 6f 8d bc
       -0.08045809 -0.06401725 0.06352929 -0.017265297
000240 9a 79 06 3c 80 07 02 3c 54 66 e2 bb 68 c6 c6 3b
       0.008207703 0.007936358 -0.006909171 0.0060661323
000250 92 35 ae 3d 5b 90 6c 3d 47 31 cf 3c cb 65 3a bd
       0.085063115 0.057754856 0.025292052 -0.045507234
000260 bc 7c 34 bc e6 da 89 3d 5f cf 75 3d 82 85 57 bd
       -0.011016067 0.06731205 0.060012218 -0.052617557
000270 6a 0e 88 bb 6a 56 88 3d 97 ff 89 bd ce 9d 17 bc
       -0.004152109 0.06657107 -0.06738203 -0.009253932
000280 2c da 16 3d 36 6e 42 3d 65 10 81 bd 0a 4c 93 3d
       0.03682916 0.047468387 -0.06301955 0.07192238
000290 ef 1b b9 3d 69 b6 39 3d 84 9f 03 3d eb 18 c9 bc
       0.09038531 0.045339976 0.032134548 -0.024548015
0002a0 9d f0 74 bd ee 50 b0 bc bd 9d 99 bd d7 a6 9e 3c
       -0.05979978 -0.021522965 -0.07500789 0.019366665
0002b0 36 ed bd 3d 06 f2 02 bd a7 eb 59 bd a0 23 39 bc
       0.0927376 -0.031969093 -0.05320325 -0.011299998
0002c0 0e 84 8a 3d 28 1d 3d 3d 9c 97 46 bc 00 0e 66 bc
       0.06763469 0.046170384 -0.012121107 -0.014041424
0002d0 70 f0 42 bb 50 c4 af 3d 0e 27 e9 3b 2b 1a 94 bd
       -0.0029745363 0.085823655 0.0071152514 -0.07231554
0002e0 c7 9c 97 3d 0b 4c 79 3d 89 6f 86 3d 13 41 bb bc
       0.0740295 0.060863536 0.065642424 -0.022858178
0002f0 76 34 ef 3b 64 cd d6 bc c3 d1 9c bc 4d e6 ab 3b
       0.007299955 -0.026220985 -0.019142991 0.00524596
000300 e2 03 6f 3b 0a 1b a5 bc da 91 50 3d ef b8 28 bd
       0.003647082 -0.020154495 0.050920345 -0.04119199
000310 3a d9 81 3c c3 0f 21 ba bb 2f 79 3b 3c e8 e9 bb
       0.015850652 -0.0006144011 0.0038022834 -0.00713828
000320 ec 9e 5f bd e7 0a 4f 3d 67 96 9e 3c 00 7e 0b 3d
       -0.05459492 0.050547507 0.019358827 0.03405571
000330 64 6b 9a 3d a9 a5 a7 bd fd 31 a2 bd 18 65 a6 bd
       0.075400144 -0.08185894 -0.07919691 -0.08124751
000340 25 92 81 bd fb 78 9c bc f4 36 a6 3d 56 31 44 bc
       -0.06326703 -0.019100657 0.0811595 -0.011974653
000350 4b aa 3e 3c 7f 28 9e 3c 32 9b d5 ba 21 18 ad bc
       0.011637281 0.01930642 -0.0016296862 -0.02112967
000360 c0 d8 b2 3d d9 d6 a9 bd 15 ba a9 3d 76 cc 89 3d
       0.08732748 -0.08292932 0.082874455 0.06728451
000370 60 89 b3 3d 4a 70 cc 3b 1c 82 86 3d 95 6c 8e bc
       0.087664366 0.006238972 0.06567785 -0.01738576
000380 4a 8d 47 bd 10 18 38 bd 7f 4f 58 3d 3c af be 3d
       -0.048718728 -0.044944823 0.05281019 0.09310767
000390 d0 a4 8f bd c9 92 9a bd 97 8e fc 3b f3 24 95 3d
       -0.07013857 -0.07547528 0.0077074277 0.07282438
0003a0 7d 5f 63 3d 2e 7c 69 3d 96 5d 83 bd 2e 6e bc bd
       0.055510987 0.057003193 -0.064143345 -0.092007026
0003b0 2d f3 9f bd 95 75 5d bc 3e e9 59 bd 74 7a 50 bb
       -0.07810054 -0.013516803 -0.053200953 -0.003181127
0003c0 f2 29 bf 3d 4d fc 04 bd 94 3a 8d 3d 36 2e b2 bc
       0.09334172 -0.032467175 0.068959385 -0.02175055
0003d0 10 a6 2e 3d 9b be 5a 3d 9c 7c 9e 3c b1 9e 95 bd
       0.04263884 0.05340443 0.019346528 -0.073056586
0003e0 75 6a ac 3d b6 1a 89 bd 68 54 ae 3b 7a 0a 96 3a
       0.084187426 -0.06694548 0.0053201206 0.0011447214
0003f0 65 a2 55 bd 54 3a 09 3c e9 08 59 3d aa 89 af 3d
       -0.052156825 0.008375723 0.052987013 0.08571179

model.model.decoder.encoder.layers.0.linear2.bias f4 [32]
000000 47 4f 3e bd a3 c4 cb bc 0c b0 ab 3c e7 91 a4 bd
       -0.046462324 -0.024874037 0.02095797 -0.08035641
000010 97 82 80 3c 9e ae 96 3d af ac 93 3d 7e 20 30 bd
       0.01568727 0.07357524 0.07210671 -0.042999737
000020 f4 3b 92 bc 8c 60 75 bd bf 75 a8 bd 68 48 80 bd
       -0.017850854 -0.059906527 -0.08225583 -0.062638104
000030 29 3a 3b 3c 94 fb 06 bd a7 35 da 3c d8 b5 b7 bd
       0.011427441 -0.032954767 0.026636912 -0.08970231
000040 bc 44 98 3c 1d 0e 06 3d e7 91 39 bd 47 65 ec 3a
       0.018587463 0.032728303 -0.04530516 0.0018035554
000050 84 72 a6 3d 97 3d 56 3d 37 20 a9 bc ac de d1 3b
       0.08127311 0.05230483 -0.020645244 0.0064047184
000060 5b 8b 43 3d 97 da 2f 3d 2d c5 81 3d 7e 31 19 3c
       0.04774032 0.042933073 0.063364364 0.009350179
000070 7c da 7b bc e2 af 29 3c c6 74 70 bd cb 14 bb bc
       -0.015371915 0.010356875 -0.058705114 -0.022837063

model.model.decoder.encoder.layers.0.norm1.weight f4 [32]
000000 89 b0 80 3f 2a a4 80 3f f3 41 7e 3f bf fd 7f 3f
       1.0053874 1.0050099 0.9931938 0.9999656
000010 d3 55 80 3f d2 28 80 3f bd 28 80 3f 72 d7 7d 3f
       1.0026191 1.0012457 1.0012432 0.9915687
000020 e4 83 80 3f 2c 13 7f 3f af e4 7f 3f fc 9a 80 3f
       1.004025 0.9963863 0.9995832 1.0047297
000030 ce dc 80 3f e1 3a 80 3f c0 5c 7e 3f 4e 01 80 3f
       1.0067384 1.0017968 0.99360275 1.0000398
000040 31 fd 7d 3f f7 c4 80 3f c6 7c 80 3f c9 c4 7d 3f
       0.99214464 1.0060109 1.0038078 0.99128395
000050 c6 69 7f 3f 8b 7f 80 3f 5d 99 7e 3f 06 c2 7e 3f
       0.9977077 1.0038923 0.99452764 0.99514806
000060 b2 57 7e 3f c2 cb 7d 3f 45 cf 80 3f d9 df 7f 3f
       0.9935256 0.99139035 1.0063254 0.9995094
000070 64 36 80 3f 62 73 7f 3f 23 f1 7d 3f e5 86 80 3f
       1.0016599 0.99785435 0.9919607 1.0041167

model.model.decoder.encoder.layers.0.norm1.bias f4 [32]
000000 6a 31 aa ba 49 5c 0f 3b ad 9c 94 ba 31 2b f5 3b
       -0.0012984697 0.0021875075 -0.0011338197 0.0074819555
000010 78 dd 51 ba 01 e8 89 bb 7a 52 39 3b 39 c9 d6 ba
       -0.00080057187 -0.004208565 0.002827792 -0.0016386873
000020 a3 65 15 bc b6 89 02 3b 82 5a 80 3a 81 bc 00 bb
       -0.00911847 0.0019918508 0.0009792598 -0.0019643607
000030 99 17 87 3b 73 35 48 3b 6d 2c 62 38 ff 63 dd ba
       0.004122686 0.0030549436 5.3923974e-05 -0.0016890763
000040 15 a8 9e ba 4f 9a 4f bb 9f 69 28 bb 58 3b 08 3a
       -0.0012104536 -0.0031677668 -0.002569772 0.0005196831
000050 ef 59 f2 38 e7 94 85 3b ca 9a fd 3a 80 22 dd ba
       0.00011556211 0.0040765884 0.0019348499 -0.0016871244
000060 1e a5 09 3b 95 29 24 ba 57 a3 1c 3b c6 32 93 3a
       0.0021002959 -0.00062623 0.002390107 0.0011230342
000070 d3 59 b9 3a fd df 1f 3a e5 a1 dc ba 5d fc 55 bb
       0.001414115 0.00060987455 -0.0016832916 -0.003265164

model.model.decoder.encoder.layers.0.norm2.weight f4 [32]
000000 a6 7d 7d 3f 62 a7 80 3f 51 87 7e 3f da db 80 3f
       0.9901985 1.0051081 0.99425226 1.0067093
000010 70 83 80 3f 93 69 7f 3f 71 21 80 3f 24 59 7e 3f
       1.0040112 0.9977047 1.0010206 0.9935477
000020 aa cb 7f 3f a0 2b 7f 3f 67 7c 7f 3f 4f a8 80 3f
       0.9992014 0.9967594 0.997992 1.0051364
000030 9f 30 80 3f db 8f 7e 3f 46 3a 7e 3f 21 ce 7f 3f
       1.0014838 0.99438256 0.9930767 0.999239
000040 27 2b 7e 3f 90 d4 80 3f 5c 9f 80 3f 99 eb 7d 3f
       0.99284595 1.0064869 1.0048633 0.9918762
000050 dd 1d 7f 3f 6a 7c 80 3f a2 28 7f 3f c4 b8 7e 3f
       0.9965494 1.0037968 0.99671376 0.9950068
000060 52 8d 7e 3f 9a e5 7d 3f 78 01 81 3f 05 64 7f 3f
       0.9943439 0.9917847 1.0078573 0.9976199
000070 51 92 7e 3f 59 ac 7e 3f c8 1a 7e 3f f8 7e 80 3f
       0.9944201 0.9948173 0.99259615 1.0038748

model.model.decoder.encoder.layers.0.norm2.bias f4 [32]
000000 c3 59 1a 3b 1c ee 27 3b 82 be 24 bb e1 7d 2e 3b
       0.0023552037 0.0025624102 -0.0025137966 0.0026625323
000010 36 2f 34 bb 9f 48 25 3b b8 f9 26 3b de 99 1f 3b
       -0.002749396 0.0025220287 0.0025478434 0.0024353187
000020 fd ec 27 3b f5 ad 25 3b 3a 3a 26 3b cd 0f 4a bb
       0.0025623434 0.0025280688 0.0025364296 -0.0030832172
000030 61 38 29 3b b9 ae 20 3b f1 22 10 bb b4 c3 27 bb
       0.0025820958 0.0024518205 -0.0021993483 -0.0025598826
000040 87 f7 22 bb c5 bb 29 bb f4 98 28 bb 38 1e 24 3b
       -0.0024866776 -0.0025899273 -0.0025725933 0.0025042426
000050 13 88 1b 3b 16 fb 2a 3b 68 d1 25 3b 24 1c 20 bb
       0.002373223 0.00260896 0.0025301818 -0.0024430836
000060 48 5f 25 3b dc 5d 21 bb 58 b0 29 3b 20 6a 25 3b
       0.0025233794 -0.0024622595 0.0025892463 0.0025240257
000070 17 3d 17 3b d4 e9 24 3b 51 95 22 bb f0 88 2f bb
       0.0023077184 0.0025163786 -0.0024808238 -0.0026784502

model.model.projection.weight f4 [2, 32]
000000 8c 60 a1 3d b2 93 cc bd 45 c6 0b 3e d2 70 a1 bd
       0.07879743 -0.09989108 0.13649853 -0.07882847
000010 9d af d9 bb bb 84 f1 3d 7d 1c a7 3c a1 e0 2c be
       -0.006643249 0.117928945 0.020399326 -0.16882564
000020 b5 82 9f 3a 74 1b 18 be 39 11 db bd 88 f4 f7 bd
       0.0012169691 -0.14854223 -0.10696644 -0.121071875
000030 ed 48 b6 3d 9a 13 c3 bd d3 79 eb 3c 5e 1f 80 bd
       0.08900628 -0.09525223 0.028744614 -0.06255983
000040 b5 01 bc 3c f8 a9 8d bd 6e a3 0b 3e 26 0d bb 3d
       0.022950033 -0.069171846 0.13636562 0.09133367
000050 c0 4c ad bd 4e e3 71 3d ef e7 86 3d 3f 1f e7 bd
       -0.084619045 0.059054665 0.065872066 -0.112852566
000060 41 46 18 be a0 63 0a be 12 ac 26 3e 1a 7e 0c bd
       -0.1487055 -0.13514566 0.16276577 -0.034299947
000070 69 8c f7 3c 3a 66 f7 bc 0d d5 d4 bc 3f 9f 30 3e
       0.03021832 -0.030200113 -0.025980497 0.17248248
000080 b5 48 1a be 84 73 c1 bd 96 d1 c0 3d cf 84 33 3e
       -0.15066798 -0.09445861 0.09414975 0.17531131
000090 cf 55 0a bd 5b de 04 3e 50 f5 4c 3d 34 05 f6 bc
       -0.03377324 0.12975447 0.050038636 -0.030031778
0000a0 77 16 21 3e b4 96 15 3e ff 5c 15 bd f8 1b 6d 3d
       0.15731226 0.1460827 -0.03646564 0.057888
0000b0 42 e1 c8 bd ec 30 8f 3d 69 4d 8a 3d d1 e9 28 be
       -0.098085895 0.06991753 0.06753046 -0.16495444
0000c0 e2 36 a1 bd 6b c8 e4 3c 04 61 18 3e 4c 91 c2 3d
       -0.07871796 0.027927598 0.14880759 0.095003694
0000d0 0e 56 7f 3d b6 1a e6 3d 89 3a 31 3d f0 62 03 be
       0.062337928 0.112355635 0.043268714 -0.1283071
0000e0 92 70 f7 3c ec ad ab bd 79 3f 17 3e bf 16 c4 bb
       0.030205045 -0.08382782 0.14770307 -0.005984157
0000f0 b6 69 a0 3d 01 db 74 3d da 9a f1 bd 5f 6a 4f 3d
       0.07832663 0.05977917 -0.11797114 0.050638553

model.model.projection.bias f4 [2]
000000 12 cd df 3d 85 b2 c8 bd
       0.10927786 -0.09799675
