lightning_logs/version_51/checkpoints/epoch=17-step=450.ckpt (torch, 181965 bytes, 50 tensors)

model.model.pos f4 [12, 32]
000000 34 0b 92 bb 2c a4 f2 3d 7f 66 0d 3e f5 bf a7 3e
       -0.004456902 0.118477196 0.1380863 0.3276364
000010 22 25 1c be 88 1d 5b be 59 0b 5e 3d 9b a0 87 3c
       -0.1524854 -0.21397984 0.05421004 0.016556075
000020 79 2d 9b 3d 10 ef 1a 3d c2 3f 58 3e 16 88 ef 3d
       0.075770326 0.037825644 0.21118072 0.11695878
000030 5b e7 2f be 39 b8 7c bc b3 2c be 3d 5d 2b 21 3e
       -0.17178099 -0.0154247815 0.092858694 0.15739198
000040 f4 73 5e be 2c ba b2 be 44 4a 74 3e 96 6a a2 be
       -0.2172392 -0.34907663 0.23856455 -0.31721944
000050 35 2a b7 be 15 b9 a8 3e fc 6e 94 be 26 dc 90 bd
       -0.3577439 0.32953706 -0.28990924 -0.0707324
000060 5d 79 87 be f9 5c af be 8f 22 cb bd f9 99 82 bd
       -0.2645978 -0.3425062 -0.09918701 -0.06377024
000070 06 7a 04 3e 40 76 ae be 83 4f 76 3e 75 8f b6 3d
       0.12937173 -0.34074593 0.24053769 0.08914081
000080 f5 4e bb bd 5e 1c 5a 3e 55 bc 2a be 18 14 0c be
       -0.09145919 0.21299884 -0.16673405 -0.1367954
000090 ea fc 9c 3e 20 c3 91 3d 82 bb 34 be 96 5a a5 be
       0.30661708 0.07117295 -0.17649654 -0.32295674
0000a0 64 9c 84 bd 3d 2e 51 be b1 79 f3 3d 54 78 82 be
       -0.06475142 -0.20427795 0.11888445 -0.25482428
0000b0 f1 b4 5c be 21 43 2e be 7d e9 01 3e 57 a4 6f 3e
       -0.21553399 -0.17017795 0.12686725 0.23402534
0000c0 50 99 0e 3e 28 0a bc be 1e 19 8e be 9c ea 6a be
       0.13925672 -0.367265 -0.27753538 -0.22941059
0000d0 ac 86 0b be b6 22 72 be 80 db e6 bd e1 2a 12 3e
       -0.13625592 -0.23646054 -0.11272335 0.1427417
0000e0 b6 38 a0 3e 01 8a a4 3e 70 c8 e1 3c 60 f0 b8 3d
       0.31293267 0.3213654 0.027561396 0.09030223
0000f0 fc 77 9a 3e 0c a2 7a be 4e 0f 52 be d4 71 43 be
       0.30169666 -0.24475878 -0.20513651 -0.1908639
000100 fe ea 8e 3e d7 01 8f bd fc 5a 4a be 64 20 73 3e
       0.2791366 -0.06982773 -0.1976127 0.23742825
000110 8b 1d 89 3e 45 61 87 be 02 7c e0 bd 94 8d 3b be
       0.26780352 -0.26441398 -0.109611526 -0.18315727
000120 d8 a7 b8 3e e3 04 1f 3e d1 e8 7d bd 98 6c 83 3e
       0.36065555 0.15529208 -0.06198961 0.25668788
000130 e5 76 90 3e 43 c9 96 3e 6b 41 63 be cf cd 66 3e
       0.2821571 0.29450426 -0.22192924 0.22539447
000140 df 2e 2a 3e e9 9b 9a be c2 0d 54 3e bc 6d 8b be
       0.16619442 -0.30197075 0.20708373 -0.27232158
000150 1d f8 b8 3d 51 ea 57 3e 80 f4 0e bd 7e 38 d7 bb
       0.09031699 0.21085478 -0.034901142 -0.0065680137
000160 25 f6 4f 3e 4d ca 30 bd 65 1e ee bd dc 7c eb bc
       0.2030874 -0.04316168 -0.11626891 -0.028746061
000170 91 ce ad 3e ad ea 6a 3e 7e 02 b6 be fb 5f 87 bd
       0.3394666 0.22941084 -0.35548776 -0.06610104
000180 c4 4d 6f 3e ac b8 6e be 23 56 b3 be a1 03 dd 3b
       0.23369509 -0.23312634 -0.35026655 0.0067448174
000190 63 7a 07 3b cb e9 47 be da b8 8f 3d 7c 6e b1 3d
       0.0020672313 -0.19522779 0.070176795 0.08663651
0001a0 aa 30 b6 be 2e e2 1c 3b b0 dd 27 3e e4 a6 7c be
       -0.35584003 0.0023938525 0.16393161 -0.24673039
0001b0 75 5c 5e be a7 2f 56 3e 4a f0 3f be 7a a8 2a be
       -0.21714957 0.20916615 -0.18744007 -0.16665831
0001c0 79 ea b2 be b0 d8 0b 3e c4 f3 5c 3e b5 7d 47 be
       -0.34944513 0.13656878 0.21577364 -0.19481547
0001d0 ea 70 b9 bc be 6b b9 3c 67 28 90 3d a5 b5 19 3d
       -0.02263685 0.022634383 0.07038956 0.037526745
0001e0 cf 69 83 3e 7b 44 8b 3e 09 71 b5 39 78 a9 97 3e
       0.25666663 0.27200684 0.00034607228 0.29621482
0001f0 8e 47 8e be a9 6d 91 3d 7d 66 ac be 96 25 7a 3e
       -0.27788967 0.07100994 -0.33671942 0.244284
000200 b3 20 54 3e 3c 89 23 be 84 76 96 3d fa 57 92 be
       0.20715599 -0.1597032 0.07346824 -0.28582746
000210 b4 bd 70 3e f5 64 2b 3e c7 d8 72 bd 5b 7e 9a 3e
       0.23509866 0.16737731 -0.059288766 0.30174527
000220 87 7f 7c be d7 1f a2 be c2 3e 0b be 3d a3 db 3d
       -0.24658023 -0.31664917 -0.13598159 0.107244946
000230 bc 8f 41 3e d5 6e 18 3e 6c 28 2c 3b 13 42 a1 be
       0.18902487 0.14886029 0.002626921 -0.31495723
000240 be 2a d8 bc ad b3 85 3e ac 76 a0 bc 2b 47 73 3e
       -0.026387569 0.26113644 -0.019587837 0.23757617
000250 50 e0 89 be 85 85 44 be 67 70 a7 bd 83 74 62 bd
       -0.2692895 -0.19191559 -0.08175736 -0.055286895
000260 77 44 14 3e 0c 09 3b 3e 0a 27 9b 3d 5d 41 11 3e
       0.14479242 0.1826517 0.075758055 0.1418509
000270 22 33 89 3e 18 98 48 3e 02 79 b5 bd 8b 07 de bd
       0.26796824 0.19589269 -0.08860971 -0.108412825
000280 d2 fb 4a 3e f1 6a 8a be f2 10 a9 3e 86 c3 97 be
       0.19822624 -0.27034715 0.3302074 -0.2964136
000290 41 02 2a be c2 8c 13 be 58 e1 32 bd c9 52 cb 3d
       -0.16602422 -0.14409164 -0.043671936 0.099278994
0002a0 2d 26 b6 3d 33 e4 6e be 1d e7 19 3e 59 78 71 be
       0.08894 -0.23329239 0.15029569 -0.23581065
0002b0 76 8a a9 3e 95 25 c9 bd 8b aa a5 3e fb f1 0d be
       0.3311345 -0.09821621 0.32356676 -0.1386184
0002c0 a4 de 94 bd c7 a5 a4 3e 91 41 9b 3e b5 d4 28 be
       -0.07269028 0.32157728 0.3032346 -0.16487391
0002d0 35 d8 9d be 84 3d 85 3e 28 10 1b be 21 9a 2b 3e
       -0.30829015 0.26023495 -0.15142882 0.16758014
0002e0 31 12 1e be 0f ac 38 3e cc 81 04 bd f3 ef a4 3e
       -0.15436627 0.18034385 -0.032350346 0.32214317
0002f0 5a 14 ac 3e c4 c6 1c 3e 77 fe 3a be 31 e2 35 be
       0.33609277 0.15310198 -0.18261133 -0.17762066
000300 b2 ec 93 be 3c 5b 04 3d 1a 3a b1 be d0 81 9d be
       -0.28891522 0.03231357 -0.3461464 -0.30763102
000310 61 d4 b6 3e a0 5c 4b be d1 f6 10 bd 19 94 80 be
       0.35708907 -0.19859552 -0.035391632 -0.2511299
000320 0d e6 1b 3e 4b ac 65 3e 3a e1 ba be 6d 98 55 3e
       0.15224476 0.22429006 -0.3649996 0.20858927
000330 b5 92 b9 3d 46 39 75 3d c4 40 7d be 20 2d 03 3d
       0.09061185 0.059869073 -0.24731737 0.032025456
000340 c2 24 68 be 56 84 88 3e e3 c8 2b bd 2a b9 cb 3d
       -0.22670272 0.26663464 -0.041939627 0.099474266
000350 e0 08 1d be d6 bc b9 3e 74 ca 56 be 04 92 05 be
       -0.15335417 0.36276883 -0.20975667 -0.13043982
000360 92 7e 71 3d 57 31 7d 3e 7a e2 71 3e 0b 8c 10 be
       0.058958597 0.24725853 0.2362155 -0.14115922
000370 01 d3 9c be ed 23 3e 3e 02 98 05 bd 7d f5 3e 3e
       -0.30629733 0.18568392 -0.03261567 0.18648334
000380 6d c4 94 3e 27 14 92 3e 2c 6d 81 be b6 9d 44 3e
       0.2905611 0.28531 -0.25278604 0.19200787
000390 37 a2 91 3d a8 39 ab 3d 25 fe 56 be 86 00 78 3e
       0.07111018 0.083606064 -0.20995386 0.2421895
0003a0 3a 39 bd 3d b1 b4 23 3e 28 15 c4 bd 47 75 b2 bd
       0.09239431 0.15986897 -0.09574348 -0.08713775
0003b0 7b 8a ac be 3b 05 2d be ad 25 ab bc 67 b5 6d 3c
       -0.33699402 -0.16896527 -0.020891989 0.014508582
0003c0 73 de 96 bd b8 c8 55 bc 66 60 2b 3e 58 c7 e8 bb
       -0.073666476 -0.013048343 0.16735992 -0.0071038418
0003d0 43 95 0e 3e 20 44 a3 be 28 7e 84 3e 03 87 0e be
       0.13924126 -0.31887913 0.258775 -0.1391869
0003e0 4b 2e 51 bc cd 9b cc 3d d8 4d f2 3c 57 b2 8f be
       -0.012767385 0.09990654 0.029578134 -0.2806575
0003f0 0b 81 47 bc fd e0 b3 3e 50 9f 8b be c6 c3 05 3e
       -0.012176762 0.3513259 -0.27269983 0.13062963

model.model.embed.weight f4 [2, 32]
000000 00 00 00 00 00 00 00 00 00 00 00 00 00 00 00 00
       0.0 0.0 0.0 0.0
000010 00 00 00 00 00 00 00 00 00 00 00 00 00 00 00 00
       0.0 0.0 0.0 0.0
000020 00 00 00 00 00 00 00 00 00 00 00 00 00 00 00 00
       0.0 0.0 0.0 0.0
000030 00 00 00 00 00 00 00 00 00 00 00 00 00 00 00 00
       0.0 0.0 0.0 0.0
000040 00 00 00 00 00 00 00 00 00 00 00 00 00 00 00 00
       0.0 0.0 0.0 0.0
000050 00 00 00 00 00 00 00 00 00 00 00 00 00 00 00 00
       0.0 0.0 0.0 0.0
000060 00 00 00 00 00 00 00 00 00 00 00 00 00 00 00 00
       0.0 0.0 0.0 0.0
000070 00 00 00 00 00 00 00 00 00 00 00 00 00 00 00 00
       0.0 0.0 0.0 0.0
000080 e0 3e 5f be dd ad f5 bf 8f dc 1d 3f 6a 59 44 bf
       -0.21801329 -1.9193684 0.6166467 -0.76698935
000090 ee 82 07 40 f9 92 7b 3c e6 3b fa 3f 75 cd b0 be
       2.1173663 0.015354865 1.954953 -0.3453175
0000a0 c9 06 98 bf 76 14 dd be de 57 43 3e 92 11 61 3f
       -1.1877071 -0.43179673 0.19076487 0.87917435
0000b0 8e bd 33 3f 2d ba 00 bf 8c 6d f6 be 12 80 c0 bf
       0.7021111 -0.5028408 -0.48130453 -1.5039084
0000c0 14 79 07 3e cf 30 6c be 93 a1 a4 bf 03 1b 23 bf
       0.13229781 -0.23065494 -1.2861809 -0.6371309
0000d0 7b 89 6c 3f 35 ac b1 3f 49 63 72 bf 52 e4 85 bc
       0.9239728 1.3880678 -0.9468275 -0.016344223
0000e0 ff c4 03 bd a0 ba 82 bf af 59 82 3f 69 86 13 3f
       -0.032170292 -1.0213203 1.0183619 0.5762697
0000f0 a4 2e b8 3e 4c 7d e6 bf 4d c2 85 3f ed b9 8e 3f
       0.35973084 -1.8006988 1.0449921 1.115049

model.model.decoder.encoder.layers.0.self_attn.in_proj_weight f4 [96, 32]
000000 3c 4f 4f be 7e 43 09 be 55 e2 3b 3e 6e ed 12 3e
       -0.2024507 -0.13404652 0.18348058 0.14348385
000010 b5 8f 13 be b6 7a d0 bd a3 38 25 be ea 6e 9a bd
       -0.14410289 -0.10179655 -0.16134886 -0.075406864
000020 5a 60 e0 3d bb 17 2a 3e 8e 97 45 bd 77 cf 22 3e
       0.109558776 0.16610615 -0.048240237 0.15899454
000030 50 e9 38 bd 1a 35 16 be 49 3a bf 3d ed 5e cc 3d
       -0.04514438 -0.14668694 0.09337289 0.09979043
000040 b3 78 09 be 3a 5f 57 3e 92 29 fe bd 65 b7 18 3c
       -0.1342495 0.2103242 -0.12410273 0.009321068
000050 1b 5e a7 3d 89 2b 8f bd 01 06 41 3e 9a 46 2e bd
       0.08172246 -0.069907255 0.18849947 -0.0425478
000060 3b 45 33 3e 3e da 3e 3e cf 62 15 3e 59 6c 5a be
       0.17506878 0.1863794 0.14588474 -0.21330394
000070 59 8c ac 3d 6c 1d 53 be d3 2b e3 3d 2c df 0c bd
       0.08425207 -0.20616692 0.11092343 -0.03439252
000080 22 e7 1c be 41 24 0c be e1 dc 49 3d af 52 3c 3e
       -0.15322545 -0.13685705 0.049282912 0.18390916
000090 ac 75 48 3e ef 59 cc bc 78 19 ba bd b7 43 17 3e
       0.19576138 -0.024945227 -0.09086889 0.14771925
0000a0 5a 7b cc bd 08 b6 3d 3e c6 dc 0d bd bb 8b 11 be
       -0.09984465 0.1852647 -0.034634374 -0.14213459
0000b0 26 01 5c be 59 d9 50 be 6e 74 66 3d b1 25 96 bd
       -0.21484813 -0.20395412 0.05626338 -0.07331408
0000c0 a4 2f 2c 3e c1 83 25 ba e7 81 ad 3c f0 ef 16 be
       0.16815048 -0.00063138834 0.021180106 -0.14739966
0000d0 cf 90 01 be 4e db 3d be 3d 3b aa 3c e8 16 fd bd
       -0.12652896 -0.1854069 0.0207802 -0.12357885
0000e0 e4 86 5a bd 9a b6 9a bd ca dc d1 3d 17 a3 58 be
       -0.053351298 -0.0755436 0.1024719 -0.21155964
0000f0 39 2a c0 3d f0 23 31 3d 16 38 fe 3c 12 44 ed bd
       0.09383053 0.043247163 0.031032603 -0.11585249
000100 51 28 b4 3d 36 4c 0a 3e a7 ae c7 3d 70 c0 02 3e
       0.08796752 0.13505635 0.09750109 0.12768722
000110 67 bd da 3c 5e 05 c8 3d 2f 81 54 bc 49 1d 4e be
       0.026701642 0.09766649 -0.012970253 -0.20128359
000120 3c 1a a4 bc 67 58 63 3c 23 33 8e bd 42 3b 9a bd
       -0.02003204 0.013876057 -0.06943347 -0.07530834
000130 97 b1 a8 3d cb d1 29 be ba b1 ce bd ac c4 3d be
       0.082369976 -0.16583936 -0.100924924 -0.18532056
000140 02 6d 1e 3e b4 6c 5f bd 0a b9 09 3e fd 73 f8 bc
       0.1547127 -0.054547027 0.13449493 -0.030328745
000150 20 f0 10 3c 10 b5 15 bb b1 6b b9 bd 35 af 81 bd
       0.008846313 -0.0022843517 -0.09053744 -0.06332246
000160 59 b9 08 3e 34 63 55 3e 10 9b f3 3d c0 18 e8 bd
       0.13351955 0.20838624 0.1189481 -0.11332846
000170 6a 4b 4c 3d f0 c8 4f 3e 0f 9c 3b be 2e d4 b1 3c
       0.049876608 0.20291495 -0.1832125 0.02170762
000180 40 84 86 3d c2 6c f4 3d 3d 07 19 3e 59 ce e7 3c
       0.065681934 0.119348064 0.14944167 0.028296636
000190 fa b7 ba 3b c9 5e fc 3d fd 3e 54 bb 66 29 d1 bd
       0.0056982012 0.12322766 -0.0032386177 -0.10212974
0001a0 b9 10 52 3e a2 68 c3 3d 2c 46 7d bc 2a 84 48 3d
       0.20514192 0.095414415 -0.015458625 0.048954166
0001b0 b1 c1 a3 bd 89 1f 18 be 8d a5 d1 3d 36 ce 36 3e
       -0.07995928 -0.1485578 0.102366544 0.178521
0001c0 04 54 8e bd 31 ab 26 3e d6 08 a1 bd c7 54 11 3b
       -0.069496185 0.16276242 -0.078630134 0.0022175775
0001d0 7f c6 27 3b 19 46 43 3e 4e cf ad bb 96 2b 3e be
       0.002560049 0.19069709 -0.0053042537 -0.18571314
0001e0 13 fc 69 be f8 1c 5b 3d 2e 26 89 bd 0f ae de 3c
       -0.22850065 0.053494424 -0.06696735 0.027182607
0001f0 4e d5 1b bd eb 7e 0c 3e 54 a4 09 bd b9 a9 29 be
       -0.03804522 0.1372029 -0.03360398 -0.1656865
000200 66 1d fa 3d a8 17 42 bd 7d d7 44 be 9a fa 9d 3d
       0.122126386 -0.04738584 -0.19222827 0.07713814
000210 04 bb 9a 3d 8a ac e9 3d 4d f7 ad bd 1d 2b 6a bd
       0.07555202 0.11409862 -0.084944345 -0.057170022
000220 88 76 a5 bc 17 ee 61 bd fe 2e 31 be 3f 96 7f bd
       -0.020198122 -0.0551587 -0.17303082 -0.062399145
000230 8e 33 c7 bc cd 92 28 bd 6f e0 f3 3d 71 2d 08 be
       -0.024316575 -0.041155625 0.11908042 -0.13298585
000240 69 ef 16 3e 0e 9b 1e 3e c7 22 90 bc fc 53 88 bd
       0.14739765 0.15488836 -0.017594708 -0.06656644
000250 f9 3a a8 3c b9 53 88 3d 88 ab 8b bd 41 67 ee bc
       0.020535933 0.06656594 -0.06819826 -0.02910197
000260 69 92 73 3b d9 4d cf 3d 5f 01 ec bd 10 50 2d be
       0.0037166125 0.1012227 -0.11523699 -0.16925073
000270 f0 b3 10 be 3d 33 39 3e 1b 1f 4b 3e 57 a9 b9 3d
       -0.1413114 0.18085952 0.19836085 0.09065502
000280 f2 b2 18 be a9 4f ed 3c 57 d8 03 3e 37 1b c4 3c
       -0.14912012 0.028968649 0.12875496 0.023938758
000290 f9 29 47 be 68 bf 2e be c6 0c e5 bd d9 1e 34 3e
       -0.19449605 -0.17065203 -0.11184077 0.17589892
0002a0 63 8e 93 bd 49 7b 79 bd 4d dd 0d bd fa be 8e 39
       -0.072048925 -0.06090859 -0.034634877 0.0002722664
0002b0 a2 81 3b 3e c6 3c f7 3c d0 a0 7d 3c 78 c8 a7 3d
       0.1831117 0.030180346 0.015480235 0.08192533
0002c0 95 2b 80 bd 90 74 26 3c 9d 22 42 bd c8 54 87 bd
       -0.062583126 0.010159627 -0.04739629 -0.066079676
0002d0 76 1b c0 3d 96 55 5f bd 2c 18 8e 3d 63 21 4f be
       0.09380238 -0.05452498 0.06938204 -0.2022758
0002e0 27 e8 04 be cd 21 95 bd cd 0e fb bc 19 ee 58 bc
       -0.12979184 -0.072818376 -0.030646706 -0.013240361
0002f0 d6 21 45 be ab 27 a6 3d d4 8d 19 3e 3f 14 a4 bd
       -0.19251189 0.08113035 0.1499551 -0.08011674
000300 94 a6 a0 bd 6a 27 67 bd 1f 17 24 be be 4a 85 bd
       -0.07844272 -0.056434073 -0.16024445 -0.065083966
000310 7f c8 90 bd 84 6a 37 be 2a 2d 7e 3c 7c e1 89 3d
       -0.070694916 -0.17911726 0.015513698 0.06732461
000320 f1 c5 7d 3c ec 25 d0 3c e3 21 30 3d 4f d9 d9 bc
       0.015489087 0.025408708 0.043001067 -0.026592879
000330 19 41 bb bd 8a 4f 8f bd de 8a 1e bc 0f 38 45 be
       -0.09143276 -0.06997593 -0.009676663 -0.19259666
000340 7e a9 3f 3e 05 ad 16 3d 9f 8c 54 bc e7 ed 44 3e
       0.18717 0.036786098 -0.01297298 0.19231378
000350 7c fe 0e 3e 3b 03 2f 3e d7 49 90 bd 44 6d 43 3e
       0.13964266 0.17091076 -0.07045334 0.1908465
000360 45 23 c7 bd a6 36 56 3d 88 84 25 bd cc 67 95 3d
       -0.09723524 0.05229821 -0.040409595 0.07295188
000370 bd 14 a0 3d 73 42 19 3e f2 17 1b be 7c 3c 09 3d
       0.078164555 0.14966755 -0.15145853 0.033504948
000380 18 68 00 bb 63 e7 59 bd 8c dd 14 3e 79 7d d1 3d
       -0.0019593295 -0.053199183 0.14537638 0.1022901
000390 8c 4b 23 be e6 07 30 be 89 19 54 bc 15 97 3a 3e
       -0.15946788 -0.17190513 -0.012945541 0.18221696
0003a0 55 76 ea bd 82 21 0c be 72 4e 55 3e a4 28 f0 bd
       -0.11448351 -0.13684657 0.20830706 -0.117265016
0003b0 97 68 3b be c4 9b 9c bc ac 23 ac 3d 56 56 d6 3d
       -0.18301617 -0.019117244 0.08405241 0.10465686
0003c0 d7 94 e5 3d 4c 51 17 be ba f1 75 3c a6 bc 25 be
       0.112100296 -0.14777106 0.015011245 -0.16185245
0003d0 2a 93 be 3d 8b 9e 23 3e 39 bb cc bd 05 10 4a be
       0.09305413 0.15978448 -0.099966474 -0.19732673
0003e0 b2 88 d5 bc f7 6a d5 bc cd fc f1 3d 8d 75 82 bd
       -0.026066158 -0.026051981 0.11815796 -0.06370077
0003f0 67 73 5b bd a5 c6 dd 3c 11 69 3b be 7c ef 03 be
       -0.053576853 0.02707226 -0.18301798 -0.12884325

model.model.decoder.encoder.layers.0.self_attn.in_proj_bias f4 [96]
000000 10 14 90 3b df cb 67 3c 20 e4 19 bc 8f 0e 28 3c
       0.004396923 0.014147728 -0.009392768 0.010257377
000010 c2 1d 20 3b da cf 2a bc 66 18 1f 3c 0c ba 2c 3c
       0.00244318 -0.010425532 0.009710407 0.010542404
000020 f8 ed 25 bc 93 c4 43 3c e3 d2 80 bb a5 97 4b 3c
       -0.010127537 0.011948722 -0.0039313897 0.012426292
000030 8e 6b 1f 3c 2a e0 2e bc a4 bc 30 bc c0 6c 1f 3c
       0.009730233 -0.010673562 -0.010787163 0.009730518
000040 30 77 25 3c 87 6b 52 3c 17 eb 28 3c 8e ad 3f 3c
       0.010099217 0.012843019 0.010309956 0.0116990935
000050 78 24 17 3c d7 40 34 3c 81 ea 1b 3c b2 c5 98 3b
       0.009225003 0.011001787 0.009516359 0.004662239
000060 75 a6 32 bc 39 aa 51 bc f7 f6 14 bc 51 c5 3f 3c
       -0.010903944 -0.012796932 -0.009092084 0.011704759
000070 d2 ff 22 bc 72 da 2c 3c 79 5e 19 bc 2a dc 33 3c
       -0.009948688 0.010550128 -0.009360903 0.010977784
000080 66 15 2d b6 f1 23 06 38 ea 80 69 38 3d db 49 38
       -2.5791464e-06 3.1981563e-05 5.567159e-05 4.8126316e-05
000090 bc 3f c1 37 ac eb 53 38 a8 04 14 37 0c 69 ac 37
       2.3037072e-05 5.0525807e-05 8.8225715e-06 2.0552914e-05
0000a0 aa 46 09 b7 81 da 6a 38 b9 2c 85 b5 ea 59 5b 36
       -8.182289e-06 5.5993445e-05 -9.922288e-07 3.268588e-06
0000b0 31 c2 cc b8 6d 8c 11 37 90 ab 7f b7 5e 76 b7 b7
       -9.763649e-05 8.675369e-06 -1.5239129e-05 -2.1870419e-05
0000c0 03 6a bd 38 8f 05 5a 37 10 36 82 35 5b fb 8f 37
       9.0319685e-05 1.2995107e-05 9.701489e-07 1.7163975e-05
0000d0 e7 6a 99 37 bb 16 14 38 41 1a 87 b7 c1 06 24 b8
       1.8288802e-05 3.530712e-05 -1.610548e-05 -3.9106937e-05
0000e0 4f 81 a8 b7 b8 59 36 b7 de d9 ca 37 13 84 2a b8
       -2.0087375e-05 -1.0868935e-05 2.4181729e-05 -4.0654162e-05
0000f0 81 02 3a b8 dc 77 80 38 53 c7 1f 37 46 3d 48 38
       -4.4348188e-05 6.125841e-05 9.523547e-06 4.774078e-05
000100 85 5d 63 bb f4 fc c9 bb 64 ad 8a 3b fc af b4 bb
       -0.0034693193 -0.0061641876 0.0042320956 -0.005514143
000110 9a fc 9a bb 45 51 9f bb cb ca 84 3b 67 a4 a4 bb
       -0.0047298195 -0.004861983 0.004052495 -0.005024481
000120 34 3e 29 b9 a6 b1 9c bb d6 90 88 ba 0a e2 8a 3b
       -0.00016140268 -0.0047819195 -0.0010419141 0.0042383717
000130 e1 f7 1e 3b 66 2d a1 3b 17 3f 9c 3b d5 f6 bb bb
       0.0024256634 0.004918742 0.004768263 -0.005736212
000140 c6 d7 12 bb 20 d3 94 bb a4 8f a0 3b 75 95 87 3b
       -0.0022406443 -0.0045417696 0.004899936 0.0041376897
000150 19 ee ee bb 7a 52 a3 bb 2f fe 0f 3c 99 07 d7 3b
       -0.007291567 -0.004984197 0.008788629 0.006562185
000160 3e 8a 40 3a 6b 3f 4c bb 93 99 12 3c 7d 07 d4 3b
       0.00073448184 -0.003116573 0.008947748 0.0064706192
000170 1a c0 1d 3b b2 00 98 bb 41 2d a1 bb 12 51 a8 3a
       0.00240708 -0.0046387548 -0.0049187248 0.0012841544

model.model.decoder.encoder.layers.0.self_attn.out_proj.weight f4 [32, 32]
000000 d8 95 14 3e ad 00 97 3d ef 50 a2 bd 77 27 84 bd
       0.14510286 0.07373176 -0.07925593 -0.0645284
000010 c6 76 fd 3c c3 70 80 bd 27 7a f8 3d 33 f6 2e 3d
       0.030940425 -0.062715076 0.12132674 0.042715263
000020 bb 96 1c 3e 10 7f 6d 3d 13 e4 e4 3b b9 4d 0d 3d
       0.15291874 0.057982504 0.0069851964 0.03449795
000030 c3 cc c1 bd 72 08 34 be 7d 12 cf bd 12 a2 2a be
       -0.09462883 -0.17581347 -0.10110948 -0.16663387
000040 69 6a a5 3d 2c 31 82 3d 10 43 d3 bd 80 30 1c 3e
       0.08076937 0.06357035 -0.103155255 0.15252876
000050 24 b7 4a bb b0 8d e5 bd 6f 03 23 3e 68 cf 95 bd
       -0.0030931914 -0.11208665 0.15919279 -0.0731495
000060 e3 4c b5 3d e3 d7 35 3e 35 67 fd bd 35 f2 4c bb
       0.088525556 0.17758135 -0.12373201 -0.0031272296
000070 e4 85 75 3d 75 e4 3c 3d 0a 21 21 3e 09 70 4c 3d
       0.05994214 0.04611631 0.1573526 0.049911533
000080 23 82 01 3e 16 07 09 3e f3 00 19 bd 87 ca 0c be
       0.126473 0.1338161 -0.03735442 -0.13749133
000090 3f 02 12 3c 4a df 99 3d 11 4d bd bc a0 b4 93 3d
       0.008911668 0.07513292 -0.023108037 0.07212186
0000a0 cb 5d b0 bc 44 44 c2 3d 21 5f d7 bc 89 8a 1a 3e
       -0.021529099 0.09485677 -0.026290478 0.1509191
0000b0 cc 5d 33 be d2 02 20 be e3 23 19 be f5 79 ad bd
       -0.1751625 -0.15626076 -0.14955096 -0.08470527
0000c0 ab 5a aa bd 7d 4d c1 3d dd 61 72 bd 9f 28 e0 bd
       -0.08318075 0.09438608 -0.05917536 -0.10945248
0000d0 c1 a8 fb bd 2f 51 02 3e 7e 43 8d bd 32 7c e9 3d
       -0.12288047 0.12726282 -0.06897639 0.114006415
0000e0 4e ac c1 bd d1 75 25 be 92 9b 0e be ac 28 fe 3d
       -0.09456693 -0.16158225 -0.13926533 0.12410101
0000f0 77 09 23 be 28 d6 2b 3d 7e 9b 3d 3c f9 0c 41 3b
       -0.1592158 0.041952282 0.011572717 0.0029457195
000100 89 49 76 bd f0 ab f6 bd 61 70 08 be 74 66 00 be
       -0.060128722 -0.12044513 -0.13324119 -0.12539083
000110 17 ee 11 3e 1b 75 35 be b1 75 04 bd 62 af 08 be
       0.1425098 -0.17720453 -0.0323388 -0.13348153
000120 d5 05 f6 3d d7 81 56 3d ac 69 9f bc 04 7b 9c 3c
       0.12012831 0.05236992 -0.019459568 0.019101627
000130 2c 4f ed 3d 2f f8 fc bc d7 55 ff 3d c3 cb aa bd
       0.115873665 -0.030880062 0.124675445 -0.08339646
000140 c0 dc 75 bd 56 05 92 3d f6 32 29 3e a2 9d 21 3d
       -0.060024977 0.07129924 0.16523346 0.03945697
000150 de 41 9f bd 76 e2 a0 bd 9e 92 45 3c ed 16 6a bc
       -0.07776235 -0.07855694 0.012058882 -0.0142876925
000160 5b f9 59 3d 8f 40 17 3e 47 a9 78 3c f5 7c 13 3e
       0.05321632 0.14770721 0.015177078 0.14403136
000170 9f 39 cc 3c 33 15 a9 bd 5f 1f 6b bd 15 52 01 3d
       0.02492982 -0.082559966 -0.057402965 0.03157242
000180 64 35 98 3d 8c d0 50 3d 57 d9 15 be f2 83 b6 bd
       0.074320585 0.050980136 -0.1463369 -0.08911885
000190 b2 56 e4 bb fe cd 2d be 55 2c 19 be 73 e5 10 be
       -0.0069683427 -0.16973111 -0.14958318 -0.14150028
0001a0 30 62 51 bd 6d 92 2b be 1f 9a b2 bb ef ce 0d bd
       -0.05111903 -0.16755076 -0.0054505016 -0.034621175
0001b0 60 34 9c bd 88 0b ba 3d a8 ae 27 3e 2f 64 04 be
       -0.07627177 0.09084231 0.1637522 -0.12928842
0001c0 fe 1e 08 bd 86 a9 bd bc 05 a9 f5 3d 9e fa 15 3e
       -0.03323268 -0.023152124 0.119951285 0.14646384
0001d0 56 0e 06 bd b7 9a 34 be 63 c5 b2 3d 47 cd 7d 3d
       -0.032728516 -0.17637144 0.08729055 0.061963346
0001e0 81 62 20 3d 1f ef ed bd 61 64 5b bd 10 3a d1 bd
       0.03915644 -0.11617874 -0.053562526 -0.10216153
0001f0 a2 86 69 3d dc 11 69 bd 59 dd 96 bd fc 5b 22 bd
       0.05701316 -0.056901798 -0.073664375 -0.039638504
000200 93 9c a6 3d 01 8f 18 be 40 ae b7 bd 1e 9e 04 bd
       0.08135333 -0.14898302 -0.089687824 -0.032377355
000210 65 e2 be 3d 33 64 93 bd 73 83 83 3d a1 68 f1 3d
       0.09320525 -0.07196846 0.06421556 0.117875345
000220 46 7d dd bc 44 e4 b2 bd 87 93 7c 3b f1 67 70 bd
       -0.027037274 -0.087349445 0.0038540082 -0.058692876
000230 51 c5 ef bc fe fc 0c 3d c8 28 80 3d 2f 7c b3 bc
       -0.029268892 0.03442096 0.062577784 -0.021909801
000240 7d ba 36 bd 64 ee fd 3d 51 77 9a bc 54 19 cb 3d
       -0.044611443 0.12398985 -0.018855723 0.0991694
000250 27 24 bf 3d 2d 94 10 3d 94 66 08 be 03 70 ea bd
       0.093330674 0.03529756 -0.1332038 -0.11447146
000260 d4 29 c0 bd 2a df 39 bc c1 a8 56 bd 1e 2a f9 bd
       -0.09382978 -0.01134471 -0.05240703 -0.12166236
000270 89 1d 08 3d a3 45 e4 3d a6 e9 27 bd 37 a3 a3 bd
       0.033231292 0.11146095 -0.04099431 -0.07990115
000280 30 27 93 bd 4f b3 13 3e 6e 0b 87 3d a4 63 ce 3d
       -0.07185209 0.1442387 0.06593977 0.10077599
000290 cd d9 f7 3d 2a 6b 26 3e ba c9 1e 3e b1 55 40 3c
       0.12102089 0.16251817 0.1550664 0.01173918
0002a0 84 32 2d 3e 38 51 8b 3d 6c 2e b6 bd 95 b0 cb 3d
       0.16913801 0.068026006 -0.08895573 0.0994579
0002b0 99 1a 48 bd bd ff a5 bd 18 b7 25 3e aa 83 21 bd
       -0.04885349 -0.08105419 0.16183126 -0.039432205
0002c0 f9 57 2d be 6a c3 2c bd 20 7f 95 3d 14 05 f6 3d
       -0.1692809 -0.04217855 0.07299638 0.12012687
0002d0 41 f5 72 bd a0 e9 1e be 6f cb 0f 3e 19 b8 ba 3d
       -0.059315924 -0.15518808 0.14042448 0.09117145
0002e0 0f ab 3a bd 90 22 38 be f1 53 53 3c df 72 35 3e
       -0.04557329 -0.17981935 0.012898431 0.17719601
0002f0 86 ec fa 3c 49 c9 91 bd 04 81 d9 bd 60 02 95 bd
       0.030630361 -0.0711847 -0.10620311 -0.072758436
000300 78 a9 1b bd b9 8c b8 3d d5 63 25 3e 30 e0 da 3c
       -0.038003415 0.09011216 0.16151364 0.026718229
000310 b0 b9 8f bd 03 0d e5 3d 20 3c 00 3d ae 9b 10 3e
       -0.07017839 0.111841224 0.03130734 0.14121887
000320 8e b1 21 be 59 91 4c 3c c0 0c f9 bd ad 5b 0c be
       -0.15790388 0.012485825 -0.12160635 -0.13706847
000330 a6 bf 9a bd b7 dd 35 3e fd d8 2d be 56 ec 9c bd
       -0.07556085 0.17760359 -0.16977306 -0.07662265
000340 ec e3 b9 3d b3 10 ab bd ae b5 30 3d 0c 6c 26 bd
       0.09076676 -0.083527945 0.043142013 -0.040630385
000350 94 7a da 3d b3 e2 a6 bd 91 3f 35 3e 6d 2d 3e 3d
       0.10667911 -0.08148708 0.1770003 0.04643004
000360 3b a9 17 be db c6 39 be 71 c5 8a 3d 3e f0 e7 3c
       -0.1481065 -0.18142264 0.0677594 0.028312799
000370 bd bf 12 3d 7d 98 5d bd d6 33 b1 bd b6 94 82 bc
       0.035827387 -0.054100502 -0.08652465 -0.015940052
000380 9e 03 01 bc 7a da c7 bc bc 4f 26 3c 87 03 88 3d
       -0.007874398 -0.02439617 0.010150846 0.06641298
000390 a9 e8 33 bd ea 55 06 3e f5 68 f1 3d fa 1e 33 3e
       -0.043923054 0.13118711 0.11787597 0.17492285
0003a0 bc d1 2b 3d 38 3a 88 3c 7a d5 c6 bd 32 c7 02 bc
       0.041948065 0.016629323 -0.09708686 -0.007982062
0003b0 28 a2 1a 3e e2 7f fc 3d 27 3b 12 be 14 57 96 3d
       0.1510092 0.12329079 -0.14280377 0.073408276
0003c0 d6 cc 38 3d 4e fb 13 be b9 4f e0 3d 2f 1c ac bd
       0.04511722 -0.14451334 0.10952706 -0.08403813
0003d0 2c c4 27 be 80 10 0a bd 6e 0d e4 bc cb fb fe bd
       -0.16383427 -0.033707142 -0.027838435 -0.124503694
0003e0 8f 93 f5 3c a6 78 b6 3d 86 3c 25 be 1f 4a be 3c
       0.029977588 0.089097306 -0.16136369 0.023228703
0003f0 94 cd d6 3d 93 85 2c 3c 9c 04 0b 3d c3 62 1c 3e
       0.1048843 0.010529893 0.033939943 0.1527205

model.model.decoder.encoder.layers.0.self_attn.out_proj.bias f4 [32]
000000 e0 6c 93 bb 4f f8 70 bb 99 b7 a1 3b 37 98 92 3b
       -0.004499063 -0.0036769097 0.0049352166 0.004473712
000010 42 5d b8 bb 8f c7 8a 3b ce c9 0c 3c e4 cb a2 3a
       -0.0056263516 0.004235215 0.008593036 0.0012420383
000020 4f 4e e8 bb 21 c7 e0 bb dd af 21 bc 7b 21 c8 ba
       -0.0070894132 -0.0068596755 -0.009868589 -0.0015268767
000030 fe c1 d1 3b 54 3c 09 3c 68 91 bb bb e1 8c 92 bb
       0.0064012995 0.0083762 -0.005724121 -0.0044723605
000040 00 49 c9 bb e3 09 02 3c fd 2c a5 3b 15 dd a9 3a
       -0.0061427355 0.0079369275 0.0050407634 0.0012959564
000050 5e 3f 5f 3b 79 c2 43 bb d7 70 92 bb 7a 92 87 3b
       0.003406487 -0.0029870553 -0.004469018 0.0041373344
000060 72 ce e8 3b f2 90 92 3b ed 5e b8 3b 22 aa 8a 3b
       0.0071046883 0.0044728452 0.0056265504 0.004231707
000070 19 04 0c bb e6 f0 b1 3b 16 36 80 bb 9c 23 48 bb
       -0.0021364747 0.0054303287 -0.0039126975 -0.0030538803

model.model.decoder.encoder.layers.0.linear1.weight f4 [128, 32]
000000 89 75 1c 3e a6 5b 8a bc dc 7b a8 3d 4b 7d 0e 3e
       0.15279211 -0.016889405 0.08226749 0.13914983
000010 4b 2e 27 bc 4e 0f 01 be a9 13 d1 3d 42 af 21 be
       -0.010203908 -0.12603495 0.10208828 -0.15789512
000020 44 2e 1d 3d e5 cd fc bd dc 13 55 3d 5d 0a 47 bd
       0.0383742 -0.12343959 0.052020893 -0.048593868
000030 37 04 1d be f5 86 b9 bc 90 43 d5 3d b2 27 f2 bc
       -0.15333639 -0.02264736 0.10413277 -0.029559944
000040 ac 8f d9 bc 2b a7 e1 3d da 1f 93 3d 31 80 6e 3d
       -0.026557766 0.11018213 0.071838096 0.05822772
000050 22 0b 96 bc 90 c4 0d 3e ee d6 1e 3e 73 83 b0 3c
       -0.018315855 0.13844514 0.15511677 0.021547055
000060 6c 07 ae 3c 89 ce 62 3d 6a 68 2d bd d6 09 6d 3d
       0.021243773 0.05537275 -0.042335905 0.05787071
000070 b4 a6 1d 3e 48 f6 26 3e 75 ac 01 3e 12 9f 31 3e
       0.15395623 0.16304886 0.12663443 0.17345837
000080 62 5a 29 be 98 17 be bb f4 b8 aa bd b3 e5 dd 3d
       -0.16538385 -0.0058011524 -0.08336058 0.10834827
000090 42 54 59 3d 73 0c b9 bd 91 7c c8 3d e2 88 6a 3d
       0.05305887 -0.090355776 0.09789384 0.057259448
0000a0 c9 f8 4b 3d f5 eb 2b 3e cd 4a 2c be 23 df 25 3e
       0.049797807 0.16789229 -0.16825409 0.16198401
0000b0 3f 75 a0 bd 45 ad 25 bc 17 ba 9a bc 92 42 11 be
       -0.07834863 -0.010112111 -0.018887563 -0.14185551
0000c0 34 84 d3 bd a2 58 c8 bd 4d f4 91 3d c0 22 12 3e
       -0.1032795 -0.0978253 0.07126675 0.14271069
0000d0 a5 e2 29 3e 72 ad 37 3d ab ed 17 3e 61 9a c8 bd
       0.16590364 0.044843145 0.14836757 -0.097950704
0000e0 4c 78 f2 3d 05 54 ad bc 55 ff 11 be 89 1b e6 3c
       0.11839351 -0.021158228 -0.14257558 0.028089302
0000f0 3e 73 29 3c 38 66 f3 bb f3 93 81 3d a7 ea 9e bd
       0.010342417 -0.007427957 0.06327047 -0.077596
000100 74 24 82 3c 37 08 0b 3e de 50 05 3e e2 e0 2a 3e
       0.015886523 0.13577352 0.1301913 0.16687348
000110 1a a5 c2 bd 6f f0 3b 3d 19 aa 0a be 19 a6 5b bc
       -0.09504147 0.045883592 -0.1354145 -0.0134063
000120 a6 e8 61 bb 6f 89 58 bd 9e f2 40 3d 25 33 e3 bd
       -0.0034470945 -0.052865442 0.047106378 -0.110937394
000130 fe f2 8a 3b 0b 1a 5e ba e1 d9 89 3d b0 8d 28 be
       0.0042403927 -0.00084725086 0.0673101 -0.164603
000140 b5 ed e3 bd 3b 3d 56 3d 98 51 d9 bd 83 e7 3d 3d
       -0.111293234 0.052304488 -0.10611266 0.046363365
000150 34 9b f7 3c 5a 11 60 bd 39 19 2a be 17 a2 fe 3c
       0.030225374 -0.054704048 -0.16611184 0.03108315
000160 0c 30 f2 3d 54 2b 27 3e 7e 36 08 3e 68 87 12 be
       0.118255705 0.16325122 0.13302037 -0.14309466
000170 af 35 c4 3c 8d e0 3f 3c 65 a9 18 3e 5e fb 20 3c
       0.02395138 0.011711252 0.14908369 0.009825556
000180 83 7e 1c 3e d0 9c f5 bd e4 78 a1 3b 42 5c 8e bd
       0.15282635 -0.119928 0.0049277414 -0.069511905
000190 a3 39 dd 3d f6 8c 23 3d 8a b2 2d 3d f6 06 a7 bd
       0.10802009 0.039929353 0.042406596 -0.081556246
0001a0 90 9c 36 3e c7 53 1d 3d a6 01 a5 bd 15 ae 2e bd
       0.17833161 0.038409974 -0.08056955 -0.042646486
0001b0 9a 6a fc 3c a7 d5 2a 3e 48 d6 27 3e e0 69 d4 bd
       0.03081255 0.16683064 0.16390336 -0.103717566
0001c0 6f d5 8f bd f1 99 75 bd a3 82 27 be 72 81 62 bd
       -0.07023131 -0.059961263 -0.16358428 -0.05529923
0001d0 6b 87 88 3d 53 52 0e be ba f6 c1 bd 0c 2f ac bd
       0.06666454 -0.13898592 -0.094708875 -0.08407411
0001e0 d6 7c 1b be 46 2f 26 3d ff f9 2c 3d 27 fa 36 bd
       -0.1518434 0.040572427 0.042230602 -0.044672158
0001f0 57 30 91 3d 71 a3 ba bd f4 b7 f2 bd e4 ee 55 bd
       0.07089298 -0.09113205 -0.118514925 -0.052229777
000200 8a b0 21 be 2f d5 70 bb e7 6a 03 3e 6c 1a 40 3c
       -0.1579 -0.003674816 0.12833749 0.0117250495
000210 e8 fc 7f 3d af 44 30 bd d9 42 03 3e 78 0b d5 bd
       0.06249705 -0.04303425 0.12818469 -0.10402578
000220 25 98 2f be de 35 6e 3d 9e 2f 2d be 22 e3 48 3b
       -0.17147882 0.05815684 -0.16912696 0.003065296
000230 cd 74 9b ba da 1b 8e bd 79 de 22 be 8b b4 8f bd
       -0.0011860371 -0.06938906 -0.15905179 -0.07016858
000240 32 06 db bd 7a d8 18 3e 75 e1 29 be ef bd bf bd
       -0.10694541 0.1492633 -0.16589911 -0.09362399
000250 2b 26 a4 3d 26 9f 68 bc fa 5a 91 3b 98 2c 4e 3c
       0.080150925 -0.0141981 0.004435894 0.012583874
000260 70 ed 19 be 76 4c c7 3d cf be b1 3d b1 dd 12 3c
       -0.15031981 0.09731381 0.08678972 0.008963988
000270 04 24 06 3e 24 74 05 bd fa f0 3a 3d be e9 8c 3d
       0.13099676 -0.032581463 0.04563997 0.0688052
000280 5f 5b 8e 3d 50 93 27 be 86 df 28 3d 21 02 ac bd
       0.069510214 -0.16364789 0.041228794 -0.083988436
000290 7f 20 00 be 39 5f 18 3e 2a 8f bc 3b f5 8f 2b 3e
       -0.12512396 0.14880075 0.005754371 0.16754134
0002a0 ea 9c 2c 3e 2b 0b 90 bd 93 da 12 be ec ce 32 be
       0.16856733 -0.0703338 -0.14341192 -0.17461747
0002b0 1f 44 38 be de 30 b8 3d de b7 d7 3d d6 42 b3 bd
       -0.17994736 0.08993696 0.10533117 -0.08752982
0002c0 fb 42 1a bd d5 b3 a9 3d e1 96 d9 3d d2 af 86 bd
       -0.037661534 0.08286253 0.10624481 -0.06576504
0002d0 70 0e c0 bd 55 02 14 bd 5f 1f 4d bd f5 41 f6 bd
       -0.09377754 -0.036135036 -0.050078746 -0.12024299
0002e0 bc b3 cf bd 03 0c 11 3e d2 99 74 bd ea 16 b0 bc
       -0.101417035 0.14164738 -0.059717007 -0.021495301
0002f0 c0 a9 c1 bd 62 b0 16 3e 05 b2 ac 3d c1 17 8c 3c
       -0.09456205 0.14715722 0.08432392 0.01710117
000300 25 9b fb 3d b9 ed f9 3d 33 34 a2 3c 69 ea 32 3e
       0.12285451 0.12203545 0.019800281 0.17472233
000310 40 c4 00 3e 83 f3 7f bd 31 a4 12 be 1a 95 0e be
       0.12574863 -0.06248809 -0.14320447 -0.13924065
000320 ad f7 c5 3c 2b 02 26 3e 4a 8c 20 3e ed da 11 3e
       0.024165953 0.16211765 0.15678516 0.1424367
000330 00 eb ac bd 3f 6a bc 3c 02 d0 a0 3d 60 b6 bd bd
       -0.0844326 0.02299988 0.07852174 -0.09263301
000340 d2 cc 5c bd bd 99 cb bd d2 17 fa 3d 65 8d 98 bd
       -0.05390627 -0.099414326 0.122115746 -0.07448844
000350 24 95 36 3d 70 b6 b9 bd 8a 56 c1 bd 63 4d 58 bd
       0.044575825 -0.09068 -0.09440334 -0.052808177
000360 d5 69 1f be 5e 86 12 3e c7 3b 1f 3e 64 87 a4 bd
       -0.15567715 0.1430907 0.15550147 -0.08033636
000370 6e 7f 32 be 5d 7a ca bd c4 7a b9 3d 42 b8 13 be
       -0.17431423 -0.0988662 0.09056619 -0.14425758
000380 0e 30 1b be 36 8d ef 3d 0b 2d 88 bc 0b b3 91 bd
       -0.1515505 0.11696856 -0.01662304 -0.07114228
000390 f6 91 80 3d 68 70 62 bc 7c d7 20 3d ba e7 16 3e
       0.0627784 -0.013820745 0.039268002 0.14736834
0003a0 09 25 1a bc 16 87 fc bc ff 10 18 bc ec 7a e8 3d
       -0.009408244 -0.030826133 -0.009281396 0.113515705
0003b0 e7 3c 84 3c fc 67 1b 3e 6a 3f 03 bd 3e 85 24 be
       0.016142322 0.15176386 -0.0320429 -0.16066453
0003c0 da fd 13 be f9 ee ba 3d 91 fd 43 3b 35 e3 68 bd
       -0.14452305 0.09127612 0.0029905776 -0.056857307
0003d0 ee 0c 2d 3e 37 0a 2d 3e 02 13 ab bd af 04 2f be
       0.16899464 0.16898428 -0.08353235 -0.1709163
0003e0 4a 93 11 bd c0 e3 87 3c f4 05 18 be 5b c0 f7 bd
       -0.035540856 0.016588092 -0.14846021 -0.12097236
0003f0 87 26 dd 3d dc 8e 06 3e 42 01 f5 bd 9c c0 95 bd
       0.10798364 0.13140434 -0.119631305 -0.07312128

model.model.decoder.encoder.layers.0.linear1.bias f4 [128]
000000 1a df b0 3d b9 9d be 3c fc 3e c5 bd 41 1f cd bd
       0.08636303 0.023268567 -0.09631154 -0.10015727
000010 88 09 1f be 59 0a a8 3d f8 34 b3 3d f7 64 01 be
       -0.1553098 0.08205099 0.08750337 -0.12636171
000020 67 84 16 3d 96 3c 11 bd d3 1a ad 3d e4 5c e0 bd
       0.036747362 -0.03545817 0.08452382 -0.109552175
000030 76 c1 0a 3d fe ab 29 bd 99 95 2d be 78 5d 19 be
       0.033875905 -0.04142379 -0.16951598 -0.14977062
000040 50 6a 46 3d 01 4d b3 bd d0 3d ef bb 6c fc 5b 3d
       0.04844123 -0.08754922 -0.00730107 0.053707525
000050 e3 b8 34 3c fd 6a 60 bd 27 9e 3a 3e 01 dd 11 3e
       0.011030409 -0.054789532 0.18224393 0.14244463
000060 89 28 2e 3e 28 62 bf bd 0e 44 1c 3e a3 2f e6 bd
       0.1700765 -0.09344894 0.15260336 -0.11239555
000070 48 37 91 3d 08 78 28 3b b8 d6 cd bd a9 a1 81 3d
       0.07090622 0.002570631 -0.1005072 0.06329662
000080 fd 42 f5 3d 17 44 2e bc e1 0d 31 3e ed f8 fd bc
       0.119756676 -0.010636351 0.1729045 -0.031002486
000090 21 0d 0f 3e 36 32 b1 bd 6e d5 1a 3e 42 c8 2b 3d
       0.13969852 -0.08652155 0.1512048 0.041939028
0000a0 5d c7 a1 bc ec c4 6a bd 2c 30 ae bc 56 02 f2 bd
       -0.019748384 -0.057316706 -0.021263205 -0.11816852
0000b0 3c fc ec bc ec 4a 1d 3e cb 8e 01 3e 9a fc a4 3d
       -0.028928868 0.15360612 0.12652127 0.080559924
0000c0 f3 f7 09 3c 43 89 1f 3e a8 69 e0 3d e7 89 81 bd
       0.008420932 0.15579705 0.10957652 -0.06325131
0000d0 69 56 21 3e 56 b0 f7 3c 15 be 90 3d f8 b1 1e be
       0.15755619 0.03023545 0.07067505 -0.15497577
0000e0 6c 2d 0b bd a6 77 09 be c9 9e 81 3d 6c a2 d2 3c
       -0.033978865 -0.13424549 0.06329114 0.025712214
0000f0 51 df 9e 3d 13 55 53 bc 9a 1b c6 3d 27 3f 0a 3e
       0.07757438 -0.012898701 0.09673233 0.13500653
000100 f8 1c b9 3c e7 c6 0d 3e e7 a3 d9 bd 06 41 68 3c
       0.022596821 0.13845406 -0.10626965 0.014175659
000110 15 47 90 3c a6 e5 0f 3a 8c e8 f2 bd 26 19 14 3e
       0.01761202 0.00054892374 -0.11860761 0.14462718
000120 99 7c ff bd d0 45 f8 bd e4 e7 d2 bd 89 18 a5 bc
       -0.12474937 -0.12122691 -0.10298136 -0.0201533
000130 97 15 2e bd cb 18 24 bd 2a 4a a6 3d d5 24 2b 3e
       -0.04250106 -0.040062707 0.081196144 0.16713269
000140 73 d0 f1 3d 7b ec bc bd 96 3e db 3d aa a5 b9 bd
       0.11807337 -0.092247926 0.10705297 -0.09064801
000150 f0 25 ff bd dc 49 1b 3e ab 00 5e bd e6 ed 20 be
       -0.12458408 0.15164894 -0.054199856 -0.15715751
000160 f6 73 b4 3d ac 6b be 3d 59 c3 10 be 39 de 9b bd
       0.0881118 0.092978805 -0.14137019 -0.07610745
000170 3a 9e 8e 3d 77 a0 28 bd e0 2e 42 3d 58 f0 0b be
       0.06963773 -0.041168656 0.047407985 -0.13665903
000180 2d 29 ac 3d 58 21 13 be 48 32 25 be a5 26 da bd
       0.08406291 -0.14368188 -0.16132462 -0.10651902
000190 50 19 17 3d ff 95 d5 3d 3d eb 1c 3e 82 9f 17 3e
       0.036889374 0.10429 0.15324111 0.14806941
0001a0 7c a4 99 3d 6f 0c d9 bd 41 d0 11 3e 02 8c 02 be
       0.07502076 -0.10598075 0.14239599 -0.12748721
0001b0 23 7f 28 be 2a 43 b8 3c 93 44 76 3d 54 0d 8e bd
       -0.16454749 0.022492964 0.06012399 -0.06936136
0001c0 8b 28 31 be ce ec 07 3e 42 a7 f2 3d 07 42 d1 3d
       -0.17300622 0.13273928 0.11848308 0.10217672
0001d0 3c 39 f9 bd 51 ce d4 3d a3 c1 6e bd b6 a2 2d bd
       -0.1216912 0.10390914 -0.058290135 -0.0423915
0001e0 ac 86 ab 3b 83 96 26 3e f5 51 2b 3e 18 c3 df 3d
       0.00523456 0.16268353 0.16730483 0.10925883
0001f0 c0 aa 06 be 5f 89 03 3e 85 4c 22 be 39 1e fe 3d
       -0.13151073 0.12845372 -0.15849502 0.12408108

model.model.decoder.encoder.layers.0.linear2.weight f4 [32, 128]
000000 96 19 3d 3d 7c cd 8f bd ac 50 ce bc e9 42 38 3d
       0.04616698 -0.07021615 -0.025184952 0.044985685
000010 55 fa a3 bd c8 c0 8b 3d d3 25 22 3d a1 50 6d bd
       -0.080067314 0.068238795 0.039586853 -0.05793822
000020 7a 82 9b bc af 1a 8d 3d bc 18 36 3d de ae fd 3c
       -0.018983115 0.06889855 0.044457182 0.030967172
000030 7d 58 51 3c 45 e0 a7 bd 43 85 0c 3d f5 b0 86 3d
       0.012777445 -0.08197073 0.034306776 0.065767206
000040 e9 1d 1a bd 14 c2 82 bd 19 e4 3b 3d 5a 12 2a 3a
       -0.03762618 -0.06384674 0.045871828 0.000648772
000050 94 c0 8c bd 65 f0 ba bc dd 17 99 3d ef 0b f7 bc
       -0.06872669 -0.022819707 0.07475255 -0.030157058
000060 b2 8a b9 3c e3 56 33 bd c6 74 51 bd a9 69 27 bd
       0.022649143 -0.043784034 -0.051136754 -0.04087225
000070 29 8b 82 3d f6 fc fd bb b8 3f 08 3c 3f 25 c8 bc
       0.06374199 -0.0077511026 0.008315973 -0.024431823
000080 62 33 86 3d 3a 82 08 bd 47 c6 8c 3d ce 12 69 bc
       0.06552769 -0.03332732 0.06873756 -0.014225675
000090 7c cf fa bb 48 e0 91 ba f0 9d 47 bd e4 7b 23 3d
       -0.0076541286 -0.0011129463 -0.048734605 0.039913073
0000a0 fd 9c a1 bc 72 7a 41 bc 04 15 4c bd 8c e6 8e 3b
       -0.019728178 -0.011808978 -0.04982473 0.0043609794
0000b0 e3 7f 89 bc e8 55 89 bd 62 e6 83 bd 45 c9 37 3d
       -0.016784614 -0.067058384 -0.064404264 0.04486968
0000c0 f9 30 b7 3d 10 67 c0 bd f7 13 a2 bc 5a f7 94 3d
       0.08944888 -0.093946576 -0.01978491 0.07273741
0000d0 f7 b8 38 bd d9 4a 7b 3d 59 86 cb bc 18 f1 3c bc
       -0.04509827 0.061350677 -0.024844335 -0.011532091
0000e0 1b ef 8a 3d 56 4a f2 3b 5a b3 84 bd d9 10 09 3c
       0.06783887 0.0073941154 -0.06479521 0.008365833
0000f0 27 2b 27 3d 1c c8 ab 3d 89 ab 03 bc 74 1e 03 3d
       0.040812638 0.08387777 -0.008036503 0.032011464
000100 d6 2a a5 3c c6 4a 88 3d d8 93 2d 3d 38 49 a7 bc
       0.020162027 0.06654887 0.042377323 -0.020420656
000110 ba 1e 97 3c 7d ef 42 bc 31 2e ae bd 7c 35 cd b9
       0.018447269 -0.011897919 -0.08504904 -0.00039140496
000120 a7 40 c8 bc 75 ea a2 3d 0d fa 49 3d 4c 14 19 3d
       -0.024444891 0.079548754 0.049310733 0.037372872
000130 28 e4 70 3d 52 96 86 bd f9 90 3f bd ba 56 09 bd
       0.058811337 -0.0657164 -0.046769116 -0.033529975
000140 a3 54 42 bd 6b 8f 49 bd df 49 41 bd 2d c1 e4 bc
       -0.047443997 -0.04920904 -0.04718959 -0.027924145
000150 15 3c 96 bd fe aa 7b ba 33 77 34 bd 8b 79 77 bd
       -0.073356785 -0.000960037 -0.04405899 -0.060418647
000160 d2 8a 04 3d 2d a2 94 3d 9a 87 a2 bc c0 44 3c 3d
       0.032358952 0.07257495 -0.01984005 0.045964003
000170 29 4d 0e 3d cf c3 7f 3d 84 c6 86 bd e3 61 a1 bd
       0.034741554 0.062442597 -0.065808326 -0.078799985
000180 e0 0f 8a 3d 4c e3 10 bd c8 8e 0b 3d da d9 3c bd
       0.06741309 -0.035373017 0.034071714 -0.046106197
000190 b1 e0 f2 bc ac d5 1e bc 37 6c 8c bd 13 17 42 3c
       -0.029648157 -0.009694498 -0.06856578 0.011846322
0001a0 33 9a a5 3d 1a 81 8d bd fb 28 ce bc 20 98 92 3b
       0.08086052 -0.0690939 -0.025166025 0.004473701
0001b0 25 e4 62 bc 42 a3 e2 bc 65 0b 88 bd 40 4f 48 3d
       -0.013848339 -0.027665738 -0.06642798 0.048903704
0001c0 f5 9a 5a ba 0a d0 67 bd b0 61 90 bd fc e7 54 3b
       -0.00083391304 -0.056594886 -0.070498824 0.0032486906
0001d0 fb 2f 91 3c df fe 3a 3d fc 22 93 3d 37 51 c1 3d
       0.017723074 0.04565322 0.07184407 0.094393186
0001e0 67 e1 1f bd 84 d5 11 bd 87 a8 45 3d 4f 84 09 3d
       -0.03903332 -0.035604015 0.048256423 0.033573445
0001f0 a0 36 79 bd 44 ec 17 bd fe 59 70 3d b5 8f 37 3b
       -0.06084311 -0.037090555 0.058679573 0.002800924
000200 75 00 a4 bd 8c 9d 7d 3d 3f de 3b 3d 4b 6c a2 3d
       -0.080079 0.061917827 0.045866247 0.079308115
000210 6f 0f 0e 3d c3 8e a0 bb e9 34 1e 3d 55 21 58 bd
       0.034682687 -0.004899831 0.038624678 -0.052766163
000220 12 5a 2b bc 22 53 72 bd a2 16 a2 bd 0e af 81 3d
       -0.010458486 -0.059161313 -0.07914473 0.06332217
000230 1d 82 05 3d 24 b3 91 bc 22 67 e8 bc 8d 35 5e 3d
       0.03259479 -0.017785616 -0.02836949 0.05425029
000240 fa aa b8 bd 62 5e bb 3c 8b 28 92 bd fd 21 a2 3d
       -0.09016986 0.022872154 -0.07136639 0.07916639
000250 f5 a4 9e 3d 44 24 8e 3d ab 50 2a 3d 85 d7 13 bd
       0.07746307 0.06940511 0.041580837 -0.036094207
000260 c0 de 77 bd 34 df 08 bd 88 d9 96 3c bb f4 e9 3c
       -0.060515165 -0.033415988 0.018414274 0.02855908
000270 0f f5 85 bd 4c f8 b8 3d 5d da 93 3d b4 93 b3 bd
       -0.06540882 0.09031734 0.07219384 -0.087684065
000280 c2 08 9e 3d 62 9a be bc 2a 8e 51 39 8c 8c ac 3c
       0.07716514 -0.023266975 0.00019984753 0.021063112
000290 13 fc 82 3d 59 91 87 bd 08 e5 e4 bc 20 f7 11 bd
       0.063957356 -0.0661952 -0.027941242 -0.035636067
0002a0 d1 63 7b bd cd bd 80 3d 47 e5 48 38 ab f0 92 bd
       -0.06137449 0.062862016 4.7897247e-05 -0.0717481
0002b0 d1 d9 99 3d 83 50 41 bd 35 c9 ad bc 1b ab a0 3d
       0.07512248 -0.047195923 -0.021214107 0.07845136
0002c0 69 72 39 bc e8 93 e0 3b f8 7a 84 3d 88 b3 38 3d
       -0.011318781 0.0068535693 0.06468767 0.04509309
0002d0 5a a9 a2 3d 50 53 f3 bb 5b d9 af bd 30 50 37 3d
       0.079424575 -0.007425703 -0.08586379 0.044754207
0002e0 1d 17 8d 3d 31 d4 9f 3a b4 22 8f bd 46 bf 01 bd
       0.06889174 0.0012193975 -0.06989041 -0.031676553
0002f0 be 4f 5c 3d 52 ec 20 bc 71 04 d3 3c 2f 40 79 bd
       0.053786986 -0.009821968 0.025758954 -0.060852226
000300 ce 36 83 bd 9d 91 9b bd c0 0a 9c 3d bc bf 9d 3c
       -0.064069375 -0.07596133 0.07619238 0.019256465
000310 89 9e 52 bd cf 7b aa 3d d5 35 7d bc 49 d5 18 3c
       -0.051420722 0.08324396 -0.015454729 0.009328195
000320 c1 43 ab bc 1c 6c 55 bd 86 88 69 bd 1f b2 e7 3b
       -0.020906331 -0.052105054 -0.057014965 0.0070707942
000330 16 33 5a 3c b4 69 95 3c b4 73 4e 3d 3e 54 67 3d
       0.013317844 0.01823888 0.05040331 0.056476824
000340 de ab 68 bd ad 20 70 3c 44 26 f7 bc 32 b5 02 bd
       -0.05680453 0.014656228 -0.030169614 -0.031911083
000350 e4 94 95 3d d4 ce af bd c3 c9 fc 3c c6 22 ba bc
       0.07303789 -0.08584371 0.030857926 -0.02272166
000360 0c c3 6a 3d 0d 94 de 3c 0c ec 1f bc 93 53 aa 3d
       0.057314917 0.027170205 -0.009760868 0.08316722
000370 71 8b 03 3c 7a 98 12 bd ae 0d 6c 3c 35 47 09 39
       0.008028851 -0.035789944 0.014407558 0.00013091865
000380 3c 1e 9f bd c6 a9 ac 3d 57 42 3f bd 7a ba 00 bd
       -0.077694386 0.08430819 -0.046694126 -0.031427838
000390 de bb db 3c a6 ea 6b bc 42 ca 1d bb 87 0c 71 bd
       0.02682298 -0.014399206 -0.0024076854 -0.058849838
0003a0 cc 71 c3 3c 00 b4 15 3d 87 30 89 3d f1 58 b2 bd
       0.023857974 0.036548615 0.06698709 -0.087083705
0003b0 e2 db 17 3c a7 67 96 bd 84 5b a6 bc 35 b5 34 3d
       0.009268733 -0.07343989 -0.02030731 0.044118125
0003c0 ac 6e 84 bd e4 c1 99 3c 25 6c c4 3c ec 2e be bd
       -0.064664215 0.018769212 0.023977349 -0.092862934
0003d0 1e d5 76 3d 9a 79 11 bd a1 3d 51 bd fe d1 9a 3d
       0.06026184 -0.03551636 -0.051084165 0.07559584
0003e0 03 e7 56 3d 9b 57 c4 bd 29 ef 15 bd 0d 5c c4 3c
       0.052466404 -0.09587022 -0.036605034 0.023969674
0003f0 dc ae 64 bd 9a 11 0e bd 46 d1 94 3d 83 56 72 bd
       -0.05583082 -0.034684755 0.07266478 -0.059164535

model.model.decoder.encoder.layers.0.linear2.bias f4 [32]
000000 be bf a1 bd 20 2a 06 bd b4 e2 a6 bd b5 b1 05 bc
       -0.078979 -0.032755017 -0.08148709 -0.008160044
000010 59 09 a5 3d c2 15 93 bd a8 53 ea 3c 26 f4 88 bd
       0.080584235 -0.07181884 0.028604344 -0.066871926
000020 3e 77 a2 bd eb 8f 83 3c 6f c1 a0 bd c4 68 42 3d
       -0.079329 0.016059836 -0.078493945 0.047463194
000030 83 77 42 3d 93 93 81 3c 25 52 95 bd d9 01 8f bb
       0.047477257 0.01581744 -0.072910585 -0.004364234
000040 eb 9f 88 3d a2 2a 35 bb 68 55 95 bd d0 b4 74 bd
       0.06671127 -0.002764382 -0.072916806 -0.05974275
000050 bf 11 8e 3d 61 14 3e 3d 92 92 67 3d ca 73 ac 3d
       0.069369785 0.046406154 0.056536265 0.084205225
000060 91 89 65 3c 38 29 4d 3d ff 92 a8 3d d3 04 a8 bd
       0.014009849 0.050088137 0.08231162 -0.08204045
000070 31 c7 94 3d 14 a9 7e 3d 9f cb 6c bd d7 86 db 3c
       0.07264555 0.062172964 -0.057811376 0.026797695

model.model.decoder.encoder.layers.0.norm1.weight f4 [32]
000000 89 ac 7c 3f 05 46 7d 3f f5 d7 7c 3f 41 44 7f 3f
       0.9870077 0.98934966 0.98767024 0.9971352
000010 01 54 7f 3f c7 1c 7e 3f 4b 14 7f 3f 33 c5 80 3f
       0.99737555 0.9926266 0.9964034 1.006018
000020 f4 b1 7e 3f 52 6a 7f 3f 29 ab 80 3f 6c f0 7f 3f
       0.99490285 0.99771607 1.0052234 0.9997623
000030 3e b0 7d 3f e2 8b 7e 3f 5e 13 7d 3f ab b2 7e 3f
       0.9909705 0.99432194 0.98857677 0.99491376
000040 dc 38 80 3f e8 14 80 3f 0d 36 80 3f 0d f4 7e 3f
       1.0017352 1.000638 1.0016495 0.9959114
000050 d8 1b 7f 3f e2 02 80 3f 17 6a 7d 3f 3f 76 7d 3f
       0.9965186 1.000088 0.98990005 0.99008554
000060 c6 69 80 3f d4 74 7f 3f 39 99 7e 3f cb 12 7e 3f
       1.003228 0.9978764 0.9945255 0.99247426
000070 12 fe 7f 3f e8 10 80 3f 98 48 80 3f 02 9d 7f 3f
       0.99997056 1.0005159 1.0022154 0.9984895

model.model.decoder.encoder.layers.0.norm1.bias f4 [32]
000000 5b 08 d9 b9 34 9f 73 b8 c6 80 03 b7 76 1e 0c b9
       -0.0004139569 -5.8083984e-05 -7.838191e-06 -0.00013362788
000010 2e 35 96 ba 6e 3c ce 39 fc cb de 3b a5 0e 56 bb
       -0.001145994 0.00039336405 0.006799219 -0.0032662537
000020 19 a2 c3 bb 99 75 90 bb 51 37 07 bc a8 d6 73 3a
       -0.0059702513 -0.00440855 -0.008252935 0.00093017006
000030 c1 68 ef 39 98 48 24 3a 29 8b 60 ba da 49 54 b9
       0.0004566368 0.0006266921 -0.00085656584 -0.00020245407
000040 31 b7 a2 ba 97 6f 8d 3b c7 62 f6 39 9a bf c7 ba
       -0.0012414214 0.004316281 0.0004699437 -0.0015239597
000050 e8 4c 02 b9 b5 d0 27 3a a5 61 99 39 b6 46 a6 b9
       -0.00012426416 0.0006401644 0.00029255185 -0.0003171467
000060 ab e9 78 ba d4 17 0c ba 0a b0 a9 3a 8f 9a 21 ba
       -0.00094952685 -0.0005344127 0.001294614 -0.00061646936
000070 12 d2 33 bb d3 11 91 3b 05 23 0c 3a 85 d0 c3 3a
       -0.0027438444 0.0044271736 0.00053457945 0.0014939463

model.model.decoder.encoder.layers.0.norm2.weight f4 [32]
000000 65 e5 7c 3f d2 a6 7d 3f a5 0c 7d 3f 8e 58 7f 3f
       0.9878753 0.9908267 0.9884742 0.997445
000010 8a 5e 7f 3f d6 ce 7e 3f 7c 0b 7e 3f 3a f0 7d 3f
       0.9975363 0.99534357 0.99236274 0.9919468
000020 5a 6e 7e 3f b2 d1 7d 3f 5f 70 7f 3f 1c f0 7f 3f
       0.99387133 0.99148095 0.9978084 0.9997575
000030 de fe 7d 3f 89 d1 7d 3f 89 55 7d 3f 1f a9 7e 3f
       0.9921702 0.9914785 0.9895864 0.9947681
000040 05 4b 80 3f 21 00 80 3f 26 3e 80 3f 9a a5 7e 3f
       1.0022894 1.0000039 1.0018966 0.9947144
000050 0c fb 7e 3f 9d 43 80 3f 27 66 7d 3f 40 8d 7d 3f
       0.9960182 1.0020634 0.98984 0.99043655
000060 db c1 7e 3f cc 30 7f 3f 3a 90 7e 3f 6c c8 7e 3f
       0.9951455 0.99683833 0.9943882 0.9952457
000070 d3 1f 80 3f 63 71 80 3f 05 92 80 3f 2f 53 7f 3f
       1.0009712 1.0034603 1.0044562 0.99736303

model.model.decoder.encoder.layers.0.norm2.bias f4 [32]
000000 1e 41 ac b9 e6 25 ac b9 04 36 ab 39 47 25 be 39
       -0.00032854913 -0.00032834633 0.00032655906 0.00036267398
000010 20 c7 bc b9 3b 16 bb 39 78 7e 90 39 07 af a0 b9
       -0.00036006514 0.00035683982 0.00027560047 -0.00030647984
000020 8d d0 aa b9 63 f4 62 b9 62 cd b9 b9 c6 e8 c9 b9
       -0.0003258031 -0.0002164408 -0.00035438972 -0.00038511137
000030 8d e8 ae 39 95 17 a3 39 8e 5c ab b9 c5 8f b4 b9
       0.0003336113 0.00031107353 -0.0003268462 -0.00034439392
000040 b7 1f d5 b9 77 d4 ce 39 73 d0 c2 39 51 00 bc 39
       -0.00040650155 0.0003944968 0.0003715787 0.0003585839
000050 d0 c8 c0 39 dd 9e 01 ba 01 e6 ae b9 fd 71 aa 39
       0.0003677071 -0.0004944632 -0.00033359232 0.00032509855
000060 06 a5 be 39 1f e5 bc 39 9b ef b2 39 7b ca ac 39
       0.00036362576 0.00036028863 0.00034129326 0.00032957256
000070 db 42 f6 39 95 b3 03 3a 27 ae 00 ba fa 37 c7 b9
       0.00046970588 0.0005024013 -0.0004908763 -0.00037997944

model.model.projection.weight f4 [2, 32]
000000 72 e6 29 bd ce 87 06 be 03 fb 33 3e 6e cc 06 be
       -0.041479535 -0.13137743 0.17576222 -0.13163921
000010 ab f4 5d 3d 06 f7 9e 3d 44 1e c7 3b b1 94 8b 3d
       0.05418841 0.0776196 0.006076606 0.0681547
000020 75 29 17 3d f4 77 48 3c 34 79 ce 3c 3d 5d 33 3e
       0.03690477 0.01223563 0.025204279 0.17516036
000030 33 37 2c 3e 36 e7 08 be 74 5d 34 3e bc 7c d3 bd
       0.16817932 -0.1336945 0.17613775 -0.103265256
000040 cc 65 f7 bd 55 b1 1b 3d d8 f1 11 bd 07 45 18 bc
       -0.12079963 0.038010914 -0.03563103 -0.009293801
000050 e7 04 18 3e 8e 7f 44 bd 79 1e 13 be 57 32 8a 3d
       0.1484562 -0.047973208 -0.14367093 0.06747883
000060 eb d7 c4 3c cb 4a e2 bd 03 0f 62 bd 5a a0 9d bd
       0.024028739 -0.11049422 -0.055190098 -0.076966
000070 ce 15 d3 3c 22 12 3b bc 82 a9 63 bc c0 03 84 bd
       0.025767233 -0.011417897 -0.013895394 -0.06446028
000080 c9 a2 a1 bd 2e 20 0e bb a0 be 0e 3e 20 6d 07 3e
       -0.07892377 -0.002168666 0.13939905 0.13225222
000090 16 73 ef 3b bd 12 11 3e 25 75 27 bc 73 4c 2d 3e
       0.0073074205 0.14167304 -0.0102208005 0.16923694
0000a0 3a a5 55 bd 6d fb 23 bc e1 ce 8e 3d 0a 2e 4c bb
       -0.052159525 -0.010008675 0.06973053 -0.003115537
0000b0 98 a9 ab 3d 95 73 ef 3d 02 b9 fa 3c 8c 7b 0f 3d
       0.08381957 0.116919674 0.030605797 0.035029933
0000c0 1d 36 81 bd 1c e1 d3 3d 89 6e 12 bd d5 2b 2c 3e
       -0.063091494 0.103456706 -0.035749946 0.16813596
0000d0 61 1a 33 be a7 86 fe bd c7 a3 06 3e 8b 39 28 3d
       -0.17490532 -0.12428027 0.13148414 0.041070502
0000e0 61 c9 2f 3d 27 98 58 3d 39 67 66 bc cf 82 a1 bd
       0.04291666 0.05287948 -0.014062696 -0.07886278
0000f0 56 5e de 3a 3c 0b 9e 3c 0f d3 2f 3e 45 1d 3b 3d
       0.001696537 0.019292466 0.17170356 0.04568221

model.model.projection.bias f4 [2]
000000 c3 9f 21 3e 13 e8 8f bd
       0.157836 -0.070266865
