lightning_logs/version_33/checkpoints/epoch=99-step=400.ckpt (torch, 196557 bytes, 50 tensors)

model.model.pos f4 [50, 32]
000000 54 28 ae 3c a0 b1 d5 3b 7d 16 29 3e 03 78 0f be
       0.021259464 0.0065214187 0.16512485 -0.14010625
000010 be 37 85 be ce 22 89 be d9 d3 a0 3d 9f 98 47 3e
       -0.2601909 -0.26784366 0.07852907 0.19491814
000020 dc 37 9e 3d 69 4b 96 bd f1 56 f7 3c 43 24 35 be
       0.07725498 -0.07338602 0.030192824 -0.17689614
000030 da 9a 71 be de 2c 7f 3c bd de 30 be 9d 24 ad bc
       -0.23594227 0.015574662 -0.17272468 -0.021135623
000040 0e fe 6d be 87 f5 d3 bc 44 94 22 bd 4a 3e 50 3e
       -0.23241445 -0.025873912 -0.03969218 0.20336261
000050 68 6a df b9 24 34 60 be df 50 84 bd 2b 1b 35 3e
       -0.00042613153 -0.2189489 -0.064607374 0.17686145
000060 6c ff c2 bd 97 48 01 be 1c 18 63 be a7 82 14 3e
       -0.09521374 -0.12625347 -0.22177166 0.14502965
000070 ae 86 08 3d a3 44 fd bd fc b3 30 3c 8f 79 37 3c
       0.033331566 -0.12366607 0.010785099 0.011198415
000080 5b 3b 58 be a2 f7 1a be cd ce 1a 3e 7b 0c 8a 3d
       -0.21116392 -0.15133527 0.1511795 0.06740662
000090 55 28 50 be bf 60 f2 3b c9 a6 c0 bd d7 ac 75 3e
       -0.20327885 0.007396787 -0.09406812 0.23991714
0000a0 4a eb 13 3c d2 f9 31 3e 50 69 0c 3e cd 2c 09 3e
       0.009028265 0.17380455 0.13712049 0.13395996
0000b0 56 58 3a be 6e 1e 22 3b 51 a0 50 3d be 8c f4 3d
       -0.1819776 0.0024737376 0.05093414 0.11940907
0000c0 6d ef 05 be ff d4 90 bd 9d d6 2b 3e ef 7b 8e 3d
       -0.13079615 -0.07071876 0.16781087 0.06957232
0000d0 9d d0 2a bd fb 3a af 3c eb 2a 71 3d 5c 44 9d bd
       -0.041702855 0.021390429 0.05887882 -0.07679054
0000e0 b6 c1 51 3e 2b 28 8e bc 4d 32 61 be 66 33 42 be
       0.20484051 -0.017353138 -0.21991844 -0.1896492
0000f0 44 61 29 be 33 fe 87 3e 45 7e 0c be 29 8a 88 be
       -0.1654101 0.26561126 -0.13720043 -0.26667908
000100 ca 35 4b be b4 ea 6f 3e 0f d5 d4 bc a1 52 1a 3e
       -0.19844738 0.23429376 -0.0259805 0.15070583
000110 20 e7 6f 3e 8c 3f 58 3e fc 9b 80 3e 08 cb c0 3d
       0.23428011 0.21117991 0.25119007 0.09413725
000120 fa 10 83 be 57 57 9c 3c c6 af 02 3d 79 75 55 3e
       -0.2559889 0.019084616 0.031905912 0.20845594
000130 df 46 1e 3e 22 23 f4 3c 3f d8 9e 3c 7d 8c 86 3e
       0.15456723 0.029801909 0.019390224 0.2627906
000140 bd 26 1d 3e bc 0f 1b be ba 89 19 be e6 0d 27 3e
       0.15346809 -0.15142721 -0.14993945 0.16313896
000150 cc 88 b6 3d e4 3e 37 bd 6d 67 40 be a1 78 86 bd
       0.08912811 -0.04473771 -0.18789454 -0.06565977
000160 a1 07 89 bd f7 b6 9d 3d ec 63 c1 bd 51 9d 7d 3e
       -0.06690908 0.077009134 -0.09442887 0.24767043
000170 de e9 e4 3d ed ca 18 be de 00 02 bd 1a 87 9f bd
       0.11177419 -0.1492116 -0.03173911 -0.077894405
000180 8b 9d 51 3e 21 ab 90 bd ee 9d 29 be 03 2c f7 3d
       0.20470254 -0.0706389 -0.16564152 0.120689414
000190 e8 19 84 3d a4 95 47 3e 82 b4 c7 bd 96 58 75 3e
       0.06450254 0.19490677 -0.09751226 0.23959574
0001a0 c2 c5 d6 3d 74 21 5d be 8a ea 2a 3e 91 17 4f 3e
       0.10486938 -0.21594793 0.16691032 0.20223834
0001b0 e8 0d 00 bc 24 bf 07 3d 77 17 40 be ee 77 46 3e
       -0.0078158155 0.03314127 -0.18758951 0.19381687
0001c0 60 ea 24 3e 71 61 f5 bb 3e 5e 2b be 5d 9d 28 3e
       0.16105032 -0.0074884226 -0.1673517 0.1646628
0001d0 86 58 c8 ba e7 84 28 3e 96 25 25 3e 16 57 da bd
       -0.0015285171 0.16456948 0.16127619 -0.106611416
0001e0 41 6b d1 3a 1a 85 40 3e 90 ec 09 bd cc 2d 80 3e
       0.0015977399 0.18800774 -0.03367287 0.2503494
0001f0 85 97 79 bd dd 45 8a be 58 fe 40 3d 81 28 47 3e
       -0.060935516 -0.27006426 0.04711756 0.19449045
000200 91 e5 ae bd af 3c 0e 3d 24 f7 8e 3d 87 cc bb 3b
       -0.0853988 0.03472584 0.06980732 0.0057311687
000210 8a 33 67 3e 34 69 b1 bd f1 c6 81 be a7 9a 89 be
       0.22578254 -0.08662644 -0.25347093 -0.26875803
000220 2b 7f 8c 3d ad 56 81 3d 7f 07 6b be 56 23 40 bd
       0.06860193 0.0631536 -0.22952078 -0.0469087
000230 ba 0a 6d 3e b2 80 58 be c0 15 7a be 2e 9c fb 3c
       0.23148623 -0.21142843 -0.2442236 0.03071412
000240 73 2a 0e be 59 89 d8 3d d4 c2 32 3d 96 76 88 3e
       -0.1388338 0.10573072 0.043642834 0.26652974
000250 3a 40 5d be ca 31 7b bd c1 19 a9 3d 8f 04 70 3d
       -0.21606532 -0.06132678 0.08256865 0.058598097
000260 0f 04 52 3e 6f 2f 6d be 2c 23 0f be 39 16 b6 3d
       0.2050936 -0.23162626 -0.13978261 0.088909574
000270 65 da 07 bd 22 c2 bb 3d 05 b1 f6 bd 7e b3 de 3d
       -0.03316726 0.09167887 -0.120454825 0.10874079
000280 4b 03 33 3e 0f 7e d9 3d f0 03 50 be 2f f6 0f be
       0.17481725 0.10619747 -0.20314002 -0.14058755
000290 37 46 89 3e d9 03 37 be d0 5d 10 be 1d 56 71 3e
       0.26811382 -0.17872562 -0.14098287 0.23568006
0002a0 7e a0 5b 3e cd 6e 87 3e 95 05 79 3e 6d bf 86 be
       0.21447942 0.26451722 0.24318536 -0.2631792
0002b0 67 81 82 be 1a f1 54 be ce db b0 bd ec b8 53 be
       -0.2548935 -0.20795098 -0.086356744 -0.20676011
0002c0 3d f8 2e be a2 c4 47 be 4a 74 21 3d 8e 4f f0 bd
       -0.17086883 -0.19508603 0.039417543 -0.11733924
0002d0 49 ad 23 bd ff 4a 9a bd 75 5c d7 bd 85 e0 69 be
       -0.03996018 -0.075338356 -0.10515682 -0.22839554
0002e0 85 3f 69 be d2 9a 46 be e0 4f 82 be 15 8b e4 bd
       -0.22778137 -0.19394997 -0.25451565 -0.1115934
0002f0 9b 60 27 be 52 33 0e bd 5a 88 8a bd e5 85 94 bd
       -0.16345446 -0.03471691 -0.06764288 -0.07252101
000300 39 21 23 3e 45 0a 13 3d 06 49 a3 bd 4c ba 5d 3e
       0.15930642 0.035898466 -0.079729125 0.21653098
000310 84 e3 ec bd 33 84 28 3e 4d c3 44 be a5 f5 1e be
       -0.11566833 0.1645668 -0.19215126 -0.15523393
000320 dd 28 82 3d 25 a7 21 3c 65 8c f6 3d 40 db 16 3e
       0.0635545 0.0098665105 0.12038497 0.14732075
000330 b9 d9 9e 3d 46 e6 da bd 3a 61 57 3e 0b b2 1a be
       0.07756371 -0.106884524 0.21033183 -0.1510698
000340 80 b9 35 bc ec a8 b4 3d 95 a1 0f 3c 17 f4 7b bd
       -0.01109159 0.08821282 0.0087665515 -0.06151208
000350 39 15 da 3d 37 f2 5d 3c e8 d4 45 be ff 62 00 3e
       0.10648579 0.013546518 -0.19319499 0.12537764
000360 bb e3 62 3e 72 da 83 3c 69 dc 63 be c4 4f 84 3e
       0.22157185 0.016095374 -0.22252049 0.25842106
000370 8b 71 d7 bd be 08 32 be 6d 22 84 be aa e2 5a 3e
       -0.105197035 -0.17386147 -0.25807515 0.21375528
000380 cd f8 0e 3e 1f 62 a2 bd f7 f7 b0 3d c6 76 fa bd
       0.13962097 -0.07928871 0.086410455 -0.122296855
000390 63 d8 34 3e a5 33 90 bd 7e 40 87 be 66 06 3b be
       0.1766067 -0.070411004 -0.2641639 -0.1826416
0003a0 64 a5 19 be 01 af 81 3e b5 9b 25 bc 48 a7 30 3e
       -0.15004498 0.2532883 -0.010107924 0.17251313
0003b0 45 e9 34 3e 2b b2 04 bd 50 1a 84 3e b0 56 f7 3d
       0.1766711 -0.032396477 0.25801325 0.12077081
0003c0 62 26 50 bd 73 63 78 3e e0 49 3f 3e e7 d9 86 3e
       -0.050817855 0.24256687 0.18680525 0.2633812
0003d0 28 fa 25 be 9a ca 56 be ca a2 85 3d ae 2b ca 3c
       -0.16208708 -0.20975724 0.0652519 0.024679031
0003e0 fd 37 40 3e c3 9d 06 be 29 02 02 3e 7a bd 68 be
       0.18771358 -0.13146119 0.12696137 -0.2272853
0003f0 12 97 44 bd 58 d0 6e bd 69 8a f4 3c 78 27 25 be
       -0.047995634 -0.05830416 0.029851155 -0.16128337

model.model.embed.weight f4 [2, 32]
000000 00 00 00 00 00 00 00 00 00 00 00 00 00 00 00 00
       0.0 0.0 0.0 0.0
000010 00 00 00 00 00 00 00 00 00 00 00 00 00 00 00 00
       0.0 0.0 0.0 0.0
000020 00 00 00 00 00 00 00 00 00 00 00 00 00 00 00 00
       0.0 0.0 0.0 0.0
000030 00 00 00 00 00 00 00 00 00 00 00 00 00 00 00 00
       0.0 0.0 0.0 0.0
000040 00 00 00 00 00 00 00 00 00 00 00 00 00 00 00 00
       0.0 0.0 0.0 0.0
000050 00 00 00 00 00 00 00 00 00 00 00 00 00 00 00 00
       0.0 0.0 0.0 0.0
000060 00 00 00 00 00 00 00 00 00 00 00 00 00 00 00 00
       0.0 0.0 0.0 0.0
000070 00 00 00 00 00 00 00 00 00 00 00 00 00 00 00 00
       0.0 0.0 0.0 0.0
000080 92 0f 95 bf 2a 49 f2 3e 6a e2 35 bd 33 87 a2 bf
       -1.1645377 0.47321445 -0.04440538 -1.269751
000090 65 ec e9 be d0 38 d9 3e 2d 0b d7 3e 05 82 c6 3f
       -0.45688167 0.42426157 0.42000714 1.5508429
0000a0 c1 82 90 3f c7 36 33 3f b4 44 c8 bf d6 e1 cf bf
       1.1289903 0.7000546 -1.5645967 -1.6240795
0000b0 c2 71 a3 be 65 70 5c 3e 42 c6 52 bf 17 ae c5 be
       -0.31922728 0.2152725 -0.8233377 -0.38609383
0000c0 02 47 08 3f f0 54 23 3c 24 89 7d bf 87 01 91 bf
       0.5323335 0.009968981 -0.99037385 -1.1328591
0000d0 a4 56 eb 3a 79 02 b8 3e a2 6c ea be a0 3b bb bf
       0.0017954898 0.35939386 -0.45786005 -1.4627571
0000e0 fc 59 d5 bf 14 d6 ad be c7 69 3a 3e 6c d1 da 3e
       -1.6668086 -0.3395239 0.18204413 0.427379
0000f0 92 bd 1d 3f 0a 24 fd 3e 47 0f 6b bf d2 d5 9a bf
       0.61617386 0.49441558 -0.91820186 -1.2096503

model.model.decoder.encoder.layers.0.self_attn.in_proj_weight f4 [96, 32]
000000 e3 d6 b0 3d 4a a0 96 bd cf 7e 76 3b f7 86 1c 3d
       0.086347364 -0.073547915 0.0037612205 0.03821465
000010 97 9e 40 be 26 5c c1 bd ea fd 54 3d 66 74 35 be
       -0.18810497 -0.09441404 0.051999964 -0.17720184
000020 64 68 be bd 4b 7a d3 bc c9 d4 d9 3d cd c7 b5 3c
       -0.09297255 -0.02581515 0.10636289 0.022189999
000030 9e d9 3a 3d 27 6b 28 3d e9 a2 40 be 75 25 71 3d
       0.045617692 0.041117813 -0.18812145 0.058873612
000040 68 46 2f 3e 45 9e e3 bd 8d 7e dc 3d 04 a2 01 3e
       0.17116702 -0.11114172 0.10766325 0.1265946
000050 70 e7 81 3b 47 82 12 3e 41 9f 1a 3e 65 5e f5 3c
       0.003964357 0.1430751 0.15099813 0.029952237
000060 cb 43 c4 bd bb 8b 0c be 4d 1a 43 be 35 62 27 3e
       -0.09583243 -0.13725178 -0.19053002 0.16346057
000070 4e a8 cf 3c 7d 5b bc bd 6e b0 a2 3d 15 80 b3 bd
       0.025348809 -0.091971375 0.079438075 -0.08764664
000080 34 24 b0 3b 6a 39 df 3c 15 2a d3 3d c3 3c 5e be
       0.0053754095 0.027249057 0.10310761 -0.21702866
000090 c6 60 0a be da 1b 3f 3e 73 5e 24 be b9 59 d0 3d
       -0.13513479 0.18662968 -0.16051655 0.10173363
0000a0 95 73 ae 3d 22 e5 50 3e 81 f6 e2 bc 6f 33 d4 3d
       0.08518139 0.20399907 -0.027705433 0.10361373
0000b0 a4 2d e2 3b a0 7f 28 3e e7 53 f5 bd 67 da 04 be
       0.0069024134 0.16454935 -0.11978894 -0.12973939
0000c0 85 56 e7 bd 2c 47 29 3c 0e f6 a7 3d 70 96 2b 3d
       -0.11295799 0.01033191 0.08201228 0.041891515
0000d0 59 c0 6d 3c 1b 03 39 be 45 24 9f bb aa 1e 54 be
       0.014511191 -0.18067591 -0.0048566186 -0.20714822
0000e0 93 27 93 bc f7 57 34 be 70 76 37 be 1c 49 f5 bd
       -0.017963206 -0.17611681 -0.17916274 -0.11976835
0000f0 9d f3 19 3d 22 8f 13 3b ea 42 16 be 3a 65 c9 bd
       0.037585843 0.0022515734 -0.14673963 -0.098337606
000100 9f 88 51 3e 8d 4a 89 bc 9b cc f0 3d 52 98 06 be
       0.20462273 -0.016759181 0.117577754 -0.13144043
000110 a0 14 03 be 5a be 47 3e d6 5e 06 3e 03 a1 4a be
       -0.12800837 0.19506207 0.13122115 -0.19787984
000120 2e 96 4d 3e d6 4c bf bd c1 67 04 be b8 a0 5c 3e
       0.2007682 -0.09340827 -0.12930204 0.21545684
000130 a1 5a 48 be 7a 18 f6 3d 85 be 0b 3e 4f 97 57 3e
       -0.19565822 0.12016387 0.13646896 0.21053813
000140 88 da b9 bc 09 67 e3 3c 7b 44 2e 3e 6b ca 63 3e
       -0.022687212 0.027759092 0.1701831 0.22245185
000150 d2 6a 80 bc 12 e9 71 3d 0a 32 9a bd f2 ec 12 3d
       -0.015675936 0.059060164 -0.075290754 0.0358705
000160 ba 52 51 be 2d a4 2e be 15 6e 84 3d 92 28 84 bd
       -0.20441714 -0.17054816 0.06466309 -0.06453051
000170 59 c3 ac bd ec 11 89 bd c6 b7 3f be 08 93 15 be
       -0.08435697 -0.066928715 -0.18722448 -0.14606869
000180 05 cd 4d be 0e 05 df 3c 0f 73 aa bd 4e 98 44 3e
       -0.2009774 0.02722409 -0.08322727 0.19198725
000190 b0 07 a5 bd ea e0 21 be d6 25 91 3d 9c 2b 55 3c
       -0.08058107 -0.15808454 0.07087295 0.013010886
0001a0 56 da 0c 3e 60 f7 2e 3d da 86 a2 3c 6e 18 3e 3d
       0.13755164 0.042716384 0.019839693 0.046410017
0001b0 20 bf 08 3d ce 87 d0 bc 17 60 5d bc 52 40 8a 3d
       0.033385396 -0.025455382 -0.013511679 0.067505494
0001c0 ad 89 c5 3c e1 85 19 3e 8e 2d 33 be c8 c9 3c 3e
       0.0241135 0.14992477 -0.17497846 0.18436348
0001d0 2c 9c 0d be 82 e3 82 3d dd 7a 1c be 15 48 a4 bd
       -0.13829106 0.0639105 -0.15281244 -0.08021561
0001e0 80 9f 57 3d 85 11 11 bd cd f9 2b 3e cc ba aa 3d
       0.052642345 -0.0354171 0.1679451 0.0833641
0001f0 b4 72 1a 3e fd 66 1e be be ad 4e 3c fa a7 4a be
       0.15082818 -0.15468974 0.012614666 -0.1979064
000200 f6 f7 9e bd 8a 0f 31 3e 49 94 3a be 41 ea ca bd
       -0.077621385 0.17291084 -0.18220629 -0.09907962
000210 2b 59 2f be 70 a3 5b 3e f6 08 3d be 50 a3 a0 3d
       -0.17123859 0.21449065 -0.1846045 0.078436494
000220 81 57 4a be 22 ee cd 3d 24 f1 4a 3d ea f1 52 3d
       -0.19759943 0.10055186 0.049546376 0.05150024
000230 b2 9b 41 be 54 bf 8b 3d 3f eb 9c 3d dc ed 59 3e
       -0.1890705 0.06823602 0.07662057 0.21282142
000240 c8 4f 55 be 36 d9 b5 3d 7a e0 e7 bd 64 90 b4 3d
       -0.20831215 0.0887932 -0.113221124 0.08816603
000250 ba fc 42 be 87 e3 a3 3d cb fb 38 be a5 3a 35 be
       -0.1904172 0.08002382 -0.18064801 -0.17698152
000260 95 3c 51 3e b8 b8 a6 bd 99 7b 6a 3d 4a f0 a9 bd
       0.20433266 -0.08140701 0.05724678 -0.082977846
000270 cd 85 3c 3e 8c cc 9c bd a0 de 15 be a9 f1 d0 3d
       0.18410416 -0.07656202 -0.14635706 0.10202343
000280 6f 6e d9 3c 1c 2d 0e bd e6 ab e2 3b 80 3a 50 3e
       0.026541917 -0.03471099 0.0069174645 0.20334816
000290 4d 82 e7 bd 3e 35 44 3d 92 84 a7 3d e8 7f c1 bd
       -0.1130415 0.04790234 0.08179583 -0.09448224
0002a0 20 ee 36 be a8 34 11 3e 5b 1b 63 be 25 59 fe bd
       -0.17864275 0.14180243 -0.22178404 -0.12419347
0002b0 26 33 3f 3e ba 2b 11 3e 7a d9 24 be 8b 7b 16 3e
       0.18671855 0.14176837 -0.16098586 0.14695565
0002c0 f5 cd d8 bc f6 3b ce bd 74 a4 bb 3d 56 d4 6f 3d
       -0.026465395 -0.100700304 0.09162226 0.05855211
0002d0 ed d7 44 be b7 98 00 be d9 a2 3e be 22 7a 02 3d
       -0.19222994 -0.12558256 -0.18616809 0.031854756
0002e0 c1 8a a4 3d ec ff 22 3d af ca 23 3e b8 67 d9 3d
       0.08034278 0.039794847 0.15995286 0.10615486
0002f0 6e d7 c6 bd ec eb 79 bd 73 11 5f be 84 14 0f be
       -0.09709059 -0.06101601 -0.21784 -0.1397267
000300 32 83 3e 3e 4f cd 2b be 5f 23 08 3e b7 d7 03 be
       0.18604735 -0.16777538 0.13294743 -0.12875257
000310 46 58 92 3c bb 1f 29 3e f3 98 1b be aa 26 c1 3d
       0.017864358 0.1651601 -0.15195064 0.09431203
000320 38 e0 16 bd 00 e2 29 3e 38 d2 41 3e d6 e4 03 3b
       -0.036834925 0.16590118 0.18927848 0.002012541
000330 8f 73 17 be e0 e5 15 3e 27 ed 06 be 15 ce 47 be
       -0.14790176 0.14638472 -0.13176404 -0.19512208
000340 06 21 82 bd 43 a8 e6 3d a3 87 ca bd 49 ea 08 bd
       -0.06353955 0.11262562 -0.09889152 -0.033426557
000350 8f 39 20 bd 55 29 e7 bd 01 9b d0 bc d4 79 03 bd
       -0.039117392 -0.1128718 -0.025464537 -0.032098606
000360 9b 81 9e 3d 5f 98 5b be fd 43 08 3e c9 37 33 3e
       0.07739564 -0.21444844 0.13307185 0.17501749
000370 3e 48 07 3e fb ba 07 be df 5a 71 bd fa 22 01 be
       0.13211152 -0.13254921 -0.058924552 -0.12610999
000380 81 59 03 bd 4b 81 35 3e c6 4c a0 3c 7c 88 29 3d
       -0.03206778 0.17725103 0.019567858 0.041389927
000390 da bb 64 bc 2b 81 4a 3e aa ef c2 3d 39 93 ca 3d
       -0.013960803 0.19775836 0.095183685 0.09891362
0003a0 56 2f 9f 3d 77 84 04 3e 45 51 1a 3e c3 db c9 bd
       0.077727005 0.12941156 0.15070064 -0.09856369
0003b0 ab ef 28 be 26 64 4d 3d 62 c1 17 3e 6d 88 66 be
       -0.16497676 0.050144337 0.14819863 -0.2251298
0003c0 48 32 c9 3c d4 bc 26 3e 9e 0f ed bc b3 97 45 bd
       0.024560109 0.1628297 -0.02893811 -0.048240375
0003d0 e7 8f f3 3d e3 eb 42 be 0c 47 05 be 38 5f fc 3d
       0.118926816 -0.19035296 -0.13015383 0.12322849
0003e0 84 33 f1 bd af 9c 42 3e 21 37 18 3e 27 6d 25 3e
       -0.11777404 0.19005083 0.1486478 0.1615492
0003f0 ce 12 85 3d c7 d6 a1 bd de f8 0f be 3a 61 bb 3d
       0.06497727 -0.07902294 -0.14059779 0.09149404

model.model.decoder.encoder.layers.0.self_attn.in_proj_bias f4 [96]
000000 44 22 f2 bb 46 50 0e bc f8 46 ff 3b 2a 40 45 3b
       -0.0073893387 -0.008686131 0.0077904426 0.003009806
000010 2a 50 01 3c e6 7b f9 bb 51 40 58 bc b0 d9 04 bc
       0.007892648 -0.007613647 -0.013198928 -0.008108541
000020 3b 38 0e bc 77 37 f6 bb f8 15 0a bc 85 40 1c 3c
       -0.008680399 -0.007513936 -0.008428089 0.009536867
000030 55 d1 07 3c dc dd 11 3c e6 d3 e9 3b fa a6 0e bc
       0.008289655 0.008902993 0.007135856 -0.0087068025
000040 17 e2 2e bb 82 18 e3 3b 1b e1 08 3c 1b 59 dc bb
       -0.0026685053 0.006930412 0.008354451 -0.0067244894
000050 b8 73 1a bc c4 7b e2 bb 33 65 0b bc cf e5 f2 bb
       -0.009427004 -0.0069117267 -0.0085080145 -0.007412649
000060 7e b8 4d bc e3 35 0d bc 05 35 f0 3b 20 43 db 3b
       -0.012556193 -0.008618805 0.007330539 0.0066913515
000070 21 ac 36 3c 1c ad 0d 3c c9 9a db 3b fa cb 0a 3c
       0.011149437 0.0086472295 0.0067018014 0.008471483
000080 39 af 94 b7 5e 8c 13 37 90 03 65 36 43 78 0d 38
       -1.772457e-05 8.794565e-06 3.4125733e-06 3.3729022e-05
000090 60 31 f2 37 2c 25 ff 36 0e 21 eb b4 50 70 6b 38
       2.887164e-05 7.6039196e-06 -4.3796211e-07 5.6132965e-05
0000a0 5c c9 02 38 b2 c1 94 36 51 9c 9c b6 a2 66 9b b7
       3.1181946e-05 4.433293e-06 -4.66736e-06 -1.8525232e-05
0000b0 13 bd a4 b7 12 0e ac 37 c9 d8 2d 38 48 4f 4d b8
       -1.9638368e-05 2.051055e-05 4.144831e-05 -4.8949645e-05
0000c0 f4 b2 d2 34 ca 15 23 b7 8e 69 68 b8 04 26 a4 35
       3.9245754e-07 -9.72063e-06 -5.5411416e-05 1.2230016e-06
0000d0 59 f2 ab b7 c8 d5 cf b7 d5 e2 ba 36 b9 b1 40 b8
       -2.049764e-05 -2.4775873e-05 5.5696387e-06 -4.5941884e-05
0000e0 03 ff 6a 38 87 51 15 b8 b5 01 0e b7 e9 b8 36 b7
       5.6027446e-05 -3.5600297e-05 -8.464257e-06 -1.0891098e-05
0000f0 a6 58 9e b8 54 76 a2 36 65 54 10 b7 d2 3a f8 b7
       -7.550539e-05 4.8417514e-06 -8.6027185e-06 -2.9591294e-05
000100 ce c5 a4 3b 83 05 43 3c de 05 4d 3c 6f f1 34 bc
       0.005028463 0.01190317 0.012513606 -0.01104389
000110 2c 8e 69 3c 0f 02 6c 3c 09 6d 28 3b 9c 41 68 3b
       0.014255088 0.014404788 0.0025699756 0.0035439497
000120 a5 d4 30 bc 7f 4c bb 3b 92 5a 5f 3c ad 43 2a 3c
       -0.010792886 0.005715906 0.0136324335 0.010392112
000130 9a 2d 07 bc 23 39 34 bc 05 ad 25 bc d1 52 2f 3c
       -0.008250618 -0.010999951 -0.010112052 0.010700897
000140 44 44 24 bc e5 48 49 bc 84 53 bd 3b 22 bc 6d bc
       -0.010026041 -0.012285446 0.005777778 -0.014510186
000150 84 94 43 bc e1 5f 78 bc 68 e8 1c 3c 99 20 84 bc
       -0.011937264 -0.015159578 0.009576894 -0.016128825
000160 16 b1 2e bc 12 44 ad bc 89 2d 4b 3c 0b dd c8 bb
       -0.010662338 -0.021150623 0.012400993 -0.006129866
000170 36 71 53 3c 62 fc 49 bc 04 8d 61 3c 2d 8f 3f bc
       0.01290541 -0.012328239 0.013766531 -0.011691851

model.model.decoder.encoder.layers.0.self_attn.out_proj.weight f4 [32, 32]
000000 c5 b4 ad 3d 7b e2 96 3c 15 1d 1d be f7 57 31 3d
       0.08481745 0.018418541 -0.15343125 0.04329678
000010 39 71 2a be 50 40 fd bd f4 b8 09 3e ab 8b b3 bc
       -0.16644754 -0.12365782 0.1344946 -0.021917185
000020 e0 27 16 be 79 54 f3 3b 37 4a dd 3d 1c 1c 52 bd
       -0.14663649 0.0074258414 0.10805171 -0.05129634
000030 79 96 47 3d 81 d0 05 ba 2f 9e c7 3d ac fb ed bc
       0.048727486 -0.0005104617 0.09746968 -0.02905067
000040 ac 25 09 3e 68 50 0b be 45 15 9a 3c 93 80 38 be
       0.13393277 -0.13604891 0.01880897 -0.18017797
000050 f7 05 be bd 69 ea 15 be b4 4f db bc e8 cf a9 3d
       -0.092784815 -0.14640202 -0.026771404 0.08291608
000060 2d 28 2e be 37 31 a2 bb 61 e0 4b bd fc df 48 3d
       -0.17007513 -0.0049497145 -0.04977453 0.049041733
000070 0b b3 1d 3e 78 bc ef bc 21 55 2e 3e 86 62 2d be
       0.1540033 -0.029264674 0.17024662 -0.16932115
000080 0b 32 fa bd 16 c7 07 be 75 2a 19 be bc 16 df 3d
       -0.12216576 -0.13259539 -0.14957602 0.10893008
000090 91 13 bf bb 3b c1 00 3c 27 d6 ff 3c a5 f4 08 3e
       -0.00583119 0.00785857 0.031230045 0.13374574
0000a0 59 6f fb bc e4 ab 2a be ec 3b 87 3d 5c 3f 98 3d
       -0.030692743 -0.16667134 0.06603226 0.0743396
0000b0 4c 51 eb bc 2b 17 0b be 95 30 0d 3e 4c 33 55 3d
       -0.028725289 -0.13583057 0.13788064 0.052050874
0000c0 51 3c 20 bd 38 e3 3a 3e 15 e4 ce bd cb 8a bb bd
       -0.039120022 0.1825074 -0.10102097 -0.09157332
0000d0 cf ac 13 3e 82 28 9a bd a1 c5 15 bc a6 25 79 3c
       0.1442139 -0.075272575 -0.009141357 0.01520673
0000e0 56 50 ba 3c 37 f3 d1 bd 4e 7f 07 be c4 6d d3 bd
       0.022743385 -0.10251468 -0.13232157 -0.103236705
0000f0 81 5a be bd 91 d3 11 3c c2 b6 6e bd b8 df 9d bb
       -0.09294606 0.008900539 -0.05827976 -0.004817929
000100 ad 7f 4d 3d 5c bb 1d 3e be 89 af bd 3c 71 a1 bd
       0.05017059 0.15403503 -0.08571194 -0.07882926
000110 e6 cf ad bd 56 b6 51 bd 4d 6b d9 3d 41 92 0b 3e
       -0.08486919 -0.05119928 0.10616169 0.1363001
000120 ec ef 3a 3d f3 eb 6c bc 90 28 30 3e 67 07 e9 3d
       0.045638964 -0.014460552 0.17202973 0.11378365
000130 3d 41 d9 3d 38 df 55 bd dc c5 e6 bd bb 26 b7 3d
       0.10608146 -0.05221483 -0.112682074 0.08942934
000140 9d 47 29 3d 3a e6 a7 bc dd f9 c2 bd f9 0c db 3d
       0.04132806 -0.020495523 -0.09520314 0.10695834
000150 cf 99 11 bd d8 d7 2c 3e 36 80 8a bd 65 15 0a be
       -0.035547074 0.16879213 -0.067627355 -0.13484724
000160 c2 53 4e bd 83 4f a8 3c ed 04 d5 bd 91 a7 ef bd
       -0.050372846 0.020545727 -0.1040133 -0.11701883
000170 df 4e 5f 3c 3f b7 c2 3d 7b 76 01 3e f2 17 a1 3d
       0.013629644 0.09507608 0.12642853 0.07865895
000180 5e 7d 5e 3c 95 95 e7 bc 23 1e 29 3e 6f a1 e2 bd
       0.013579695 -0.028269568 0.16515402 -0.11065947
000190 5b b1 9b bc e6 db 8a bd d1 5d 23 3e fc b0 02 3e
       -0.019005468 -0.067802235 0.15953757 0.12762827
0001a0 03 4c c2 bc 12 73 77 bd 39 4e 0e be 55 89 13 3d
       -0.023717886 -0.060412474 -0.13897027 0.036019642
0001b0 78 8d ab 3d a6 6b c1 3d 65 71 e6 bd 93 1b a6 bd
       0.083765924 0.094443604 -0.11252097 -0.08110728
0001c0 8d 94 ba 3d 6a fb 23 3c 72 9f 1b be 6a 50 08 3e
       0.09110365 0.010008672 -0.15197542 0.13311926
0001d0 c6 a8 7e bd 07 11 fb bd ee 89 88 3d d8 b1 ff 3c
       -0.062172674 -0.12259107 0.06666933 0.031212732
0001e0 49 60 24 bd dd a5 10 be 4b c4 03 3e 59 d5 db bc
       -0.040130887 -0.14125772 0.12867849 -0.02683513
0001f0 99 6b 0b 3d 18 40 2f 3e a3 45 8a bd 2a 34 2b bd
       0.03403816 0.17114294 -0.067515634 -0.041797794
000200 64 ad 32 3e b4 ce e7 3d 64 a7 27 3e 8d ec bb ba
       0.17448956 0.11318722 0.16372448 -0.0014337465
000210 ff 16 a5 bd e0 e9 9c bd e4 12 28 be a9 10 e7 3c
       -0.08061027 -0.076617956 -0.16413456 0.028206186
000220 ef 46 5b 3d bd c9 06 3e 51 c2 d5 3d 0e 24 1e 3e
       0.053534444 0.13162895 0.104374535 0.15443441
000230 d1 a2 f3 3b 2b 47 0f be 86 96 c5 3d 84 d0 cc bd
       0.0074351807 -0.13991992 0.09647851 -0.10000709
000240 d1 7e 30 3d da 9b d9 3d 3d 2d c9 3d 14 3b 89 3c
       0.04308969 0.106254295 0.09823082 0.016751803
000250 fa 99 22 3e 30 0e 83 3d ec dd 19 be 44 78 a8 3c
       0.1587905 0.063991904 -0.15026063 0.02056516
000260 ce 1e 0d bd bc 41 09 be 6f ac 82 3c b4 97 11 bd
       -0.034453206 -0.13403982 0.015951363 -0.035545066
000270 9f 12 c7 3d 09 82 32 3c 12 cb d7 bd 44 49 92 bd
       0.097203486 0.010895261 -0.105367795 -0.071428806
000280 f4 d5 20 be b0 47 c8 3a bc 3e ba 3d 07 8a 03 be
       -0.15706617 0.0015280154 0.09093997 -0.12845622
000290 04 05 27 be 0d a6 cf bc ef 6d e8 3d 18 4b 26 3e
       -0.16310507 -0.025347734 0.11349093 0.16239583
0002a0 54 51 1a be 07 4e ac 3d f5 00 42 3d 5d 39 86 3d
       -0.15070087 0.0841332 0.047364194 0.0655391
0002b0 dd 33 31 be b6 1e 33 be aa e1 99 bd aa 84 25 3e
       -0.1730494 -0.17492184 -0.07513745 0.16163889
0002c0 bf 4b 53 bd 29 14 13 3e cc 25 0a 3e 7f ad cd bd
       -0.05158591 0.14363159 0.13490981 -0.100428574
0002d0 2e d0 1f 3e 96 5b d0 3b 8d 73 81 3d cc 29 dd bd
       0.15606758 0.006358574 0.06320868 -0.10798988
0002e0 1e ab 12 3d a8 a5 aa 3d 44 a5 01 3e 1f ab 99 bd
       0.03580772 0.08332378 0.126607 -0.07503342
0002f0 30 22 28 3d 71 09 ab bd bb a8 ec bd 5b 49 04 bd
       0.04104823 -0.0835141 -0.1155562 -0.03229652
000300 3c 3b 28 be d3 dd 60 3d 4f c6 bb 3d ef 16 cc bd
       -0.16428846 0.054899048 0.09168684 -0.09965312
000310 a0 55 df bd b8 4c 25 be a8 1b 06 be 0a 79 0a 3e
       -0.109050035 -0.16142547 -0.13096488 0.13522735
000320 c6 d8 b9 bd a4 b4 7d bd 8f 3d 31 be d0 b1 44 bc
       -0.090745494 -0.06193985 -0.17308639 -0.012005284
000330 36 63 a1 b9 2f a8 7b bd 3a c5 b5 bd 26 47 ca bd
       -0.0003078223 -0.06143969 -0.088755086 -0.09876852
000340 cb f6 ef 3c 92 4a da bd 36 28 17 be 34 cf ec 3c
       0.029292485 -0.106587544 -0.14761433 0.028907396
000350 9d bc 6a bd d6 b3 ce bc e5 bc f8 bd 8a c8 9e bc
       -0.057308782 -0.025232237 -0.12145404 -0.019382734
000360 4d f3 2a 3d 6a 06 2b 3e 0d d2 84 bc 6f ef ca bd
       0.041735936 0.16701666 -0.016213441 -0.099089496
000370 b6 7b 16 bd 58 8c 99 3d a4 a5 a3 bd 59 5e 9b bd
       -0.036739074 0.074974716 -0.07990578 -0.07586355
000380 76 c1 b1 bd 9e 99 f2 bd 31 71 95 3d 22 06 45 bd
       -0.08679478 -0.118457064 0.0729698 -0.04810155
000390 3d 90 9c bd dd 25 b1 bd 3e 65 21 be fb 0a 3e bb
       -0.07644699 -0.086498 -0.15761277 -0.0028998244
0003a0 cd 39 51 3d d5 f6 f5 3d 46 d5 10 3d 8d 99 c6 3b
       0.051080514 0.1200997 0.035359643 0.006060785
0003b0 77 1c 2a 3e 34 02 07 bd 08 35 0b 3e 33 af dc 3c
       0.16612421 -0.032961085 0.13594449 0.02693901
0003c0 09 61 9d bd 7f de ec bd 21 0d 0e be e1 68 67 3d
       -0.076845236 -0.11565875 -0.13872196 0.056496505
0003d0 9f ab 1c be cf d6 93 bd f4 04 ff 3d 12 d0 5d 3d
       -0.15299843 -0.07218706 0.124521166 0.05415351
0003e0 48 e7 c3 bd 08 d4 c9 3d 52 e6 7c 3c dc ed 0c 3e
       -0.09565598 0.09854895 0.015435772 0.13762611
0003f0 12 db 27 be da 24 61 3d 58 5e 5d bd ea 7e d7 bc
       -0.16392162 0.054966785 -0.05404505 -0.026305635

model.model.decoder.encoder.layers.0.self_attn.out_proj.bias f4 [32]
000000 15 85 88 3c ca 6f 45 bc 16 83 8a bc 77 23 6f 3c
       0.016665021 -0.012050578 -0.01690821 0.014595858
000010 36 72 22 3c 62 f5 37 3c 12 07 60 bc f4 68 4a ba
       0.009914925 0.011227937 -0.013673561 -0.0007721328
000020 1f e5 50 bc 24 0e 69 bc ce f4 67 3c b0 6f 30 bc
       -0.012749939 -0.014224563 0.014157487 -0.010768816
000030 7a 41 b1 3b 11 18 20 bc 94 9e fd bb 4c bb 46 3c
       0.0054094167 -0.009771363 -0.0077398513 0.012129616
000040 49 b4 7f 3b 48 17 43 3c 21 80 6a 3c 49 13 0f 3c
       0.003901737 0.011907406 0.014312775 0.008732625
000050 91 2d 31 3c 4f ba 09 3c fc 00 b8 3b 73 ee f0 bb
       0.0108140865 0.008406236 0.0056153517 -0.007352644
000060 71 09 50 3c e2 4d cc 3a 39 26 fa ba b4 6d 53 bc
       0.0126975635 0.0015587176 -0.0019084878 -0.012904573
000070 46 53 e5 3a c8 be a8 3b 26 7d d6 bb 21 f5 3c bc
       0.0017496131 0.005149696 -0.0065456806 -0.011533053

model.model.decoder.encoder.layers.0.linear1.weight f4 [128, 32]
000000 17 66 d2 bc e8 fb b8 3d b1 8a c2 bd 06 79 36 3e
       -0.025683446 0.09032422 -0.094991095 0.17819604
000010 72 19 2c 3e fd 4f 2b 3e 51 9e 1c 3e b7 d2 29 be
       0.16806582 0.16729732 0.15294768 -0.16584288
000020 20 28 cc bd a7 7a 58 3c b4 1c 85 3d 7e ce f2 bc
       -0.09968591 0.013212836 0.06499615 -0.029639479
000030 d4 b5 5d bc 55 c6 b0 bc 84 04 05 3e ac 8c 98 3d
       -0.013532121 -0.021578947 0.12990004 0.07448706
000040 48 05 fa bd c1 97 95 ba e5 69 2a bd a7 30 12 be
       -0.122080386 -0.0011413024 -0.041604895 -0.14276372
000050 b8 52 29 3d a1 15 ae 3d b5 fc 2f 3d f2 a5 07 be
       0.041338652 0.08500219 0.04296561 -0.13246897
000060 e3 aa 41 bd 5c 86 b6 3d 5d c2 1e 3a 98 6c b6 bd
       -0.04728211 0.08912346 0.0006056184 -0.08907431
000070 b7 3e 01 3e f2 22 f3 bd ef 3e 04 3e 46 e4 be bd
       0.1262158 -0.118719 0.12914632 -0.093208835
000080 07 e2 b4 3d cd d0 88 3d 5c a1 97 3d bb ae 25 3c
       0.08832174 0.066804506 0.07403824 0.01011246
000090 14 36 96 3b 68 d7 db 3d 64 a3 9c 3d 54 be 83 3d
       0.0045840833 0.10734445 0.07648352 0.064327866
0000a0 3e 02 f6 bd e8 b5 34 3c b6 d5 52 bd 70 7a 4c bd
       -0.120121464 0.011029698 -0.051473342 -0.049921453
0000b0 32 62 04 be ae 91 2c be ec ef 9f 3d eb e3 49 3b
       -0.12928084 -0.16852447 0.07809433 0.0030806016
0000c0 9b 91 12 be 7c e3 b7 bd 5c 08 c0 3d 00 b0 9d bc
       -0.14313357 -0.08978936 0.093765944 -0.019248962
0000d0 11 89 f3 bd 59 c7 00 3e 5e 3f 8d bd 7a 39 04 be
       -0.11891378 0.12576045 -0.06896852 -0.1291255
0000e0 d3 f4 3b 3e 90 32 0c be 7f 36 b4 bd 76 2d b6 3d
       0.18355112 -0.13691163 -0.08799457 0.0889539
0000f0 53 66 aa bd 48 dd 1b 3e 32 0d 08 3d c4 18 0d 3e
       -0.08320298 0.15221131 0.03321571 0.13778979
000100 f7 b6 f5 3d 81 5d 38 be 7e be 9d bb df 6d 7b bd
       0.119977884 -0.18004419 -0.004813968 -0.061384078
000110 7b c2 23 be 0c 47 b6 bc a6 2b ab 3b e0 a9 81 bd
       -0.15992157 -0.022250675 0.005223709 -0.06331229
000120 0e 87 cf 3d dd ba a1 bb cf 1c 0f 3e 90 16 da bc
       0.101331815 -0.004935606 0.13975833 -0.026622087
000130 3b 90 c4 bc a3 6f c5 3d f6 df 7e 3d 45 66 dd 3d
       -0.023994556 0.09640434 0.062225305 0.10810522
000140 57 5c 35 be 28 0f 27 3e f8 67 19 3e 37 38 77 bd
       -0.17711006 0.16314375 0.14981067 -0.060356345
000150 e4 e4 e0 bd f4 b6 d8 3d e3 a5 63 bd fb 5d fd 3d
       -0.109811574 0.105817705 -0.055578124 0.12371441
000160 e2 b6 0e bd 62 2d b5 bd fa 76 1e be 3e 1b 13 be
       -0.03484238 -0.08846547 -0.15475073 -0.14365861
000170 c5 aa d9 3c cf 5e 0c 3e 4e d3 08 3c 54 34 33 be
       0.026570687 0.13708042 0.00835116 -0.1750043
000180 9e 55 0d 3e 3d 78 ee 3d 7c 20 07 bd de 2a 12 bc
       0.13802192 0.116440274 -0.032989964 -0.008921353
000190 18 70 60 3d 36 5d 29 3e 20 69 81 3c 27 fd dd 3c
       0.0547944 0.16539463 0.015797198 0.027098252
0001a0 3f e3 02 be 79 64 ed bd a4 f0 0b be 00 9e e5 bd
       -0.12782 -0.11591429 -0.13666016 -0.11211777
0001b0 d3 82 95 bc 5e d4 16 be 50 51 80 3c 4b 5e 72 bd
       -0.018250858 -0.14729449 0.015663773 -0.059171956
0001c0 33 50 6a bd 08 33 1c 3e f1 2d ba 3d 27 d2 ed 3d
       -0.05720539 0.15253842 0.09090794 0.11612349
0001d0 99 6e 42 bd 2e 68 bd 3d 3a fc 38 bd c9 5b 2a 3e
       -0.047468755 0.09248386 -0.045162417 0.16636576
0001e0 52 81 43 3d 4b 44 60 3c f4 14 2e be 15 b2 41 bd
       0.04773075 0.013688157 -0.1700018 -0.047288973
0001f0 f9 54 cb bd da d1 24 3e f9 bb df 3d 37 ce bd bd
       -0.099283166 0.16095677 0.10924525 -0.09267848
000200 9d bd f5 bd 2d 0b e0 bd 7d 49 39 3d 35 34 2d bd
       -0.119990565 -0.109396316 0.0452361 -0.042286117
000210 01 86 b5 3d 06 cb 3f 3d d8 bc 0d 3e 3e 76 45 3e
       0.0886345 0.046824478 0.1384157 0.19283387
000220 35 fc 3b 3e d9 b5 c6 3d f4 1a f4 bd 31 e3 45 be
       0.18357928 0.097026534 -0.119192034 -0.19324948
000230 df df 0d be e1 c3 c3 bc 7c e5 3e bd 2d e0 20 3e
       -0.13854931 -0.023897113 -0.046605572 0.15710516
000240 48 06 01 bc 4e b7 32 3d 2a 92 3e 3d fa 11 10 bb
       -0.007875033 0.043631844 0.04652611 -0.002198337
000250 6b dc 8b 3d db 8a 73 3d b4 d2 d2 3d 3a f4 05 3d
       0.06829151 0.059458595 0.10294095 0.032703616
000260 70 da 3e 3d 40 64 e9 bd a2 c4 27 bc 6d 0f 5e 3b
       0.046595037 -0.11396074 -0.010239752 0.0033883706
000270 b8 b3 72 bb 51 9a 93 bd e3 d5 07 3e 03 f3 25 3d
       -0.003703339 -0.07207168 0.13265185 0.040514957
000280 46 c1 b1 bd ea 4c 13 3c 4b 74 40 bd 7e f1 22 3e
       -0.08679442 0.008990506 -0.046985906 0.15912434
000290 cd 55 84 bd fd ba ca 3d 15 13 34 be 8d d1 34 be
       -0.06461678 0.098989464 -0.17585404 -0.17658062
0002a0 73 9c 62 3d f7 5b ed bd 4e 0d bf 3d 7b 31 14 3d
       0.055324983 -0.115898065 0.093287095 0.03618
0002b0 93 70 2d be 2e 8c fd 3d 74 24 e8 bd d2 6d 12 3e
       -0.16937475 0.12380253 -0.11335078 0.14299706
0002c0 23 c5 84 3d e1 b9 83 3c 83 a0 cc bd d0 6c ad bd
       0.06482913 0.016079845 -0.09991553 -0.0846802
0002d0 ea ec 1f bd ff f3 04 be 4e b4 60 bd 01 e3 df 3d
       -0.0390443 -0.12983702 -0.054859452 0.109319694
0002e0 63 78 b1 3d a6 40 36 3d 62 dc c8 bd bb 74 49 3d
       0.0866554 0.044495247 -0.0980766 0.04918359
0002f0 7f 12 14 3e 7e 97 f2 bd fc 37 b2 3d 85 c2 5b 3c
       0.1446018 -0.11845301 0.087020844 0.013413076
000300 58 bd f8 bd 41 fc e9 3d 2d 49 aa bc 62 3d f1 3c
       -0.121454895 0.11425067 -0.020786846 0.029448215
000310 14 c5 cc bd cd 8f 06 be 6d a5 86 bc 98 12 d4 bc
       -0.09998527 -0.13140793 -0.016436303 -0.025887772
000320 7e ad 93 3d b3 03 0c 3e 18 00 43 bd cb 93 f7 3d
       0.072108254 0.13673286 -0.04760751 0.12088736
000330 2b 67 0c 3e 13 47 45 3b ac cb 8f 3d c0 95 04 be
       0.1371123 0.0030102178 0.07021269 -0.1294775
000340 ce d8 49 bd bd f5 0e be 6b d9 1d 3c 9f 6a d8 3d
       -0.049279027 -0.13960929 0.009634356 0.10567211
000350 c6 2a cb 3c f7 c5 8e bd 58 97 98 3b 93 1d 23 be
       0.02480067 -0.069713525 0.0046567135 -0.1592925
000360 4d dd 81 3d 56 e2 91 3d 45 c3 33 be b6 8a 69 3d
       0.06341038 0.07123248 -0.17554958 0.05701705
000370 b1 44 9a bd 70 f3 7b bb 89 c5 69 3d be 34 22 be
       -0.07532633 -0.003844466 0.05707315 -0.15840432
000380 81 48 01 3e 5d 6f 69 bd 20 a7 c2 bd 02 59 cc bd
       0.12625314 -0.05699097 -0.09504533 -0.099779144
000390 a2 e5 1a be 07 8f 92 bd f8 1c 17 be 87 1d e1 bc
       -0.1512666 -0.071561866 -0.14757144 -0.0274799
0003a0 69 7d 84 3d 86 e8 a6 3d 7a 1f 05 be f1 76 09 be
       0.064692326 0.08149819 -0.13000289 -0.13424279
0003b0 ec 2b 27 3e ca 4f 86 bb f4 57 ea 3d 3c fd 9c 3d
       0.16325349 -0.004098867 0.11442557 0.07665488
0003c0 7e b9 af 3d 69 10 b2 3d 8b f3 c3 3d de 02 1e ba
       0.08580302 0.08694536 0.095679365 -0.0006027649
0003d0 af 84 c9 3d 5d 59 12 3d 0d 3f b3 bd d6 8d 1d 3e
       0.098397605 0.035729755 -0.0875226 0.15386137
0003e0 bd 16 91 3c 35 ad 39 3d 7b 50 f3 bd 4c 91 11 bd
       0.017711038 0.0453312 -0.11880585 -0.035538957
0003f0 f5 60 db 3d 4a 4b a6 bd 0d f9 0b 3e b5 57 ab bc
       0.107118525 -0.08119829 0.13669224 -0.020915845

model.model.decoder.encoder.layers.0.linear1.bias f4 [128]
000000 9b 66 13 be 46 b8 0b be 2e 7d 68 3d 8e 70 a8 bd
       -0.1439461 -0.13644513 0.056760006 -0.08224593
000010 bc 39 6f 3d 0f 01 02 be 86 83 1f bc 51 e5 00 3e
       0.05840467 -0.12695716 -0.0097359475 0.12587477
000020 67 62 90 3d b0 c9 ac 3d 05 67 1a be f8 55 1e be
       0.07050019 0.08436906 -0.15078361 -0.15462482
000030 57 4f 97 3d 9a c9 26 3e 1a 9c 62 bd 0a 4b e9 3a
       0.0738818 0.16287842 -0.05532465 0.0017798853
000040 c2 33 82 bb ba b7 93 3c dd 58 32 be 9e 93 68 bc
       -0.003973455 0.018031944 -0.17416711 -0.014195351
000050 6a 1a 88 bd 8d d6 07 3e e3 56 ea 3d 1c 0f 41 3e
       -0.06645663 0.13265438 0.114423536 0.1885342
000060 bf eb 21 bc 1e ff 07 bd 92 68 2a 3e 87 0f 6b bd
       -0.009882866 -0.033202283 0.16641453 -0.057387855
000070 5c 90 d6 3d b6 a4 0b 3e ce 6b bc 3c 9d 7d ef bd
       0.10476753 0.13637051 0.023000624 -0.11693881
000080 e6 f9 23 3e 33 05 c0 bd ad 68 21 bd 20 f3 0e bd
       0.16013297 -0.09375992 -0.039406467 -0.03489983
000090 6d 65 aa b9 cd 3f 8e bd 4d ab db 3d 2b 31 e2 3c
       -0.00032500495 -0.06945763 0.107260324 0.027611336
0000a0 d7 89 03 bc 08 80 11 be 60 92 fa 3d 13 4a 6e 3b
       -0.008028469 -0.14208996 0.1223495 0.003636007
0000b0 21 ec 0e 3e 47 17 95 bd 3b 0c 84 bc cb c3 fe 3d
       0.13957264 -0.072798304 -0.016119113 0.12439688
0000c0 05 8c 25 3d f9 2c 25 be fd 43 20 be 44 7d 3e 3e
       0.040416736 -0.16130437 -0.15650935 0.18602473
0000d0 a4 09 06 3e fe 32 86 bd 8d 0b 16 3e b7 84 31 3e
       0.13089615 -0.06552695 0.14652844 0.17335783
0000e0 62 1a 25 3e 08 04 a8 3c 39 05 0d 3e 6b 50 27 3e
       0.16123345 0.020509735 0.13771524 0.16339271
0000f0 25 e7 b4 bc f0 70 95 bc ca cf f0 3b 51 44 cf 3d
       -0.022082875 -0.01824233 0.007348989 0.10120452
000100 d7 a6 30 3d 62 e0 2e 3e 51 99 2a be 25 b8 18 be
       0.04312786 0.17077783 -0.16660048 -0.14913996
000110 c9 91 3e 3d ee e2 1d 3e e9 fc 11 bd c2 5e 0e be
       0.04652575 0.15418598 -0.035641585 -0.13903335
000120 6c 71 27 3d 46 22 8b bd cd 64 a3 3d 58 97 ac bd
       0.040879652 -0.067936465 0.079782106 -0.08427304
000130 a2 b6 96 bd d0 5c 88 3d 72 11 b1 3c 75 25 f1 bd
       -0.07359053 0.066583276 0.021614764 -0.117747225
000140 6a f1 2c 3e d2 c7 97 bd da c6 16 bc a2 b3 33 bd
       0.16888967 -0.074111596 -0.009202683 -0.043872483
000150 52 f9 45 38 f7 5a a6 bd 7d 6b e8 3c 35 42 7b 3d
       4.7200658e-05 -0.08122819 0.028371567 0.061342437
000160 88 66 c5 bc e3 70 ee bd 23 7d f3 bd a3 89 08 bd
       -0.024096742 -0.11642625 -0.11889102 -0.033334386
000170 fd 50 0c 3d 41 02 26 bd 6c 88 df 3d a2 98 0e 3e
       0.034256924 -0.040529493 0.10914692 0.13925412
000180 d5 1c 3c 3d 88 63 e2 3d 40 bb e0 bd 38 df 2e bd
       0.045925934 0.1105414 -0.10973215 -0.042693347
000190 bf fa 27 3e f6 0e 37 bd 57 a1 e3 bd 21 76 5e bd
       0.16404246 -0.044692002 -0.111147575 -0.054311875
0001a0 57 6f 94 3d 00 a1 33 be c3 4c af bd d8 0e 1c be
       0.07247799 -0.17541885 -0.08559563 -0.15240037
0001b0 b6 e4 08 bc 24 b2 1f be d0 20 72 3d 54 ff da bd
       -0.00835531 -0.15595299 0.059113324 -0.10693231
0001c0 73 d3 48 3d 68 8b 21 3e 51 ff 27 3e ed 80 95 bd
       0.04902978 0.15775836 0.16405989 -0.07299981
0001d0 63 4b 25 bd 95 aa 93 3d 74 b1 1f 3e e0 bc 04 3e
       -0.040355098 0.0721027 0.15595037 0.12962675
0001e0 f5 f7 06 be 88 72 29 3e 2a 1d c2 3d a0 f6 0e bd
       -0.13180526 0.16547596 0.09478219 -0.03490317
0001f0 e1 7b d2 bd 82 ad db bd 7c 3a 05 3e cf 7a de bd
       -0.10277534 -0.10726453 0.13010591 -0.10863268

model.model.decoder.encoder.layers.0.linear2.weight f4 [32, 128]
000000 7d 99 86 3d 86 20 75 3d 05 f4 21 bd 95 7d 8f bd
       0.06572244 0.05984547 -0.039539356 -0.07006375
000010 33 6b d3 3d 03 85 92 bd 4f ee 25 bd de d8 2a 3d
       0.10323181 -0.07154276 -0.040510472 0.041710727
000020 24 71 86 3d 53 03 62 bd a0 14 80 bd 84 4c 2c 3d
       0.065645486 -0.05517895 -0.06253934 0.04206516
000030 fa 67 05 bd d9 82 2b bd 5f 3b 85 bd 5f 9e 8d 3d
       -0.032569863 -0.041872833 -0.06505465 0.069149725
000040 4a 1d b0 3c fb 21 50 3d 37 b5 11 3c dc 1d 86 bd
       0.021498341 0.050813656 0.008893303 -0.06548664
000050 6b 8e 1e 3b b1 1f 55 3b ce 25 d5 3c 83 e1 19 bc
       0.0024193774 0.003252011 0.026019003 -0.009392145
000060 e5 60 65 bd aa f7 4f 3c a5 2e 54 bd 1a 50 6b bd
       -0.05600061 0.012693325 -0.051802296 -0.057449438
000070 c7 35 72 bd 44 91 04 bd 46 c2 c6 bc 5c a4 96 bd
       -0.059133317 -0.0323651 -0.024262559 -0.07355568
000080 9c 43 5f 3d 40 49 cd 3d 0e b8 88 bd e4 c2 77 3d
       0.054507837 0.10023737 -0.06675731 0.060488597
000090 23 4b 6e 3d 8d cb 38 3c fe 68 78 3d 6e ab 4e 3d
       0.058177125 0.011278999 0.060647003 0.050456457
0000a0 22 e5 91 bd ee f3 56 bd d7 65 8b 3d ef f0 d8 3c
       -0.07123782 -0.052478723 0.06806534 0.026482074
0000b0 d8 41 2b bd fc 62 08 bd e5 b4 36 bd 7f 6e 4d bd
       -0.04181084 -0.033297524 -0.04460611 -0.050154205
0000c0 ee fe 22 bd 46 5a b8 3d ed 71 72 3d 5a c8 d1 3d
       -0.0397939 0.09001593 0.05919068 0.10243292
0000d0 fc d8 b4 3d ee 17 68 3c b9 fd 7b 3d ca cf 65 3d
       0.08830449 0.0141658615 0.061521266 0.056106366
0000e0 e5 a5 2d bd 3f 0f 47 3d d8 bb 83 3d 3f 5c 50 3d
       -0.042394537 0.048598524 0.06432313 0.050869223
0000f0 f5 7f f0 3c c0 ae 27 bd d2 ab a9 3c e6 e9 25 3d
       0.02935789 -0.04093814 0.020711813 0.040506266
000100 0c b1 18 bd ff dd ad bc 56 24 11 3c 47 b4 c0 3d
       -0.03727822 -0.02122402 0.008858761 0.09409385
000110 5f 47 b5 3d 12 8c d9 3c f9 aa 20 3d 12 76 f0 bc
       0.088515036 0.026556049 0.039225552 -0.029353175
000120 5e 49 9c 3d 09 fc 19 bd 90 b1 65 bd 48 f7 60 bd
       0.07631181 -0.037593875 -0.05607754 -0.054923326
000130 5d a5 8a bd 72 8e 66 bd e1 35 11 bd c8 3e 8a 3b
       -0.06769822 -0.05628819 -0.035451774 0.00421891
000140 ec cd 11 bd 45 ea 8b 3d e2 e2 0e bc 8b 4e 27 3d
       -0.035596773 0.06831793 -0.008721085 0.04084639
000150 b8 0a 0c 3d a1 da 19 3d df b1 d1 3d 19 03 aa 3d
       0.03418991 0.037562016 0.10239004 0.08301372
000160 5a 32 4b 3c 5a 7b 54 3d 73 90 90 3d a8 f3 81 3c
       0.0124021415 0.05187545 0.070588015 0.015863255
000170 c5 e4 c8 3c 9f c5 c4 3d 6b 62 16 3d ca d4 bb 3d
       0.024523148 0.09608006 0.036714952 0.09171446
000180 17 45 dc bc 7d 9c 1c 3c 77 99 43 bd 12 16 8b bb
       -0.026888413 0.009558794 -0.047753777 -0.0042445743
000190 be 03 ec bc 50 63 e6 bc f4 23 b5 3d 8e 51 44 bd
       -0.028810378 -0.028123528 0.08844748 -0.04792934
0001a0 b2 ba ee bb 21 25 60 3d c9 bd 0d bd a2 99 d6 3c
       -0.0072854394 0.05472291 -0.03460482 0.026196305
0001b0 8d 7e 46 bd f6 9a 7a bd 94 75 91 3b 88 b7 3b 3d
       -0.048460532 -0.06118294 0.0044390652 0.045829326
0001c0 6e 99 6c bd d1 72 82 3c e6 e8 05 bc a8 ca 94 bd
       -0.05776351 0.01592389 -0.008173203 -0.07265216
0001d0 3e ac 13 3d 10 b1 70 3c 57 0a 7e bd fc 41 91 3d
       0.036052935 0.0146906525 -0.06202158 0.07092664
0001e0 17 31 35 3d 56 d0 f7 bc bd 9b 81 3c 61 1e 72 3d
       0.04423627 -0.03025071 0.015821332 0.059111003
0001f0 35 d7 b4 3d a6 b6 aa 3d 04 13 e6 3d bf df ac 3c
       0.0883011 0.08335619 0.11234096 0.021102784
000200 0b 92 b5 bd 40 aa 59 3d 1e cc 9c 3d a0 f2 60 bd
       -0.08865746 0.05314088 0.0765612 -0.054918885
000210 ed bd 52 bd f5 f9 72 3d 8b f2 41 3c 08 d4 56 bc
       -0.05145066 0.05932041 0.011837612 -0.013112076
000220 5a b8 3a 3d 01 95 0d bd 4c 5e 04 bd c7 06 c7 3d
       0.045585968 -0.03456593 -0.03231649 0.097180896
000230 70 90 44 bd 48 17 a4 3c 81 44 a9 bd e8 86 c6 bc
       -0.04798931 0.020030633 -0.08265019 -0.02423425
000240 1e 09 16 bd c5 ac 43 3d 23 b8 cf 3c ea 16 0b 3d
       -0.03662979 0.047772188 0.025356358 0.0339574
000250 dd 51 7d 3d ca 88 4b 3d 62 e8 04 bb af 50 c9 bd
       0.06184565 0.049691 -0.0020280113 -0.09829842
000260 d7 7f c5 ba 43 00 89 3d 60 ad cb bc a3 f0 5a bd
       -0.0015068006 0.06689503 -0.024862945 -0.053452145
000270 c5 0d 0f 3d 6e 82 fa 3c cc 19 0e bd 54 68 9c bd
       0.03492524 0.030579772 -0.03469257 -0.076370865
000280 49 c7 73 bc 40 16 3f bd 9b b0 5f bd 97 ca 78 3b
       -0.014879056 -0.04665208 -0.054611783 0.003796255
000290 14 05 fd 3c 86 ad 82 3d c3 cb a0 3d 0b ca 52 3d
       0.03088621 0.06380753 0.078513645 0.051462214
0002a0 2f 3a 4c bd b7 cc d6 bc 4d e6 10 bc 59 63 b0 bc
       -0.049860176 -0.026220663 -0.0088439705 -0.021531748
0002b0 b6 66 31 3d ad 97 1b 3d 5c c4 78 3d 1a cf 3c bd
       0.043310843 0.037986446 0.060734138 -0.046095945
0002c0 3f 14 a6 bd 81 5e 6c 3d a3 b8 19 3d 5b 24 bd bd
       -0.081093304 0.057707313 0.0375296 -0.0923545
0002d0 be e9 cf bd 76 36 5d bd 31 f4 e8 3c 4f c9 80 3d
       -0.10152005 -0.054007016 0.028436752 0.062883966
0002e0 e4 44 c8 3b 4a e8 c8 3c 05 09 87 bd 2f d2 c4 3d
       0.006111728 0.024524827 -0.06593517 0.09610402
0002f0 15 f9 67 3d d0 60 55 bc 5e 37 f7 bc 4b 5f a4 bc
       0.056634028 -0.01302357 -0.030177768 -0.02006497
000300 20 8c 1f 3d 36 06 bf bc ab d7 ac bd c2 b2 19 3d
       0.038951993 -0.023318391 -0.08439573 0.037523992
000310 7d 1a 79 3d 7f e7 f3 3c d3 7f a5 bc 92 57 58 3d
       0.060816277 0.029773472 -0.020202553 0.05281789
000320 5c 32 83 bd 80 01 c9 bc db db 96 bc c8 18 75 3c
       -0.0640609 -0.024536848 -0.018415382 0.014959522
000330 c5 28 9c 3d 47 a9 37 3c 4f 04 67 3d 4e 46 85 bd
       0.07624964 0.011209792 0.056400593 -0.0650755
000340 13 57 0d 3a 07 1a 8c bd 19 d6 2b 3d 4f 10 1b bc
       0.0005391698 -0.06840902 0.041952226 -0.0094643375
000350 39 3c 40 3d 19 c6 d7 bc f7 33 01 bc 6e a0 19 bd
       0.046932433 -0.026339578 -0.007885925 -0.037506513
000360 7b e9 84 bd 85 3a 6e bd c6 1d d2 bc 57 0a 0b 3b
       -0.06489845 -0.058161277 -0.025648963 0.002121588
000370 a5 f0 74 3d 52 c1 7a 3c d9 ad a6 3d 7b c8 00 3c
       0.05979981 0.01530488 0.081386276 0.007860298
000380 4a ed 6a bd 92 aa 62 3b d4 52 77 3d 08 cb 03 bd
       -0.057355203 0.003458653 0.060381725 -0.032176048
000390 a4 90 85 bc 2a ef d0 bb a8 b6 3e bd db 45 c0 bd
       -0.016304322 -0.006376167 -0.046560913 -0.09388324
0003a0 5d f2 64 bd 07 68 0c 3d c3 04 d3 bc aa ee 33 bd
       -0.055895198 0.034278896 -0.025759107 -0.04392878
0003b0 31 b3 93 3c 20 5d 6c bb 87 9d bb 3d e0 69 b9 bd
       0.018029781 -0.003606625 0.09160905 -0.09053397
0003c0 0f 38 d0 bd 89 1f 8a bd 49 ae 56 3d e0 eb 85 3d
       -0.10166942 -0.06744296 0.052412305 0.0653913
0003d0 62 23 49 3c 68 89 5a 3c f7 be 5c bb fa da 4a 3d
       0.012276502 0.013338424 -0.003368316 0.04952524
0003e0 79 c6 2c bd 93 bb dd ba a0 13 ea bc 5c d3 ac bd
       -0.042181466 -0.0016916863 -0.028573811 -0.08438751
0003f0 f3 34 88 bd 63 c0 ad 3c a6 c9 7a bd a8 84 76 3d
       -0.06650724 0.021209901 -0.061227463 0.060185105

model.model.decoder.encoder.layers.0.linear2.bias f4 [32]
000000 b3 84 aa 3d 83 9f c5 bc 37 74 d4 bc 60 87 9f bc
       0.083260916 -0.024123913 -0.025934322 -0.019473732
000010 f8 b5 9e bd 19 02 88 bd 26 9d e1 3b 4e 34 c2 3b
       -0.077495515 -0.06641025 0.0068851886 0.0059266454
000020 73 b7 92 3c 74 8b 68 3d 58 40 27 3d 9a 55 21 bd
       0.017909741 0.056773618 0.040832847 -0.039388277
000030 4a 36 2d bd 9d 5e a2 3d ad 37 5c 3d 3c 47 3d bd
       -0.042288102 0.07928202 0.053764034 -0.046210513
000040 2d 10 b3 3d 3f 92 bb bc f2 95 c6 bc 75 f7 b4 3c
       0.0874332 -0.022896884 -0.024241421 0.022090653
000050 12 6a 90 3d 84 0e 41 bd e6 61 2d 3b 01 4d 39 3d
       0.07051481 -0.047132984 0.0026456057 0.045239452
000060 66 5e ea 3c a1 20 a8 3d b8 17 de bc 0d 97 48 3d
       0.028609466 0.082093485 -0.02711092 0.04897218
000070 28 78 49 bd 83 57 af bd 90 17 69 3d a9 68 70 3d
       -0.049186856 -0.085616134 0.056907237 0.05869356

model.model.decoder.encoder.layers.0.norm1.weight f4 [32]
000000 7a 97 80 3f 05 58 7e 3f 57 08 7d 3f a3 13 82 3f
       1.0046227 0.9935306 0.9884085 1.0162243
000010 48 87 7f 3f 9e e8 7b 3f b9 cc 80 3f d0 1d 7b 3f
       0.998158 0.9840182 1.0062476 0.98092365
000020 29 fb 80 3f 06 34 81 3f ad a5 80 3f 86 bb 7b 3f
       1.0076648 1.0094001 1.005056 0.98333013
000030 a2 39 7b 3f b1 fd 80 3f 6d 25 7c 3f 45 0b 82 3f
       0.98134816 1.007742 0.9849461 1.0159689
000040 fc 03 7b 3f 92 36 7d 3f 9e b7 81 3f 46 33 80 3f
       0.98052955 0.9891139 1.013416 1.0015647
000050 6e 63 7c 3f 73 2e 7d 3f c9 e8 7d 3f cd 14 7b 3f
       0.9858922 0.98899 0.99183327 0.98078614
000060 fd 93 81 3f b2 64 7c 3f e5 36 7d 3f af 0a 80 3f
       1.0123287 0.9859115 0.9891189 1.000326
000070 5a c0 7a 3f 49 55 7c 3f 1d 8f 7b 3f 63 a8 7b 3f
       0.97949755 0.98567635 0.9826525 0.9830381

model.model.decoder.encoder.layers.0.norm1.bias f4 [32]
000000 da 76 8d 3a 95 fe 02 bc dd 53 77 3b b7 1e 04 bc
       0.0010792867 -0.007995267 0.0037739195 -0.008063964
000010 32 24 23 bc 11 b2 da 3a 7a 87 c6 3a 5b 23 fc 3b
       -0.00995736 0.0016685148 0.0015146576 0.0076946444
000020 6a 1f 9a bb bd a1 aa bb 3e f8 f4 3b 3a b6 ca 39
       -0.004703452 -0.005207269 0.007475882 0.00038664212
000030 59 88 cb 3b e4 24 df 3b 41 57 53 3c bf cf eb b8
       0.0062113223 0.0068098176 0.012899221 -0.00011244369
000040 3e de 23 bc 1f ed f5 3a 26 10 95 3b 42 06 86 bb
       -0.010001717 0.0018762684 0.004549044 -0.0040901015
000050 2d ad 29 3c 11 b8 45 3c 0b a9 3a bc e1 5e bd 3b
       0.01035623 0.012067811 -0.011392842 0.0057791327
000060 57 02 4b 3b c8 12 02 b8 2b 96 04 3c 9f 27 b2 bb
       0.0030976736 -3.1011907e-05 0.008092443 -0.005436852
000070 e7 a2 ef bb 24 67 ca bb e1 8d 40 3c f1 87 4f bb
       -0.0073131206 -0.006176846 0.011752577 -0.003166672

model.model.decoder.encoder.layers.0.norm2.weight f4 [32]
000000 d9 24 80 3f 30 d9 80 3f 3b 96 7d 3f d2 97 81 3f
       1.0011245 1.006628 0.9905736 1.0124457
000010 f5 42 7f 3f 6b 45 7f 3f 8b 94 81 3f e9 7c 81 3f
       0.99711543 0.997153 1.0123457 1.0116245
000020 ac d0 81 3f 5d e8 81 3f 77 99 81 3f 29 81 7c 3f
       1.0141807 1.0149037 1.0124959 0.9863458
000030 d5 76 7d 3f 15 15 82 3f 32 cf 7f 3f 25 68 82 3f
       0.9900945 1.0162684 0.9992553 1.0188032
000040 39 b9 7c 3f eb 3c 80 3f 95 53 82 3f 81 8c 81 3f
       0.9872013 1.0018591 1.0181757 1.0121003
000050 e3 d5 7e 3f da 9f 7c 3f eb 63 81 3f 10 a9 7d 3f
       0.99545115 0.98681414 1.0108618 0.99086094
000060 d7 0c 82 3f 58 18 7f 3f 1d 40 82 3f e2 2e 81 3f
       1.0160168 0.9964652 1.0175816 1.0092432
000070 25 fb 7b 3f aa d6 7e 3f 8a b0 7f 3f ef 2d 7d 3f
       0.9843009 0.995463 0.9987875 0.98898214

model.model.decoder.encoder.layers.0.norm2.bias f4 [32]
000000 bb 3b 0c 3b 6e 7a ff ba 30 e2 ef ba a8 b2 16 3b
       0.0021397907 -0.0019491443 -0.0018301662 0.002299467
000010 db 95 ba b8 6c 25 f8 3a 5c c4 fe ba 55 ac 0b bb
       -8.897084e-05 0.0018932051 -0.0019437182 -0.0021312435
000020 29 52 ff ba ac af 06 bb f8 50 01 3b a0 18 f4 ba
       -0.0019479442 -0.0020551486 0.00197321 -0.0018623061
000030 6b 30 d6 ba 94 a9 02 bb 64 cb fa ba 5d df 02 3b
       -0.0016341334 -0.0019937502 -0.0019134101 0.001996956
000040 ab 05 d9 3a 1a d3 fc 3a 1f 87 00 3b 83 15 04 3b
       0.0016557475 0.0019288987 0.0019611788 0.0020154424
000050 e6 08 f6 3a ca 32 e7 3a 44 0d 13 3b 92 65 f4 ba
       0.0018770962 0.0017639038 0.0022438327 -0.0018645993
000060 c0 2b 01 3b b1 01 fc 3a 65 b1 32 bb 1b 7c 00 bb
       0.0019709915 0.0019226578 -0.002726638 -0.0019605223
000070 fc 11 db 3a c2 13 f6 3a 17 0e f9 ba 16 36 f3 ba
       0.0016713734 0.0018774199 -0.0019001391 -0.0018555548

model.model.projection.weight f4 [2, 32]
000000 5a 35 05 bd 58 9a e2 3d 3d c7 33 3d 25 6a 00 bd
       -0.032521583 0.11064595 0.04389118 -0.031351227
000010 76 11 8c bd 98 e6 89 bd e1 61 8f 3d e2 e1 16 3e
       -0.06839268 -0.067334354 0.07001091 0.14734605
000020 da c5 75 bd ad 06 d6 3d f3 db a5 bc 90 07 cb bd
       -0.06000314 0.10450492 -0.020246482 -0.09913552
000030 0e c3 23 be 50 2e 02 be 53 cb 1e be 2b b4 f4 3d
       -0.15992376 -0.1271298 -0.1550725 0.11948427
000040 18 38 0d 3d 96 29 32 be 78 bd d5 bd a9 0d d8 3d
       0.034477323 -0.17398676 -0.10436529 0.105494805
000050 14 22 e2 3c ca 75 32 3e 38 f1 21 3e 01 f9 29 be
       0.02760414 0.17427745 0.15814674 -0.16598894
000060 65 ce a9 3d bb 52 0d be 34 98 07 bd 0e a9 a2 bd
       0.0829132 -0.1380109 -0.033104137 -0.07942401
000070 7d 0f d7 3d 53 aa 0b 3c 9d 05 00 be e9 91 ac 3b
       0.10501001 0.008524495 -0.12502141 0.0052664173
000080 c0 a8 32 be e8 d8 f4 bc 1d 84 1d bd 4c 54 18 bd
       -0.17447186 -0.029888585 -0.03845607 -0.037189767
000090 ed fe 9b 3d 53 8f fc bc c3 84 9b bc fd ab 22 be
       0.076169826 -0.030830061 -0.018984204 -0.15885921
0000a0 da 4c 94 3d 3f a2 d9 bd f1 64 fc bc 01 db bb 3d
       0.07241221 -0.10626649 -0.030809851 0.09172631
0000b0 77 35 61 bd 55 fb a8 3c 5a cf ed bd 5d de 01 be
       -0.05498263 0.020627657 -0.11611815 -0.12682481
0000c0 c7 db 8d 3d e6 f9 17 3d e4 f6 21 be 94 b6 61 3d
       0.06926685 0.037103556 -0.15816838 0.05510576
0000d0 fb 79 77 3d 47 70 4e 3d c9 84 2c be e1 f6 3b bd
       0.060419064 0.050400045 -0.16847529 -0.04588974
0000e0 90 38 dc 3d bf d3 e5 bc c0 07 26 3e 0f 5c f6 3d
       0.10752976 -0.02805507 0.16213894 0.120292775
0000f0 82 57 03 be 13 bb 8b 3c 62 92 93 3d 19 e9 4b 3b
       -0.1282635 0.017056977 0.07205655 0.0031114279

model.model.projection.bias f4 [2]
000000 bf 8f 2d be 8c 74 ab 3d
       -0.16949366 0.08371839
