lightning_logs/version_31/checkpoints/epoch=592-step=2372.ckpt (torch, 196557 bytes, 50 tensors)

model.model.pos f4 [50, 32]
000000 45 74 39 3e e0 dc a1 3c bc 4e 3c 3e 24 c4 e9 3d
       0.1811076 0.019758642 0.1838941 0.11414364
000010 f2 6c ff 3d ec e4 71 be e8 26 28 3e 69 41 56 be
       0.124719515 -0.23622483 0.16421092 -0.2092339
000020 55 0b 20 39 03 6c 55 3e f2 4d f8 3d 9a 85 34 be
       0.0001526301 0.20841984 0.12124242 -0.1762909
000030 97 8d 26 be 7c 99 42 3c 84 59 09 be 43 05 bd 3d
       -0.1626495 0.011877414 -0.13413054 0.09229519
000040 12 d0 35 bc d8 12 be 3a 8d 97 86 be ee 58 51 be
       -0.011096971 0.0014501465 -0.262875 -0.2044408
000050 12 98 64 bc 24 5f ab 3d 1d ee 02 3e 96 6a 33 3e
       -0.013952272 0.08367756 0.12786146 0.17521128
000060 73 e7 53 3e 34 f7 35 be fc 7d 61 be e2 58 f7 bd
       0.2069376 -0.17770082 -0.22020715 -0.120775
000070 fb 47 ec bd 65 32 e4 bd 9c d4 01 be 5e 04 84 3d
       -0.11537167 -0.111424245 -0.1267876 0.064461455
000080 53 46 28 be ca 22 1c be be 78 37 3d d6 92 58 3e
       -0.16433077 -0.15247646 0.044792883 0.21149763
000090 d3 9e 95 3e ad 5a 0c 3e 7f cf d5 bd f9 79 ba 3b
       0.29222736 0.13706465 -0.10439967 0.00569081
0000a0 5c 04 01 3e f2 a7 5a 3d 6a 79 15 be 68 99 66 be
       0.12599319 0.05338282 -0.14597097 -0.22519457
0000b0 ce 91 00 bd 94 33 6d be 56 36 23 3e e1 74 26 be
       -0.03138905 -0.23164207 0.15938696 -0.16255523
0000c0 7b aa a7 bd bd ee 28 be 28 5b 17 be 8a d4 6a be
       -0.081868134 -0.16497321 -0.14780867 -0.2293264
0000d0 7a fe 27 be 08 62 99 3e 35 19 6a bd 16 92 2a be
       -0.16405669 0.29957604 -0.057152946 -0.1665729
0000e0 36 3c c4 bd d9 ba 47 be 47 01 b8 3d ac f0 04 3e
       -0.09581797 -0.1950487 0.08984619 0.12982434
0000f0 53 4c 82 3e b9 74 71 be 6c 75 a8 bd d5 36 18 be
       0.25448856 -0.23579682 -0.082255214 -0.14864667
000100 91 82 ee 3d 52 6a 9c bc ad a1 6a be e3 1f 10 3e
       0.11645997 -0.019093666 -0.22913237 0.14074664
000110 ed 96 57 be 02 57 8b 3e bb 06 d3 bd 45 cd b1 bd
       -0.21053667 0.2721482 -0.10304018 -0.0868173
000120 52 28 53 3e e5 98 85 be 9b 68 80 3d 12 cb 86 be
       0.2062085 -0.26093212 0.06269952 -0.26326805
000130 0b 46 ce bc de 21 59 be 4e 19 2f 3e 8e 22 0b be
       -0.025179883 -0.21204326 0.17099497 -0.135874
000140 4f 94 3a 3d 56 28 1c 3e 46 2e 4d be 3d 7e 4d 3e
       0.045551594 0.15249762 -0.20037183 0.20067687
000150 62 04 00 be 5f 66 3b 3e 23 c1 fd bc a9 3c d5 ba
       -0.12501672 0.1830077 -0.030975884 -0.0016268688
000160 c9 49 90 be f3 f0 b2 bd e4 01 e6 3c 05 81 dd 3b
       -0.28181294 -0.08737364 0.028077073 0.006759765
000170 3d 2e 91 bc 86 9f 58 3e 7a 0d 4c 3e c3 a8 00 3e
       -0.017722243 0.21154603 0.19927016 0.12564377
000180 e8 ae 2c bd da e0 b4 3d 1b 15 53 be 5b f2 e3 bb
       -0.04215899 0.088319495 -0.2061352 -0.0069563813
000190 ca bb bf 3c e6 f1 71 be 5a 5b 91 3e 8c d5 80 3e
       0.023404974 -0.23627433 0.28390008 0.25162923
0001a0 48 a9 46 bd ff 04 0f 3e 5b c6 64 3c 34 eb c1 bc
       -0.048501283 0.1396675 0.013963307 -0.023671724
0001b0 50 5b c9 bd 11 03 80 3e 84 39 3d be 52 27 09 3e
       -0.098318696 0.2500234 -0.18478972 0.13393906
0001c0 1b 2d 89 bd 19 c7 d5 3d 32 14 21 3e ca 5b 6e 3d
       -0.06698056 0.104383655 0.1573036 0.058193006
0001d0 23 3a fb bc 4a a0 75 3e 2b be de 3d cb de 9d 3d
       -0.03066737 0.23986927 0.108761154 0.0770851
0001e0 b1 cb 8d 3e a0 2c 9f bd ed a5 4c be 8c cb 8b 3d
       0.27694467 -0.077721834 -0.1998517 0.06825933
0001f0 51 f5 9d 3e 47 2f 4c be a3 05 bc bd f4 68 20 3c
       0.30851224 -0.1993991 -0.091807626 0.009790648
000200 49 d7 59 3e d4 da fe 3c 71 0e be 3d ef 6a b0 3d
       0.21273531 0.031110205 0.09280098 0.08614146
000210 cc b2 22 3c dd 67 cf bd c5 0c ea bd 9e d3 b6 bc
       0.009930324 -0.10127232 -0.11428217 -0.022317704
000220 61 29 29 be 3a 7e 2b bc df c7 23 be b4 98 f4 bc
       -0.16519691 -0.0104671065 -0.15994214 -0.02985797
000230 8d 8e 2b be fb 01 0f 3e 35 8b 4b be b8 6a 05 bd
       -0.16753598 0.13965599 -0.19877322 -0.032572478
000240 c4 12 36 be 74 63 1a be 73 3a 13 be ac 74 d0 bc
       -0.17780596 -0.15077001 -0.14377765 -0.025446258
000250 29 8f fb 3d 52 7f 18 be c6 37 81 be f5 6a 33 be
       0.12283165 -0.14892319 -0.25237864 -0.1752127
000260 b0 ef 20 3e 80 5e 12 3e 45 19 55 bd 4f 8c ff bd
       0.15716434 0.14293861 -0.052026052 -0.124779336
000270 3d 5e 84 3c 30 74 61 3e 19 0d 6b 3c c3 ee 98 bd
       0.016158218 0.22016978 0.014346384 -0.07467415
000280 6c 1d 2a be d0 6a 98 3d de 66 0c 3e 85 70 5e bb
       -0.16612786 0.07442248 0.13711116 -0.0033941579
000290 7f 86 53 be 47 a7 3f 3d 5b 7a 74 be 09 7b 45 3e
       -0.20656775 0.046790387 -0.238748 0.19285215
0002a0 26 c3 32 3d 18 54 5e 3d fa c5 3d be 52 e1 5c be
       0.04364314 0.054279417 -0.18532553 -0.21570328
0002b0 52 96 0e be 4d fe e1 3d f2 ba 0c be 95 b3 63 be
       -0.1392453 0.11034832 -0.13743189 -0.22236474
0002c0 b1 b8 3f 3e 03 c6 98 3d 77 0d d3 bd 94 bf 05 be
       0.18722798 0.07459643 -0.103053026 -0.13061363
0002d0 35 77 98 bd ef 53 59 3e 50 a8 78 be df 19 09 3e
       -0.07444612 0.21223424 -0.24282956 0.13388775
0002e0 4e f1 59 be 8b 48 15 be 1b c0 95 bd eb 7d ec 3b
       -0.21283457 -0.14578454 -0.07312032 0.007217159
0002f0 d4 45 80 3e ee 7e ae bb 34 48 84 3d 43 2d 40 bd
       0.25053275 -0.00532519 0.06459084 -0.046918165
000300 39 07 6c bd a8 ef 85 bb c0 4d 92 3d a5 fb 3d 3e
       -0.057624076 -0.004087407 0.07143736 0.18553026
000310 ae 3e 79 bc ed 33 80 be 46 37 c2 3d 8c af c4 bd
       -0.015212698 -0.25039616 0.09483199 -0.096037954
000320 b0 0a 71 be b1 5a 76 bc d0 b2 73 3e 2c ae 55 be
       -0.23539233 -0.015036271 0.2379868 -0.20867223
000330 0a 01 a1 bd 87 c9 e4 bc a8 ef f6 3d d3 c7 b5 bd
       -0.07861526 -0.027928127 0.120574296 -0.08876004
000340 b1 83 47 be 80 b2 7d bd a3 dd 72 3e 0d b5 1e 3e
       -0.1948383 -0.06193781 0.2371736 0.15498753
000350 53 85 2d 3e 4f 29 bc bc ee b9 e6 bc 6d f9 51 bd
       0.1694539 -0.022968916 -0.02816483 -0.05126326
000360 3b 56 47 be 1c 04 de bd 6d 0a 27 be 69 96 78 3e
       -0.19466488 -0.108406276 -0.16312571 0.24276127
000370 4e e0 18 3d d7 8e e7 3c 99 e5 82 3e f6 8a cd 3d
       0.03732329 0.028266354 0.25565794 0.1003627
000380 2b ca 85 bc 36 fd 5a 3e 75 40 9f bd ff b3 34 be
       -0.016331753 0.21385655 -0.07775966 -0.17646788
000390 2c 03 66 be 70 2f d0 bc 3c dd ca 3d 13 e7 20 3e
       -0.22462147 -0.025413245 0.09905478 0.15713148
0003a0 35 88 33 3e 2c 0e 3c be 59 56 70 be df b6 6b 3a
       0.17532428 -0.18364781 -0.23470439 0.00089917885
0003b0 01 6a 67 be 3b b7 37 bd f3 f5 4d bd db f4 83 be
       -0.22599031 -0.044852477 -0.050283384 -0.25772747
0003c0 7c 14 8f bc 37 04 80 be 77 6e e8 bd 97 29 f8 bd
       -0.017465822 -0.25003216 -0.113491945 -0.12117308
0003d0 20 a1 89 bd 96 b9 72 bd ab d4 03 3d ba 72 09 be
       -0.06720185 -0.05925902 0.032185238 -0.13422671
0003e0 60 94 6d 3e 88 94 21 3e 04 b4 e0 3c 7f e8 e9 3d
       0.23201132 0.15779316 0.027429588 0.11421298
0003f0 de 0a 2a bd 24 89 64 be 79 8b 20 bd 88 d1 0e 3e
       -0.04151427 -0.2231794 -0.03919551 0.13947117

model.model.embed.weight f4 [2, 32]
000000 00 00 00 00 00 00 00 00 00 00 00 00 00 00 00 00
       0.0 0.0 0.0 0.0
000010 00 00 00 00 00 00 00 00 00 00 00 00 00 00 00 00
       0.0 0.0 0.0 0.0
000020 00 00 00 00 00 00 00 00 00 00 00 00 00 00 00 00
       0.0 0.0 0.0 0.0
000030 00 00 00 00 00 00 00 00 00 00 00 00 00 00 00 00
       0.0 0.0 0.0 0.0
000040 00 00 00 00 00 00 00 00 00 00 00 00 00 00 00 00
       0.0 0.0 0.0 0.0
000050 00 00 00 00 00 00 00 00 00 00 00 00 00 00 00 00
       0.0 0.0 0.0 0.0
000060 00 00 00 00 00 00 00 00 00 00 00 00 00 00 00 00
       0.0 0.0 0.0 0.0
000070 00 00 00 00 00 00 00 00 00 00 00 00 00 00 00 00
       0.0 0.0 0.0 0.0
000080 84 58 81 3f 51 2c ae 3e fc 92 2c 3f f2 7e 29 40
       1.0105138 0.34018186 0.6741178 2.6483731
000090 2f c7 be be 64 a3 7e bd 39 95 a2 3f dc 1b 06 bf
       -0.3726134 -0.06216754 1.2701789 -0.5238626
0000a0 a8 d5 88 3e 57 13 0d 3e 4a b8 86 bf 86 db 05 3f
       0.26725507 0.13776909 -1.052499 0.5228809
0000b0 3b 16 77 be 56 1b 61 be d6 cb dc bf a0 c4 09 3d
       -0.24129574 -0.21983084 -1.7249706 0.03363478
0000c0 fe e6 58 bf a8 14 61 bf f6 30 37 3f ef 6f 41 3e
       -0.84727466 -0.87922144 0.71559083 0.18890356
0000d0 2c bb 0d 3d 30 64 88 3f c4 63 ab be b1 c7 d1 3f
       0.03460233 1.0655575 -0.33474553 1.6389066
0000e0 40 3e 7d bf cc 0e 46 bf e0 69 f1 be 90 bb b4 bf
       -0.9892311 -0.7736633 -0.4715109 -1.411974
0000f0 45 93 5e 3f 42 99 69 3f 09 a9 0d 40 1c 1e ca 3f
       0.86943465 0.9124948 2.213442 1.5790439

model.model.decoder.encoder.layers.0.self_attn.in_proj_weight f4 [96, 32]
000000 9f fe 5a be 18 bf 93 3d 57 dd b4 3d 8b bc 64 be
       -0.21386193 0.072141826 0.0883128 -0.22337548
000010 c9 67 3a 3e 8f e7 b7 3c e5 23 9c 3d 22 18 24 be
       0.18203653 0.022449283 0.07624034 -0.16024831
000020 01 15 d4 3d c9 25 a1 3d e3 dd 27 be 78 35 69 3d
       0.10355569 0.07868535 -0.16393237 0.056935757
000030 32 e7 fb 3c 7b 93 41 be cb 3f b5 3d 78 75 9a 3d
       0.030749891 -0.18903916 0.08850058 0.07541937
000040 ab 54 f8 3d 9c da 05 be eb d4 a5 3b e9 66 3e bd
       0.12125524 -0.13071674 0.005060782 -0.04648486
000050 f2 5a 62 3d cc 4c 22 3e db 5b 0c 3c 3c 83 d8 bc
       0.055262513 0.15849608 0.008566822 -0.026429765
000060 2b 15 1a be 3c c0 b1 3d ee 4e eb 3d fd 58 40 3e
       -0.15047137 0.08679244 0.11489664 0.18783946
000070 d0 6b f8 bd 92 5e 2f 3d dd 84 60 3b 41 d4 21 3e
       -0.121299386 0.0428148 0.003425888 0.15803625
000080 be 2f e7 3d 85 bc 1f 3e 44 a7 ea bd 44 f1 8a 3c
       0.11288403 0.15599258 -0.11457685 0.016960748
000090 72 95 e3 bd 22 46 26 3d 72 9f 47 be ed 64 3b bc
       -0.11112489 0.040594228 -0.19494417 -0.011437637
0000a0 c8 dc e8 3d cd 61 99 3d 76 83 0a 3e 81 c1 0e 3e
       0.11370236 0.07489357 0.13526711 0.13941003
0000b0 22 fb 0e 3e c4 b2 4a be ff f9 3d 3e b9 13 e7 3d
       0.13962987 -0.19794756 0.18552397 0.11283059
0000c0 a5 f5 4d 3d fe 39 25 3e 2a fa 96 3c 69 68 60 3d
       0.050283093 0.16135404 0.018429834 0.054787073
0000d0 0c 2e 32 be e7 ee ad 3b 70 9f 1b 3e 91 01 f8 bd
       -0.17400378 0.0053080204 0.1519754 -0.12109674
0000e0 11 8e f4 bd 74 03 a3 3d a3 fb 1f be 8e bd 4a 3e
       -0.119411595 0.07959643 -0.15623336 0.19798872
0000f0 69 05 49 3d c4 31 67 be cd d8 02 be 96 f6 a5 bd
       0.049077425 -0.22577578 -0.12778015 -0.08103673
000100 7b 09 02 be f7 b2 1b be 96 87 4b be 39 c8 59 3e
       -0.12698929 -0.15204988 -0.1987594 0.21267785
000110 02 eb a1 3d ed 51 3f 3e b9 a3 4e 3e e8 c9 6f be
       0.07906152 0.18683596 0.20179643 -0.23416865
000120 18 a1 1c be 5d ec 16 be 99 6c 30 be 32 2d 61 3d
       -0.15295827 -0.14738603 -0.17228927 0.054974742
000130 60 f8 a8 bd 96 da d6 bc 20 c0 a8 bc 2b 2a f6 3b
       -0.08250499 -0.026227277 -0.020599425 0.007512351
000140 df 50 b6 bd d0 0d 2f 3e c8 68 fc 3d ea 09 0a be
       -0.08902144 0.17095113 0.12324673 -0.13480344
000150 b5 3f 49 bd 0f f4 3f 3d 91 de 0d 3e 0c ce 70 3e
       -0.04913302 0.04686361 0.13854434 0.235161
000160 07 51 08 be e7 2c a5 bc f7 ac 6a 3d b4 22 30 3e
       -0.1331216 -0.020163013 0.05729386 0.17200738
000170 68 58 1b bd 90 43 11 3e 27 9f 14 3e bb 44 07 bd
       -0.037926108 0.1418593 0.14513837 -0.03302453
000180 a9 18 f6 3b d9 a5 85 bb df 84 44 3e 5d ee 73 3e
       0.007510264 -0.0040786085 0.19191311 0.23821397
000190 88 41 0f be e6 c2 34 be 38 4a e6 bd 54 1c 06 be
       -0.13989842 -0.17652473 -0.11244625 -0.13096744
0001a0 ef c8 93 3d 22 fd 44 3c d7 04 dc bc e6 4d e4 3d
       0.072160594 0.012023242 -0.026857777 0.111476704
0001b0 26 54 c5 bc 31 50 c2 ba 8b 34 44 3d e0 73 2d bc
       -0.024087977 -0.0014824924 0.04790167 -0.010586709
0001c0 94 bc b0 bd b2 7b 3c be 7f 18 2b be b7 9c ce 3d
       -0.086297184 -0.18406561 -0.16708563 0.10088485
0001d0 8e c7 4d be 3a b5 c8 bd b9 2c 59 3d 2e 42 16 be
       -0.20095655 -0.09800191 0.053021166 -0.14673683
0001e0 23 67 22 be 98 85 90 bd 6f 6d 63 bc 4a f6 0a 3d
       -0.15859656 -0.07056731 -0.0138810715 0.033926286
0001f0 6d de 30 bb 63 0f 68 bd 61 f8 e5 3d a1 8e 2b 3e
       -0.0026988045 -0.0566553 0.11229015 0.16753627
000200 16 9d 20 3e 35 fd 1a 3d 62 c5 68 3e ce 53 ad 3d
       0.15684924 0.037839133 0.22731546 0.0846325
000210 c1 66 56 3e f6 f1 3e 3e b3 fc 1f be 45 a5 bb bd
       0.20937635 0.18646988 -0.15623741 -0.09162382
000220 5f e8 3d be d7 60 80 3d 5f b7 29 3e 18 f9 4c 3c
       -0.18545674 0.06268471 0.16573857 0.01251056
000230 27 a9 79 3e d4 31 16 3c 8b 3e f8 3d 68 40 1c 3e
       0.24380933 0.009167153 0.12121304 0.15258944
000240 d4 b1 bd 3d cb a4 0a 3d fd 7a 61 3e 30 10 78 3d
       0.09262434 0.033848565 0.22019573 0.060562313
000250 24 d4 68 3e 8e ff a4 3d d1 53 3b 3d 6b 8c 31 3d
       0.22737175 0.08056556 0.04573423 0.043346804
000260 75 cb 29 bd 51 7c e3 3d 90 dc 68 bd 20 3d 47 3e
       -0.041453797 0.11107696 -0.05685097 0.19456911
000270 53 85 f9 bd 6f cf 60 be 73 3c 1f bc f2 b7 03 3b
       -0.12183633 -0.2195413 -0.009719002 0.0020098654
000280 82 03 18 be b7 23 28 bd 8f 5f 3a 3e 27 27 b9 3c
       -0.14845088 -0.041049685 0.18200515 0.022601677
000290 ab ca 58 be 1d df ad 3d 92 36 83 bd 41 13 d4 3d
       -0.21171062 0.08489821 -0.06406893 0.10355235
0002a0 07 77 1a 3e a7 1f 6f be 5b 4f 4e be 6d cd 0a be
       0.15084468 -0.23351918 -0.20147459 -0.13554926
0002b0 84 e8 0d be 31 13 5b be 1f 29 1a be 25 8a 91 3d
       -0.13858229 -0.2139404 -0.15054749 0.07106427
0002c0 0a 65 02 be 08 55 e1 3d 7b 8d 8f 3c 0f 09 e8 bd
       -0.12733856 0.110025465 0.017523518 -0.11329853
0002d0 6f 7d 3b be 3c 15 54 3e 35 5f 5d be 61 b6 4e 3d
       -0.18309568 0.20711225 -0.2161835 0.0504669
0002e0 d5 cc 33 bc a8 7c 2e 3e bd e1 41 be e0 d0 a7 3d
       -0.010974129 0.1703974 -0.18933769 0.081941366
0002f0 8c 16 65 3e 42 89 27 3e d3 19 8d 3d ac b2 19 be
       0.22371882 0.16360953 0.06889691 -0.15009564
000300 28 7d 12 be d4 f7 be bc 57 3b 20 3d 39 c1 c7 bd
       -0.14305556 -0.023311533 0.03911909 -0.09753651
000310 ca c5 59 3e 35 dc 4b be ea 68 0b bd 1e 65 fb bd
       0.21266857 -0.19908221 -0.0340356 -0.12275146
000320 bc 2d 5f be c9 c8 76 bd 4c 66 27 3e 0d 33 52 3e
       -0.2179479 -0.060250077 0.16347617 0.20527287
000330 e8 c5 e1 bd 1f 53 84 3d 8f 1d 09 be 52 12 35 3e
       -0.11024076 0.064611666 -0.13390182 0.1768277
000340 b7 96 30 be 4f 5c 8f 3d 5b 74 c2 3d 0f c4 78 bd
       -0.17244993 0.07000028 0.09494849 -0.06073385
000350 85 8c 7b bd 18 98 21 3e f1 1b 85 bd b1 ba cb ba
       -0.061413307 0.15780675 -0.0649947 -0.0015543309
000360 bb 07 d6 3d a0 14 f8 3d 8d ce 99 3a 65 d1 27 be
       0.10450693 0.12113309 0.001173453 -0.16388471
000370 dd c9 de bd 59 2c 77 bd e0 0f 20 3e 79 92 c2 3c
       -0.10878346 -0.060345028 0.15631056 0.023751484
000380 e5 04 e7 3d c9 52 ac 3d 9a 18 5b bc 1b bd 44 be
       0.112802304 0.084142275 -0.013372565 -0.19212763
000390 f5 45 5b 3e b7 89 11 3d 87 56 2b 3e ae a4 2e 3d
       0.21413405 0.035531726 0.16732226 0.04263752
0003a0 db ad 6b 3d 92 f3 64 3d 20 e2 b4 3d 8f fb f1 3d
       0.05753885 0.05589635 0.088321924 0.11815559
0003b0 c9 d7 b6 3c 68 f8 dc 3d 49 d6 4f 3e 6d 8a 7b 3d
       0.022319691 0.10789567 0.20296587 0.06141131
0003c0 a5 d5 5f 3d 6f 1e 46 be b2 65 3d 3e d3 99 b7 3d
       0.054647107 -0.19347547 0.18495825 0.089648865
0003d0 7d a1 37 be c7 25 3d be ff a5 d0 bd e9 94 4c bc
       -0.17932697 -0.18471442 -0.10187911 -0.012486675
0003e0 a7 a5 d2 bd 4d 98 87 bd f9 60 1e 3e 38 0c e2 3d
       -0.10285502 -0.06620846 0.1546668 0.11037487
0003f0 f0 a0 30 3e 37 26 cb 3d e2 17 a6 3d 6f 91 6f be
       0.17248893 0.09919398 0.08110024 -0.23395322

model.model.decoder.encoder.layers.0.self_attn.in_proj_bias f4 [96]
000000 a6 89 84 bc 34 8a 69 bc fa 71 88 3c 62 53 e7 3c
       -0.016178917 -0.014254142 0.01665591 0.028238002
000010 e9 04 c8 bc 2b 11 d8 3c 70 ae 83 bc 4d ce 8a bc
       -0.024416404 0.026375374 -0.01607439 -0.016944075
000020 35 5e a5 bc 21 28 5a 3c d0 c3 a9 bc 9f 38 90 3c
       -0.020186523 0.013315232 -0.020723253 0.017605124
000030 f6 62 88 bc 74 9d a0 3c b8 19 b0 bc 3c 0f a5 3c
       -0.01664875 0.01960633 -0.021496639 0.020148866
000040 14 1c 80 3c aa e7 60 bc 75 cf 7c bc eb 38 88 3c
       0.015638389 -0.013727108 -0.015430321 0.016628703
000050 6d 49 94 bc 05 06 81 3c cd 2c 71 3c af dc 3f 3c
       -0.018101418 0.01574994 0.014720154 0.01171033
000060 b5 0b ac 3c 4a c8 90 bc 0d 20 e9 bc 12 f9 e6 bb
       0.021001676 -0.01767363 -0.028457666 -0.0070487345
000070 fa 3f 87 3c 8b 0d 50 bc bd e3 a8 3c ba c5 85 3c
       0.016509999 -0.012698541 0.020616407 0.016329635
000080 5d f4 54 38 b0 99 df b9 eb b6 53 3a 94 da f5 39
       5.077232e-05 -0.0004264838 0.0008076268 0.00046892895
000090 e0 9c 88 b8 64 36 b3 39 e6 30 a5 38 6f 9e 7a b9
       -6.5142056e-05 0.00034182065 7.876921e-05 -0.00023900879
0000a0 4b 46 5a ba 60 82 15 b9 a1 26 15 ba 4d f8 26 3a
       -0.00083265145 -0.00014258316 -0.0005689655 0.0006369397
0000b0 d0 f7 f8 b9 ce 88 85 38 ef 61 94 b9 1f 0b 4b 39
       -0.0004748688 6.367416e-05 -0.00028301726 0.00019363732
0000c0 41 9c 4f 3a bb d6 de b9 df e6 0b 3a 90 60 4c 3a
       0.0007919707 -0.00042503126 0.00053368317 0.00077963714
0000d0 cb 18 31 ba df dc 4c 39 47 69 0a 3a 25 b9 b8 39
       -0.00067557086 0.00019537237 0.000527997 0.00035233158
0000e0 71 98 f1 39 85 e1 3f ba 9d 2c e3 b9 18 ce 8e 39
       0.0004608068 -0.0007319677 -0.00043330053 0.00027237902
0000f0 13 d3 49 3a c7 6a 17 3a a5 4b 3c 3a 78 b2 29 39
       0.0007698994 0.0005776104 0.0007182903 0.00016183581
000100 38 a4 e9 3a c3 13 2f 3c dc 35 7b 3c 8c df 1d bc
       0.001782543 0.010685864 0.015332665 -0.009635817
000110 53 b8 d2 bb d9 06 fc 3b 53 af e1 3b f7 0c 82 bc
       -0.0064306646 0.007691246 0.0068873554 -0.015875323
000120 18 74 a0 3c 2e 2c a4 3c 43 2d 87 bb dc 34 48 3c
       0.019586608 0.020040598 -0.0041252687 0.012219634
000130 53 04 01 bd f3 9c 58 bb e7 54 59 3c cd 93 31 bb
       -0.031498265 -0.0033052533 0.013264871 -0.0027096153
000140 65 cc 14 3a 67 eb ef bc 4a bb 80 bc 8a e1 30 bc
       0.0005676209 -0.029287053 -0.015714306 -0.01079596
000150 7e 84 1b 3c cf d8 b5 bc 4d f3 5f bc c5 de 5b bc
       0.009492038 -0.022198109 -0.013668847 -0.013419812
000160 c4 09 92 bc 58 a2 b6 3c f1 3d 2c 3b 25 81 5a 3c
       -0.017826922 0.022294208 0.0026282037 0.0133364545
000170 c1 a5 85 3c 8c c9 6f 3c eb 4e 88 bc 5b 5c 8b bc
       0.01631439 0.014635455 -0.016639194 -0.017011812

model.model.decoder.encoder.layers.0.self_attn.out_proj.weight f4 [32, 32]
000000 3c 95 76 bc f5 a1 c0 3d 7a 4b db bd a2 ad 1e be
       -0.015050229 0.09405891 -0.107077554 -0.15495923
000010 3c 2f 0a 3e c3 82 69 3d f8 bc 50 bd 3a 6c 21 3d
       0.13494581 0.05700947 -0.050961465 0.039409854
000020 f7 d8 e2 bd da 7a b6 bd 3d 67 e2 bd b8 c5 4d 3c
       -0.11076539 -0.08910151 -0.110548474 0.012559347
000030 dc da b4 bd 55 e4 19 3e e3 d1 9c 3d 23 72 d9 bd
       -0.088308066 0.15028508 0.0765722 -0.10617473
000040 be 3b 08 3e 5c 79 2d 3e 73 20 09 3e c5 ef a8 3d
       0.1330404 0.16940826 0.13391285 0.082488574
000050 c6 14 dc bd b2 ef 27 3b 28 2b 24 be 0d 41 9f bd
       -0.1074615 0.0025625047 -0.16032088 -0.07776079
000060 a9 b7 fb bd 5f c6 60 bd d8 68 5a bc d3 a3 21 3e
       -0.1229089 -0.05487668 -0.013330661 0.1578515
000070 c8 d7 02 be c5 d1 0e 3e 79 0f 0f bd e9 9a 82 3d
       -0.12777627 0.13947208 -0.034926865 0.06377203
000080 0b b0 f7 3d 84 c1 94 3a d4 85 05 be 78 57 99 bd
       0.120941244 0.0011349176 -0.13039333 -0.074873865
000090 2d 0f 8a 3d 91 76 53 3d 33 91 d1 bd 81 f6 8a 3b
       0.06741176 0.051626746 -0.10232773 0.0042408113
0000a0 aa f6 9c bd 98 f6 3a bd 18 81 0d 3e 1e 43 00 3c
       -0.07664235 -0.045645326 0.13818777 0.007828502
0000b0 b4 4e 6b bd d3 31 9a 3d f4 c6 e1 3d fb 45 2f be
       -0.057448104 0.075290345 0.110242754 -0.17116539
0000c0 c2 f9 64 3c 4f c7 d7 3c bf a0 d9 bd 4c e9 c0 3d
       0.0139755625 0.026340155 -0.10626363 0.09419498
0000d0 ef cc d8 3d 89 45 b6 3c 5b 71 0b be f2 fa c8 bd
       0.10585963 0.022249954 -0.1361746 -0.09813489
0000e0 e6 73 fe bb 95 f0 de bd 26 29 26 3e f6 e8 c4 3d
       -0.007765281 -0.10885731 0.16226634 0.09614746
0000f0 ce 5d 08 3e d7 15 b4 3d e2 77 31 be 46 f5 cf bd
       0.13317034 0.08793228 -0.17330888 -0.10154204
000100 62 e8 24 be e3 af a2 bd fe d6 87 bd b7 05 5e bd
       -0.16104272 -0.07943704 -0.066328034 -0.05420467
000110 30 b0 b7 bd 5c 64 69 bd 65 ae 7e 3d ad c7 04 3e
       -0.08969152 -0.056980476 0.062178034 0.12966795
000120 af 41 a9 bd bc 44 a1 bc 17 d9 df bd 01 b0 cd 3c
       -0.08264481 -0.019686095 -0.109300785 0.02510834
000130 3c 0a 8c 3d fb aa a1 3c 3e ae 95 3c 24 4e 83 3d
       0.068378896 0.01973485 0.018271562 0.064113885
000140 1c f3 2b 3e b7 77 08 3e a9 48 0d 3e 34 a5 a3 bd
       0.16791958 0.13326918 0.13797249 -0.07990494
000150 48 a1 1e be 60 09 48 bd ca ed eb 3d 26 17 13 3e
       -0.15491211 -0.048837066 0.11519964 0.14364299
000160 1f 9f e3 3d 23 9e 94 bc 1e ad 13 3d ef e4 2b bd
       0.11114334 -0.018141812 0.03605377 -0.041966375
000170 a3 f2 2d be b7 6c 90 3a 13 b1 fb bd c8 28 ff 3c
       -0.1698709 0.0011018728 -0.122896336 0.031147376
000180 ed 5a 08 bd d7 a8 d6 bd e9 1e e2 3d 90 18 c6 bd
       -0.03328984 -0.104814224 0.11041052 -0.09672654
000190 06 cf c7 3d 85 34 99 3d 39 2b 81 bd 54 48 c4 3d
       0.097562835 0.074807204 -0.06307072 0.09584108
0001a0 fe 6a f0 bd 42 96 cc 3d 61 20 84 3c 60 cb c0 bd
       -0.11739157 0.09989597 0.01612872 -0.09413791
0001b0 f1 a8 16 3e 26 6e a1 bd 07 49 fc 3d f1 c6 0e be
       0.14712884 -0.07882337 0.12318616 -0.13943078
0001c0 26 7b 0b bd 71 07 28 3e 42 f0 de bb 7b c6 88 3c
       -0.03405299 0.16409089 -0.0068035433 0.016696205
0001d0 b0 b4 01 3e 45 0f 0d be 28 db df 3c 04 56 66 bd
       0.12666583 -0.13775356 0.027326182 -0.056234375
0001e0 30 ef 8a 3d ee bf 0c 3e 6b 89 06 3e 2d 65 30 3e
       0.06783903 0.1374509 0.13138358 0.17226095
0001f0 6a 31 c2 bd 11 da ef bc 68 05 f1 bc 29 0c 07 3e
       -0.09482081 -0.029278787 -0.029421523 0.13188232
000200 d8 e4 a2 3b 5a a9 07 bd 49 1b eb 3c 1d 84 8d 3d
       0.004971128 -0.03312049 0.028699534 0.06909964
000210 62 c1 22 be 11 c1 c9 bd 14 f4 68 bd 2d d8 c2 bd
       -0.15894082 -0.098512776 -0.056873396 -0.095138885
000220 f0 08 00 3d 72 d9 15 be ae 2c df bd f2 4d 3c bc
       0.031258523 -0.1463373 -0.10897194 -0.011493193
000230 b5 2f fb bd 5e 1c f3 bd 40 f7 d4 3c 99 dc bc 3d
       -0.12264959 -0.11870645 0.025996804 0.09221763
000240 ce 30 91 bc 51 e4 97 3d 87 e5 c7 3d ec 71 77 bd
       -0.017723467 0.07416595 0.09760576 -0.06041138
000250 32 19 1a bc 3b 0b 50 3d 29 ef fb 3d eb c6 0f 3e
       -0.009405421 0.05079196 0.123014756 0.14040725
000260 1d 8b 08 be cb 24 63 3d 33 92 94 3d 1f 95 5e bd
       -0.13334318 0.05545501 0.07254448 -0.05434143
000270 2e fd d0 bd 7d 2e 7a bd 2b 55 0e be 9e d3 92 bb
       -0.1020454 -0.06107949 -0.13899677 -0.004480793
000280 d3 1a 16 3e 78 fd 92 3d 42 9a e1 bd 85 a6 45 3e
       0.1465867 0.071772516 -0.110157505 0.19301803
000290 c2 31 9b 3b d4 f1 04 be df 16 d6 3d af 35 1e 3c
       0.004736156 -0.12982875 0.10453581 0.009656354
0002a0 df 8e 0a be 8d 96 af 3d b5 4a b1 bd a0 47 a1 3d
       -0.13531063 0.08573637 -0.08656827 0.078749895
0002b0 82 68 22 be dc 0a be 3d 64 1e 8f 3d 18 97 9d 3d
       -0.15860179 0.09279415 0.069882184 0.076948345
0002c0 78 fb b7 3c 10 1e 0d 3d c6 25 3e 3c ad bc 7c bc
       0.022458777 0.034452498 0.011605686 -0.015425843
0002d0 61 9e bd 3d d9 03 02 bd 24 4d 75 bc fb 6a 5e bd
       0.09258724 -0.03174195 -0.014972005 -0.054301243
0002e0 7f 8c 06 bd 4c be 6d bd 27 5e 34 be cd f9 82 3d
       -0.03284883 -0.05804281 -0.17614041 0.06395302
0002f0 dd 6b 1e be d0 7c b4 bd 26 16 17 bc cc b7 19 3d
       -0.15470834 -0.088128686 -0.009221589 0.037528798
000300 73 96 2b be b8 7d bc bd 40 93 dd 3c 1f e3 1b be
       -0.1675661 -0.092036664 0.027047753 -0.15223359
000310 df 99 d8 bc 7c c4 7a bc d4 b6 8b 3d e6 b2 05 3d
       -0.026440559 -0.015305635 0.06821981 0.032641314
000320 1b cb 2f 3e 86 db a2 bb 3f e0 d4 bd 31 46 38 bd
       0.17167322 -0.004970017 -0.10394334 -0.044988815
000330 0b 05 28 3d 7a d5 cc 3c 21 50 ac bc db 6f 15 be
       0.041020434 0.025004137 -0.021034302 -0.1459345
000340 bb 72 c7 bc bb aa e1 3b c9 e9 de 3d b0 f5 01 3d
       -0.0243467 0.0068868077 0.10884435 0.031728446
000350 72 83 ba bd 1f 99 05 bd 13 91 fe bd 12 25 df bd
       -0.091071025 -0.03261673 -0.124300145 -0.108957425
000360 24 45 e6 3d 23 8b 6e 3d 62 c9 d1 3d ad e1 5b 3d
       0.11243656 0.05823816 0.10243489 0.053682018
000370 f8 4a dc bd 33 49 38 3e a6 8a 46 bd 14 80 7c bd
       -0.10756487 0.17996673 -0.04847207 -0.061645582
000380 50 94 f0 3d 39 44 c0 bc ff fd d2 bd 54 32 62 bc
       0.11747038 -0.023470031 -0.10302352 -0.0138059445
000390 2a a3 ab 3d 3d 59 10 be af 1c 94 bd b1 b8 f6 3d
       0.083807305 -0.14096542 -0.072320335 0.12046946
0003a0 ae c3 77 3d 95 fb 6c bd 8d 3a 52 3e d9 0c 27 be
       0.06048935 -0.057857115 0.20530148 -0.16313495
0003b0 7e 31 27 bd e6 ea c3 3c 0a 29 3f bd 3f fb c4 3c
       -0.040818684 0.02391572 -0.046669997 0.024045585
0003c0 d8 46 39 3e 1e d1 23 3c ff 11 ca bd 84 a5 3a be
       0.18093431 0.009998588 -0.09866714 -0.18227202
0003d0 18 d7 fa bc ca ef 9f 3d 54 cb 18 3e 6a 3c 1e be
       -0.030620143 0.07809408 0.14921314 -0.15452734
0003e0 7a 38 7e 3c 76 e8 10 3e 18 a3 6c bd 93 da d4 3c
       0.015516395 0.14151177 -0.057772726 0.02598313
0003f0 4c 3e 90 3d 52 8a be bc ec fd 00 be 19 de 31 3d
       0.07043132 -0.023259316 -0.12596864 0.0434247

model.model.decoder.encoder.layers.0.self_attn.out_proj.bias f4 [32]
000000 09 91 93 3b 5d 01 02 3c fa 77 7e bc 5d 25 2f 3b
       0.0045033735 0.007934895 -0.015531534 0.002672515
000010 d0 74 73 3c 92 4b ff bb 84 12 65 3c 19 50 86 bb
       0.014859393 -0.007790991 0.013981465 -0.004098904
000020 6e 7a 04 3d e6 20 a0 3c 8a 2c 70 3c be 0f 61 3c
       0.03234332 0.019546937 0.014659056 0.013736663
000030 e6 4c bf bc 76 77 16 3c ef 09 1e 3c ff b9 ea bb
       -0.023352098 0.009183755 0.009645923 -0.0071632857
000040 92 98 47 bc 21 33 97 bb f4 16 88 3c 4b 41 74 bc
       -0.012182372 -0.0046142493 0.016612507 -0.014908145
000050 42 22 c9 3a 2a 46 51 3c 06 a0 2d 3c a6 b3 0a bd
       0.0015345293 0.012773076 0.010597235 -0.033862732
000060 98 4e 49 bc 1f 13 44 bc 4c 69 59 bc 74 41 a8 bb
       -0.012286805 -0.011967449 -0.013269734 -0.0051347557
000070 97 e1 01 3c 4d 6a dc ba 0e d3 2e 3c f1 1e 02 ba
       0.00792732 -0.0016816348 0.010670437 -0.0004963717

model.model.decoder.encoder.layers.0.linear1.weight f4 [128, 32]
000000 c3 f3 54 3d 31 25 a2 3d 39 bf bc 3c 1a 57 8b 3d
       0.05199028 0.0791725 0.0230404 0.06803723
000010 92 1b 05 3e 50 d2 1d be 77 47 ed 3d 61 2a 81 bc
       0.12998798 -0.15412259 0.115858965 -0.015767278
000020 99 e2 8b bc 65 9f 4f bb 68 27 bd 3d 28 e2 40 3e
       -0.017075824 -0.00316807 0.09236032 0.18836272
000030 15 dd c1 bd a2 55 29 be 30 0d 6f bd 1e bd 04 3d
       -0.09465996 -0.16536573 -0.058362186 0.03240692
000040 8a bb cf 3d a4 b8 06 be e0 a3 09 bd e5 d3 10 be
       0.10143192 -0.13156372 -0.03360355 -0.14143331
000050 bb c2 ae 3d 0a 47 01 3e 38 24 1e be a2 88 17 3e
       0.08533236 0.12624756 -0.15443504 0.14798215
000060 18 b3 dc 3d cc c5 01 be 40 35 8c bd f8 f3 13 bd
       0.10776347 -0.1267311 -0.06846094 -0.03612134
000070 a2 52 ee 3d 9d 10 35 be ec 04 ac bd e7 ea a1 bd
       0.11636855 -0.17682119 -0.08399376 -0.07906132
000080 b1 8d ff bd 7f 43 d2 3d f9 69 26 be af 28 f7 bc
       -0.12478197 0.1026678 -0.16251363 -0.030170767
000090 4a 68 39 bd ba 89 62 3c db e0 d2 bc c5 3e a2 bd
       -0.045265473 0.013826782 -0.025741985 -0.079221286
0000a0 c0 da 09 be 37 49 96 bd a1 26 ba 3b b1 7f ee 3d
       -0.13462353 -0.073381834 0.0056808745 0.11645449
0000b0 96 01 e2 3d 6b e5 a2 3d 41 d9 cc bd 3a c3 15 3d
       0.11035459 0.07953914 -0.100023754 0.036563136
0000c0 86 0d 51 3e b4 27 37 bd 67 80 f5 bd 71 a9 fa 3d
       0.20415315 -0.0447156 -0.119873814 0.1223935
0000d0 d8 b0 24 be 74 3e 0f be c7 df 0f 3e 94 3b 11 3e
       -0.16083086 -0.13988668 0.14050208 0.14182884
0000e0 ea d6 80 3d 96 be 2c bc fa 0d f8 bd 8b cc d8 bd
       0.062909916 -0.010543486 -0.12112041 -0.105858885
0000f0 97 cb 7b bd f6 5b b0 bd 0c a2 06 3e 91 79 9c 3d
       -0.061473455 -0.0861129 0.13147753 0.076403745
000100 23 01 d8 bd f3 a3 27 3e b7 1f bf bd 26 17 a8 bd
       -0.10547092 0.16371135 -0.09332221 -0.0820754
000110 a7 a1 5b bd 5f 41 09 bc af a6 90 3c 42 49 19 be
       -0.05362096 -0.008377402 0.017657606 -0.14969352
000120 4a 85 20 3d c0 15 82 3d 5e 2c 18 3e 39 c4 e4 3a
       0.039189614 0.06351805 0.14860675 0.0017453498
000130 bf 01 37 be e4 bd f4 3d 65 80 64 3d 9e 86 cd bc
       -0.1787176 0.11950281 0.05578651 -0.025088605
000140 a3 fd 8f bd 3b c3 10 bd 07 94 66 bd 3a f6 ca bc
       -0.07030799 -0.035342436 -0.056293514 -0.024775613
000150 c9 66 26 3b e7 03 b0 bd f4 8e 0a 3c 65 bc 08 3d
       0.0025390855 -0.08594494 0.008456934 0.033382792
000160 76 db 24 3e 7f c4 9d 3d b7 77 01 3e 43 ce f1 3d
       0.16099343 0.07703494 0.12643324 0.118069194
000170 7e 77 8c bd 1b 66 0d 3c 0f 0f a0 3d 5c 3e 11 be
       -0.06858729 0.008630301 0.07815372 -0.14183944
000180 9b 1c ee bd 1f 9e e5 bd ac cc e5 3c 5e e1 1c 3e
       -0.1162655 -0.112118 0.028051697 0.15320346
000190 e8 37 c9 bd ec a6 d9 bd b4 be b3 3d a4 57 cc 3d
       -0.098251164 -0.10627541 0.08776608 0.099776536
0001a0 a3 d1 15 3e 4a 5a fc bd 16 65 e5 3d 9b 98 1d 3d
       0.14630751 -0.12321909 0.11200921 0.038475614
0001b0 10 37 39 be 21 89 c0 3c 13 53 93 bd 46 4e cb bd
       -0.18087411 0.023502888 -0.071935795 -0.09927039
0001c0 5e 51 ab bd a5 87 ce 3d e2 5e b5 3d 3c c7 23 3e
       -0.08365129 0.10084466 0.08855988 0.1599397
0001d0 b1 88 0a bd 00 4f 12 3d b7 19 c7 3c f8 c4 aa bd
       -0.033821765 0.03571987 0.024304254 -0.0833835
0001e0 12 ef 30 3d 0c 1a 8e 3d 1c 17 c3 bb 14 ad 10 be
       0.043196745 0.06938562 -0.0059536826 -0.14128524
0001f0 9f f6 cd 3d 9a bb 15 3e af fc cb bc 79 8d f8 bc
       0.10056805 0.14622346 -0.024900762 -0.030340897
000200 4f 7b 89 3c 7e be 97 3d b4 55 0f be 2c a1 65 3c
       0.016782431 0.074093804 -0.13997537 0.014015477
000210 fb aa d4 3b 05 47 1c 3e 78 05 82 bd e3 21 08 3d
       0.006490109 0.15261467 -0.06348699 0.033235442
000220 c2 48 4e bd b1 1c d2 bc d8 69 03 be c0 a5 a1 bd
       -0.050362356 -0.025648447 -0.12833345 -0.078929424
000230 77 ec 1b bd 5e 24 82 3d 56 bd 8c bd 23 49 f7 bd
       -0.038067307 0.06354593 -0.068720505 -0.120744966
000240 f1 29 0d be 50 75 f3 3d 8a ec 10 be ad 30 59 3e
       -0.1378553 0.1188761 -0.14152732 0.21209975
000250 d9 8d 3c be 4f 51 49 be 06 32 76 3d b2 f4 b8 3d
       -0.18413486 -0.19659923 0.0601063 0.09031047
000260 ad ea 07 3e 53 94 aa bd b2 4c 28 3e ea 69 47 bd
       0.13273115 -0.08329072 0.16435507 -0.048684992
000270 73 cb 06 3e e7 43 af 3d 90 c9 61 3d 7c d9 ce bd
       0.13163547 0.08557873 0.055123866 -0.101000756
000280 ad 3a 38 bd 00 ce fc bd 43 79 fb 3d 31 0d b4 bc
       -0.044977833 -0.12343979 0.12278988 -0.021978946
000290 ef b9 14 be ce d6 82 bd 28 0a da bd 9d 6a 20 3c
       -0.14524053 -0.06388627 -0.106464684 0.009791044
0002a0 a5 73 c8 3d 29 46 5e 3d 41 c1 2d 3d e1 cf b4 3d
       0.097876824 0.05426613 0.04242063 0.08828712
0002b0 13 8c 11 3e a1 d2 8a 3d cf 97 95 bd 28 9b 98 3d
       0.1421359 0.067784555 -0.07304346 0.07451469
0002c0 cf df 3c 3e 55 29 ab bd d9 df 13 3c dd b4 b7 3d
       0.18444751 -0.08357493 0.009025537 0.08970044
0002d0 e9 51 49 be 05 b1 52 be 22 87 b7 3d e5 8d 1b 3e
       -0.19660152 -0.2057534 0.089613214 0.15190847
0002e0 2a ed b8 bb 38 e6 55 3e 61 92 f8 3d a1 d1 45 bd
       -0.0056435065 0.20888603 0.121372946 -0.04829562
0002f0 8f 35 73 be 56 c0 a1 3d 6e 46 0a bd 5d f4 d0 bd
       -0.237509 0.07898013 -0.033758573 -0.102028586
000300 b6 00 1b be 72 72 26 be 4e 20 0d be 4c bc 32 3e
       -0.1513699 -0.16254595 -0.13781855 0.17454642
000310 de 02 49 3c 48 a7 3a 3d 48 d9 7b bd 07 88 b0 bd
       0.01226875 0.045569688 -0.061486512 -0.08619695
000320 fe a5 d0 3d 2d 9f bb 3d 66 a0 00 be 54 55 7d bd
       0.101879105 0.0916122 -0.12561187 -0.061848953
000330 62 34 36 3c 05 bc 93 3d ee 2f c1 bd 71 c5 38 3e
       0.0111208875 0.07213596 -0.0943297 0.18044068
000340 e6 fe 18 be 25 ca 7a bd e6 ec 88 bb 9d ec cb 3d
       -0.14940986 -0.061227936 -0.004178631 0.0995724
000350 8a c5 c1 bc 43 23 7d bc 5e e1 17 3e e1 40 9b bd
       -0.023653764 -0.015450302 0.14832065 -0.07580734
000360 8a 0f 66 3d 2d 6c 98 bc 46 53 3c be 37 5f 3b be
       0.056167163 -0.01860627 -0.18391141 -0.1829804
000370 c5 62 00 3e 7b 6d 1d bc 43 46 53 bc e0 9a 7a bd
       0.12537678 -0.009608622 -0.01289517 -0.061182857
000380 df f1 b2 3d 28 2a ed bd 38 f7 19 3e 7e d1 b0 bd
       0.087375395 -0.11580306 0.15035713 -0.086337075
000390 a4 41 48 3d bc 28 ca 3d b2 0c 0a be a7 37 62 3c
       0.048890725 0.09871051 -0.13481405 0.013807214
0003a0 b9 37 0e 3e 81 e0 0e be 39 2e 30 be 32 e3 0b 3d
       0.13888444 -0.13952829 -0.17205133 0.034152217
0003b0 37 f8 fb bd 2e 85 2b 3d 00 4a 33 be 77 fb 1a 3e
       -0.123032026 0.041875057 -0.17508698 0.15134989
0003c0 7d 2a 15 be eb 33 89 bd 64 d0 e0 3b ee b0 ea 3d
       -0.14566989 -0.06699356 0.0068607796 0.11459528
0003d0 f8 1c d5 3d 70 fc a2 3d 25 9b b3 3d 5c 68 f6 bd
       0.10405916 0.07958305 0.08769826 -0.12031624
0003e0 c1 5f 0f be 1c 28 33 3e 52 a0 2f 3e c8 c7 31 be
       -0.14001371 0.1749577 0.17151001 -0.17361367
0003f0 5f 2b 02 be 62 bf 1d 3e 5d 0c 29 be 71 81 fc 3d
       -0.12711857 0.15405038 -0.16508622 0.123293765

model.model.decoder.encoder.layers.0.linear1.bias f4 [128]
000000 df 3e e8 3c 5d 48 90 bd 30 69 09 3e 90 c3 33 3b
       0.028350292 -0.07045052 0.13419032 0.0027429797
000010 b9 65 35 3d 43 f6 10 be 3e 5b 04 3e 80 ea 2c 3e
       0.044286463 -0.14156441 0.12925431 0.1688633
000020 a8 f8 9f bb b6 57 38 bd 0e cb b8 3c ed 94 4e 3c
       -0.004881937 -0.045005523 0.022557762 0.012608749
000030 97 aa 8a bd d7 47 d9 3d 4a 01 6c 3d 17 e4 37 bd
       -0.06770819 0.106094055 0.057618417 -0.044895258
000040 96 db a3 3d 1a 71 02 3e 2a 75 1c 3e fd d3 48 3d
       0.08000867 0.12738457 0.1527907 0.049030293
000050 3a 4d f7 bd 5c 42 b7 3d 98 bf 72 bd 55 0a 18 3a
       -0.12075277 0.08948204 -0.05926475 0.00057998794
000060 5c 82 cd 3d d0 81 ad 3d 92 f5 a8 bd 17 a9 f2 bd
       0.1003463 0.084720254 -0.08249964 -0.118486576
000070 b3 75 b6 bd 35 e6 54 3d 56 4d af bd 22 28 9e 3d
       -0.08909168 0.051977355 -0.085596725 0.077224985
000080 88 ff 15 3e 3a a6 98 bd 63 8b 67 bd db 18 74 bd
       0.14648259 -0.0745358 -0.056529414 -0.059594017
000090 07 8a be bd 40 96 40 3e 0b 77 16 3e 45 69 65 bc
       -0.093036704 0.18807316 0.14693849 -0.014002149
0000a0 d8 dc 71 bd 6f d0 28 bd 5f bc db 3b 39 f9 e0 bd
       -0.059048504 -0.041214403 0.006705805 -0.109850354
0000b0 89 3a 10 be a8 9a 33 3e 78 be 17 3e ea 08 93 3d
       -0.1408483 0.17539465 0.14818752 0.071794346
0000c0 81 7a c8 3b 41 96 15 3d d8 03 a2 bb a1 0c 2e 3c
       0.006118119 0.036520246 -0.004944306 0.010623128
0000d0 2d 03 85 3b 00 30 0b 3e cf 5e 20 3d 40 52 45 3e
       0.0040592165 0.1359253 0.039152917 0.19269657
0000e0 df f7 3d 3d 7c 58 1b be e5 bf e5 3d 4a a9 bd bc
       0.046378966 -0.15170473 0.112182416 -0.023152012
0000f0 e8 9b 26 bd 2c 06 bb bd 1b d0 d1 bd 95 86 93 bd
       -0.040676028 -0.091320366 -0.10244771 -0.07203404
000100 35 2d db bd 9c 2a 06 be f7 b9 02 3e df cc 02 3e
       -0.10701982 -0.13102192 0.12766252 0.12773465
000110 c9 b3 d4 bd 9f e8 a6 bd 62 f9 32 be 57 f6 fd bd
       -0.10385854 -0.08149838 -0.17477944 -0.12400501
000120 ff da 07 3e c5 38 13 bd f7 88 63 3d e1 eb 71 bd
       0.13267134 -0.03594281 0.05555054 -0.059062842
000130 ca 96 38 be 1c 04 38 3e 7f cc 1f bd e6 a5 55 3d
       -0.18026271 0.17970318 -0.039013382 0.052160166
000140 1a e3 1e be 12 42 8c bd 3e bc 2a 3d 64 51 b7 bd
       -0.1551632 -0.068485394 0.041683428 -0.08951071
000150 b0 c4 d9 bd 6f a3 4a 3d 13 72 e0 bd 9a ef d1 bd
       -0.10633218 0.04947227 -0.10959258 -0.102507785
000160 9f 76 28 be 99 2a 01 3e 6b 13 d4 3d 6c 80 1e 3d
       -0.164515 0.12613906 0.10355266 0.03869669
000170 30 29 80 bc 20 6b 77 3d a2 a5 d1 bd cb 0a 0b 3e
       -0.01564464 0.060404897 -0.1023667 0.13578336
000180 f5 33 1c be a7 b3 17 be b7 15 f9 3c 1d f8 a3 3d
       -0.15254195 -0.14814626 0.030405862 0.08006308
000190 06 26 3b 3d 51 58 83 3d fe 3a 21 3b 9f 14 15 be
       0.04569056 0.064133294 0.0024601812 -0.14558648
0001a0 b9 18 30 3e a2 4a ab bc 27 bd 03 3e c6 3e 30 bd
       0.17196931 -0.020909611 0.12865125 -0.043028615
0001b0 32 05 15 be 13 a3 4f 3e 84 d9 a8 bc 13 e2 6f bd
       -0.14552763 0.20277052 -0.020611532 -0.05856521
0001c0 d1 e5 c4 bd 20 71 c3 bd 74 33 17 be d1 48 39 be
       -0.096141465 -0.09543061 -0.14765722 -0.18094184
0001d0 78 82 03 3e 8f f4 08 bd a7 55 7b bd a3 18 1a 3e
       0.12842739 -0.033436354 -0.06136098 0.1504846
0001e0 8d fd 0e 3e 88 6a e5 bd 65 e5 f7 bd 1d 54 d0 3d
       0.1396391 -0.1120196 -0.121043004 0.10172293
0001f0 20 c2 13 be a1 1f ff bd b4 b7 97 bd 15 90 93 bc
       -0.14429522 -0.124572046 -0.074080855 -0.01801304

model.model.decoder.encoder.layers.0.linear2.weight f4 [32, 128]
000000 5a 04 9e 3d f4 72 6d bd 28 2d 0d bd 60 1b 30 3d
       0.07715674 -0.057970956 -0.034466892 0.042994857
000010 ac e1 35 ba ef 59 58 bd 6b e6 44 bc c2 ad f0 bc
       -0.000693823 -0.052820142 -0.012017827 -0.02937973
000020 ab 32 9f 3d c5 0c 42 bd b3 07 01 bd 1f 50 d0 3c
       0.07773336 -0.04737546 -0.031501483 0.02542883
000030 8c b9 bf 3d 28 0f 39 3d 4b 5e 2d bb 6f 6c db 3c
       0.09361562 0.04518047 -0.0026453908 0.026785104
000040 f1 34 2d bd 3f c2 d3 3c 2f 52 15 bc 74 15 c5 3b
       -0.042286817 0.02584946 -0.009113832 0.0060145203
000050 70 eb 91 bd b7 66 ec bb 73 3b 91 3d d2 21 aa 3d
       -0.07124984 -0.007214393 0.07091417 0.08307232
000060 21 4b da 3c 74 f7 98 3d 49 a8 b7 3d 69 a6 6c bd
       0.026647152 0.07469073 0.08967645 -0.05777589
000070 3c 89 57 bd 16 e0 7a bc d0 61 87 3d 49 2d a3 bd
       -0.05262111 -0.015312215 0.06610453 -0.07967622
000080 52 7d 83 bd 39 9c 4c 3d 26 e8 86 3c 48 e1 c4 3d
       -0.06420387 0.049953673 0.016468119 0.096132815
000090 c5 37 ff 3c ba ef a9 bd f0 a0 47 3d f5 fd c1 bd
       0.031154523 -0.08297677 0.048737466 -0.094722666
0000a0 e8 de 91 bd 31 74 89 bd be 2c 24 3d e1 78 f2 3c
       -0.07122594 -0.06711615 0.040081732 0.029598655
0000b0 a1 17 2a bd ff e1 8e bc 8f 87 20 3d ca b3 b3 ba
       -0.04152644 -0.017441748 0.03919178 -0.0013710198
0000c0 2e d7 7e bd 87 68 f3 3a 0e 38 83 3d 39 54 c5 bc
       -0.06221693 0.001857058 0.06407176 -0.024088012
0000d0 1c 3a 2f 3d f3 f8 f9 3b 09 73 62 3c 37 96 75 bc
       0.042780027 0.007628554 0.013821372 -0.014989427
0000e0 e1 eb 94 bc 1f 1e ee bc bc 4b 33 bd 29 3b 11 3d
       -0.018178882 -0.029067097 -0.043773398 0.03545681
0000f0 cd 5d 75 bb 12 d3 5c 3d b3 52 d9 bc 13 44 12 bd
       -0.0037439943 0.05391223 -0.026528692 -0.035709452
000100 21 8b 5f 3d 8d 2c 5a bc 50 cf 59 bd ed a7 9d 3c
       0.054576043 -0.013316286 -0.053176224 0.019245112
000110 4b 4a a5 bd e6 49 0e bd 31 24 d6 ba ac 07 9b 3c
       -0.08070811 -0.034738444 -0.001633769 0.018924557
000120 31 89 0c bd 1b ee 8f 3d 48 9d dd bb df d2 81 bd
       -0.034310523 0.07027837 -0.006763134 -0.063390486
000130 ff 09 30 3d b2 0a 91 3d 18 9c 5a bd 4c 43 24 3d
       0.042978283 0.07082118 -0.05337152 0.04010324
000140 5d 72 3e bd 7b 77 20 3d d0 6f cd bc 6b fd 33 3d
       -0.046495784 0.039176445 -0.02507773 0.04394285
000150 96 89 b3 bc 82 48 81 bd 1b 09 09 bd 41 7c 48 3d
       -0.021916192 -0.06312658 -0.03345595 0.048946623
000160 25 5d 95 3d 99 a2 ed 3c 44 d8 83 bd 31 7e 97 3d
       0.072931565 0.029008197 -0.06437734 0.07397116
000170 27 80 73 3d 95 1d 01 3e 03 04 9b 3d cf 1d c0 bc
       0.059448387 0.12608941 0.075691245 -0.023451714
000180 d5 c7 4b bd 0f d7 65 bd 4c 8b d1 3c ac 63 91 bd
       -0.04975112 -0.0561133 0.025579117 -0.07099089
000190 ef 23 0a bd 5e 46 71 bd ca 8d 35 3c 1b cf 96 3d
       -0.033725675 -0.058904998 0.011081168 0.07363721
0001a0 8a 46 d9 3c 3f c1 2a bd 2d 2b dd 3d ab 75 86 bd
       0.026522893 -0.0416882 0.10799251 -0.06565412
0001b0 6d ce 96 b8 e4 4e 05 ba 18 65 29 bd 9e 04 47 3d
       -7.191007e-05 -0.0005085303 -0.041356176 0.048588388
0001c0 5d ab 68 3c 72 47 91 3c 64 c9 a8 3c d3 75 d4 3b
       0.014201012 0.017734263 0.020603843 0.0064837723
0001d0 a8 d8 af bb cd 72 38 bd 80 aa af bd 2c 7b 89 3d
       -0.0053664036 -0.045031358 -0.08577442 0.06712946
0001e0 8b 29 11 3d a3 fc df bd 98 1b ad bd a6 1f f7 bc
       0.03544001 -0.109368585 -0.08452529 -0.030166458
0001f0 2c 59 80 3c c4 ba 11 3e 58 de 35 bd 43 76 f1 bb
       0.01566752 0.14231402 -0.044401497 -0.007368834
000200 c0 b6 48 bc a6 58 4b bd 9d 1b 9c bd b4 d0 7e 3d
       -0.012250602 -0.04964509 -0.07622454 0.062210754
000210 90 d9 63 3d 97 78 60 3d af 0d ff bb b9 c7 1f bd
       0.055627406 0.054802503 -0.0077836136 -0.03900883
000220 e6 73 3f 3d 0b a1 db 3c 01 1a 7c 39 83 ba 83 bd
       0.04674139 0.02681019 0.0002404228 -0.06432059
000230 fd 35 c9 3d 70 f8 90 3b 84 bf c3 3d ea 0a 14 3d
       0.098247506 0.0044241473 0.09558013 0.03614322
000240 f1 cb c3 3d 11 23 27 3c 59 2b d7 bc 12 cf c6 3d
       0.09560383 0.010201232 -0.026265787 0.09707464
000250 5b 1c 15 3d 92 e3 dd 3d c9 c1 20 bc 47 b8 ac 3d
       0.036403995 0.10834421 -0.009811827 0.084335856
000260 e0 3c 37 3c 63 0c d4 bd be 9a e3 3d 59 32 a5 3d
       0.011183947 -0.10353925 0.11113499 0.08066244
000270 37 c0 14 3d b8 7b 0e 3d 3c f6 55 bc 43 06 87 3d
       0.036316123 0.034785956 -0.013059195 0.06592991
000280 0f 1e 55 bd 55 eb 55 bd e2 7e 4d 3d ba a5 af 3d
       -0.05203062 -0.052226383 0.050169833 0.08576532
000290 1a 63 a4 bd d0 10 92 3d ff ed 3e bd fb 28 8f 3b
       -0.080267146 0.07132113 -0.04661369 0.004368899
0002a0 06 14 c3 bc af 00 0c 3e ec 0b a7 bc 06 1e 9b 3d
       -0.023813259 0.13672136 -0.020391427 0.07574086
0002b0 9f 8b 4a 3d b2 e7 e4 bc 9b 86 86 bc 92 bc 00 bc
       0.04944956 -0.027942512 -0.016421607 -0.007857459
0002c0 ec 1a cc 3c 03 72 a0 3d 77 77 d8 3d 0c c2 bd 3c
       0.024915181 0.07834246 0.10569661 0.023163818
0002d0 3a 10 0a 3c cd fc 47 3d 9f af a6 3d de 1f 17 be
       0.00842672 0.048825074 0.08138966 -0.1475825
0002e0 7d 1f ea bb 4a e8 7f 3c 64 fd a7 3d 71 66 29 3d
       -0.007144867 0.015619347 0.08202627 0.04135746
0002f0 75 a0 11 bc 18 a2 81 bb b1 a6 8c bc 46 63 59 bd
       -0.008888354 -0.0039560907 -0.017169328 -0.05307319
000300 1d 36 d0 ba bc 63 c1 3d b2 a8 85 3d 7d 78 28 bc
       -0.0015885268 0.09442851 0.06526317 -0.010282633
000310 0f fc c9 3d cc 95 87 3b 21 17 78 b9 87 d2 60 3d
       0.098625295 0.00413773 -0.00023659739 0.054888275
000320 1d bb 84 bc 5c 5c dd 3c c5 5d a8 3d 7c d6 81 bb
       -0.016202504 0.02702158 0.0822101 -0.003962336
000330 23 9c 53 bb 54 d1 06 be e8 0a b0 bc ce 4b c9 bd
       -0.003228911 -0.1316579 -0.021489576 -0.09828912
000340 6a 19 7e 3d fe ba 88 3c 03 8e 30 bd 53 f4 2e 3d
       0.062035955 0.016690727 -0.043104183 0.042713474
000350 46 23 bc bc 68 80 6e bd 1b 9b 9c bc ed fe a3 3d
       -0.022966038 -0.058227926 -0.019116929 0.080076076
000360 9d 07 4e 3c 5c 11 c3 3c dd 39 fb 3d 18 58 65 3d
       0.012575057 0.023811989 0.12266896 0.055992216
000370 ba 08 a4 3c a7 f7 c9 3c 4a be 89 bd 8a a8 ef 3c
       0.020023692 0.024654223 -0.06725748 0.02925517
000380 ab 49 10 3d 8d 25 95 3d 88 0b ca 3c 41 d2 39 3d
       0.035226505 0.07282553 0.024663702 0.04536653
000390 76 57 05 3e ec 10 8a 3d 77 0a b7 bd 68 1c 4c 3c
       0.13021645 0.06741509 -0.08937543 0.012457944
0003a0 72 35 9d 3d 3d c9 00 3d 4c f7 1b bd 8d 74 18 bd
       0.076762095 0.031441916 -0.038077638 -0.037220526
0003b0 3c 35 57 3d d5 75 8f 3d d8 46 c6 bd 09 02 03 bd
       0.052541003 0.070048966 -0.09681481 -0.031984363
0003c0 f3 03 e3 bc 49 ff 9e bd 21 8f 89 3d 1d 04 6e 3a
       -0.027711844 -0.077635355 0.06716753 0.00090795924
0003d0 1a ba aa 3d 87 ca 29 bd 38 65 35 bd 49 d6 15 3d
       0.08336277 -0.04145291 -0.044285983 0.03658131
0003e0 28 a8 6a 3c 05 a6 9a 3c 0a ea fc 3c ba 1c 7a bd
       0.014322318 0.018877992 0.030873317 -0.061062552
0003f0 4f 7c 5f bd 5c 14 03 3d 24 86 11 3c b4 a5 c1 3b
       -0.05456191 0.032001838 0.008882079 0.005909646

model.model.decoder.encoder.layers.0.linear2.bias f4 [32]
000000 23 e2 4d bb 8d d5 e5 3c a2 d1 66 3d cf 47 8a bd
       -0.0031415306 0.02805593 0.056352265 -0.06751978
000010 82 ee cb 3d c1 7f 59 3c 00 10 67 bd 6b 35 e8 3c
       0.09957601 0.013275088 -0.056411743 0.028345784
000020 b9 64 29 bd 45 e3 16 bd ac 85 f5 bc cb 74 39 bd
       -0.041355822 -0.036837835 -0.029970966 -0.045277398
000030 45 1b e8 3c 57 31 cf 3d 74 01 97 3d c6 ae ac bd
       0.028333316 0.10116833 0.07373324 -0.08431773
000040 3c 38 b6 bd 03 0a 28 3d 2e 41 34 bd 01 88 25 3d
       -0.088974446 0.041025173 -0.044007473 0.040412907
000050 f5 0e 3b 3d b6 93 27 3d 74 b4 a5 bc c7 58 f4 bd
       0.04566856 0.040912353 -0.020227648 -0.119309954
000060 90 3f b3 3d d2 86 59 bd 88 a0 20 bc d6 55 95 3d
       0.08752358 -0.05310709 -0.009803899 0.072917625
000070 e8 e2 99 3d 8a af 75 bd 39 bb dc 3c 89 d1 29 3c
       0.07513982 -0.05998186 0.026944743 0.0103648985

model.model.decoder.encoder.layers.0.norm1.weight f4 [32]
000000 d3 52 79 3f bb ba 7a 3f b9 f7 78 3f 5b 43 70 3f
       0.97392005 0.9794118 0.97252995 0.93852776
000010 9e 55 7f 3f a0 6a 7c 3f ae c6 7a 3f c3 3d 77 3f
       0.99740016 0.98600197 0.9795941 0.96578616
000020 3a 16 80 3f 5f 26 7a 3f 9c 81 74 3f 4f 6a 79 3f
       1.0006783 0.977148 0.9551027 0.9742784
000030 1e 09 82 3f ad 91 75 3f a2 35 75 3f 16 3c 7a 3f
       1.0159032 0.9592541 0.9578496 0.97747934
000040 6c d5 7d 3f f2 a8 7a 3f 01 20 7a 3f 38 e8 7b 3f
       0.9915378 0.9791404 0.97705084 0.9840121
000050 8f 60 7b 3f 4c 37 85 3f a2 89 78 3f 22 d8 75 3f
       0.9819421 1.04075 0.9708501 0.9603292
000060 b5 63 7a 3f a2 94 82 3f 63 ef 7b 3f 9e 2b 79 3f
       0.9780839 1.0201609 0.9841215 0.9733218
000070 82 6b 81 3f 10 17 77 3f 09 9d 76 3f f0 18 73 3f
       1.0110934 0.96519566 0.96333367 0.94959927

model.model.decoder.encoder.layers.0.norm1.bias f4 [32]
000000 56 9f 07 bb 34 82 78 3a e5 cf d3 bc 1f af 01 bd
       -0.0020694337 0.0009479851 -0.025855968 -0.03166115
000010 cc 14 23 3c d3 30 87 bb 52 00 0d 3c a4 db a5 3b
       0.009953689 -0.0041256933 0.008606033 0.0050615836
000020 b7 f4 e6 3c 80 02 c6 3c 57 f0 07 3d ab c0 31 3c
       0.028192861 0.024171114 0.03318819 0.010849158
000030 45 b6 a4 bc 65 d7 52 3c f9 2f c0 3c 3a 6e 20 bc
       -0.020106444 0.012868737 0.023460375 -0.009791905
000040 7c be 58 bb b8 c2 b4 39 c6 47 cb 3b 44 d8 98 bb
       -0.0033072522 0.00034477352 0.0062036244 -0.0046644527
000050 30 d5 cc bb ac 9c 4e 3c d9 03 9c 3c 66 e7 13 bd
       -0.006251 0.012610596 0.019044803 -0.03610935
000060 a3 51 15 bc ed ac 5c bc b6 24 37 bb eb c9 a3 3a
       -0.009113702 -0.013468963 -0.0027945465 0.0012496089
000070 cd db b1 bb cc af 5c bc df de c0 bb c0 c3 a2 bc
       -0.0054278136 -0.013469648 -0.0058859433 -0.019868731

model.model.decoder.encoder.layers.0.norm2.weight f4 [32]
000000 a3 3f 80 3f b2 08 7c 3f 94 e3 7e 3f 61 35 79 3f
       1.001942 0.9845077 0.99566007 0.97347075
000010 7a 8c 81 3f 9b b2 80 3f f0 23 7f 3f bf da 80 3f
       1.0120995 1.0054506 0.9966421 1.0066756
000020 cf e6 80 3f 1f bb 82 3f ba 52 7b 3f 17 6a 7d 3f
       1.0070437 1.0213355 0.98173106 0.98990005
000030 94 b7 83 3f 9b 44 81 3f f9 da 7a 3f 7a 83 84 3f
       1.0290399 1.0099062 0.97990376 1.0352623
000040 13 cc 7f 3f 70 92 80 3f 82 59 7d 3f 47 15 85 3f
       0.9992077 1.0044689 0.98964703 1.0397118
000050 b3 f1 7b 3f 35 1e 87 3f 08 64 80 3f 07 14 7e 3f
       0.9841568 1.0556093 1.0030527 0.9924931
000060 6b 8b 80 3f 8f 88 87 3f fa aa 78 3f 66 96 7f 3f
       1.0042547 1.0588549 0.9713589 0.99838865
000070 96 56 85 3f 27 96 7c 3f 14 73 7e 3f 14 bb 7e 3f
       1.0417049 0.98666614 0.99394345 0.9950421

model.model.decoder.encoder.layers.0.norm2.bias f4 [32]
000000 bf 2f 79 3c 5b 01 60 3b bb ba 6e bc 6a 1b 5e bc
       0.015209137 0.0034180495 -0.014570887 -0.013556341
000010 da c6 db 3b 3a ef 73 bc 24 0c 7b 3c f1 fc 73 bc
       0.0067070546 -0.014888579 0.015322719 -0.014891849
000020 f2 cd 86 3c 9c 2b 80 3c 7c ac 69 3c 26 59 6f 3c
       0.016455624 0.015645795 0.014262315 0.014608657
000030 8e 81 77 3c 8f 03 6e 3c df cf 6e 3c c6 0f 77 bc
       0.015106572 0.014527216 0.0145759275 -0.015079444
000040 2a 67 83 bc 4c 6b 73 bc 1e 6b 78 bc 0d 74 8a bc
       -0.016040403 -0.014857125 -0.0151622575 -0.01690104
000050 a9 8c 72 3c bf 44 82 3c ef a3 70 3c 9a 42 75 bc
       0.014804044 0.015901921 0.014687522 -0.014969492
000060 0b f4 7c bc 92 fc 78 bc b1 59 58 3c 42 30 6f bc
       -0.015439044 -0.015196936 0.013204978 -0.014598908
000070 8d fd 83 3c 39 8d 6d 3c 64 6f 7d 3c 5b 5d 73 3c
       0.016112113 0.014499002 0.015468452 0.014853801

model.model.projection.weight f4 [2, 32]
000000 f9 54 2e 3e 21 97 bc ba 2a 51 22 be cf 97 b7 bd
       0.17024602 -0.0014388302 -0.15851274 -0.08964502
000010 0d 81 0d 3e a2 50 13 3d f1 80 f3 bd 6d 44 e1 3d
       0.1381876 0.03596557 -0.11889828 0.10999379
000020 19 9a 58 bd bc ef 16 be 23 3f 25 be 1d 2c 4d 3d
       -0.052881334 -0.14739889 -0.16137366 0.050090898
000030 4a 7b 83 bd f5 fc 93 3d 3d 90 8d 3d d8 73 1f be
       -0.0642 0.07225982 0.06912277 -0.15571535
000040 be 93 20 bd 2a 78 31 3d 58 92 11 be 47 af 00 be
       -0.039203398 0.043327488 -0.14215982 -0.12566863
000050 15 93 86 bd 91 11 e1 bd 7f 43 2a 3e 12 0f 35 bd
       -0.065710224 -0.10989679 0.1662731 -0.044203825
000060 68 5d 02 be f9 26 69 3c 1e e0 33 3e 14 53 cd 3d
       -0.12730944 0.014230483 0.17565963 0.100256115
000070 ca fe b1 3d ea 00 11 3e df a3 5f 3c 94 e3 a4 3c
       0.08691175 0.14160505 0.01364991 0.020128049
000080 73 6c ff 3d 50 5c ae 3d f2 57 8b bb 82 d5 27 bd
       0.12471857 0.08513701 -0.0042524273 -0.0409751
000090 1a ea 0f be d1 13 a1 bc 59 78 ea 3c a1 54 2d bd
       -0.14054146 -0.01966277 0.02862184 -0.042317037
0000a0 22 d0 24 3d 60 7a 86 bc b2 3c f5 bc bb 53 19 be
       0.040237553 -0.016415775 -0.029936168 -0.14973347
0000b0 90 5e 22 be 7c ee a2 bd 83 48 4c 3d 7e eb 08 3e
       -0.15856385 -0.079556435 0.04987384 0.13371083
0000c0 f9 d9 01 3d 53 f6 fd 3d cb 73 06 3d 99 b5 a3 3c
       0.031702016 0.12400498 0.032825273 0.019984053
0000d0 68 8e e5 bb c9 7a ac 3d 50 9b 99 bd 4d d5 d3 bc
       -0.0070055015 0.08421857 -0.07500327 -0.025858546
0000e0 02 07 95 bd 8a 16 d2 3a b1 99 01 be b3 37 2e be
       -0.07276727 0.0016028446 -0.12656285 -0.17013435
0000f0 f5 5e e0 bd 5a 63 1b 3b ec 4f 42 3d 26 16 f5 bd
       -0.109556116 0.0023710341 0.0474395 -0.11967115

model.model.projection.bias f4 [2]
000000 d2 c3 d7 3d cc 84 88 3c
       0.10535397 0.016664885
