lightning_logs/version_35/checkpoints/epoch=125-step=504.ckpt (torch, 219976 bytes, 66 tensors)

model.model.pos f4 [50, 32]
0.07168391 -0.012520198 -0.20490257 -0.14154372 -0.031072684 -0.26528284 -0.15154953 0.16036786
-0.23716411 0.15529011 0.03871902 0.12742689 -0.08224105 0.091129005 0.05468652 0.10196272
-0.050416723 0.0069660246 0.24941254 -0.23826559 -0.19175611 -0.19879521 -0.10807931 0.2730314
-0.18317907 -0.10043082 0.1613631 0.15523471 -0.11137947 -0.2526201 0.10539219 -0.15295887
-0.13723652 0.081555285 -0.15102838 0.17362277 -0.25377664 0.11666536 0.075824484 -0.076103084
-0.0934772 -0.17196736 -0.012874652 -0.0775807 0.1920543 -0.20632379 0.17693874 -0.16321686
0.050003927 -0.1240535 -0.11845443 0.22335161 0.0041383747 0.070406035 -0.25505373 -0.0046758717
0.112419225 -0.010899134 0.07512202 -0.09807833 0.16934457 -0.24221835 -0.21782391 0.18368654
-0.17184246 -0.05478006 0.034469027 0.26024643 0.11730665 -0.16807021 0.11957397 -0.059840802
-0.26937035 0.0793641 -0.22549075 0.16031666 -0.11516775 0.09814984 0.048469536 -0.027541252
0.22883414 -0.17265189 -0.040791903 0.20906658 0.056755334 -0.2647762 0.10618717 -0.24495253
0.09371464 -0.11409236 -0.23016469 0.25471285 -0.24435313 0.07215659 0.04405585 -0.019224783
-0.07242767 -0.14551528 0.23822306 -0.2451692 -0.24100016 -0.20159209 -0.11253917 -0.19539668
0.03195688 0.10227123 0.09942746 0.061288334 0.24332881 -0.0712093 0.12625757 0.25871807
-0.23666427 0.037558634 0.08395093 0.011348042 -0.06704565 0.26108474 -0.22197218 0.20211546
-0.022431046 0.12436167 -0.24155442 -0.05731597 -0.017518336 0.15525813 0.039865866 -0.17851382
0.23992574 0.10312105 -0.22369245 -0.139647 0.24231957 -0.19350028 0.10642608 -0.23854345
-0.1960439 0.10505824 -0.035072934 -0.22009513 -0.1938254 -0.1916235 -0.11516879 0.03760777
0.04372724 0.07930177 0.25325915 0.18349995 0.099092714 -0.157438 -0.12537807 0.18072915
-0.08510896 -0.19665675 -0.15447217 0.13863078 0.19500636 -0.18938448 -0.20802236 -0.042582538
-0.10742643 -0.1356846 -0.0035138272 0.19489183 0.15452941 0.019338196 0.22855505 0.19617978
-0.16685306 -0.2343151 0.2162322 -0.14381926 -0.17018545 -0.03324576 0.07606062 -0.011234863
0.053290494 -0.061690956 0.107571475 -0.08864562 0.10360198 0.09893971 0.12041082 0.033685256
0.23639208 0.26324177 0.0478106 -0.04830838 0.16051674 0.07637384 0.10388013 -0.03198701
-0.1977857 -0.12516832 -0.027200015 0.17293096 0.24635768 -0.07319894 0.11595737 0.10629522
0.049682133 -0.14555775 -0.24751055 -0.19507688 -0.2619536 0.12885134 -0.12170346 0.25622153
0.05557033 0.24417965 0.16197157 0.23002668 -0.15571813 -0.1998836 0.25891554 -0.060741466
-0.024582552 -0.09098865 -0.022880506 0.2549114 0.22104892 -0.26408637 0.25500888 -0.07247263
-0.06147761 0.24726434 -0.131979 0.02208897 -0.057753943 -0.23919272 0.13615277 0.015342815
-0.14802998 -0.060832012 -0.039002396 0.093093984 0.20010854 0.17091271 -0.13125297 -0.2043498
0.20852813 0.11461277 -0.081683464 -0.15024559 -0.00088971877 -0.15195297 0.20439261 -0.021443317
0.014977375 -0.2684275 -0.028528666 0.20129499 -0.17881459 -0.19534276 0.032811645 0.04498812
00000000: 04cf 923d 8421 4dbc fbd1 51be d6f0 10be
00000010: 248c febc 27d3 87be cd2f 1bbe 7937 243e
00000020: 26db 72be 5f04 1f3e d697 1e3d 327c 023e
00000030: ff6d a8bd d8a1 ba3d f9fe 5f3d d5d1 d03d
00000040: c481 4ebd 4043 e43b 0066 7f3e e5fb 73be
00000050: b75b 44be f990 4bbe af58 ddbd c6ca 8b3e
00000060: 4b93 3bbe acae cdbd 5e3c 253e d9f5 1e3e
00000070: eb1a e4bd 6c57 81be dcd7 d73d 40a1 1cbe
00000080: bb87 0cbe 7506 a73d 2fa7 1abe 2bca 313e
00000090: 03ef 81be 40ee ee3d de49 9b3d efdb 9bbd
000000a0: f970 bfbd 3618 30be 34f0 52bc a1e2 9ebd
000000b0: e2a9 443e 8b46 53be 6e2f 353e 5222 27be
000000c0: ebd0 4c3d c30f febd 3c98 f2bd 49b6 643e
000000d0: 349b 873b 0a31 903d 6796 82be 0e38 99bb
000000e0: 0d3c e63d 4892 32bc 93d9 993d 4bdd c8bd
000000f0: aa68 2d3e 1608 78be 3b0d 5fbe 5318 3c3e
00000100: 78f7 2fbe 0e61 60bd 652f 0d3d 053f 853e
00000110: 783e f03d 991a 2cbe 33e3 f43d a11b 75bd
00000120: e9ea 89be a589 a23d 0ce7 66be 0d2a 243e
00000130: 12dd ebbd c902 c93d fe87 463d 319e e1bc
00000140: 7f53 6a3e a8cb 30be 6915 27bd 8d15 563e
00000150: 4878 683d bf90 87be a978 d93d d6d4 7abe
00000160: 76ed bf3d 41a9 e9bd 4bb0 6bbe b969 823e
00000170: b537 7abe d6c6 933d e873 343d 4b7d 9dbc
00000180: f554 94bd f501 15be bff0 733e a20d 7bbe
00000190: bfc8 76be 286e 4ebe f07a e6bd 1116 48be
000001a0: 38e5 023d 9473 d13d a0a0 cb3d 7a09 7b3d
000001b0: 302b 793e 2ed6 91bd aa49 013e b276 843e
000001c0: 1e58 72be 15d7 193d 77ee ab3d 23ed 393c
000001d0: 3b4f 89bd e6ac 853e ad4c 63be 5bf7 4e3e
000001e0: 50c1 b7bc 55b1 fe3d 0b5a 77be 27c4 6abd
000001f0: 9d82 8fbc fdfb 1e3e 644a 233d 54cc 36be
00000200: 18af 753e 2131 d33d a20f 65be a0ff 0ebe
00000210: 9f22 783e f024 46be ebf5 d93d bc44 74be
00000220: bbbf 48be c628 d73d a3a8 0fbd 9e60 61be
00000230: 2a7a 46be f338 44be 9ddd ebbd 9b0a 1a3d
00000240: 561b 333d f768 a23d 2fab 813e 69e7 3b3e
00000250: 1ff1 ca3d 6d37 21be 1c63 00be 1011 393e
00000260: 9b4d aebd 6360 49be f42d 1ebe 3af5 0d3e
00000270: bfaf 473e 01ee 41be d003 55be 076b 2ebd
00000280: 6302 dcbd e7f0 0abe 3d48 66bb b991 473e
00000290: f53c 1e3e 236b 9e3c 560a 6a3e 5ae3 483e
000002a0: 87db 2abe 4cf0 6fbe f96b 5d3e 5b45 13be
000002b0: 1845 2ebe b52c 08bd acc5 9b3d 6e12 38bc
000002c0: 2247 5a3d a8af 7cbd 6f4e dc3d d68b b5bd
000002d0: 462d d43d e7a0 ca3d f399 f63d 8df9 093d
000002e0: c410 723e a0c7 863e 0cd5 433d 02df 45bd
000002f0: 805e 243e e369 9c3d 1bbf d43d d004 03bd
00000300: 5688 4abe 202c 00be 91d2 debc d014 313e
00000310: 3045 7c3e 53e9 95bd 0f7b ed3d 4fb1 d93d
00000320: 7e7f 4b3d 170d 15be 6873 7dbe 3cc2 47be
00000330: c81e 86be 9bf1 033e aa3f f9bd 782f 833e
00000340: b79d 633d 3b0a 7a3e e0db 253e 1d8c 6b3e
00000350: 9374 1fbe 49ae 4cbe 9490 843e 0bcc 78bd
00000360: 5961 c9bc 4258 babd e66f bbbc bf83 823e
00000370: a65a 623e 5436 87be 8690 823e 886c 94bd
00000380: f2cf 7bbd dd32 7d3e 8125 07be edf3 b43c
00000390: 668f 6cbd f0ee 74be a26b 0b3e 6e60 7b3c
000003a0: 2c95 17be fd2a 79bd fac0 1fbd 0fa8 be3d
000003b0: 41e9 4c3e be03 2f3e 2e67 06be 1341 51be
000003c0: 6688 553e 1aba ea3d a949 a7bd fbd9 19be
000003d0: 043c 69ba 8f99 1bbe 4c4c 513e e5a9 afbc
000003e0: aa63 753c 546f 89be f3b4 e9bc 4620 4e3e
000003f0: 2c1b 37be ef07 48be 8165 063d 7745 383d

model.model.embed.weight f4 [2, 32]
0.0 0.0 0.0 0.0 0.0 0.0 0.0 0.0
0.0 0.0 0.0 0.0 0.0 0.0 0.0 0.0
0.0 0.0 0.0 0.0 0.0 0.0 0.0 0.0
0.0 0.0 0.0 0.0 0.0 0.0 0.0 0.0
-2.2420132 1.0809065 2.262749 0.38625768 -0.7406481 -0.014845658 -1.1698585 0.449039
0.9421318 -0.52949494 0.23392278 -0.23411325 -0.6846764 -1.3174531 0.459948 0.72533715
0.5648085 1.5586119 0.7895869 -1.4798257 -0.25839725 0.78461725 -0.10754714 0.3038735
0.8755215 0.53211147 0.8500113 -0.7710421 -0.42112276 -0.11849496 2.1435018 0.3057919
00000000: 0000 0000 0000 0000 0000 0000 0000 0000
00000010: 0000 0000 0000 0000 0000 0000 0000 0000
00000020: 0000 0000 0000 0000 0000 0000 0000 0000
00000030: 0000 0000 0000 0000 0000 0000 0000 0000
00000040: 0000 0000 0000 0000 0000 0000 0000 0000
00000050: 0000 0000 0000 0000 0000 0000 0000 0000
00000060: 0000 0000 0000 0000 0000 0000 0000 0000
00000070: 0000 0000 0000 0000 0000 0000 0000 0000
00000080: 257d 0fc0 255b 8a3f e1d0 1040 91c3 c53e
00000090: 1d9b 3dbf 343b 73bc ecbd 95bf 71e8 e53e
000000a0: 8d2f 713f fb8c 07bf 7489 6f3e 62bb 6fbe
000000b0: f446 2fbf 4ea2 a8bf 4e7e eb3e b2af 393f
000000c0: 4a97 103f 9880 c73f 5e22 4a3f ee6a bdbf
000000d0: a54c 84be addc 483f ad41 dcbd 4f95 9b3e
000000e0: 2d22 603f 7538 083f 579a 593f 0463 45bf
000000f0: 679d d7be 7cad f2bd 222f 0940 c290 9c3e

model.model.decoder.layers.0.ln1.weight f4 [32]
0.9937162 0.99603635 0.99168324 0.99517673 0.9925488 1.0011883 0.9962697 1.0002056
0.99149644 0.99582005 0.99748033 0.99119395 0.99129736 0.9950987 0.99609107 1.0013448
0.9922613 1.0025288 0.994303 1.0039053 1.0027853 0.9944611 0.98812723 0.99895424
0.9964731 0.9973255 0.9879327 1.003011 0.9960454 0.9928223 0.9929936 1.0016643
00000000: 2f64 7e3f 3dfc 7e3f f4de 7d3f e7c3 7e3f
00000010: ae17 7e3f f026 803f 880b 7f3f bd06 803f
00000020: b6d2 7d3f 10ee 7e3f df5a 7f3f e3be 7d3f
00000030: aac5 7d3f cabe 7e3f d3ff 7e3f 112c 803f
00000040: d604 7e3f dd52 803f a48a 7e3f f87f 803f
00000050: 455b 803f 0195 7e3f e8f5 7c3f 77bb 7f3f
00000060: dc18 7f3f b950 7f3f 28e9 7c3f aa62 803f
00000070: d5fc 7e3f 9a29 7e3f d434 7e3f 8936 803f

model.model.decoder.layers.0.ln1.bias f4 [32]
1.5870892e-05 0.00073820085 -0.0027944783 -0.0016135095 0.00061680685 -0.002325504 -0.0043202634 -0.00082683354
0.000624619 0.00080277416 0.0077525186 0.007899104 0.0034186244 -0.0021069574 -0.000798669 0.0027231902
-0.0017849978 0.011338136 0.0006414772 -0.008354617 -0.003836603 -0.0025073753 0.00434174 -0.0009769256
0.0033995346 0.0054921205 0.00025865505 -0.008728627 -0.008868945 0.00059772393 0.0033681684 0.0030943055
00000000: 7b22 8537 d283 413a 9123 37bb 657c d3ba
00000010: 35b1 213a 7c67 18bb ff90 8dbb dcbf 58ba
00000020: 79bd 233a 4371 523a d708 fe3b 3e6b 013c
00000030: 000b 603b e114 0abb c55d 51ba 8d77 323b
00000040: 96f6 e9ba 97c3 393c ce28 283a cee1 08bc
00000050: 846f 7bbb c752 24bb 2845 8e3b 2f0c 80ba
00000060: baca 5e3b 3ff7 b33b 189c 8739 8402 0fbc
00000070: 0d4f 11bc 93b0 1c3a 7dbc 5c3b d5c9 4a3b

model.model.decoder.layers.0.ln2.weight f4 [32]
0.9821087 0.9924244 1.022717 0.9964696 1.0080583 0.98913795 1.0015372 0.9944743
1.0011618 1.0099397 1.0122023 1.0187707 0.99278015 1.0215545 0.99721265 1.0091301
0.9860549 0.99978447 0.9969536 0.9908483 1.0093347 0.9922357 0.99942577 0.99937785
1.0008643 0.9942379 0.9951039 1.0041914 0.9826052 0.9997159 1.0226846 1.0017982
00000000: 7a6b 7b3f 870f 7e3f 64e8 823f a218 7f3f
00000010: 0e08 813f 2538 7d3f 5f32 803f de95 7e3f
00000020: 1226 803f b445 813f d88f 813f 1467 823f
00000030: d726 7e3f 4cc2 823f 5449 7f3f 2d2b 813f
00000040: 186e 7c3f e0f1 7f3f 5a38 7f3f 3ca8 7d3f
00000050: e131 813f 2903 7e3f 5eda 7f3f 3ad7 7f3f
00000060: 521c 803f 6086 7e3f 21bf 7e3f 5889 803f
00000070: 048c 7b3f 62ed 7f3f 54e7 823f ec3a 803f

model.model.decoder.layers.0.ln2.bias f4 [32]
0.0022024885 -0.0015882888 0.009582514 0.0057841833 0.0021902425 0.007677817 -0.00341416 -0.0068693357
-0.001964115 0.0031043955 -0.009528858 -0.0027245097 0.008996008 -0.0011875893 0.0007502579 0.002256906
-0.000204298 -0.008073162 0.00469597 -0.0040722387 0.004232943 0.013202597 0.0020625175 0.0054147234
0.002138385 0.011035213 -0.0033118334 0.009132519 0.01041516 -0.00089391763 -0.008123911 0.006228515
00000000: a057 103b 212e d0ba faff 1c3c 3f89 bd3b
00000010: 2c8a 0f3b 3296 fb3b 1ac0 5fbb 2a18 e1bb
00000020: 62b8 00bb 1d73 4b3b ed1e 1cbc b08d 32bb
00000030: fe63 133c e2a8 9bba f5ac 443a 99e8 133b
00000040: d438 56b9 4c45 04bc a7e0 993b 6a70 85bb
00000050: 80b4 8a3b b54f 583c 4d2b 073b fe6d b13b
00000060: 2624 0c3b 0acd 343c 580b 59bb 90a0 153c
00000070: 59a4 2a3c cc55 6aba 271a 05bc 9218 cc3b

model.model.decoder.layers.0.msr.WQ f4 [1, 32, 32]
-0.040427238 -0.023669317 -0.06143305 -0.02527362 0.057298265 0.08283309 -4.9404414e-05 -0.07647059
-0.07024442 -0.020313213 -0.011465401 -0.04296827 -0.050605442 -0.029807838 -0.06527593 0.011468263
0.058270995 0.05774998 0.009426867 -0.080541745 0.05635115 -0.011367607 -0.07494222 0.007122919
0.004316803 -0.05532191 -0.007876316 -0.073203795 0.023666278 -0.068510965 0.015573591 0.01740236
0.056036443 -0.014634205 0.07659735 -0.02384491 -0.03216856 0.0011042734 0.08110388 -0.07465211
0.01607606 0.008127654 0.011573667 0.011811077 0.072072506 -0.01078776 0.015698457 0.038852084
0.051568385 -0.019761302 -0.008075417 -0.013573619 -0.011200428 -0.032909837 0.034200933 -0.028182764
0.038193084 -0.020284988 0.017055009 0.041552983 0.0040642973 0.0058756596 0.016899936 -0.058338843
0.05910039 -0.018001715 0.050258376 -0.03237049 -0.045539983 0.074216984 -0.07541105 0.03134182
-0.0692035 -0.052982613 -0.019966248 0.017801661 0.03202738 0.046249907 0.05406923 0.024834119
0.06194168 -0.09563582 0.05154442 0.008252946 0.005210203 0.0067593935 -0.04592513 0.032705303
0.02031025 -0.058708947 0.041923966 0.0048210267 -0.0759458 0.053120233 0.08920621 0.03888168
-0.06454309 0.015388518 0.04706884 -0.016941607 0.015617796 -0.009817915 -0.0014157034 0.029106416
-0.014901155 0.039127782 0.039477922 -0.0039888103 0.058910336 -0.009635158 -0.06265114 -0.0589019
0.037361983 0.13450271 0.043921642 0.020335425 -0.04612183 -0.052916214 -0.03429627 0.047001604
0.05289058 0.0105237495 -0.014343453 0.03498497 0.034380645 0.029882452 -0.076786324 0.068361335
-0.012959753 -0.0043289773 0.08020018 0.009740198 -0.023553092 0.03155328 -0.03216089 -0.030354047
-0.095882386 0.011781854 0.047447152 -0.011493866 0.04421422 0.015063757 0.034748595 0.041885156
0.01625457 -0.030435935 0.02026183 -0.0048102653 -0.02872784 0.052772395 0.048741136 0.0042986507
-0.008750548 -0.021651966 -0.06497937 -0.01034818 -0.0004407039 0.09930172 -0.013398523 0.060299452
0.029878367 0.040220514 -0.03559957 -0.03419241 0.04223961 0.048534747 0.041322388 0.0014735722
-0.037726358 9.0756046e-05 -0.04332293 0.041997835 -0.01925719 0.047260564 -0.03740944 0.04202638
-0.0028804906 0.042684164 -0.03601529 -0.00083521474 -0.08172737 -0.016831873 0.0046886704 -0.048054654
-0.05986909 -0.016792163 -0.047064587 -0.03682338 -0.036852762 -0.019218894 -0.013029296 0.04503604
0.07740156 -0.031918786 0.044215795 -0.019623056 0.049328342 -0.058582794 -0.035970718 0.090505995
-0.033796318 0.050371137 -0.073659346 0.025629072 0.060296092 -0.008375691 -0.02030133 0.031767022
0.03133351 0.048843753 0.0130041335 -0.055980574 -0.07187336 -0.02939455 -0.040272452 -0.042315062
0.035212647 0.025600297 0.052253857 0.037338026 -0.012446108 -0.11063532 0.07099584 -0.021824546
-0.062504955 -0.071407124 -0.041950226 0.047744676 0.049647424 0.007635364 0.04141301 0.01225269
0.005214592 0.053750396 0.0012762188 0.06038267 -0.0596072 -0.041473877 0.05442467 -0.044422064
-0.019898877 0.038517237 -0.03869759 -0.032039557 0.026284248 0.025830247 0.00010580497 0.039240338
0.014048402 -0.009100641 0.08909626 0.029775461 0.06343175 0.035271592 -0.049258642 0.02735432
00000000: 0897 25bd 28e6 c1bc 39a1 7bbd 9f0a cfbc
00000010: 96b1 6a3d 65a4 a93d 9637 4fb8 9d9c 9cbd
00000020: 4edc 8fbd e567 a6bc 61d9 3bbc 7fff 2fbd
00000030: a747 4fbd 912f f4bc 63af 85bd 62e5 3b3c
00000040: 91ad 6e3d 3e8b 6c3d 2573 1a3c 12f3 a4bd
00000050: 77d0 663d 333f 3abc 4e7b 99bd 6067 e93b
00000060: f873 8d3b 3a99 62bd aa0b 01bc dfeb 95bd
00000070: c8df c13c 7a4f 8cbd 6028 7f3c 658f 8e3c
00000080: 7886 653d 4ec4 6fbc 12df 9c3d 6756 c3bc
00000090: 2ec3 03bd 44bd 903a cb19 a63d 35e3 98bd
000000a0: f1b1 833c da29 053c 7a9f 3d3c 3f83 413c
000000b0: c09a 933d 25bf 30bc 0d9a 803c 5d23 1f3d
000000c0: 5f39 533d 74e2 a1bc c14e 04bc e263 5ebc
000000d0: 0082 37bc 77cc 06bd 4716 0c3d 8adf e6bc
000000e0: 5a70 1c3d b42c a6bc f2b6 8b3c 7633 2a3d
000000f0: cc2d 853b 9b88 c03b bc71 8a3c b6f4 6ebd
00000100: 4013 723d 5578 93bc badb 4d3d eb96 04bd
00000110: 2288 3abd 13ff 973d 1c71 9abd 4860 003d
00000120: 91ba 8dbd 4c04 59bd 4290 a3bc cad4 913c
00000130: 242f 033d 8b70 3d3d b277 5d3d ec70 cb3c
00000140: 8fb6 7d3d b6dc c3bd 3e20 533d 5d37 073c
00000150: 5aba aa3b e77d dd3b fd1b 3cbd fff5 053d
00000160: ae61 a63c cb78 70bd 77b8 2b3d b4f9 9d3b
00000170: 7989 9bbd 9a94 593d bfb1 b63d 6642 1f3d
00000180: 2b2f 84bd 1f20 7c3c 42cb 403d 20c9 8abc
00000190: c9e1 7f3c 52db 20bc 208f b9ba 9470 ee3c
000001a0: f923 74bc 7444 203d 9ab3 213d 91b4 82bb
000001b0: f74b 713d c8dc 1dbc 3e4f 80bd 1e43 71bd
000001c0: e108 193d 14bb 093e 2ee7 333d 7a96 a63c
000001d0: 3eea 3cbd acbe 58bd 3f7a 0cbd c184 403d
000001e0: cba3 583d ce6b 2c3c cd00 6bbc 664c 0f3d
000001f0: b8d2 0c3d 0bcc f43c 2642 9dbd 0701 8c3d
00000200: 2555 54bc 18da 8dbb fe3f a43d 5a95 1f3c
00000210: 6af2 c0bc 033e 013d 23bb 03bd 0da9 f8bc
00000220: fc5d c4bd ad08 413c f257 423d c550 3cbc
00000230: f819 353d facd 763c 8b54 0e3d c58f 2b3d
00000240: 4e28 853c c854 f9bc 23fc a53c 6e9f 9dbb
00000250: a656 ebbc de27 583d c9a4 473d b2db 8c3b
00000260: 755e 0fbc 775f b1bc e713 85bd 6a8b 29bc
00000270: 470e e7b9 b35e cb3d 7b85 5bbc 8ffc 763d
00000280: 7ac3 f43c 44be 243d dbd0 11bd 570d 0cbd
00000290: 7103 2d3d 5fcc 463d aa41 293d e124 c13a
000002a0: f486 1abd 4854 be38 6273 31bd ec05 2c3d
000002b0: 41c1 9dbc 4b94 413d a43a 19bd da23 2c3d
000002c0: 9dc6 3cbb 97d5 2e3d c584 13bd 50f2 5aba
000002d0: ae60 a7bd ffe2 89bc 6ba3 993b f5d4 44bd
000002e0: 4a39 75bd b88f 89bc ccc6 40bd 1dd4 16bd
000002f0: ecf2 16bd f170 9dbc d478 55bc b677 383d
00000300: b684 9e3d 46bd 02bd 9f1b 353d 88c0 a0bc
00000310: 840c 4a3d 83f4 6fbd 0856 13bd 355b b93d
00000320: 026e 0abd f751 4e3d b6da 96bd 0ff4 d13c
00000330: 09f9 763d 323a 09bc fa4e a6bc 231e 023d
00000340: 9157 003d 6310 483d 4a0f 553c e34b 65bd
00000350: 5732 93bd d7cc f0bc baf4 24bd 8f52 2dbd
00000360: 233b 103d b7b7 d13c 2408 563d c2ef 183d
00000370: c3ea 4bbc c594 e2bd 4466 913d 64c9 b2bc
00000380: 9902 80bd e63d 92bd 00d4 2bbd ec8f 433d
00000390: 195b 4b3d 1332 fa3b b0a0 293d 82bf 483c
000003a0: 2bdf aa3b 6029 5c3d cc46 a73a d253 773d
000003b0: ae26 74bd 83e0 29bd 67ec 5e3d e9f3 35bd
000003c0: f802 a3bc 40c4 1d3d 5d81 1ebd e93b 03bd
000003d0: 1052 d73c f499 d33c 9ce3 dd38 7aba 203d
000003e0: 452b 663c db1a 15bc 1a78 b63d abeb f33c
000003f0: 81e8 813d f278 103d 6ec3 49bd 2b16 e03c

model.model.decoder.layers.0.msr.WK f4 [1, 32, 32]
0.005931231 0.0055578314 0.080533504 -0.09168926 0.037965447 0.06445268 -0.06767076 0.03881099
-0.013830674 0.0414525 0.012537055 -0.025088098 0.030856904 0.049078446 -0.020812374 0.026045186
-0.016624784 -0.047088042 0.010533646 0.035852037 0.011597956 -0.009785049 -0.029302675 0.019655114
-0.025818031 0.033738855 0.059806183 0.03254644 0.0041666934 -0.0077855717 0.025567211 0.041018944
-0.009998597 -0.081583336 0.0034122546 -0.0014391601 0.07978 -0.009181664 0.07728703 0.043586362
0.010280461 -0.013569116 0.082831524 0.08333036 -0.04244342 0.014315222 -0.027106214 -0.0070828567
0.04227662 0.020167192 0.010435654 0.06874081 -0.013114823 0.005906095 0.012228472 0.07038595
-0.000992412 0.04344353 0.0024969012 0.017662706 -0.008940019 0.026577959 -0.014508064 -0.04278387
-0.032567464 0.025554828 0.033900857 0.0054584453 -0.06007936 -0.028099982 -0.031189797 0.059336476
-0.035679366 0.053861145 -0.022625461 0.03987877 0.035828404 0.002488942 0.08603171 -0.03634492
-0.06341099 -0.00051767746 0.011846548 0.052053217 -0.02739819 -0.007772107 0.01740618 0.023789657
-0.048066486 0.016369501 -0.04989084 0.019714046 0.026282897 -0.048890427 0.02095944 0.002196933
0.00018295803 -0.030293033 0.03858703 0.05431605 -0.06874241 0.005545963 0.049551744 -0.019441318
0.015232588 0.03420384 -0.047385897 0.02904019 0.0019205601 0.010242028 -0.012813142 -0.017775364
0.07141596 -0.020805756 -0.059026133 -0.02551479 -0.07994516 -0.023228021 0.02764991 0.0038620709
0.033484895 -0.049227446 0.0035720447 -0.015712665 0.022991387 0.04070645 -0.03800077 0.08631232
0.01979478 -0.07672197 -0.029802699 -0.06371787 -0.030439481 0.009146556 -0.047378145 -0.036360838
-0.031454045 0.01992698 -0.06067592 -0.054526668 -0.0074085454 0.01692723 -0.052982815 0.003959815
0.038153905 -0.016331477 0.04598464 0.06311931 0.026320415 0.02809835 0.019890353 -0.052654825
-0.017397705 -7.450689e-05 -0.024942415 0.014731038 0.008511984 -0.032358445 -0.028886205 -0.080094434
0.012861106 -0.048471745 0.008506557 -0.034511577 -0.03443183 -0.012583791 0.07368937 0.04150627
0.05591674 0.0045922734 0.016066782 -0.043209273 0.050804604 0.1136717 -0.09441377 -0.1039813
0.06448199 -0.05034937 0.0450326 0.05608557 -0.0034913758 -0.08961278 0.021843031 0.045435052
-0.0055442294 -0.014716695 0.009571397 0.01571922 -0.003469961 0.05754071 0.015945906 -0.012698755
0.022765446 -0.009190715 0.058442213 0.04011937 -0.03489116 0.02411566 -0.047380492 0.031022266
-0.022442045 -0.025151638 0.036162037 0.03390313 -0.05140493 -0.04602286 -0.008166803 0.052525237
0.05179826 -0.06320444 0.0071396143 -0.06002148 0.046940923 -0.036308922 -0.04222625 -0.02350157
0.04301374 0.007240572 0.01689818 0.10080482 0.041762866 -0.05595603 -0.026927475 -0.012291038
-0.0043489435 -0.0065104556 -0.020165447 -0.06465399 -0.0784331 -0.015308856 -0.019508434 -0.009138691
-0.030253483 -0.04065399 -0.039854422 -0.00409152 0.035774708 0.062431723 0.06333587 -0.056351878
-0.055225056 -0.056147497 0.03342168 0.015323339 0.00050186313 0.005836814 0.04726734 0.027644465
0.08544269 -0.04987763 -0.03011833 -0.023048302 -0.019162526 0.009194055 -0.016384838 0.05743807
00000000: c65a c23b 781e b63b c0ee a43d 94c7 bbbd
00000010: a881 1b3d c4ff 833d f896 8abd 46f8 1e3d
00000020: 0d9a 62bc 19ca 293d 3868 4d3c 8e85 cdbc
00000030: 9ec7 fc3c 7b06 493d b67e aabc b75c d53c
00000040: b330 88bc 64df 40bd 5095 2c3c 96d9 123d
00000050: 5a05 3e3c 7851 20bc 2a0c f0bc c303 a13c
00000060: 5680 d3bc c131 0a3d 54f7 743d 6a4f 053d
00000070: c288 883b 1c1e ffbb 5472 d13c 7b03 283d
00000080: 28d1 23bc 2a15 a7bd 22a0 5f3b 33a2 bcba
00000090: b263 a33d b16e 16bc aa48 9e3d 9d87 323d
000000a0: 616f 283c ff50 5ebc 93a3 a93d 1ca9 aa3d
000000b0: 27d9 2dbd 658a 6a3c da0d debc 4f17 e8bb
000000c0: 402a 2d3d ab35 a53c 4efa 2a3c fbc7 8c3d
000000d0: 8edf 56bc ea87 c13b ee59 483c 8226 903d
000000e0: d213 82ba d8f1 313d 0da3 233b 61b1 903c
000000f0: 2879 12bc 05ba d93c 3bb3 6dbc 243e 2fbd
00000100: 7665 05bd 5c58 d13c a0db 0a3d c2dc b23b
00000110: c615 76bd ef31 e6bc bf81 ffbc ce0a 733d
00000120: 8724 12bd 819d 5c3d 0859 b9bc ec57 233d
00000130: cec0 123d 841d 233b 6531 b03d 69de 14bd
00000140: 9fdd 81bd bfb4 07ba 0618 423c c135 553d
00000150: 2b72 e0bc 29ad febb 6897 8e3c 87e2 c23c
00000160: 5de1 44bd 5519 863c 565a 4cbd 5a7f a13c
00000170: 3b4f d73c 5441 48bd 22b3 ab3c 6bfa 0f3b
00000180: 6cd8 3f39 1829 f8bc 6f0d 1e3d 827a 5e3d
00000190: d2c8 8cbd e9ba b53b c5f6 4a3d 6643 9fbc
000001a0: 1b92 793c 5319 0c3d b717 42bd b1e5 ed3c
000001b0: 4ebb fb3a 2ece 273c 36ee 51bc a49d 91bc
000001c0: 8842 923d d570 aabc 63c5 71bd 6504 d1bc
000001d0: 4aba a3bd b148 bebc 1082 e23c cc1a 7d3b
000001e0: 7527 093d b8a2 49bd f718 6a3b d9b7 80bc
000001f0: 6f58 bc3c cebb 263d b2a6 1bbd 83c4 b03d
00000200: aa28 a23c 6920 9dbd ca24 f4bc 847e 82bd
00000210: 385c f9bc 70db 153c 960f 42bd 1aef 14bd
00000220: f5d5 00bd e83d a33c 5087 78bd 5b57 5fbd
00000230: 62c3 f2bb f9aa 8a3c 8204 59bd 56c1 813b
00000240: 4547 1c3d 97c9 85bc 645a 3c3d b244 813d
00000250: e99d d73c 832e e63c 18f1 a23c 96ac 57bd
00000260: a285 8ebc 9540 9cb8 0954 ccbc 745a 713c
00000270: d975 0b3c 4a8a 04bd c3a2 ecbc 8d08 a4bd
00000280: 63b7 523c 4f8a 46bd 165f 0b3c 035c 0dbd
00000290: 6408 0dbd 3f2c 4ebc 74ea 963d 7b02 2a3d
000002a0: f408 653d c87a 963b 7c9e 833c 35fc 30bd
000002b0: 7d18 503d b5cc e83d 025c c1bd 26f4 d4bd
000002c0: 220f 843d 243b 4ebd 1b74 383d fcb9 653d
000002d0: 91cf 64bb e886 b7bd 28f0 b23c 1b1a 3a3d
000002e0: 5eac b5bb 4b1e 71bc 59d1 1c3c 98c5 803c
000002f0: 4968 63bb cfaf 6b3d fda0 823c 700e 50bc
00000300: 9a7e ba3c a794 16bc 1a61 6f3d 3554 243d
00000310: 08ea 0ebd 348e c53c 0c12 42bd 6822 fe3c
00000320: 61d8 b7bc cf0a cebc a51e 143d 02de 0a3d
00000330: fa8d 52bd 7782 3cbd 0ece 05bc b424 573d
00000340: 6a2a 543d 5471 81bd 6df3 e93b 15d9 75bd
00000350: 2045 403d aab8 14bd 6ff5 2cbd 5d86 c0bc
00000360: 2d2f 303d 5242 ed3b 0d6e 8a3c c272 ce3d
00000370: 8a0f 2b3d 2632 65bd 0297 dcbc 5a60 49bc
00000380: 9581 8ebb a955 d5bb 0232 a5bc 5069 84bd
00000390: 88a1 a0bd ffd1 7abc 27d0 9fbc 73ba 15bc
000003a0: 27d6 f7bc cc84 26bd 643e 23bd 2812 86bb
000003b0: 8088 123d 68b8 7f3d 3db6 813d 3ad1 66bd
000003c0: ab33 62bd ebfa 65bd 2ce5 083d be0e 7b3c
000003d0: 778f 033a bf42 bf3b 669b 413d a576 e23c
000003e0: 94fc ae3d 7c4c 4cbd b7ba f6bc cbcf bcbc
000003f0: bbfa 9cbc a9a2 163c 7f39 86bc 2f44 6b3d

model.model.decoder.layers.0.msr.WV f4 [1, 32, 32]
-0.001917787 0.01389938 0.02789942 0.013945063 0.06995558 -0.035740077 0.039373428 0.012809049
0.026907384 0.032705273 0.044492695 0.0515899 0.048818402 -0.019834125 0.029205 -0.04919443
-0.020939548 -0.022025414 -0.0144789545 -0.02387427 -0.07822389 0.02826901 0.019447496 -0.09072362
0.034706816 -0.0143971145 0.003454634 0.0079681985 0.0039536166 0.06898474 -0.05429355 0.04092755
0.007190964 0.004600505 0.013540157 0.004698348 0.0028226585 -0.004834987 -0.033672255 0.038389135
0.0042041726 -0.013588434 -0.06511953 0.010125089 -0.008636371 0.011588435 -0.0026047858 -0.014285035
-0.009949361 -0.015425398 0.093004026 0.022477634 0.01838175 0.023172615 -0.0101597365 0.04700035
-0.034178883 0.04902424 -0.0018156811 0.1124721 -0.070875086 0.0034014697 0.041363552 0.033681523
-0.022008933 -0.048012845 0.004721401 -0.009528804 0.04342231 -0.013105706 -0.0053747734 0.05748546
0.013239958 -0.028042827 -0.03479021 -0.017132722 -0.013440125 -0.030843392 0.014013187 0.020725243
0.030323122 0.0149139725 -0.044241812 -0.005256779 0.003172391 0.019255927 0.0019366513 -0.038130872
-0.034766592 -0.08646561 0.07302069 -0.01945895 0.027567958 0.00953473 -0.012803635 -0.020514106
-0.049890086 -0.02997641 -0.00011427855 0.0075768684 -0.022960398 -0.011509974 -0.03698183 0.04413566
-0.0708769 0.016153282 -0.051757935 -0.051644612 0.024356307 0.025981419 0.07815115 0.018559424
0.022800293 -0.015764134 -0.054659605 -0.010018759 -0.048461743 0.020759327 -0.014817966 -0.058351897
0.006482027 0.09890037 -0.024246955 -0.04318749 -0.0016431229 -0.046796504 0.024779791 -0.031208608
0.056043163 -0.055376057 0.050416276 -0.012489001 -0.050620798 -0.01672564 0.055847403 0.0063275266
-0.0084404275 0.00995772 -0.054241206 0.060007263 0.045220423 -0.0041515203 -0.01867109 -0.03578319
0.05696974 0.022974832 0.057881944 0.0008752469 0.13432616 -0.008689211 0.03318813 -0.008557334
0.0048961826 0.014824983 0.010587478 0.06677998 0.11619116 -0.07859943 -0.0136821605 -0.0041839653
-0.066506 -0.046960905 0.012991521 -0.009321889 -0.017577987 0.023703448 0.028093478 0.026094463
0.014462557 0.020631388 0.021560805 -0.029025204 0.019694434 -0.01070454 -0.009192582 0.0020325356
0.00078489666 -0.042707924 -0.07138452 0.040304385 0.06381757 0.00971901 0.021285286 0.01525501
0.0040479247 0.010247684 0.0176769 0.001159265 0.04304154 0.0021985853 -0.013495634 0.0489617
0.05213238 -0.053244337 -0.0356301 -0.069551766 -0.027461458 -0.017293718 -0.010635074 -0.043987036
0.06776145 0.002052168 0.044990517 -0.05187093 -0.07549731 -0.051659755 -0.02569261 0.008118571
0.01608668 -0.045512605 -0.009240495 0.0074258666 0.0133167375 -0.008885056 0.02482869 0.04544612
0.05789376 -0.010853112 -0.060642254 -0.06616123 -0.049697634 -0.014300772 -0.022083635 -0.016672641
-0.011958131 -0.010226305 -0.07911175 -0.05421038 -0.06677397 -0.00886527 0.0015717665 -0.08166755
0.10458443 0.09971767 -0.006733917 0.10433687 0.056824796 -0.039758526 0.066385 0.0038204605
-0.07033853 -0.07244744 0.053635888 0.031090915 -0.015085408 0.0013311277 -0.08717918 -0.021334125
0.029611127 0.024454372 -0.010833774 -0.01566182 -0.017655356 0.050507195 -0.003423457 -0.08060041
00000000: 415e fbba 3aba 633c 538d e43c d579 643c
00000010: df44 8f3d 3064 12bd 0846 213d 0cdd 513c
00000020: e06c dc3c f7f5 053d f93d 363d ee4f 533d
00000030: cef5 473d 2d7b a2bc 533f ef3c 1980 49bd
00000040: 6a89 abbc a46e b4bc 2339 6dbc f993 c3bc
00000050: d933 a0bd 6994 e73c 5b50 9f3c 4ecd b9bd
00000060: bc28 0e3d e0e1 6bbc 2467 623b 0c8d 023c
00000070: 578d 813b df47 8d3d ea62 5ebd a6a3 273d
00000080: 2ea2 eb3b d5bf 963b 89d7 5d3c 9af4 993b
00000090: 5afc 383b d06e 9ebb ebeb 09bd ed3d 1d3d
000000a0: 28c3 893b 06a2 5ebc 635d 85bd b4e3 253c
000000b0: 917f 0dbc 6bdd 3d3c 0eb5 2abb c80b 6abc
000000c0: a502 23bc cfba 7cbc e578 be3d 0423 b83c
000000d0: 5395 963c 7fd4 bd3c 0675 26bc 7083 403d
000000e0: 28ff 0bbd a4cd 483d 26fc edba c657 e63d
000000f0: f526 91bd 31eb 5e3b d46c 293d a3f5 093d
00000100: 144c b4bc 1ea9 44bd fbb5 9a3b b31e 1cbc
00000110: 98db 313d 51b9 56bc de1e b0bb e075 6b3d
00000120: 69ec 583c 12ba e5bc 2e80 0ebd ec59 8cbc
00000130: f833 5cbc 48ab fcbc 9197 653c fcc7 a93c
00000140: 3268 f83c bc59 743c e736 35bd 0f41 acbb
00000150: e4e7 4f3b 9bbe 9d3c 3cd7 fd3a 1e2f 1cbd
00000160: 6a67 0ebd e214 b1bd df8b 953d 6068 9fbc
00000170: 33d6 e13c 8e37 1c3c 56c6 51bc 330d a8bc
00000180: 8c59 4cbd 1791 f5bc d4a8 efb8 6147 f83b
00000190: 7217 bcbc 5494 3cbc 427a 17bd 98c7 343d
000001a0: e827 91bd e353 843c 2100 54bd 4d89 53bd
000001b0: e186 c73c fcd6 d43c b60d a03d ef09 983c
000001c0: aec7 ba3c c923 81bc c0e2 5fbd b925 24bc
000001d0: d27f 46bd 770f aa3c 0ec7 72bc 6602 6fbd
000001e0: 2f67 d43b 478c ca3d 8da1 c6bc 5ee5 30bd
000001f0: 0e5e d7ba b1ad 3fbd fdfe ca3c 32a9 ffbc
00000200: 848d 653d 01d2 62bd 4c81 4e3d ab9e 4cbc
00000210: c157 4fbd 3604 89bc 3fc0 643d 2457 cf3b
00000220: b849 0abc b425 233c 072c 5ebd 2dca 753d
00000230: 0d39 393d 7a09 88bb 1df4 98bc 6591 12bd
00000240: 1a59 693d b735 bc3c 9e15 6d3d d370 653a
00000250: cc8c 093e 315d 0ebc 47f0 073d 0f34 0cbc
00000260: 2870 a03b 7ce4 723c 1a77 2d3c f1c3 883d
00000270: a2f5 ed3d bdf8 a0bd 242b 60bc a519 89bb
00000280: 4c34 88bd 145a 40bd 63da 543c d6ba 18bc
00000290: b6ff 8fbc bc2d c23c 4b24 e63c 0ec4 d53c
000002a0: 5cf4 6c3c 2803 a93c 49a0 b03c 44c6 edbc
000002b0: 3956 a13c 1862 2fbc 7c9c 16bc 4a34 053b
000002c0: 86c1 4d3a 81ee 2ebd 0c32 92bd 3616 253d
000002d0: c9b2 823d 7c3c 1f3c 7b5e ae3c 26f0 793c
000002e0: 74a4 843b e7e5 273c 25cf 903c 7bf2 973a
000002f0: 534c 303d 2416 103b cb1c 5dbc 108c 483d
00000300: c388 553d bc16 5abd def0 11bd 2871 8ebd
00000310: daf6 e0bc 8eab 8dbc bc3e 2ebc c02b 34bd
00000320: 84c6 8a3d aa7d 063b fa47 383d 9d76 54bd
00000330: 559e 9abd 2e99 53bd 4f79 d2bc c103 053c
00000340: 37c8 833c 6d6b 3abd 7265 17bc af54 f33b
00000350: 722e 5a3c a092 11bc 8965 cb3c b625 3a3d
00000360: 0222 6d3d 40d1 31bc 0364 78bd 8a7f 87bd
00000370: bf8f 4bbd c94d 6abc bde8 b4bc 1095 88bc
00000380: 09ec 43bc 3b8c 27bc 5705 a2bd b40b 5ebd
00000390: cbc0 88bd a33f 11bc bb03 ce3a 5141 a7bd
000003a0: 5d30 d63d c738 cc3d 31a8 dcbb 92ae d53d
000003b0: 1ec1 683d d6d9 22bd dcf4 873d b160 7a3b
000003c0: a60d 90bd 535f 94bd 4eb1 5b3d 60b2 fe3c
000003d0: ca28 77bc 3c79 ae3a ff8a b2bd e7c4 aebc
000003e0: 0993 f23c 8954 c83c 2480 31bc 384d 80bc
000003f0: f7a1 90bc a2e0 4e3d 145c 60bb d411 a5bd

model.model.decoder.layers.0.msr.WO f4 [32, 32]
0.23937714 -0.031601146 -0.07167961 0.14426059 0.0504495 -0.107798785 -0.09065813 -0.14908937
0.04468921 -0.10221913 0.13511454 0.040743846 -0.30724323 0.1010625 -0.013149266 -0.31557718
-0.076697566 0.2310855 -0.12359329 -0.050547257 0.027269807 -0.1790115 0.06864673 -0.02156285
-0.16718364 0.22717123 -0.027637027 -0.15545203 -0.14801994 0.0865061 -0.17142202 -0.09500693
-0.015323654 0.35635707 -0.104333766 0.18698816 -0.061658595 -0.1194862 -0.3097103 -0.2162992
0.008392436 -0.051081125 -0.01700163 0.34148675 -0.08609947 -0.11454259 0.32765424 -0.10087708
-0.13908054 -0.6479906 -0.12579371 0.058522012 -0.061784837 -0.11110199 0.18899666 -0.005268037
-0.087953225 0.03043597 0.06674422 -0.08276676 -0.08546959 0.18347088 -0.073094465 0.09288023
0.08643713 0.07840335 -0.16343777 -0.0646621 -0.26682588 -0.0030346722 -0.025952853 0.15075338
-0.21441087 0.13830121 0.27209628 0.20361449 -0.05084753 0.05882177 0.15671343 0.048028316
0.20987943 -0.0786193 0.13815852 -0.11197294 -0.0894524 -0.09615967 -0.16424319 -0.4556303
0.33908835 -0.1832313 -0.009362526 0.08480327 -0.2617772 -0.14291093 0.05732678 -0.48107314
0.09021403 -0.11525417 -0.3279299 0.036400903 0.26202393 -0.23696952 0.13787986 -0.09065584
0.0069385716 0.4516149 -0.1282484 0.12771706 0.21815073 0.20733877 -0.13866208 -0.2876672
-0.18964083 -0.075822726 0.25222206 -0.22825104 -0.11430817 0.10542463 0.113950595 0.09593448
-0.26965788 0.28454903 -0.07732155 0.18244016 0.0007714435 0.030184224 0.27185598 0.015950507
-0.0041993377 0.257269 -0.43353614 0.061424304 0.3001705 0.016020173 -0.15981986 0.1656397
-0.047612343 -0.12765385 -0.29975855 0.09105048 -0.27885014 0.08355101 0.31446865 0.12318585
-0.034553327 0.29520765 -0.1888343 -0.19348487 0.10963606 0.23719597 0.024306245 -0.023286073
-0.1847414 0.13910727 0.41623884 -0.23469082 -0.11975598 0.215929 -0.20133601 -0.18262379
0.2844583 -0.19583456 -0.21334353 0.14703724 -0.16573958 -0.33148998 -0.12384677 0.006231186
0.16343671 -0.17308205 -0.084332354 -0.12093695 -0.15268673 -0.11751996 -0.04016224 -0.16578947
-0.22523965 0.066134416 -0.0010082047 -0.1751156 -0.028042264 0.043915033 0.22959468 0.07679744
0.05573878 0.23631775 0.04684925 0.15157004 -0.029005898 -0.16114701 0.028786968 -0.037505507
0.31512645 0.1918691 -0.10406372 0.014060651 -0.025768984 0.22964013 -0.1403158 -0.19536681
0.14332323 -0.09579686 -0.39854124 -0.12075535 0.27110705 0.18050319 -0.24658208 -0.016710212
0.17619957 0.12175797 -0.20771344 0.12435089 -0.12850533 -0.03141436 -0.19467877 0.31255305
-0.25171134 -0.1595885 -0.07560798 -0.17524618 -0.1525389 0.22623487 0.24123184 -0.03129421
-0.007947484 -0.17270906 -0.1512847 0.020387227 0.1100429 -0.09928016 -0.07201617 0.11037937
-0.038215265 0.05787303 -0.40242648 -0.092074275 -0.30671763 -0.19861138 0.26996562 -0.19099742
-0.24023648 0.074210934 0.2342766 0.084175654 -0.06900476 0.08394429 -0.22557856 -0.2855054
-0.18632099 0.07146886 -0.06531908 -0.046686567 0.10581175 -0.066737644 -0.258828 0.24099293
00000000: 481f 753e 3470 01bd c2cc 92bd 0cb9 133e
00000010: 23a4 4e3d 9cc5 dcbd f8aa b9bd e2aa 18be
00000020: 080c 373d 4358 d1bd 775b 0a3e 05e3 263d
00000030: fc4e 9dbe dbf9 ce3d 0570 57bc 5593 a1be
00000040: 9d13 9dbd ada1 6c3e 7b1e fdbd a40a 4fbd
00000050: ee64 df3c ca4e 37be a896 8c3d 93a4 b0bc
00000060: 3032 2bbe 939f 683e 0c67 e2bc d12e 1fbe
00000070: 8a92 17be 1c2a b13d 4189 2fbe fe92 c2bd
00000080: 1010 7bbc 6f74 b63e f1ac d5bd d379 3f3e
00000090: b98d 7cbd 2eb5 f4bd 5992 9ebe 8a7d 5dbe
000000a0: 6e80 093c 713a 51bd 0147 8bbc 5ad7 ae3e
000000b0: eb54 b0bd 4e95 eabd 4cc2 a73e a498 cebd
000000c0: 216b 0ebe b6e2 25bf 11d0 00be c7b4 6f3d
000000d0: 1912 7dbd 7189 e3bd 5788 413e 7f9f acbb
000000e0: d220 b4bd db54 f93c 32b1 883d 9e81 a9bd
000000f0: ae0a afbd cadf 3b3e 8db2 95bd fd37 be3d
00000100: f305 b13d f091 a03d 3b5c 27be 906d 84bd
00000110: 679d 88be 5ae1 46bb 149b d4bc 185f 1a3e
00000120: 868e 5bbe d59e 0d3e 3450 8b3e 5180 503e
00000130: 8045 50bd 19ef 703d 7c79 203e 57b9 443d
00000140: a2ea 563e 2803 a1bd 6d79 0d3e 1252 e5bd
00000150: d232 b7bd 5cef c4bd 5e2f 28be 6048 e9be
00000160: fd9c ad3e fca0 3bbe 4865 19bc 56ad ad3d
00000170: a907 86be 3e57 12be 7ccf 6a3d 384f f6be
00000180: 22c2 b83d 610a ecbd 6ee6 a7be 1d19 153d
00000190: 0028 863e 23a8 72be 6130 0d3e c5a9 b9bd
000001a0: f55c e33b 113a e73e 8c53 03be 43c8 023e
000001b0: e862 5f3e 9d50 543e 6ffd 0dbe 1e49 93be
000001c0: 3531 42be f248 9bbd 4023 813e a4ba 69be
000001d0: 671a eabd dee8 d73d ee5e e93d 4c79 c43d
000001e0: 9910 8abe 69b0 913e c35a 9ebd 98d1 3a3e
000001f0: b23a 4a3a e844 f73c b530 8b3e a3aa 823c
00000200: 999a 89bb c3b8 833e 73f8 ddbe 0d98 7b3d
00000210: f3af 993e bd3c 833c d1a7 23be 749d 293e
00000220: 2905 43bd b1b7 02be f479 99be ad78 ba3d
00000230: 72c5 8ebe cb1c ab3d 0902 a13e dd48 fc3d
00000240: ca87 0dbd 7525 973e c75d 41be e620 46be
00000250: df88 e03d 80e3 723e e41d c73c 6fc2 bebc
00000260: d92c 3dbe 2372 0e3e 421d d53e ca52 70be
00000270: a042 f5bd 7e1c 5d3e 072b 4ebe bb01 3bbe
00000280: 85a4 913e db88 48be ba76 5abe ee90 163e
00000290: a3b7 29be 0eb9 a9be 60a3 fdbd fa2e cc3b
000002a0: f45b 273e 6c3c 31be 71b6 acbd cbad f7bd
000002b0: e959 1cbe 4eae f0bd 2981 24bd b7c4 29be
000002c0: 39a5 66be 7b71 873d bc25 84ba 8151 33be
000002d0: e4b8 e5bc 40e0 333d de1a 6b3e fa47 9d3d
000002e0: 594e 643d 48fd 713e 00e5 3f3d 2d35 1b3e
000002f0: c79d edbc b903 25be a6d2 eb3c 609f 19bd
00000300: 4158 a13e 5579 443e 5c1f d5bd a55e 663c
00000310: 7a19 d3bc c826 6b3e f2ae 0fbe 3d0e 48be
00000320: 53c3 123e 2531 c4bd 990d ccbe 954e f7bd
00000330: 8bce 8a3e d4d5 383e 0380 7cbe dbe3 88bc
00000340: a96d 343e 3e5c f93d d5b2 54be aeab fe3d
00000350: e796 03be 58ac 00bd df59 47be f406 a03e
00000360: 4fe0 80be 2b6b 23be 5bd8 9abd bc73 33be
00000370: 2833 1cbe 1daa 673e 7b05 773e 5c2e 00bd
00000380: 2a36 02bc a5da 30be 60ea 1abe 1d03 a73c
00000390: 2c5e e13d 6653 cbbd 377d 93bd 940e e23d
000003a0: 9c87 1cbd 450c 6d3d d80a cebe 7091 bcbd
000003b0: 180a 9dbe c860 4bbe ef38 8a3e d494 43be
000003c0: 8d00 76be e7fb 973d 34e6 6f3e 4964 ac3d
000003d0: 5e52 8dbd fcea ab3d 11fe 66be c42d 92be
000003e0: eeca 3ebe 445e 923d 03c6 85bd 6a3a 3fbd
000003f0: d5b3 d83d bfad 88bd 1b85 84be dac6 763e

model.model.decoder.layers.0.msr.WG f4 [32, 32]
0.15422064 -0.14075896 -0.11757471 -0.07440066 -0.20294185 -0.00032136097 -0.4019975 0.07417763
0.064243145 0.028441343 -0.20339042 -0.2656328 -0.12217173 0.15575586 -0.28624797 -0.07789985
-0.10634331 -0.1140097 -0.28068137 -0.21958843 -0.006572669 0.017910933 -0.15044823 -0.043380193
0.009507711 0.053471103 0.081044294 0.035315566 -0.007628048 0.052575763 -0.15295014 0.1027166
-0.04697285 0.13120177 -0.20298852 0.16009937 0.14306155 0.17579833 -0.033956565 -0.14708826
0.38160518 -0.26194108 0.018701645 0.4777073 -0.016201496 0.24165078 0.0122202365 -0.16035831
0.028717874 -0.15506798 0.11664291 -0.43749532 0.30051422 0.2076438 -0.066461794 0.089690685
-0.027701333 0.11876638 -0.12264755 0.08918306 -0.21974441 0.15057349 0.0010329821 0.08718495
-0.24026863 0.11205979 0.09642438 0.02104667 -0.20550391 -0.16525453 -0.14409375 -0.11194225
0.11796207 -0.08432471 0.035888776 -0.09610658 0.23873752 -0.17828903 0.0717189 0.07108448
-0.104756206 0.03548652 -0.0060020857 0.12424252 0.11020771 -0.19651972 0.17756902 0.06788675
0.116715506 0.12948841 -0.2014132 -0.07919922 -0.27173197 -0.12645528 0.0582809 -0.04275868
0.03118927 -0.18419175 0.18698245 0.066422746 0.20762305 -0.116811454 0.09503486 -0.026737751
-0.041322336 0.1392199 -0.19499613 0.17366269 -0.12114376 0.06523666 -0.015455515 0.27791247
-0.013306008 -0.054839227 -0.14208846 0.17073943 0.04040352 0.15354963 0.07430501 -0.090624176
0.108698495 -0.10741464 -0.30967656 0.4109973 0.22868304 -0.42009574 -0.0016358591 0.090223566
-0.07320806 -0.044113185 0.2380612 -0.002925814 -0.03470279 -0.20773879 -0.06303873 0.009135837
0.21571799 -0.029038727 -0.15450518 -0.21366587 -0.27235416 0.0420329 0.14532869 -0.14925818
-0.24141757 -0.33080906 0.08056 -0.14868592 -0.07193952 -0.2561301 -0.097592376 -0.10999192
0.10586086 -0.091593 -0.09279295 -0.100427635 0.12381962 -0.17834504 0.20231548 0.13444178
0.107459135 0.02582035 -0.21078557 -0.060952354 0.12036282 -0.21307282 -0.2303124 -0.119071536
-0.15672082 -0.019977856 0.1975757 0.39426845 -0.07094218 0.061492167 -0.11795002 0.05140465
0.061381064 -0.18571484 -0.22081481 0.1287567 0.00017406349 0.32357743 0.0017779736 0.08464633
0.32692122 0.18496642 0.12368497 -0.05324941 0.10349782 -0.2797114 0.3597935 -0.007258144
-0.22218396 -0.09874919 0.109064646 0.091436386 -0.17143075 -0.12937982 0.11158517 0.060901493
-0.104786426 -0.35809267 -0.31746644 -0.11091599 0.150238 0.028187657 0.08971202 -0.12045085
-0.29412127 -0.04459269 -0.33558297 -0.09226582 -0.044347484 -0.20970953 -0.051446714 0.01230432
-0.038945798 0.15704092 -0.25490406 -0.19329318 0.021196047 -0.046659756 0.2913474 0.37237516
-0.23084307 0.03626528 -0.049558487 0.07866174 0.059141126 0.16111065 0.012094871 -0.036875386
0.37972206 0.05946793 0.06213241 -0.13098468 0.21521458 0.17895973 0.02214545 -0.015202345
-0.05056705 -0.3961862 0.28438696 0.09846029 -0.13362251 0.27910018 0.21835998 0.08081281
-0.2187421 -0.05595159 0.18331945 0.037207928 0.0786136 -0.09881779 -0.047093663 -0.22993463
00000000: 04ec 1d3e 1e23 10be 02cb f0bd 605f 98bd
00000010: fdcf 4fbe 577c a8b9 9ed2 cdbe 71ea 973d
00000020: e991 833d d2fd e83c 9445 50be 0601 88be
00000030: 2c35 fabd 777e 1f3e 188f 92be f589 9fbd
00000040: 85ca d9bd eb7d e9bd 78b5 8fbe cadb 60be
00000050: 8b5f d7bb f3b9 923c 1a0f 1abe 6eaf 31bd
00000060: 3bc6 1b3c 8404 5b3d 8dfa a53d 0ea7 103d
00000070: b4f4 f9bb af59 573d f69e 1cbe 155d d23d
00000080: 9a66 40bd c259 063e 39dc 4fbe 17f1 233e
00000090: ba7e 123e 7a04 343e 0a16 0bbd 4e9e 16be
000000a0: c161 c33e 241d 86be 3134 993c 0d96 f43e
000000b0: 00b9 84bc 4d73 773e 6337 483c f834 24be
000000c0: bf41 eb3c 24ca 1ebe 7ae2 ee3d 63ff dfbe
000000d0: 00dd 993e 94a0 543e 1f1d 88bd c0af b73d
000000e0: e8ed e2bc ca3b f33d a42e fbbd 9ca5 b63d
000000f0: ae04 61be f02f 1a3e 2165 873a 068e b23d
00000100: fb08 76be 9a7f e53d 257a c53d 116a ac3c
00000110: 9e6f 52be 7c38 29be 508d 13be fa41 e5bd
00000120: 1996 f13d 6fb2 acbd 1c00 133d 87d3 c4bd
00000130: 9c77 743e 6691 36be 5ce1 923d bd94 913d
00000140: 6c8a d6bd 505a 113d 25ad c4bb dd72 fe3d
00000150: 94b4 e13d 773c 49be a7d4 353e 3508 8b3d
00000160: 8a08 ef3d 9c98 043e 433f 4ebe 3333 a2bd
00000170: 7420 8bbe 7e7d 01be f4b7 6e3d ba23 2fbd
00000180: a480 ff3c c39c 3cbe 5478 3f3e a608 883d
00000190: 239b 543e d83a efbd a3a1 c23d 2109 dbbc
000001a0: 9c41 29bd a98f 0e3e 11ad 47be a2d4 313e
000001b0: 381a f8bd cc9a 853d 2139 7dbc 8b4a 8e3e
000001c0: 7101 5abc 199f 60bd a37f 11be 51d6 2e3e
000001d0: 297e 253d 1d3c 1d3e 3a2d 983d 2b99 b9bd
000001e0: 519d de3d 35fc dbbd ed8d 9ebe 3d6e d23e
000001f0: e32b 6a3e ca16 d7be 536a d6ba 22c7 b83d
00000200: 1bee 95bd 07b0 34bd 51c6 733e 03bf 3fbb
00000210: 8324 0ebd 7ab9 54be 731a 81bd 7aae 153c
00000220: 2de5 5c3e a0e2 edbc 9b36 1ebe 3acb 5abe
00000230: 0172 8bbe b12a 2c3d 0bd1 143e 23d7 18be
00000240: 2b36 77be ce5f a9be a4fc a43d 1f41 18be
00000250: 0755 93bd 7c23 83be 83de c7bd 7243 e1bd
00000260: 94cd d83d 1c95 bbbd 3b0a bebd 01ad cdbd
00000270: 2495 fd3d 15a0 36be ca2b 4f3e 1bab 093e
00000280: 8913 dc3d 3385 d33c 2cd8 57be 2da9 79bd
00000290: c880 f63d c32f 5abe 04d7 6bbe c7db f3bd
000002a0: 6c7b 20be 9aa8 a3bc 4951 4a3e 8edd c93e
000002b0: 224a 91bd 36df 7b3d c88f f1bd af8d 523d
000002c0: b66a 7b3d 082c 3ebe 471d 62be ccd8 033e
000002d0: d084 3639 f1ab a53e e50a e93a 0e5b ad3d
000002e0: 3862 a73e d667 3d3e 8c4e fd3d 0e1c 5abd
000002f0: aaf6 d33d 5536 8fbe db36 b83e bad5 edbb
00000300: 3184 63be 043d cabd 495d df3d 0043 bb3d
00000310: 8b8b 2fbe 257c 04be c486 e43d d873 793d
00000320: 449a d6bd ec57 b7be f68a a2be ec27 e3bd
00000330: fed7 193e cde9 e63c efba b73d efae f6bd
00000340: 1097 96be d3a6 36bd 88d1 abbe ddf5 bcbd
00000350: b5a5 35bd 18be 56be cab9 52bd 0f98 493c
00000360: a185 1fbd 56cf 203e c982 82be a6ee 45be
00000370: 55a3 ad3c 4d1e 3fbd 7d2b 953e f5a7 be3e
00000380: 2062 6cbe e78a 143d d7fd 4abd 6819 a13d
00000390: f73d 723d 31fa 243e 9129 463c a50a 17bd
000003a0: ee6a c23e a594 733d 8e7e 7e3d d920 06be
000003b0: 3661 5c3e 3841 373e 606a b53c 4213 79bc
000003c0: 651f 4fbd ebd8 cabe 2b9b 913e 8ca5 c93d
000003d0: 57d4 08be 38e6 8e3e c299 5f3e 3081 a53d
000003e0: eefd 5fbe 7f2d 65bd 18b8 3b3e 5767 183d
000003f0: 2b00 a13d fb60 cabd 49e5 40bd fc73 6bbe

model.model.decoder.layers.0.msr.state f4 [1, 1, 32, 32]
0.0 0.0 0.0 0.0 0.0 0.0 0.0 0.0
0.0 0.0 0.0 0.0 0.0 0.0 0.0 0.0
0.0 0.0 0.0 0.0 0.0 0.0 0.0 0.0
0.0 0.0 0.0 0.0 0.0 0.0 0.0 0.0
0.0 0.0 0.0 0.0 0.0 0.0 0.0 0.0
0.0 0.0 0.0 0.0 0.0 0.0 0.0 0.0
0.0 0.0 0.0 0.0 0.0 0.0 0.0 0.0
0.0 0.0 0.0 0.0 0.0 0.0 0.0 0.0
0.0 0.0 0.0 0.0 0.0 0.0 0.0 0.0
0.0 0.0 0.0 0.0 0.0 0.0 0.0 0.0
0.0 0.0 0.0 0.0 0.0 0.0 0.0 0.0
0.0 0.0 0.0 0.0 0.0 0.0 0.0 0.0
0.0 0.0 0.0 0.0 0.0 0.0 0.0 0.0
0.0 0.0 0.0 0.0 0.0 0.0 0.0 0.0
0.0 0.0 0.0 0.0 0.0 0.0 0.0 0.0
0.0 0.0 0.0 0.0 0.0 0.0 0.0 0.0
0.0 0.0 0.0 0.0 0.0 0.0 0.0 0.0
0.0 0.0 0.0 0.0 0.0 0.0 0.0 0.0
0.0 0.0 0.0 0.0 0.0 0.0 0.0 0.0
0.0 0.0 0.0 0.0 0.0 0.0 0.0 0.0
0.0 0.0 0.0 0.0 0.0 0.0 0.0 0.0
0.0 0.0 0.0 0.0 0.0 0.0 0.0 0.0
0.0 0.0 0.0 0.0 0.0 0.0 0.0 0.0
0.0 0.0 0.0 0.0 0.0 0.0 0.0 0.0
0.0 0.0 0.0 0.0 0.0 0.0 0.0 0.0
0.0 0.0 0.0 0.0 0.0 0.0 0.0 0.0
0.0 0.0 0.0 0.0 0.0 0.0 0.0 0.0
0.0 0.0 0.0 0.0 0.0 0.0 0.0 0.0
0.0 0.0 0.0 0.0 0.0 0.0 0.0 0.0
0.0 0.0 0.0 0.0 0.0 0.0 0.0 0.0
0.0 0.0 0.0 0.0 0.0 0.0 0.0 0.0
0.0 0.0 0.0 0.0 0.0 0.0 0.0 0.0
00000000: 0000 0000 0000 0000 0000 0000 0000 0000
00000010: 0000 0000 0000 0000 0000 0000 0000 0000
00000020: 0000 0000 0000 0000 0000 0000 0000 0000
00000030: 0000 0000 0000 0000 0000 0000 0000 0000
00000040: 0000 0000 0000 0000 0000 0000 0000 0000
00000050: 0000 0000 0000 0000 0000 0000 0000 0000
00000060: 0000 0000 0000 0000 0000 0000 0000 0000
00000070: 0000 0000 0000 0000 0000 0000 0000 0000
00000080: 0000 0000 0000 0000 0000 0000 0000 0000
00000090: 0000 0000 0000 0000 0000 0000 0000 0000
000000a0: 0000 0000 0000 0000 0000 0000 0000 0000
000000b0: 0000 0000 0000 0000 0000 0000 0000 0000
000000c0: 0000 0000 0000 0000 0000 0000 0000 0000
000000d0: 0000 0000 0000 0000 0000 0000 0000 0000
000000e0: 0000 0000 0000 0000 0000 0000 0000 0000
000000f0: 0000 0000 0000 0000 0000 0000 0000 0000
00000100: 0000 0000 0000 0000 0000 0000 0000 0000
00000110: 0000 0000 0000 0000 0000 0000 0000 0000
00000120: 0000 0000 0000 0000 0000 0000 0000 0000
00000130: 0000 0000 0000 0000 0000 0000 0000 0000
00000140: 0000 0000 0000 0000 0000 0000 0000 0000
00000150: 0000 0000 0000 0000 0000 0000 0000 0000
00000160: 0000 0000 0000 0000 0000 0000 0000 0000
00000170: 0000 0000 0000 0000 0000 0000 0000 0000
00000180: 0000 0000 0000 0000 0000 0000 0000 0000
00000190: 0000 0000 0000 0000 0000 0000 0000 0000
000001a0: 0000 0000 0000 0000 0000 0000 0000 0000
000001b0: 0000 0000 0000 0000 0000 0000 0000 0000
000001c0: 0000 0000 0000 0000 0000 0000 0000 0000
000001d0: 0000 0000 0000 0000 0000 0000 0000 0000
000001e0: 0000 0000 0000 0000 0000 0000 0000 0000
000001f0: 0000 0000 0000 0000 0000 0000 0000 0000
00000200: 0000 0000 0000 0000 0000 0000 0000 0000
00000210: 0000 0000 0000 0000 0000 0000 0000 0000
00000220: 0000 0000 0000 0000 0000 0000 0000 0000
00000230: 0000 0000 0000 0000 0000 0000 0000 0000
00000240: 0000 0000 0000 0000 0000 0000 0000 0000
00000250: 0000 0000 0000 0000 0000 0000 0000 0000
00000260: 0000 0000 0000 0000 0000 0000 0000 0000
00000270: 0000 0000 0000 0000 0000 0000 0000 0000
00000280: 0000 0000 0000 0000 0000 0000 0000 0000
00000290: 0000 0000 0000 0000 0000 0000 0000 0000
000002a0: 0000 0000 0000 0000 0000 0000 0000 0000
000002b0: 0000 0000 0000 0000 0000 0000 0000 0000
000002c0: 0000 0000 0000 0000 0000 0000 0000 0000
000002d0: 0000 0000 0000 0000 0000 0000 0000 0000
000002e0: 0000 0000 0000 0000 0000 0000 0000 0000
000002f0: 0000 0000 0000 0000 0000 0000 0000 0000
00000300: 0000 0000 0000 0000 0000 0000 0000 0000
00000310: 0000 0000 0000 0000 0000 0000 0000 0000
00000320: 0000 0000 0000 0000 0000 0000 0000 0000
00000330: 0000 0000 0000 0000 0000 0000 0000 0000
00000340: 0000 0000 0000 0000 0000 0000 0000 0000
00000350: 0000 0000 0000 0000 0000 0000 0000 0000
00000360: 0000 0000 0000 0000 0000 0000 0000 0000
00000370: 0000 0000 0000 0000 0000 0000 0000 0000
00000380: 0000 0000 0000 0000 0000 0000 0000 0000
00000390: 0000 0000 0000 0000 0000 0000 0000 0000
000003a0: 0000 0000 0000 0000 0000 0000 0000 0000
000003b0: 0000 0000 0000 0000 0000 0000 0000 0000
000003c0: 0000 0000 0000 0000 0000 0000 0000 0000
000003d0: 0000 0000 0000 0000 0000 0000 0000 0000
000003e0: 0000 0000 0000 0000 0000 0000 0000 0000
000003f0: 0000 0000 0000 0000 0000 0000 0000 0000

model.model.decoder.layers.0.msr.gn.gn.weight f4 [32]
0.9890681 0.98966575 0.99117875 0.98208433 1.0106926 1.0015188 0.9860086 0.99774754
1.0075032 1.010318 1.0092702 0.9893425 0.99612784 0.9875902 1.0058349 0.9859041
0.988109 1.0121366 0.9992903 1.0002742 0.9909411 1.0013319 1.0013436 1.000873
0.9918101 0.9992228 0.99647015 0.9825724 0.9887166 0.9896672 1.0117319 0.990697
00000000: 9133 7d3f bc5a 7d3f e4bd 7d3f e169 7b3f
00000010: 605e 813f c531 803f 0f6b 7c3f 626c 7f3f
00000020: ddf5 803f 1a52 813f c42f 813f 8d45 7d3f
00000030: 3c02 7f3f b6d2 7c3f 33bf 803f 3664 7c3f
00000040: b6f4 7c3f b18d 813f 7dd1 7f3f fc08 803f
00000050: 51ae 7d3f a52b 803f 072c 803f 9b1c 803f
00000060: 44e7 7d3f 11cd 7f3f ab18 7f3f dd89 7b3f
00000070: 881c 7d3f d45a 7d3f 6e80 813f 529e 7d3f

model.model.decoder.layers.0.msr.gn.gn.bias f4 [32]
0.0061028493 -0.0039215325 -0.0044753905 -0.014871316 -0.012487218 -0.006343191 0.010739473 -0.002124819
0.012033945 0.003996582 0.008503948 -0.004719978 -0.0039709355 0.005206765 -0.008079468 -0.0067717712
0.009855732 -0.013608857 0.02128065 0.0003169173 -0.0032488608 0.001086297 -0.0063501643 0.00788544
-0.0061259107 -0.003855044 -0.0051844735 0.008232177 -0.0021536914 -0.002962286 0.0038126076 0.0050329072
00000000: 69fa c73b 3380 80bb 4ca6 92bb d2a6 73bc
00000010: 3097 4cbc 8bda cfbb 9df4 2f3c 8c40 0bbb
00000020: 062a 453c c2f5 823b 2554 0b3c 0caa 9abb
00000030: 9f1e 82bb 839d aa3b bf5f 04bc bce5 ddbb
00000040: f079 213c aff7 5ebc c254 ae3c ec27 a639
00000050: d7ea 54bb 1462 8e3a 0a15 d0bb ef31 013c
00000060: ddbb c8bb e8a4 7cbb 84e2 a9bb 41e0 063c
00000070: f224 0dbb e922 42bb f1dc 793b 16eb a43b
