lightning_logs/version_49/checkpoints/epoch=9-step=250.ckpt (torch, 181901 bytes, 50 tensors)

model.model.pos f4 [12, 32]
00000000: 4fee 6e3e b1b2 d23d db7e 8c3c 99f3 b6be
00000010: 1863 2a3d 68c0 b2be 2184 9fbd 7003 b3be
00000020: 2893 b93d 25a2 493e 242f 1dbe 69f9 edbd
00000030: 36c2 953e dce4 adbe fc16 47be ee11 b93e
00000040: d22a bc3b 7503 b7bd 74e0 97be 083a bcbd
00000050: 8e46 4dbe 219b b3bd c6c5 673e aec6 7e3e
00000060: c1a8 97be 349a 633e 2924 1f3e b7af 9abe
00000070: 5d7c 2ebe 3d87 003d 0828 1d3d 40ad 983e
00000080: 495f 9dbe 7286 fb3c 2e0b 203e 044a e3bc
00000090: 1533 19be 08e2 4dbd 90fc b83e cd97 a0be
000000a0: 0d56 0cbc 87ec 923e b65e cbbd 83fa a73e
000000b0: b372 60be b529 80be 1e70 81be bfd1 23be
000000c0: 5011 053e 236d 9abe 89ab 153d bb0b 4a3d
000000d0: d1d2 4abd be9f 5e3e 7207 81be 2f42 9c3e
000000e0: 6041 8b3e b8d4 e23d 30e5 4ebe b262 a43e
000000f0: d797 aabe db25 37be 59b0 1b3d 8abf b5bd
00000100: be52 09bc bbdf 45be 18e8 d3bd fda9 bcbd
00000110: f793 903e cc3a 1c3e 4532 acbd cae5 8b3e
00000120: 7992 b73e a77d 06be 455e 16be 0bf7 5b3e
00000130: 879d 903c f555 48be 0038 a5be 999d 8b3a
00000140: e91a 0ebc 7778 b23e bb30 fd3b 8dfb a6bd
00000150: 2068 ad3e d62c 8a3e 3c2e 90bd c36e eabb
00000160: f8aa 8d3e 60d5 0abe cc90 953e c8a7 1cbe
00000170: e068 adbe 5291 69be d807 ff3c 104d a23e
00000180: 3243 87be 56ef 1abe 26d4 b2bb 2965 a7be
00000190: ef86 873d 338b bb3e 49c5 16be 9b86 80be
000001a0: b80c 93be 1a42 6fbd 2f3e 98be 3581 3abd
000001b0: b428 743e 1b37 b8be 04c5 a73e b78b babe
000001c0: 7359 863d e6f4 e9bd 228b 0cbd 5ec9 afbe
000001d0: 0763 533e 1374 bc3d 8a3e 95be 8763 17be
000001e0: 0709 973e a5a9 aa3d 9b3b 973e de5c 7abd
000001f0: c742 e9bb a578 9a3d 9d1f 453e 13fc 8abe
00000200: 70b5 96be 46ea a93e 8b21 ad3e 72a7 693e
00000210: 8a94 973e 30e4 0f3e 8e33 d03d 78c7 7c3d
00000220: 7b75 5a3d 2c7a 973d ad4d a9be 5a4d af3e
00000230: 30c5 9f3e 79b5 31bc 79f3 a23d f200 9b3e
00000240: dd0c 8bbe 3354 bcbe e05a 463d deba 97be
00000250: 3115 a73e 90fe 64be 59b6 7ebc 0ed4 9f3d
00000260: 9488 2f3e 3bb9 5e3e f45e 153e 7323 0bbe
00000270: fc08 533c a119 a7be 7e87 593e 4dd0 86bc
00000280: 3959 753e 8821 873e f6ad 3fbe 0f94 ae3e
00000290: efef 0cbc 706f 8fbe e17d 1fbe 4c69 0d3e
000002a0: fbb2 e0bb a339 4e3e 046e 49be a090 f6bd
000002b0: 39d5 9ebd 349b e23d c867 273e 099d 663e
000002c0: 9644 dbbc 9d31 b8be eb05 3c3e a2e8 343e
000002d0: dd34 e2bd 7424 6d3e 65de 243c 5a1c 61bd
000002e0: c675 0d3d 0fe0 d23d d124 b33e 629f 48be
000002f0: 0224 99be d2c4 f3bd 7491 a3be fb44 39be
00000300: 4894 27be 1447 a7bd 6101 4dbe 2ad4 27bd
00000310: bebb 9b3d aff2 ffbd c7c8 adbe 5082 b5be
00000320: 326f eb3c 48fa 96bd 034c 563e 32b8 3fbc
00000330: 8bf6 f83d 1b7c 13be 418d 213e 2b2f 65be
00000340: 2208 45be 487e bbbd a550 983d ea71 b23c
00000350: b709 333e 64bb ca3d e38d 64be 4b8c 993e
00000360: fba4 ff3d 0810 4a3e 6937 333d 32fd a0be
00000370: d99d b4be a722 4abe 0d90 77be 37ab e2bd
00000380: 2555 b7be f260 553e 28af cf3d ef52 843e
00000390: e6dd b53d b7ea 4e3e 9c63 1e3d c983 8ebd
000003a0: 4da2 b73e 058e fd3d cc2b 6c3e 940a 873e
000003b0: 5ead 95be 1e8c 3e3e 8bc1 a8be fb1e a5be
000003c0: a87e cfbd b609 77be de0a 5d3e a5d1 3f3e
000003d0: 2d29 9dbe c80f aabb 2741 a03e 4848 41bd
000003e0: 431b 9b3e cbe8 8abe d377 803e 816a 163e
000003f0: 039c 253e c1a2 62be 0e01 5f3e 6bf3 2abe
0.23333095 0.10287989 0.017150333 -0.35732725 0.04159841 -0.3491242 -0.077888735 -0.3496356
0.09061271 0.1969076 -0.15350014 -0.11619837 0.29249734 -0.33963668 -0.19442362 0.36146492
0.0057424093 -0.08936206 -0.29663432 -0.09190756 -0.20046446 -0.08769823 0.22634038 0.24880478
-0.29620937 0.22226793 0.15541138 -0.30212185 -0.17039628 0.031378973 0.038368255 0.2981968
-0.3073676 0.030703757 0.15629265 -0.027745254 -0.14960892 -0.05026439 0.3613019 -0.31365815
-0.008565438 0.2869608 -0.09930174 0.32808313 -0.21918754 -0.2503182 -0.2528085 -0.1599798
0.12994885 -0.3016139 0.03654054 0.049327593 -0.049517456 0.21740624 -0.25200993 0.30519244
0.27198315 0.11075729 -0.20204616 0.3210655 -0.3331897 -0.17885534 0.038009975 -0.08874424
-0.008381544 -0.19323628 -0.10347003 -0.0921211 0.28237888 0.15256804 -0.08408026 0.27323753
0.35853937 -0.1313387 -0.14684398 0.21480958 0.01765324 -0.1956404 -0.32269287 0.0010651826
-0.008673408 0.34857532 0.0077267564 -0.08153448 0.33868504 0.26987332 -0.070400685 -0.007154317
0.276695 -0.13557959 0.29212034 -0.15298378 -0.33869076 -0.22809342 0.03113167 0.3169942
-0.26418453 -0.15130362 -0.005457419 -0.32694367 0.066175334 0.36629638 -0.14723696 -0.25102696
-0.2872064 -0.05841265 -0.29734942 -0.045533378 0.23843652 -0.35979542 0.32767498 -0.3643472
0.0656003 -0.11423664 -0.034312375 -0.34333318 0.20643245 0.09201827 -0.29149276 -0.1478406
0.29499075 0.083331384 0.29537663 -0.06112372 -0.007118556 0.07542542 0.19250341 -0.27145442
-0.294353 0.3318655 0.33814654 0.22817782 0.29605514 0.1405189 0.10166083 0.061713666
0.053334694 0.07396349 -0.33067074 0.34238702 0.3120513 -0.010846489 0.07956595 0.3027416
-0.2715825 -0.3678299 0.04842651 -0.29634756 0.32633355 -0.22362733 -0.015546405 0.07804118
0.17141944 0.21750347 0.14587003 -0.13587742 0.01288056 -0.3263674 0.21243092 -0.016456747
0.23959817 0.2639277 -0.18718705 0.34097335 -0.0086021265 -0.28014708 -0.15575363 0.13809699
-0.0068572736 0.20139174 -0.19670874 -0.12039304 -0.07755513 0.11064759 0.16348183 0.22520842
-0.026766103 -0.35975352 0.18361633 0.17666867 -0.11045239 0.23158437 0.010062789 -0.05495868
0.034536146 0.10296642 0.34989026 -0.1959205 -0.29910284 -0.11902775 -0.3194691 -0.1809272
-0.16365159 -0.08167854 -0.20020057 -0.04097382 0.07604168 -0.1249746 -0.33942243 -0.35450983
0.028739545 -0.07371956 0.20927434 -0.01170163 0.12156399 -0.14402811 0.1577654 -0.22381274
-0.19241384 -0.091549456 0.07437257 0.021782834 0.17484175 0.09899023 -0.2231975 0.29989848
0.124826394 0.19732678 0.043754015 -0.31443173 -0.35276678 -0.19739781 -0.24176045 -0.11067813
-0.35807148 0.20837763 0.1014083 0.25844523 0.088802144 0.20206724 0.038669214 -0.0695873
0.35866013 0.12380604 0.23063582 0.26375258 -0.2923383 0.18608138 -0.32960162 -0.322502
-0.1013158 -0.24124798 0.21586177 0.18732317 -0.30695477 -0.0051898696 0.31299707 -0.047188073
0.30294237 -0.27130732 0.2509142 0.14689066 0.16172795 -0.22132398 0.21777746 -0.16694419

model.model.embed.weight f4 [2, 32]
00000000: 0000 0000 0000 0000 0000 0000 0000 0000
00000010: 0000 0000 0000 0000 0000 0000 0000 0000
00000020: 0000 0000 0000 0000 0000 0000 0000 0000
00000030: 0000 0000 0000 0000 0000 0000 0000 0000
00000040: 0000 0000 0000 0000 0000 0000 0000 0000
00000050: 0000 0000 0000 0000 0000 0000 0000 0000
00000060: 0000 0000 0000 0000 0000 0000 0000 0000
00000070: 0000 0000 0000 0000 0000 0000 0000 0000
00000080: 8348 abbe 602f 03bf 69dc e73e 598e 2abf
00000090: fd58 0cc0 e79b af3e b8e3 923e ce14 a33e
000000a0: 7361 2cbf 21d0 b53f 1212 65be bf19 9bbf
000000b0: fd07 a0bf c258 c33f 6ea7 e3be 6ed3 4040
000000c0: c5b9 043d 33e9 d63e d55c d73e 0e25 7aba
000000d0: db44 483c 7541 81bf 90f3 60bf c947 ad3d
000000e0: c016 8e3e af27 93bd 20e7 82be 180d 893f
000000f0: c7fe cabd 5d4e b3bf c071 7c3c f930 3d3e
0.0 0.0 0.0 0.0 0.0 0.0 0.0 0.0
0.0 0.0 0.0 0.0 0.0 0.0 0.0 0.0
0.0 0.0 0.0 0.0 0.0 0.0 0.0 0.0
0.0 0.0 0.0 0.0 0.0 0.0 0.0 0.0
-0.3345376 -0.51244164 0.45285347 -0.66623455 -2.1929314 0.34298632 0.2868936 0.3185181
-0.67336196 1.4204141 -0.22370175 -1.2117232 -1.2502438 1.5261462 -0.44463676 3.0129046
0.032403726 0.41974792 0.42063013 -0.0009542265 0.012223448 -1.0098101 -0.87871647 0.084609576
0.27751732 -0.071853034 -0.2556696 1.0707121 -0.09911876 -1.400829 0.0154079795 0.18475713

model.model.decoder.encoder.layers.0.self_attn.in_proj_weight f4 [96, 32]
00000000: 2b02 c93d b029 ac3d efeb 563c f83f debc
00000010: 7485 4a3e 9c67 403d 4ef2 d8bd 4d86 163e
00000020: 8873 42be 6b9c 3a3e baab 35be 9eb9 8e3d
00000030: 35ba 3abe f40a eabd cd92 983b b2f3 29be
00000040: b7c6 e5bd a4e9 943d 3526 e93d 776f 0cbd
00000050: b014 0d3e 4826 fcbd 8fc9 4bbd cfd2 c6bd
00000060: 3ade 01be 36e1 e3bd 1d85 343d 9335 233e
00000070: a3d3 d83d c850 c03c 7a6f 12bd 98eb 133e
00000080: e6d1 883d d8f0 b3bd c7fb e43c f35e 42be
00000090: 7825 373e b163 e63d 547e 273e fd4a 36bd
000000a0: 15d2 053e 10ae afbd 4c46 423e 5604 fb3d
000000b0: 986b 10be 0eab 1b3e 1279 2d3e e00e 503e
000000c0: d4af 9ebc 662b 0bbe d753 3abd cb7b a23d
000000d0: 58d3 5bbe 477d d5bd 510f 083e 2e40 b4bd
000000e0: ae01 563d b44a f2bd 7e83 57be 2c6b c2bd
000000f0: cdec 93bd 43bf f33d ff7d 093e 2f43 313e
00000100: e27c 833d d98c 6fbd 1506 0e3d e53e d43d
00000110: 3ed4 35bd 4fff 583d 2712 1bbe 571a 1d3d
00000120: d6a1 333d 0a39 40bc 427a 223c 3f90 86bc
00000130: e69b 17be 20fa 50be 4abe df3d 1a27 f03d
00000140: c57c a03d be89 5a3d 1664 8e3d eddf 123e
00000150: ac6a 463d 3982 723c ae48 04be 6628 5dbe
00000160: b18e d1bd a747 c83d 13be df3d 1081 31be
00000170: 1410 3cbe 0f0d b2bd 9ed3 083e 2b5b 39bc
00000180: 2982 3a3e da9f 5a3e fb79 c5bd c1d4 2fbe
00000190: cbef f13d ebf9 f53d 3b33 b43b 4ac1 ab3d
000001a0: 822f 503e b5d5 d73d 3c69 653d ea7d 9d3d
000001b0: b053 23be adbe 513e 36b1 4e3e 21c3 87bd
000001c0: 82ec 1abe 3162 073e ec40 4a3c e34f 2f3d
000001d0: 5e11 923d 4f2c 15be 81a5 9a3d b1eb 1dbe
000001e0: 0b7f 403d 76a2 263e bb0b 46be d943 1a3d
000001f0: 2482 d83d 5b2a 2dbe 90ba 963d 157f 0a3d
00000200: 454a 133e 2660 383e 10a7 353e 16dc e2bd
00000210: cdf4 94bd 7d1d babd 3793 d0bc a309 bbbd
00000220: 73e4 2c3e 30d2 85bd b034 5bbc c447 50be
00000230: 64a3 9bbc 3dfe 27be 9681 e83d c74f d23c
00000240: 6f61 58be dfc6 523e bc92 033e 64f6 d73d
00000250: 1a61 58be a67b 0b3c 96be 9abc 2725 f5bd
00000260: 8f8e 9f3c 3857 4d3e 7c2d 5fbe 1d9a 29be
00000270: 8dd7 3439 e950 ec3c 93fb 8fbd 880f 5abe
00000280: 72c3 40be a060 f7bd 6ded 3ebe 22fe a43d
00000290: 52f5 5f3d 199d 733d 8c61 c4bc bc70 903d
000002a0: ae18 cbbd 2267 d73d bc5e 5abd 0772 e0bd
000002b0: 9a63 eabd 5705 123e 192a 0ebd 8972 15be
000002c0: b4b8 09be 4b9f 463d 982a 2d3e 4813 423e
000002d0: 5f90 5dbe 5ffe af3b 438e 8fbd 835d 51bd
000002e0: 70a9 13be bb79 26be ddb6 2fbd 64c2 7a3d
000002f0: e79c a23d d338 27be 6560 a3bd 1de2 4a3e
00000300: 533a 88bd 1db2 2bbe c9e9 383d e689 493e
00000310: 9fc4 523e d3d6 0d3d 7be2 ec3c 22eb 5d3d
00000320: 9c68 293b dccd b4bd 2948 52be d52c 13be
00000330: a7d6 0f3e 2c0e 38be 0dd8 febd 4999 433d
00000340: 7e76 203e e2d2 24be d30d 10bc 23d6 0abc
00000350: 6d0c a5bd e7b3 363e ca37 ba3d fa85 4039
00000360: 964f f33d 0cec 8cbd bac4 233e e740 7fbd
00000370: 0242 adbd 751b 50be 13fe a73d ba47 3f3e
00000380: 402b 513e 50d7 55be 32be d23d 90d1 09be
00000390: 487a 9d3d ce86 0f3e 017b be3d 7b2f aebd
000003a0: 9ea8 3d3e c7cb a1bd fa3f 9fbd d027 28be
000003b0: ace3 033e 1e34 f63d bd93 67bd 6707 3fbd
000003c0: 78c3 0fbc 55fd 093d 962a 213e e616 50be
000003d0: fd3b 1d3e d643 91bd 15ba debb f2ab 2bbe
000003e0: 0147 26bd 1e78 a03d c06d 92bd b9f1 15be
000003f0: 3f50 5abe d807 20be 70aa 643d 2aea ec3d
0.09814867 0.08406389 0.013117774 -0.027130112 0.19777471 0.04697381 -0.10593091 0.14699669
-0.18989384 0.18223731 -0.1774129 0.069689974 -0.18235095 -0.114278704 0.004656172 -0.16596869
-0.112195425 0.07271126 0.113842405 -0.03428599 0.13777423 -0.12311989 -0.049752768 -0.09708177
-0.12682429 -0.1112694 0.04407226 0.15938406 0.105872415 0.02347602 -0.035750844 0.1444534
0.0668066 -0.08786172 0.027952088 -0.18981533 0.17885387 0.112494834 0.16356784 -0.04450511
0.13068421 -0.08578122 0.18972129 0.122566864 -0.14103544 0.15201971 0.16940716 0.20318174
-0.01937095 -0.13590774 -0.045490112 0.07933768 -0.2146734 -0.104242854 0.13287093 -0.08801304
0.052247696 -0.11830655 -0.21046254 -0.09493098 -0.072229005 0.11901715 0.1342697 0.17310785
0.06420304 -0.058483932 0.03467377 0.10363559 -0.044391863 0.052977856 -0.15143643 0.038355198
0.04385551 -0.011732349 0.009916844 -0.016426204 -0.14805564 -0.20407915 0.10924967 0.11726208
0.07836298 0.053354017 0.06952684 0.14343233 0.048441574 0.014801555 -0.1291835 -0.21597442
-0.10232294 0.097792916 0.10924926 -0.1733439 -0.18365508 -0.08693897 0.13361976 -0.01131324
0.18213715 0.21350041 -0.096424066 -0.17171003 0.11813315 0.12010559 0.005499271 0.08386476
0.20330623 0.10538808 0.056008562 0.07690032 -0.15949893 0.20482893 0.20184788 -0.06629015
-0.15129283 0.13221051 0.01234458 0.042800795 0.07132219 -0.14567684 0.075510986 -0.1542194
0.046996158 0.16272911 -0.19340412 0.03766236 0.10571697 -0.16910689 0.07359803 0.0338126
0.143838 0.18005428 0.1773951 -0.11077134 -0.072732545 -0.09087656 -0.025460823 -0.091326974
0.16884021 -0.06534231 -0.013379261 -0.20339876 -0.01899881 -0.16405578 0.113528416 0.025672806
-0.21130918 0.20583676 0.12848943 0.10545042 -0.21130791 0.008513367 -0.018889707 -0.11969977
0.019477157 0.20052803 -0.21794695 -0.16562696 0.00017246437 0.028847175 -0.07030406 -0.21294987
-0.18824556 -0.12078977 -0.18645258 0.080562845 0.054677315 0.059475992 -0.023972295 0.070527524
-0.09916817 0.10517718 -0.053313002 -0.10959249 -0.11444779 0.1425985 -0.034708116 -0.14594473
-0.13449365 0.048491757 0.1691078 0.18952668 -0.21637104 0.0053708996 -0.07009556 -0.05111457
-0.14420104 -0.16257374 -0.042899 0.06122054 0.07940083 -0.1633027 -0.0797737 0.19812818
-0.066517495 -0.16767164 0.04514483 0.1968151 0.20582817 0.0346287 0.028916588 0.05417932
0.0025849706 -0.08828327 -0.2053534 -0.14372571 0.14046727 -0.17974156 -0.12443552 0.047753606
0.15670201 -0.1609607 -0.008792358 -0.008473906 -0.08059011 0.17842065 0.09092672 0.00018360457
0.11880414 -0.0688096 0.15993014 -0.062317755 -0.084598556 -0.20322974 0.08202758 0.18679705
0.20426655 -0.20882916 0.10290183 -0.13458848 0.07689339 0.14016268 0.09300805 -0.0850515
0.18521354 -0.079001956 -0.077758744 -0.16421437 0.12879819 0.12021659 -0.05653738 -0.04663792
-0.008774631 0.033688862 0.15738901 -0.20321235 0.15354915 -0.07093017 -0.006797085 -0.1676481
-0.04059506 0.078354105 -0.071498394 -0.14642991 -0.21319674 -0.15627992 0.055826604 0.11568101

model.model.decoder.encoder.layers.0.self_attn.in_proj_bias f4 [96]
00000000: d4e9 923b f854 c5bb 3f81 93bb 43b9 8d3b
00000010: ae09 92bb e31c 99bb 0984 8bbb 9e14 903b
00000020: ef98 933b d0a6 963b aabb 8abb 8be8 e1bb
00000030: 309e 8abb a6e1 a63b 94e7 acbb cb58 943b
00000040: 0948 9bbb 0909 933b a989 933b 88b1 983b
00000050: b841 92bb 5ef9 8dbb ad7e 913b 7fdb 923b
00000060: 1e1f c9bb 666c 97bb cd43 90bb f88a 98bb
00000070: feb6 0239 6d8c 8e3b ac2e 90bb ece3 8f3b
00000080: 2931 d037 116e 06b7 5b1a b735 78a2 e4b7
00000090: cd33 1b38 e156 9fb8 6d2a cf37 207d ba36
000000a0: 7ac0 a637 41b5 0e38 dfc1 b3b7 9ce8 85b7
000000b0: 5bae 4938 45f0 ba38 fee9 69b8 0c5c 9d37
000000c0: 1de0 c037 4145 26b7 9cce 7237 96a2 20b7
000000d0: 01b7 84b7 b2f1 f138 8bd6 0ab8 2fed 80b8
000000e0: 6938 2fb7 7e1d c5b6 105f 1538 8b2a a0b8
000000f0: d150 43b7 f982 c3b8 b4a3 5a38 b022 03b8
00000100: 8295 7cbb 712e 66bb 7160 673b d0ac 533b
00000110: ea10 713b 09e7 8d3b a679 663b bf48 823b
00000120: aaf0 d73a 5734 753b f2a5 443b ab7b 95bb
00000130: a7d0 6dbb f526 98bb 2914 8a3b 570c 6c3b
00000140: 9059 8a3b a0ef 983b 1682 643b 234f dbba
00000150: 3f00 b2ba e494 57bb db47 953b f829 ce3b
00000160: 58ef 653b a216 6f3b d545 7a3b 4360 45bb
00000170: a020 98bb 8d7c 99bb 8643 093b d881 693b
0.004483441 -0.006022092 -0.0045014913 0.0043250634 -0.0044567203 -0.004672633 -0.004257683 0.004396989
0.004504315 0.0045975223 -0.004233797 -0.0068941764 -0.004230283 0.0050928174 -0.0052766297 0.0045271865
-0.004738812 0.004487161 0.0045024944 0.0046598352 -0.0044634007 -0.0043327054 0.0044401498 0.0044817324
-0.0061377427 -0.0046210764 -0.0044026137 -0.0046552382 0.00012465936 0.004350236 -0.004400095 0.004391184
2.4818424e-05 -8.012649e-06 1.3642233e-06 -2.7255373e-05 3.7003123e-05 -7.597893e-05 2.4696079e-05 5.5577984e-06
1.9878371e-05 3.4024244e-05 -2.1428741e-05 -1.5963153e-05 4.8084516e-05 8.913925e-05 -5.576945e-05 1.8758721e-05
2.2992544e-05 -9.9104955e-06 1.4472429e-05 -9.574598e-06 -1.5820844e-05 0.00011536795 -3.3101573e-05 -6.1476945e-05
-1.0443947e-05 -5.874491e-06 3.5612902e-05 -7.637319e-05 -1.1641722e-05 -9.32272e-05 5.212771e-05 -3.126514e-05
-0.0038541262 -0.0035122896 0.0035305286 0.003229905 0.0036783763 0.00433052 0.0035167723 0.003975957
0.0016474922 0.003741523 0.0030006138 -0.0045618615 -0.0036287697 -0.004643316 0.004213829 0.0036018097
0.0042221025 0.0046672374 0.0034867576 -0.0016731959 -0.0013580396 -0.0032895142 0.004555685 0.006291624
0.0035085287 0.0036481996 0.0038188596 -0.003011719 -0.004642561 -0.004684037 0.0020944788 0.0035630371

model.model.decoder.encoder.layers.0.self_attn.out_proj.weight f4 [32, 32]
00000000: d182 f13d 3e60 1ebe cfcb 0cbd edee 97bd
00000010: c673 2fbe c44e 4cbd 0df2 8a3c bf10 09be
00000020: 1d52 ff3d 70eb 233e db0c 2b3e ea97 2d3d
00000030: 340c 01bd 5417 323d 0c7b a0bd b29a 24be
00000040: 90f4 863d 4362 c5bc d2e5 923d 0a9e d5bd
00000050: 0339 19bd 20d5 24bd c7aa 593d 6fe0 893c
00000060: d1dc b63d 0fdf 81bd b6f2 a53d 796e 363e
00000070: dbd9 d03d 67ce 1cbe 4a00 323c 1976 72bd
00000080: 219f cb3d 0457 ccbc 0a91 14be ffd6 323e
00000090: dc05 73bc f21e 153e 890c f8bd 44e0 e2bd
000000a0: 0d23 a33c 8547 083e e691 303e cdbf bc3c
000000b0: c2d2 58bc f530 5fbc e5bf 4fbd 24f8 e2bd
000000c0: dfb6 68bd 5e5c 97bd 1247 1fbe 5c7d d13d
000000d0: 9b25 b4bd 77d6 c8bd 80ff 5d3c 77ab 92bd
000000e0: 41e4 da3d 77a3 16be 33f1 90bd cd2d e7bd
000000f0: e846 72bb 1169 9bbd cc59 22be 8060 4bbd
00000100: 9f19 3e3c b7c5 ccbd 80e0 e93d c6e5 36bc
00000110: 709a 3fbd c71d 46bd 8f7c 81bd b8ba 03be
00000120: b4c1 c2bd 297d 87bd 283d 30be 62e0 863d
00000130: 5bc1 f4bd ae78 a63c dee9 d13c c37f c4bd
00000140: 9ee4 32bd 9e97 9abd aed5 593d d407 29be
00000150: b7d8 79bd 26d6 603d 2023 823c 9bea bf3d
00000160: f831 233e 8d5c 173e b0d0 f4bd 6f20 06be
00000170: 37d9 e5bc ca2a 1bbe 391f 803d 578e 01be
00000180: 02c5 cabc 4ff1 79bd 5ef0 d23c 27dd ebbd
00000190: d7e5 8cbc 52b4 023e e274 fd3d 5c43 f63d
000001a0: bf23 2b3e 33b9 1d3e 099a e1bc 83d2 8c3d
000001b0: c885 a23d 4328 11be 7d7e 5e3d c92f 69bd
000001c0: edb9 e23d 9dab 323e bdce 8bbd e43e ba3c
000001d0: b9f8 913d 9491 09be f9fb 8a3b 7831 553d
000001e0: 532b 733c 9dde 233e b44f 81bd 25ef 203d
000001f0: ddab 26be 7013 38be 908d cc3d f9f5 91bd
00000200: 4b34 8e3d c71b 21be d849 27be f952 993d
00000210: d77d d7bc 0521 323d 2881 2abe 5932 563d
00000220: d017 65bd 4c07 923d d95d 83bd 0fac ca3d
00000230: f8cb 1d3e da67 f03d 7fe3 2abe 86ec 203e
00000240: 4056 7f3d 270d 06bd 960c 2fbd 1d73 f5bd
00000250: 7565 393d 89bc 1bbc 36ac 17be 0e28 bd3d
00000260: 476d 1c3d a6ca 12be c461 1a3e 658a 02be
00000270: 8156 a23c 3aef 243d fa30 08be b15b a13d
00000280: a4f2 0fbe 247b 943d 7dc3 af3d 5388 18bc
00000290: 9fa7 0c3e 37cc babc 92b9 c3bd f062 2d3e
000002a0: e91e 0f3d ea6d d6bd 03f8 a93d 4a49 2fbc
000002b0: 12a1 fcbc c290 883d 72ac ccbd f680 693d
000002c0: 02ca 0dbc 29f6 023e 1832 d43c ee6d 8fbb
000002d0: 3a7e cfbd 857b 053e 6fc0 f93d 8826 a23d
000002e0: d87f 4e3d d020 3c3d 6719 1f3e f60a 8c3d
000002f0: dc8d 073e 8861 1e3e 483a 5f3d ecce 1ebe
00000300: 2704 d53d cb2b 21be ad80 183e 2fc6 1ebe
00000310: daf7 393e a99a 0cbd 0cd9 753d 9637 2abe
00000320: 470b 78bd 3dca 813d 0f54 a13c 7e88 2bbd
00000330: b351 5bbd 0281 99bd 1e25 703d 87d7 e8bd
00000340: 7426 b2bc 8f93 cfbd 7455 e3bd 3650 89bc
00000350: b550 213e 26e5 11be bb79 ce3d 7000 32bc
00000360: 3606 99bc 9f16 27be 7aca e53d 72c7 0d3e
00000370: 66ad 2abe 6003 113e 5009 be3c 792c 743c
00000380: 7d1e dabd 8b3c 103e 2b18 f1bd 152b 9f3d
00000390: 81b1 d73d 791e dfbd 4cc6 e43d b512 61bd
000003a0: ecb5 c13d 4112 e83d 5a17 1e3e 1f56 9dbd
000003b0: 5b61 23be b115 cc3c 7a01 16bd 7deb 093b
000003c0: 3928 d43d 3dfe 433c 7ead d43c 7d59 93bd
000003d0: 2f03 00be fdf2 d3bd 3845 cf3d 3256 32be
000003e0: b4ab 0b3d d90f 033e bdb9 9a3d 8d41 c9bd
000003f0: d983 1c3e 7941 07be 800c 353e 05d4 c43d
0.117925294 -0.15466401 -0.034374055 -0.07418618 -0.17134008 -0.049879804 0.016961122 -0.13385294
0.12466834 0.16007781 0.16704123 0.042381205 -0.03150578 0.04347928 -0.07835969 -0.16074637
0.06589615 -0.024094706 0.07172741 -0.10430534 -0.037407886 -0.040242314 0.05314138 0.016830651
0.08928836 -0.06341373 0.08102934 0.1781558 0.10197803 -0.15313111 0.010864327 -0.059194658
0.09942461 -0.024943836 -0.14508453 0.17464827 -0.01483294 0.14562586 -0.12111766 -0.110779315
0.019914174 0.13308533 0.17243156 0.023040676 -0.013233842 -0.013622512 -0.050720114 -0.11082485
-0.056815024 -0.073906645 -0.15554455 0.102289885 -0.08796235 -0.09806531 0.0135496855 -0.071616106
0.10688067 -0.14710794 -0.07077255 -0.11288033 -0.0036968533 -0.07588399 -0.15854567 -0.049652576
0.011602788 -0.099986486 0.11419773 -0.011163181 -0.046778142 -0.04836824 -0.06322586 -0.12864196
-0.09509602 -0.06615669 -0.1721083 0.065857664 -0.11950942 0.020321216 0.025624212 -0.09594681
-0.043675058 -0.0754845 0.053182296 -0.16506892 -0.06099769 0.054891728 0.01588589 0.09370919
0.1593703 0.14781399 -0.119538665 -0.1309831 -0.028057678 -0.15153041 0.06255955 -0.12651955
-0.024752144 -0.061021145 0.025749382 -0.11516791 -0.01719944 0.12764099 0.12375809 0.120245665
0.16712855 0.15402679 -0.02753927 0.068760894 0.07935673 -0.14175515 0.054319847 -0.056930337
0.11070619 0.17448278 -0.068265416 0.022735067 0.07127518 -0.1343444 0.0042414633 0.05204913
0.014841872 0.16002889 -0.0631403 0.039290566 -0.16276498 -0.17976165 0.099879384 -0.07126994
0.06943568 -0.15733252 -0.16336763 0.07486529 -0.026305122 0.04348852 -0.16650832 0.05229411
-0.055930912 0.07130298 -0.064143844 0.09896099 0.15409839 0.11738558 -0.16688345 0.15715227
0.062338114 -0.032727387 -0.042736612 -0.11984847 0.045262773 -0.0095053995 -0.14811787 0.092361555
0.038190152 -0.14335117 0.15076357 -0.12748106 0.019816639 0.040267207 -0.13299933 0.07878817
-0.14057404 0.0725005 0.08582208 -0.009309846 0.13735817 -0.022802455 -0.09556879 0.16932273
0.034941588 -0.10470183 0.082992576 -0.010698626 -0.030838523 0.06668235 -0.09993829 0.057007752
-0.008654119 0.12789215 0.025902793 -0.0043771183 -0.10131498 0.130354 0.12194907 0.079175055
0.05041489 0.04592973 0.15537034 0.06838028 0.13237709 0.15466893 0.05449894 -0.15508622
0.104011826 -0.15739362 0.14892836 -0.15505289 0.18160954 -0.034327183 0.060021445 -0.16622767
-0.06055763 0.06337402 0.019693403 -0.041878216 -0.05354471 -0.074953094 0.058629148 -0.113692336
-0.021746852 -0.101355664 -0.11100283 -0.01676188 0.15753444 -0.1424757 0.10081812 -0.010864362
-0.01867972 -0.16317223 0.1122026 0.13845614 -0.16667709 0.14161444 0.0231978 0.014903181
-0.106503464 0.14085595 -0.11772188 0.07771889 0.10531903 -0.10894484 0.111706346 -0.05494948
0.09458527 0.11331607 0.15438595 -0.07682442 -0.15955107 0.024912687 -0.036622502 0.0021044903
0.10359234 0.011962471 0.025961634 -0.07194803 -0.12501214 -0.10349081 0.10120624 -0.17415693
0.034099296 0.12799014 0.07554958 -0.09826956 0.15284671 -0.1320857 0.1768055 0.09610752

model.model.decoder.encoder.layers.0.self_attn.out_proj.bias f4 [32]
00000000: a02e 6fbb 80e2 583b bc6a b4bb 8e7e 9b3b
00000010: f340 5f3b 2b15 723b 9dca babb c971 503b
00000020: 730f 16bb 4991 6f3b e606 733b 137e 6bbb
00000030: ecf2 8c3b cd96 7ebb 4221 01bb 94e6 89bb
00000040: 854f 77bb fa9b 073b f645 6c3b 8d20 653b
00000050: 1b36 c23a 5aad 6c3b e0d5 66bb 246b d73b
00000060: 2a05 6dbb 489b 72bb 3574 b53b 10bc 673b
00000070: 4529 7abb ce63 723b 97b2 88bb 8b4f 823b
-0.0036496297 0.003309399 -0.005505888 0.004745311 0.0034065812 0.0036938887 -0.005700423 0.0031806102
-0.0022897392 0.0036555103 0.003708297 -0.00359333 0.0043014195 -0.0038847208 -0.001970366 -0.0042083953
-0.0037736606 0.0020692335 0.0036052442 0.0034962029 0.001481715 0.0036114068 -0.0035222694 0.0065740515
-0.0036166408 -0.0037018824 0.0055375346 0.0035359897 -0.0038171571 0.0036985758 -0.00417168 0.0039767674

model.model.decoder.encoder.layers.0.linear1.weight f4 [128, 32]
00000000: 1c0e 823c 9799 8b3c 403a 343e c601 103e
00000010: 4b16 02bd cab8 2e3e c0f1 90bd 1561 bebd
00000020: 0cce 18be 12c1 dc3d 0ead 25be c510 1fbe
00000030: f247 bd3d 83cb d1bd b991 d13d 9b39 f9bd
00000040: 29c2 923d 2725 1fbe 43a4 063e 2077 493d
00000050: 9d3a 9f3d c2d7 9bbd e2b4 d2bd efbb 0fbd
00000060: 238f 253e 95b0 05be 8c42 a13d 8dd0 323e
00000070: 1b3a 9abd 72f7 2c3e aaf7 a93d d2a6 6fbd
00000080: 8d96 12be 757d 02be 77c2 dbbb ad03 2ebe
00000090: 3f04 b3bd 4366 e4bd 100e aa3d c528 1c3d
000000a0: 947c ca3c 4974 f2bd 12d9 f53d fd17 233e
000000b0: 21f7 5fbd 95ea afbd 5310 2d3e e888 183e
000000c0: f864 a23d d9b3 8c3d 3aa8 8c3d dd6e 98bd
000000d0: be12 21be 91ba c73d 564d dc3d 3005 a03d
000000e0: 80ad b6bd 00d2 253e 4190 2ebe 2995 dcbd
000000f0: d403 c5bd 674f 1b3c fb46 fbbb b5a8 47bd
00000100: 87d3 0cbe c046 493c a498 eebd 5766 b1bb
00000110: 60c4 b6bd e1d0 d5bd c6dd 233d 76ac 78bd
00000120: c720 c23d 8ad6 a7bd 3320 08be a8b6 493d
00000130: 7d59 0dbd 98ce 87bc 79ff 273e 3706 2f3d
00000140: d2d8 593d 6628 6c3d 193a dbba e50d 563d
00000150: 5fd0 9d3d c098 99bd 53a3 493d c523 c0bd
00000160: 2366 18be 63b4 073d 711c e9bd b83d 16be
00000170: cf9c 2dbe e70d 2abe e543 243e f9d6 7839
00000180: 1d36 ffbc 50c2 1c3e 4b18 dabd 92cf 1e3e
00000190: df66 f4bd f779 0a3e 4aa4 2fbe 9ab3 383e
000001a0: 9e3a 85bd 003b 2fbb ca39 203e e290 19be
000001b0: eb8c a5bc cda6 3c3c 81ab 2bbb afee 343e
000001c0: c3ef cbbd 24e4 253d afa8 edbd e34a 043e
000001d0: 64d1 a9bd 058b aebc 8209 123e bdde 173e
000001e0: 5cff 79bd 7264 d0bd 084c 78bd 63dc 06bd
000001f0: b548 da3d f767 153d 80f2 13be 8ce8 1ebd
00000200: ae77 a83d c14d 26be 5239 053e 6ab5 f13d
00000210: 3472 183e a2ff b13d 24f7 cdbd 6167 a63d
00000220: 33c6 b33d b98b 993d ccc5 e33d 312c 10be
00000230: c132 113e a622 30be 43c4 303e 293c 0e3e
00000240: 757f 0d3e a327 5b3d dd06 263e 1c71 293e
00000250: 0f4d a3bd 2566 2dbe 6830 283e cf1a d2bd
00000260: ddb0 01be 619b 68bd 4bc4 32be 798a c33d
00000270: 02b5 d23d 06b4 04be 5c89 2e3e 81f0 abbd
00000280: ef25 f5bc 5265 f83d 4f04 d9bd 3c35 0abe
00000290: a005 43bc 7159 5a3d 9ad6 263e d6d8 163d
000002a0: f501 2abe a4b4 e73d 3246 a33b c693 d43c
000002b0: 27a3 b43d 995e 153e 8e8d cbbc 4e8d e1bd
000002c0: 3704 a8bd 0e7c 8bbd 4839 1bbe dab4 ae3b
000002d0: 924a a3bd fbec eabd a915 32be d5f1 de3d
000002e0: dfb5 3ebd 25cd dcbc 7d1f e9bd d062 123e
000002f0: 483d 803d 4ffb 223e d9a0 32bd b39a 6d3d
00000300: 893c 9bbd c2f2 0ebe ae94 df3d b785 e53d
00000310: dcfb c8bd b52f 433d 9c8f 283e feef 31be
00000320: 7ca5 813c 34ea 84bd 5cce 193c 121c 12bc
00000330: 2c77 21be 6405 c13d 35df 17be f4c7 80bd
00000340: 97f9 a7bd c668 323e ec74 903d b30a c63d
00000350: 58ff f33c a306 f2bd 63a4 843c d980 efbd
00000360: f4ef 30be dcd2 8f3d fd0c d63d 72c0 0f3e
00000370: 204f 2a3e f8f6 c43d 52b0 f43c dcf0 ce3d
00000380: 0895 f93c a4d2 99bb b112 943c fb74 c3bb
00000390: 9eae 02be 940a 19bc 56b3 113e 6821 a9bd
000003a0: 0874 fd3c 6026 cbbd 87fd b43c ba8e 2fbe
000003b0: 49f3 4cbd 675b 01bd c61f 83bd 1961 483c
000003c0: 7cf1 2dbd a8ce f0bd 2279 ffbd 7b1d 16be
000003d0: ad66 2a3e b548 1d3e 537d c83d dc1d 76bd
000003e0: 94d4 2ebe d0a1 e5ba 400c 063e 0e44 00be
000003f0: 8ff1 2ebe 2108 e7bd 3ecc ed3b 23cc 253e
0.015875868 0.01704101 0.17600346 0.14063177 -0.03175954 0.17062679 -0.0707736 -0.09295861
-0.1492235 0.10779013 -0.16179296 -0.15533741 0.09242238 -0.10243895 0.102328725 -0.121691905
0.07165939 -0.15541516 0.13148598 0.049185872 0.077748515 -0.07609512 -0.10288407 -0.035091337
0.16167884 -0.13055642 0.07874021 0.17462368 -0.07530614 0.16891268 0.08299191 -0.0585087
-0.14315243 -0.1274317 -0.0067065316 -0.1699359 -0.08741044 -0.111523174 0.083034635 0.03812482
0.024717607 -0.11838586 0.120042935 0.1592712 -0.05467904 -0.08589665 0.16900758 0.14895976
0.079294145 0.06870241 0.06868024 -0.074430205 -0.15729806 0.097523816 0.10756938 0.078134894
-0.08919811 0.1619339 -0.17047216 -0.107706375 -0.09619871 0.00947938 -0.0076683736 -0.048744876
-0.13752566 0.0122849345 -0.11650208 -0.005413811 -0.08924174 -0.10440231 0.04000642 -0.060711347
0.09478908 -0.08195217 -0.13293533 0.04924646 -0.03450917 -0.016578004 0.16406049 0.042730536
0.05318529 0.057655714 -0.0016725688 0.052259345 0.07705759 -0.07499838 0.049228024 -0.093818225
-0.14882712 0.033131015 -0.11382378 -0.14671981 -0.16954349 -0.16606866 0.16041525 0.00023731207
-0.031153733 0.153085 -0.10649165 0.1550887 -0.119336836 0.13523088 -0.17152515 0.18037263
-0.06505321 -0.0026738048 0.15647045 -0.14996675 -0.020208796 0.011514378 -0.0026194754 0.17669176
-0.0995784 0.040500775 -0.116044395 0.12919192 -0.08291891 -0.021306524 0.1426144 0.14831062
-0.061034545 -0.101754084 -0.060619384 -0.03292502 0.10658399 0.0364761 -0.14447975 -0.038795993
0.08225952 -0.16240598 0.13010147 0.1180218 0.14887315 0.08691336 -0.10056904 0.08125187
0.08778038 0.07497353 0.11121711 -0.14079358 0.14179517 -0.17200717 0.17262368 0.13890137
0.13818152 0.053504597 0.16213556 0.16547054 -0.07973682 -0.16933496 0.16424716 -0.102590196
-0.12665124 -0.056788806 -0.17457692 0.09547896 0.10288431 -0.12959298 0.17044586 -0.08395482
-0.029925315 0.121287 -0.10596525 -0.1349687 -0.011903197 0.053307954 0.16292801 0.036827885
-0.16602309 0.11313751 0.004982733 0.02594937 0.08820181 0.14586867 -0.024847772 -0.1101328
-0.08203929 -0.06810771 -0.1515857 0.005331618 -0.079732075 -0.11470982 -0.17391075 0.108859695
-0.046560165 -0.02695329 -0.11382959 0.14295506 0.062616885 0.15916179 -0.043610428 0.05800886
-0.075799055 -0.13959792 0.1091703 0.11207145 -0.09813663 0.04765292 0.16461033 -0.17376706
0.01582598 -0.06489983 0.009387579 -0.008917825 -0.15768117 0.09424856 -0.1483124 -0.06288138
-0.08201902 0.1742278 0.07053551 0.096700095 0.029784843 -0.11817672 0.016191667 -0.116944976
-0.17279035 0.0702264 0.10451696 0.14038256 0.16631746 0.09617418 0.029869232 0.10104534
0.030466571 -0.0046943 0.018075319 -0.005964873 -0.12761924 -0.009340901 0.14228567 -0.08258325
0.030939117 -0.09919429 0.022093548 -0.1714429 -0.050036702 -0.03158131 -0.06402545 0.012230181
-0.042466626 -0.117581666 -0.12474276 -0.14659683 0.1664073 0.15359767 0.09789529 -0.06008707
-0.1707328 -0.0017519537 0.1309061 -0.12525961 -0.17084335 -0.11280847 0.0072570136 0.16191153

model.model.decoder.encoder.layers.0.linear1.bias f4 [128]
00000000: 94ed dbbc 61a2 1d3d 552d 1cbc fba9 c63d
00000010: 7c0e 2bbe f7c5 b53c 2d5d 30be 7a8c a03d
00000020: 7e34 cf3d 6321 883d ef6b 84bd 476f 12bd
00000030: 32f5 053e 4e30 103e 532b 013d 58ac 05be
00000040: 69b9 5cbd 1587 c83d c030 583d d40a 62bd
00000050: 6620 c9bd eaa4 29be c11b d9bc 566b 80bc
00000060: 3ed0 783d 6184 493d cf13 ca3d 0f8c 37bd
00000070: f77d 9fbc a673 f13c 9c48 2cbc 8484 1abd
00000080: bcc9 873d 9534 1ebe 977a 24bd 29c2 12be
00000090: 3e28 953d af07 91bd 1537 823d ec94 25be
000000a0: f536 b23d a1a7 f53d 1233 c0bd 82f8 20be
000000b0: 74c3 75bd 36ed 44bc fa98 25be fdf5 b6bd
000000c0: c494 0fbe de29 21be 41e3 023e bc10 8d3c
000000d0: 4749 073e e780 1d3c d648 2fbe 37a4 cebd
000000e0: d11c 86bd 241f cb3c 1442 cabb 249f 143b
000000f0: eb73 eabd 7568 17be afac 9f3d b14f 9cbd
00000100: d03d c13d ed1e c23c 7011 ce3d eff4 58bc
00000110: 38ba 0ebe b6cf 1c3e b663 20be a7af f13b
00000120: a8d2 15be 1427 9b3c d5f2 bb3d 942f 183e
00000130: 0871 203e 036e 8a3c 83d6 8b3d 44ba 35bd
00000140: a445 d63d dd98 bc3d 5a70 a83d dced 143d
00000150: bdeb d23c b894 b63d 66c9 6b3d a7da a83d
00000160: b2a4 8e3d 2237 b63d 05df 973d c887 0bbe
00000170: a991 793d 6dc9 0b3e bafd 9e3d 8dc9 2ebe
00000180: ce88 c5bd 4efd f5bc 1054 6a3d d86f 15ba
00000190: 0173 92bc 12fc 66bd db1b 48bc 1101 1c3e
000001a0: e50a 223e fd6b c03d 4718 513c 39cd 8d3d
000001b0: 6807 ad3d 71e6 263e b5d8 643d 727c ecbd
000001c0: d3e1 05be 25f0 293b e824 9dbb 363e 59bd
000001d0: 329c ea3d aef2 03be f5f0 c5bb 62c0 e23d
000001e0: f50e 27be 631e f63d aba8 17bb 077e ffbd
000001f0: ed61 e53d 44da 0e3e 7152 8f3d 9c22 a8bd
-0.026846685 0.038484935 -0.009532292 0.0970039 -0.16704744 0.022189124 -0.17223044 0.07839294
0.10117434 0.06646993 -0.06465899 -0.035750654 0.13081816 0.14080927 0.031535458 -0.13054025
-0.05388776 0.0979139 0.052780867 -0.055186108 -0.09820633 -0.16566816 -0.026502492 -0.015676182
0.06074547 0.049198512 0.098670594 -0.044811305 -0.019469244 0.02947409 -0.010515358 -0.037724033
0.06630275 -0.15449746 -0.040155973 -0.14331879 0.07283066 -0.07081544 0.06358162 -0.1617009
0.087018885 0.11994863 -0.09384741 -0.15719798 -0.06000085 -0.012019446 -0.16171637 -0.08933637
-0.14021593 -0.15738627 0.12782003 0.017219894 0.13211547 0.009613252 -0.17117628 -0.10089915
-0.06548465 0.024795122 -0.006172428 0.0022677863 -0.11447891 -0.14785941 0.07796609 -0.076323874
0.09435618 0.023696387 0.1006192 -0.0132419905 -0.13938224 0.1531361 -0.15663037 0.0073756757
-0.1463114 0.018939532 0.09177176 0.148619 0.15668118 0.01689816 0.06828024 -0.04436709
0.10462502 0.09208844 0.08224554 0.036359653 0.025747174 0.089150846 0.057565115 0.082448296
0.06965007 0.088972345 0.074155845 -0.13626015 0.060929928 0.13651057 0.07763238 -0.17069073
-0.09645234 -0.030028012 0.057209074 -0.0005700565 -0.017877104 -0.056392737 -0.0122136725 0.15234782
0.15824468 0.09395597 0.012762136 0.06923909 0.08448678 0.16298844 0.05587073 -0.115471736
-0.13074426 0.002593049 -0.0047956593 -0.053037845 0.11455573 -0.12885544 -0.006040687 0.1107185
-0.163143 0.120175146 -0.0023141305 -0.1247521 0.112003185 0.13950449 0.06998146 -0.08209726

model.model.decoder.encoder.layers.0.linear2.weight f4 [32, 128]
00000000: 55eb 57bd a032 3cbd 301d e53b d55d a4bc
00000010: 73e0 243d 919a b83c cd03 a7bb a57a c93c
00000020: b1a8 36bd 532a 86bb ccfc 34bd e318 debc
00000030: 1b3f 323b 29b1 b23d 90d8 a1bd f600 64bd
00000040: 5ac8 52bc 2bd3 c83c c253 8f3d 38a0 113d
00000050: c6a6 17bd 926f a93d aaef 793d 6d01 783d
00000060: b09e fc3c aa42 9ebd e740 55bc 84c7 aabd
00000070: 6e2c 67bd 7abe febb 59b1 3d3d c95a 013d
00000080: 4e0d 49b9 ac84 073d 8fbd 753d cf75 a7bd
00000090: 5e99 acbd 506c bbbd 2e02 913d e0e7 ee3c
000000a0: acc4 a83c 54fa b2bb d785 5bbd a332 2a3d
000000b0: 7769 643c 390b 953d 609a 99bd 7e9d 81bd
000000c0: 9b96 7c3d 07a6 e0bc 17d5 cbbb 7713 e0bc
000000d0: 79e9 edb9 0fbd 77bd 3b6b babd a2dc 95bd
000000e0: cdbf 823d c621 babc 0390 87bd f585 4a3d
000000f0: 9774 0e39 988d d53c 7f96 0fbc abd0 9dbd
00000100: 07ee 0e3b 25e0 50bd 62b5 1ebd a2df fb3b
00000110: e47a 9e3c fc11 3ebd a72e 88bd fb7d 7e3d
00000120: 8798 5bbd 331a c3bc 192c b3bd 99cc 9c3d
00000130: a00d b13d fbdc adbd 1f67 89bd afef 84bd
00000140: 3df7 9f3c 4eed 15bd 2db9 8abb 9ddf 90bd
00000150: ed22 99bd dd78 68bd b69b a6bd 58a1 0b3d
00000160: c960 243c 52a5 a6bd 70d2 9a3c 71f8 803d
00000170: 492f 133d 4296 52bd 8d39 55bd 2aec 123c
00000180: 4353 3e3c edca 72bd 80b8 1fbd 2d35 b0bd
00000190: c94b 123d 8a56 433d c9f0 51bd 3810 79bc
000001a0: 8ab6 b23d fd53 7b3c 291f 5bbd 64f9 903c
000001b0: 2591 2a3c 8a11 72bc 3f5f b93c ddf4 9e3c
000001c0: f753 a0bd 67ff 7c3d daa1 393d 48c7 4a3d
000001d0: 5065 6fbc c638 893c e4f7 41bd bf42 063d
000001e0: fc00 aa3c 96ad abbd 921c 9c3d 1876 7cbd
000001f0: ea6b 17bd 43df 8b3d 7505 90bd 9519 47bd
00000200: 7d9b 233d 60f1 a7bc 0220 87bd 6dfa b6bc
00000210: 9d7e e4bc 1d28 943d a78a 05bd 9628 a93c
00000220: 75e9 8a3d c3e0 893d 55ea 8dbc b108 bd3d
00000230: be5a dc3c 3bcb 52bd 5a43 04bd 838c 323b
00000240: f52a 4abd 2af4 0bbd 8c37 313c 346e dcbc
00000250: e996 863c 974e 29bd fe22 85bd 5601 10bd
00000260: e142 b43b 523c 1ebc c7af c3bc 414f a0bd
00000270: 2843 adbc 55a0 f1bb 2109 6b3d 88d0 9cbd
00000280: 35a6 7ebd 1944 2d3c a54f 5bbc b532 8d3c
00000290: 94a4 a9bd 3e11 b33d 7700 a03c 0a7a 83ba
000002a0: 7973 8cbd 8437 823c 63dc 973d ebbe 893c
000002b0: 9c75 823d 59ea 013d 8250 7ebd a4ad 71bd
000002c0: 265f 99bd ab35 b0bc 0c8e 563d 042e d93c
000002d0: 1e14 203c 380d 8cbd 8835 99bb 5d98 93bd
000002e0: 38ae 8dbc e03f 1f3b 61d9 aabd d321 9abd
000002f0: 351b 883c 1d28 94bd 52e4 083d f7a8 513c
00000300: c9a5 32bd 6829 843d e4b1 a93c df3d 33bd
00000310: 6783 953d ddae 9abd 5837 933d 2fbe a6bd
00000320: a530 3bba edd1 953d 6da3 cabb 5b0d e73c
00000330: 5c71 37bc 1499 91bd 964d 09bd 3277 b83d
00000340: e74c 00bd c7ed 9cbc 786d 7f3d 8e9a b63d
00000350: f2e3 08bd 9225 363b 5bb6 513a 5478 96bd
00000360: edce 29bd f0fd bb3d 9804 8b3d 3117 4c3d
00000370: b1c4 2bbd 7a86 79bd c455 5dbd 3f52 243d
00000380: 21e6 82bd 95a6 623d 019c 543d 8ec0 44bd
00000390: 7ab2 b73d 9043 73bb 8e8d 843d e569 563d
000003a0: 429b 8cbd c22a 413d f2f7 c53c 4245 5a3d
000003b0: bb25 f13c a79d aa3d 5f01 4abc 85ae d6bc
000003c0: 9e7c 00bd d8dd 893d 76a6 9f3d 06df 80bd
000003d0: b50d 7f3c 8c77 4abd a68f 2abd 588d 4d3d
000003e0: 943a d53c 4a23 26bd 9cbc b73d 1432 323d
000003f0: b4c7 08bd bf34 283d f428 90bd 9fc8 71bc
-0.052714664 -0.045946717 0.006992005 -0.020064274 0.040253114 0.02253464 -0.0050968886 0.024594614
-0.04459447 -0.004094401 -0.0441864 -0.027111476 0.0027198258 0.08725197 -0.07902634 -0.05566498
-0.01286515 0.024514755 0.069983974 0.035553187 -0.037024282 0.082732335 0.061019577 0.060548235
0.030837387 -0.07727559 -0.013015962 -0.08338836 -0.056438856 -0.0077741714 0.04631171 0.03158072
-0.0001917381 0.03308551 0.05999523 -0.08176767 -0.0842769 -0.09151518 0.07080494 0.029163301
0.020601593 -0.0054619703 -0.053594436 0.041552197 0.01394116 0.07277531 -0.07500148 -0.063288674
0.061667066 -0.027422918 -0.0062204706 -0.027353032 -0.00045378113 -0.060483035 -0.09102484 -0.07317473
0.06384239 -0.022721183 -0.06619265 0.049444158 0.00013585608 0.026068494 -0.008763908 -0.07705816
0.0021809356 -0.05099501 -0.0387472 0.007686571 0.019345708 -0.04640387 -0.06649523 0.062131863
-0.05361226 -0.023816204 -0.08748645 0.076562114 0.08645177 -0.08489414 -0.06709122 -0.064910285
0.019527072 -0.036603265 -0.0042335005 -0.07073901 -0.07477365 -0.05675589 -0.08135168 0.034089416
0.010032841 -0.08137001 0.018899173 0.062973864 0.035933767 -0.05141283 -0.052056838 0.008967439
0.011616531 -0.059275556 -0.038994312 -0.086038925 0.035716806 0.047689952 -0.05125502 -0.015201621
0.08726223 0.015339849 -0.053496514 0.017697044 0.010410582 -0.014774689 0.022628425 0.01940387
-0.07828515 0.06176701 0.04532037 0.049506456 -0.014611557 0.016750704 -0.047355548 0.032778498
0.020752423 -0.08382718 0.07622637 -0.06163606 -0.03696815 0.06829693 -0.07032291 -0.04860838
0.039943207 -0.020500839 -0.06597902 -0.02233621 -0.027892405 0.072342135 -0.032602932 0.020649236
0.0678281 0.06732323 -0.017323652 0.092301734 0.026898738 -0.051463347 -0.032290794 0.0027244396
-0.049357373 -0.0341684 0.010816466 -0.026908018 0.016429381 -0.041334715 -0.06500815 -0.035157524
0.0055011366 -0.009657936 -0.023887528 -0.078276165 -0.021150187 -0.0073738494 0.057381753 -0.07656962
-0.062170226 0.010575318 -0.013385688 0.017236093 -0.08283344 0.08743523 0.019531472 -0.0010030877
-0.06857962 0.015895613 0.07415082 0.01681467 0.063700885 0.031717632 -0.062088497 -0.059003487
-0.07488851 -0.021509966 0.05238156 0.0265112 0.009770421 -0.06838459 -0.004675571 -0.07206795
-0.017294988 0.0024299547 -0.08342243 -0.07525983 0.016614536 -0.072342135 0.03342087 0.012796632
-0.043615136 0.0645321 0.020714708 -0.043760177 0.07300454 -0.07552884 0.0718829 -0.081417434
-0.00071407325 0.07315431 -0.0061840327 0.02820461 -0.011196461 -0.071092755 -0.033521257 0.0900711
-0.03132334 -0.01915635 0.062360257 0.08916198 -0.03342051 0.002779339 0.00079998904 -0.073471695
-0.041457105 0.09179294 0.067879856 0.049826805 -0.041935626 -0.060919262 -0.05403687 0.0401175
-0.0639155 0.055334646 0.05190659 -0.048035197 0.089695886 -0.0037119128 0.06472312 0.052347083
-0.068655506 0.047159918 0.024166081 0.053288706 0.029436937 0.08330851 -0.012329428 -0.026206264
-0.031368844 0.067317665 0.07795422 -0.06292538 0.015567233 -0.049430415 -0.0416409 0.050183624
0.026028909 -0.040560998 0.08971521 0.04350479 -0.033393577 0.041065928 -0.07039061 -0.014757304

model.model.decoder.encoder.layers.0.linear2.bias f4 [32]
00000000: acc5 27bd f523 463d eab8 203d a1f4 4e3d
00000010: 7670 90bd de19 eabc 9e5f 91bd d7eb 153c
00000020: d25b 843d 362e 893d 2810 2b3c 11c4 8dbd
00000030: 1c2f 95bd ca4d abbc 5cb0 9c3d cb23 363c
00000040: d21f 213d f7aa 87bb 1142 a1bd 43d6 6e3d
00000050: ace9 95bd 474e 533d 9f4e 903d 1166 81bd
00000060: 0b08 383d df12 333d 3d44 abbd 6666 8dbd
00000070: 67bb af3c 464f 94bd e2d1 2cbc e63b 1d3d
-0.04096 0.048374135 0.039238848 0.050526265 -0.070527 -0.028576788 -0.07098316 0.009150467
0.06462826 0.06698267 0.010440864 -0.06922162 -0.07284376 -0.020911116 0.076508254 0.011116932
0.039336987 -0.0041402536 -0.07873929 0.058309805 -0.0731996 0.051588323 0.07046246 -0.06318296
0.044929545 0.04371917 -0.08362625 -0.069042966 0.021451665 -0.07241683 -0.010548087 0.0383872

model.model.decoder.encoder.layers.0.norm1.weight f4 [32]
00000000: 1dd1 7e3f 382a 7f3f d8aa 7d3f 2a09 803f
00000010: 2897 7e3f afcc 7f3f d74f 803f ac55 803f
00000020: 06ae 7f3f 552c 803f dad5 7e3f d826 7f3f
00000030: 7fbd 7e3f e909 803f 2c6a 803f c61a 7f3f
00000040: 8bf9 7f3f 5295 7e3f 1dbc 7f3f dc71 7e3f
00000050: 387a 803f c8c0 7e3f d0aa 7e3f b2ec 7e3f
00000060: e388 7e3f b169 803f 4582 803f 3b18 803f
00000070: 9647 7e3f fadf 7f3f 8b7a 7f3f 3fd9 7e3f
0.9953783 0.99673796 0.9908881 1.0002797 0.99449396 0.999217 1.0024365 1.0026145
0.99874914 1.0013529 0.9954506 0.99668646 0.995079 1.0003024 1.0032401 0.9965023
0.9999015 0.99446595 0.99896413 0.99392486 1.0037298 0.9951291 0.9947939 0.9957992
0.9942762 1.0032254 1.0039755 1.0007395 0.9932798 0.99951136 0.9979636 0.9955024

model.model.decoder.encoder.layers.0.norm1.bias f4 [32]
00000000: 3560 50bb a4b9 593b 5190 b6bb 4f54 873b
00000010: b1f5 663b 279c 6d3b a359 85bb 1602 363b
00000020: dd07 8fbb 9e26 6c3b d86e 5e3b 6a00 4dbb
00000030: 7f31 803b 614a 6abb 7bf0 cfba 1515 80bb
00000040: a549 52bb aeed 053b 16a6 513b 4cb8 563b
00000050: f37d ba3a f423 4c3b 7079 5cbb d06f d03b
00000060: 611a 4fbb c191 5cbb c1e0 863b 1852 593b
00000070: 58d0 5cbb ed75 623b 216f 72bb 67a8 633b
-0.0031795625 0.0033222223 -0.005571403 0.0041299234 0.0035241658 0.0036256404 -0.0040695234 0.002777224
-0.004364951 0.003603376 0.003394058 -0.0031280764 0.0039121504 -0.00357499 -0.0015864515 -0.003908763
-0.0032087353 0.0020435858 0.0031989864 0.0032763658 0.001422821 0.003114936 -0.0033641718 0.0063609853
-0.0031601416 -0.0033656212 0.004116148 0.0033160504 -0.0033693518 0.0034555153 -0.0036992508 0.0034737827

model.model.decoder.encoder.layers.0.norm2.weight f4 [32]
00000000: a7d8 7f3f 353d 7f3f c16f 7e3f 5758 7f3f
00000010: 90bd 7e3f 2cc5 7f3f 2d90 7e3f 1550 803f
00000020: 483f 803f 211d 803f 58f8 7e3f 11b1 7f3f
00000030: 3277 7e3f 63f3 7f3f 7f2b 7e3f d7e1 7e3f
00000040: 93ee 7f3f f9b5 7e3f d5d2 7f3f de82 7e3f
00000050: 1ba4 803f c6df 7e3f b725 7e3f 47b6 7d3f
00000060: e56a 7e3f b04c 803f e11b 7f3f 11e7 7f3f
00000070: 9b4f 7e3f ca2a 7f3f 6058 7f3f 0706 7f3f
0.9993996 0.9970277 0.9938927 0.9974417 0.99508 0.99910235 0.99438745 1.0024439
1.0019312 1.000889 0.9959769 0.99879557 0.9940063 0.99980754 0.9928512 0.99563354
0.9997341 0.9949642 0.9993108 0.9941844 1.0050081 0.995602 0.992763 0.9910626
0.9938186 1.0023403 0.99651915 0.99961954 0.9934022 0.99674666 0.99744225 0.9961857

model.model.decoder.encoder.layers.0.norm2.bias f4 [32]
00000000: 4b08 55bb 4c97 533b 4164 4cbb 25dc 533b
00000010: 93ac 533b 7d8e 543b 40c4 52bb daee 543b
00000020: 6bd0 673b 1cb3 553b b913 543b 3f88 54bb
00000030: cfa9 533b 8d6d 54bb 1e6d 4c3b 3e99 53bb
00000040: 8dae 54bb 0592 533b f97d 543b f55f 533b
00000050: 20ad 55bb 9224 533b fab5 53bb ac4f 503b
00000060: 1cbe 52bb bcc8 54bb 55c2 d2ba 6e7e 543b
00000070: 14e7 53bb 0ee3 533b 0a54 54bb ff21 543b
-0.0032506164 0.0032286225 -0.0031187686 0.0032327261 0.0032298907 0.0032433562 -0.003216043 0.0032491
0.003537203 0.0032607978 0.0032360388 -0.0032429842 0.0032297259 -0.003241393 0.0031192969 -0.0032287384
-0.0032452673 0.003228308 0.0032423718 0.003225324 -0.0032604411 0.0032217843 -0.0032304511 0.003178577
-0.003215677 -0.003246828 -0.0016079644 0.003242399 -0.0032333778 0.003233138 -0.0032398724 0.0032368896

model.model.projection.weight f4 [2, 32]
00000000: d7ae 07be c5fe 003c 1ed8 833d 606c bd3d
00000010: 8ad0 8d3c d4cd 473d 540c 8dbd f0d1 f5bd
00000020: d123 fd3d 97cf af3d 9a01 08be b106 e8bc
00000030: a95c 94bd 957a 0dbd 1133 09be d642 0bbe
00000040: 18f5 e9bc 96d0 953d 6999 febd 1254 b0bd
00000050: f591 5a3d 031d 853d 5cb5 eabd 971a 833d
00000060: df42 a33c a7cb b6bd 3720 ea3d 0a7b eb3d
00000070: 6365 b6bd f1c1 683d e7bc 14be 2054 023a
00000080: 9a0f f6bd 4349 cc3b bc46 78bd cb97 c4bb
00000090: efab f3bd 4b9a 09bb 240f bfbd 9a21 183e
000000a0: 775a 4ebd 8b4e dd3c 0a81 3f3c 0795 0cbe
000000b0: f681 2d3e 074e 06bd abd4 da3c 6148 59bd
000000c0: 4ff4 7cbd 0d6a fd3d ba89 a33d 15a4 4c3d
000000d0: 9494 0b3e b8a2 983c 7727 ee3d 9f8a c03d
000000e0: e324 8e3d 36e2 29be 0e87 2fbe aaba 0dbe
000000f0: 9b0a 9e3d 1e29 793d 5314 3abd 0720 893d
-0.1325029 0.007873242 0.064377055 0.092491865 0.017311353 0.048780277 -0.06887117 -0.12002933
0.12360347 0.085845165 -0.13281861 -0.028323503 -0.07244236 -0.03454073 -0.13398387 -0.13599715
-0.028559253 0.07315175 -0.124316044 -0.08609785 0.05336185 0.06499674 -0.11460373 0.06401556
0.019929348 -0.08925562 0.11431926 0.11498077 -0.08906057 0.056825582 -0.14525186 0.0004971642
-0.120146945 0.0062343194 -0.060614333 -0.0059995404 -0.11898028 -0.0020996507 -0.0932906 0.14856568
-0.050379243 0.027014991 0.01168848 -0.13728724 0.16944107 -0.032789256 0.026712736 -0.05304754
-0.06175643 0.12373743 0.07985254 0.04996117 0.13630897 0.018632278 0.11628621 0.0940144
0.06940629 -0.16590199 -0.17141363 -0.13840738 0.077168666 0.060830228 -0.04542954 0.06695562

model.model.projection.bias f4 [2]
00000000: c8dc afbd c1de 0e3e
-0.085870326 0.13952161

model.classifier.weight f4 [2, 32]
00000000: 3546 1abd f93e 30bd 2473 eabd 8f91 3b3d
00000010: bf16 283d 2610 4f3d 28c5 aabd b821 b33d
00000020: 1027 bfbd c008 933d e829 903d cd7d f8bd
00000030: da76 0e3d 7e71 42bd ccd2 513d 98cd aebd
00000040: ac8b cabd 72f6 343d 92a7 303e 030c 27bd
00000050: dceb f2bc c0fa da3d ce80 16be 3cb7 953c
00000060: b79f 2dbe 6648 39be a43c f13c 1aaa a93d
00000070: c316 2bbe cffd ee3d 693e 2fbd 077a ae3d
00000080: 211f 783d 1066 2dbe 8b5e d1bd dfde 72bd
00000090: 6ffa eabd be60 dcbd b7bb 1abd 1371 67bd
000000a0: 898e d4bd 08dc 8cbb 821f 19be 1935 b13d
000000b0: a312 1dbe 196b 0d3e d199 363d 8b04 0e3d
000000c0: 6f10 e03d 0261 61bd 3b15 b0bd b5ca 12be
000000d0: a282 043d 4e0c 033d 8e88 df3c 3773 4ebc
000000e0: d9d4 bbbd 5dd8 533c e63d cf3c a286 05be
000000f0: c8d9 273e 4c6b 6ebd b782 2d3e dee3 1fbd
-0.03766461 -0.043028805 -0.114477426 0.045793112 0.041037317 0.05055251 -0.08338386 0.08746666
-0.093336225 0.07179403 0.07039243 -0.121333696 0.034781314 -0.047471516 0.051226422 -0.08535308
-0.098899215 0.04418034 0.17251423 -0.04078294 -0.029653482 0.10692358 -0.14697573 0.01827585
-0.16955458 -0.18094024 0.029447861 0.082843974 -0.16707902 0.11669504 -0.04278413 0.085193686
0.06057656 -0.16933465 -0.10223111 -0.059294578 -0.11473548 -0.107606396 -0.037776675 -0.05650432
-0.10378749 -0.0042986907 -0.14953426 0.08652706 -0.1533914 0.13810386 0.044580285 0.0346723
0.109406345 -0.055024154 -0.085977994 -0.14335139 0.032351144 0.031994157 0.027286794 -0.012600712
-0.09171457 0.012930003 0.02529807 -0.1303964 0.1639167 -0.058207795 0.16944395 -0.03903567

model.classifier.bias f4 [2]
00000000: 1e34 013c 10a3 fa3d
0.007885961 0.12238133
