lightning_logs/version_34/checkpoints/epoch=244-step=980.ckpt (torch, 212262 bytes, 60 tensors)

model.model.pos f4 [50, 32]
0	0xbe3ae0e1	-0.18249847
1	0xbe471169	-0.19440235
2	0xbd93ab4f	-0.07210409
3	0xbe6b7db9	-0.22997178
4	0x3e658768	0.22414935
5	0x3dd7ceb8	0.10537475
6	0x3e5e28b2	0.21695212
7	0x3e603811	0.21896388
8	0x3e3b8aee	0.18314716
9	0xbd00d92c	-0.03145711
10	0x3e033c45	0.1281596
11	0x3dd9ecac	0.10640845
12	0xbe563138	-0.20917213
13	0xbe3eb13b	-0.18622296
14	0xbe49e7ab	-0.1971728
15	0x3d47b791	0.048759047
16	0x3cf39314	0.029733218
17	0xbe627d50	-0.22118115
18	0xbcb89020	-0.022529662
19	0x3dd767b2	0.10517825
20	0xbe671e14	-0.22570068
21	0x3e4ce2ca	0.20008388
22	0x3e84de43	0.25950822
23	0x3e49a5cd	0.19692154
24	0xbe6619b5	-0.22470744
25	0x3e583efb	0.21117775
26	0xbd3e8eab	-0.046522778
27	0x3c8210e1	0.01587719
28	0xbe35b712	-0.17745617
29	0x3db9bfe9	0.09069807
30	0x3c53684b	0.012903283
31	0x3e81fa2b	0.25386176
32	0x3e65742b	0.22407596
33	0xbe2f40de	-0.17114589
34	0xbe4eec0e	-0.20207235
35	0x3e4abfff	0.19799803
36	0x3df771a6	0.120822236
37	0xbdaaafdd	-0.083343245
38	0x3d58c652	0.052923508
39	0x3d976ffc	0.07394406
40	0xbd7994a9	-0.06093279
41	0xbe1d7c83	-0.15379529
42	0xbe297927	-0.16550122
43	0xbe46e453	-0.19423036
44	0xbe2256be	-0.15853402
45	0xbe219bf7	-0.15782152
46	0x3e3f2bd7	0.18669067
47	0x3d13fd7b	0.03613041
48	0x3cc19afb	0.02363347
49	0xbe2f9511	-0.17146708
50	0xbe172736	-0.14761052
51	0xbe0ed1bd	-0.13947196
52	0x3e410162	0.18848184
53	0x3e112c4b	0.14177053
54	0x3da18365	0.0788639
55	0xbe0701a1	-0.13184215
56	0x3c8189cc	0.015812777
57	0x3cb2373a	0.02175485
58	0xbd9724a1	-0.07380033
59	0xbe1e7983	-0.1547604
60	0xbe7b8ea4	-0.24566132
61	0xbd2bf1ca	-0.041978635
62	0xbe66a259	-0.22522868
63	0xbe85934f	-0.2608895
64	0x3e4b36ad	0.19845076
65	0xbe1aba02	-0.15110019
66	0x3d52b07f	0.05143785
67	0xbe3f0f18	-0.18658102
68	0xbe75a438	-0.23988426
69	0x3e77ff30	0.2421844
70	0xbdea18cb	-0.1143051
71	0xbe798412	-0.24366787
72	0xbe4b0193	-0.1982482
73	0xbe29fd38	-0.16600502
74	0xbe891f8a	-0.26781875
75	0xbe3d1783	-0.18466
76	0xbe2feda5	-0.17180498
77	0x3ddb1fd7	0.10699432
78	0xbd578a6a	-0.052622236
79	0xbe896617	-0.268357
80	0x3da84d38	0.08217853
81	0x3d0f95a5	0.03505482
82	0x3dfcb237	0.12338679
83	0x3e16f76d	0.14742823
84	0xbddf3803	-0.10899355
85	0x3e509d23	0.20372443
86	0xbcf59c29	-0.02998169
87	0xbd6cd96d	-0.05782454
88	0x3e27deb8	0.16393554
89	0xbe3e1195	-0.18561395
90	0xbe48ff64	-0.19628674
91	0x3b2af491	0.0026085714
92	0xbdd36b3b	-0.10323187
93	0x3e7251a5	0.23663957
94	0xbd6f362a	-0.058401264
95	0x39865396	0.00025620748
96	0xbe1a34be	-0.15059182
97	0x3e0d3177	0.137884
98	0xbe68fe82	-0.22753337
99	0x3e1c617e	0.15271565
100	0xbe5dd0ec	-0.21661729
101	0x3e573145	0.21014889
102	0x3e8c020c	0.27345312
103	0xbd991ba5	-0.07475976
104	0xbce69ba8	-0.028150395
105	0x3e283afa	0.16428748
106	0xbe6ace0d	-0.22930165
107	0xbe679183	-0.22614102
108	0xbe585aaf	-0.21128343
109	0xbe5a2856	-0.2130445
110	0x3dd2ebb2	0.102988616
111	0x3b498c22	0.0030753692
112	0x3e0c59f3	0.13706188
113	0xbe881817	-0.2658088
114	0xbe3f1280	-0.18659401
115	0x3e71e23f	0.23621462
116	0xbe89309c	-0.267949
117	0xbe4fdfc1	-0.20300199
118	0xbb83f6b3	-0.0040272116
119	0x3e305c05	0.17222603
120	0x3da7d1f8	0.08194345
121	0x3e7fcec0	0.24981213
122	0xbdb6aad7	-0.08919304
123	0x3c583e52	0.013198452
124	0xbddb8ebb	-0.10720583
125	0x3e0fc45f	0.14039753
126	0x3df55ec6	0.11980967
127	0x3e17beb7	0.14818846
128	0x3e8603e4	0.26174843
129	0xbe5d6685	-0.2162114
130	0x3e4d7eee	0.20067951
131	0xbe07c204	-0.13257605
132	0x3d97cb45	0.074118175
133	0xbe6af35f	-0.22944401
134	0x3dba93f8	0.09110254
135	0xbd0f7213	-0.0350209
136	0x3e668fdf	0.2251582
137	0x3b8d4ec1	0.0043123667
138	0x3cfbe255	0.030747572
139	0x3e4d18f7	0.20029055
140	0x3e298e17	0.16558109
141	0x3e57d07e	0.21075627
142	0xbdc20bf1	-0.09474934
143	0xbdda4f51	-0.1065966
144	0xbe067e50	-0.13134122
145	0x3e4dcb36	0.2009705
146	0xbe7dcc33	-0.24784927
147	0xbc880d76	-0.016607981
148	0xbde71dd1	-0.11284984
149	0x3da49aa8	0.08037311
150	0x3dd9efc5	0.106414355
151	0xbd631639	-0.055441115
152	0xbd3f8f28	-0.046767384
153	0xbd208f03	-0.039198887
154	0xbdca9bc1	-0.09892989
155	0xbdc33c13	-0.095329426
156	0x3b1cf8c6	0.0023951991
157	0x3e7c3d5d	0.24632783
158	0x3e1bc007	0.15209971
159	0xbd0fbd1a	-0.03509245
160	0x3e7108c0	0.23538494
161	0xbdef9f04	-0.11700252
162	0x3e0a98ab	0.135348
163	0x3d926c10	0.071495175
164	0x3e6fb219	0.23407783
165	0x3db6d260	0.089268446
166	0xbc34fc18	-0.011046432
167	0xbd0b1170	-0.033952177
168	0x3d9d2207	0.07672506
169	0x3e30eb34	0.17277223
170	0x3e557fbd	0.2084951
171	0xbcb10e27	-0.021613194
172	0xbd40cae5	-0.047068495
173	0x3e44809e	0.19189689
174	0x3db4fe28	0.08837539
175	0xbe4ae761	-0.19814827
176	0x3e239911	0.15976359
177	0xbd8354b3	-0.064126395
178	0x3c2c205a	0.01050576
179	0x3e745724	0.23861367
180	0xbdc9429e	-0.09827159
181	0x3e5f7664	0.21822506
182	0xbe19bd45	-0.15013607
183	0x3d480efa	0.048842408
184	0x3e64386b	0.22287147
185	0xbe3374f4	-0.17525083
186	0x3e843244	0.258196
187	0x3e678278	0.22608364
188	0xbe17c5cc	-0.14821547
189	0x3dd58ba0	0.10427022
190	0x3e5cccc7	0.21562491
191	0xbdc885a6	-0.097911164
192	0xbe6b66a9	-0.2298838
193	0x3de6d3ca	0.11270864
194	0xbe0d66b9	-0.13808717
195	0xbe308a8d	-0.17240353
196	0x3e83349c	0.25626075
197	0x3e362911	0.17789103
198	0xbe629c48	-0.22129929
199	0x3e7fd4f2	0.24983576
200	0x3e1ffea4	0.15624481
201	0xbe0f43fd	-0.13990779
202	0xbe6df8d9	-0.23239459
203	0x3e5c2ad7	0.21500717
204	0xbca59fa9	-0.020217733
205	0xbe00ec99	-0.12590255
206	0x3de1e2b7	0.110295705
207	0x3e1759b5	0.14780314
208	0xbd2c50fb	-0.042069416
209	0x3e7a3aaa	0.24436441
210	0xbd61d9b1	-0.055139247
211	0xbd16ecbd	-0.036846865
212	0xbd5e9254	-0.054338768
213	0x3e7623a9	0.24037041
214	0x3e41970b	0.18905275
215	0xbe81db4c	-0.25362623
216	0xbd46bee7	-0.048521902
217	0xbe023ef1	-0.12719323
218	0xbe5410e5	-0.2070957
219	0x3df74823	0.12074306
220	0x3da05db5	0.07830373
221	0xbe187bf5	-0.14891036
222	0xbdf06e21	-0.117397554
223	0xbe36459c	-0.17799991
224	0xbd2d8e74	-0.042372182
225	0x3cb980d1	0.022644432
226	0x3e5976b1	0.21236683
227	0xbc58600f	-0.013206496
228	0x3e6e1793	0.2325118
229	0xbd609959	-0.054833744
230	0xbe641e81	-0.22277261
231	0x3dfba3c9	0.12287099
232	0xbe37e18f	-0.17957138
233	0xbdda1252	-0.106480256
234	0x3e886140	0.26636696
235	0x3df2ec50	0.11861479
236	0x3e37ad4f	0.17937206
237	0xbe800b4d	-0.25008622
238	0xbe26e3e1	-0.16297866
239	0x3dd52487	0.10407358
240	0xbdb9224f	-0.09039747
241	0xbe2cc32a	-0.16871324
242	0xbe0487f1	-0.12942483
243	0xbcae21b4	-0.021256305
244	0x3e5a1717	0.2129787
245	0x3b842251	0.004032411
246	0x3cc97cca	0.024595637
247	0xbe3c475c	-0.18386596
248	0xbcf7ebe0	-0.030263841
249	0x3e0edef5	0.13952239
250	0xbe25c2d6	-0.16187605
251	0x3d7c5a94	0.06160982
252	0x3d0a4664	0.033758536
253	0xbd45e372	-0.048312612
254	0xbe307507	-0.17232142
255	0x3d8f27c8	0.069900095

model.model.embed.weight f4 [2, 32]
0	0x00000000	0.0
1	0x00000000	0.0
2	0x00000000	0.0
3	0x00000000	0.0
4	0x00000000	0.0
5	0x00000000	0.0
6	0x00000000	0.0
7	0x00000000	0.0
8	0x00000000	0.0
9	0x00000000	0.0
10	0x00000000	0.0
11	0x00000000	0.0
12	0x00000000	0.0
13	0x00000000	0.0
14	0x00000000	0.0
15	0x00000000	0.0
16	0x00000000	0.0
17	0x00000000	0.0
18	0x00000000	0.0
19	0x00000000	0.0
20	0x00000000	0.0
21	0x00000000	0.0
22	0x00000000	0.0
23	0x00000000	0.0
24	0x00000000	0.0
25	0x00000000	0.0
26	0x00000000	0.0
27	0x00000000	0.0
28	0x00000000	0.0
29	0x00000000	0.0
30	0x00000000	0.0
31	0x00000000	0.0
32	0x3ebf908a	0.37414962
33	0xbf593885	-0.84851867
34	0xbfc20049	-1.5156337
35	0x3eaebeff	0.34130093
36	0xbf75411d	-0.9580248
37	0xbe9d1214	-0.30677855
38	0x3fc14f00	1.5102234
39	0xbf7aa696	-0.9791044
40	0x3fb43a36	1.4080265
41	0x4007586d	2.114772
42	0x3fa9b015	1.3256861
43	0xbec51312	-0.38491112
44	0x3f9d86fc	1.2306819
45	0xbf70b9de	-0.9403361
46	0xbec62b4a	-0.38704902
47	0x3eedb4e1	0.46427062
48	0x3fe0b4b2	1.7555144
49	0xbf0d6f5c	-0.55248046
50	0x3ff9dd8f	1.9520739
51	0xbea0cd1a	-0.3140648
52	0x3f2a1c4f	0.66449445
53	0x3d441ced	0.04787915
54	0x3fc632bb	1.5484232
55	0xbf3bfeb7	-0.7343554
56	0xbedcc6f3	-0.43120536
57	0xbf94e9aa	-1.1633809
58	0xbe135a29	-0.14389862
59	0x3dfb9694	0.1228458
60	0xbf695ca8	-0.9115701
61	0x3fad0380	1.3516693
62	0xbee3fd75	-0.4452931
63	0x3f19e765	0.60118705

model.model.decoder.retentions.0.W_G f4 [32, 32]
0	0xbc915549	-0.017740862
1	0x3c93b843	0.018032199
2	0x3c479219	0.0121808285
3	0x3d1c655f	0.038182613
4	0x3d143326	0.03618159
5	0x3d2987f0	0.041389406
6	0x3762e8e8	1.3524877e-05
7	0xbd01df76	-0.03170725
8	0x3d048af3	0.032359075
9	0x3ca0c005	0.019622812
10	0xbcaa43d9	-0.020784305
11	0x3b2467f8	0.0025086384
12	0x3d63bd51	0.055600468
13	0x3b7fd86a	0.0039038905
14	0xbd19de28	-0.03756538
15	0x3d011e03	0.031522762
16	0x3dc3d6c5	0.095624484
17	0x3c783f76	0.015151849
18	0x3c5120c6	0.012764161
19	0x3bc5d794	0.006037662
20	0x3c9e185a	0.019298721
21	0xbb96b5e8	-0.0045993216
22	0x3d070513	0.032963824
23	0xbc9e28dc	-0.019306593
24	0xbca6da65	-0.02036781
25	0x3cff6683	0.031176811
26	0x3cc82f3a	0.024436582
27	0x3cc53ede	0.024077829
28	0x3c2fddb2	0.010734009
29	0xbc146fd1	-0.009059862
30	0xbd097006	-0.0335541
31	0xbbc6ca37	-0.0060665864
32	0xbd168417	-0.036747064
33	0x3c73dbc1	0.014883936
34	0x3b239718	0.0024961885
35	0x3c6e5a50	0.014547899
36	0x3be3defb	0.0069540716
37	0x3cc479cc	0.023983859
38	0xbca1b8c4	-0.019741423
39	0x3d3cbb2a	0.04607693
40	0xbcac1dec	-0.021010362
41	0xbc674355	-0.014115174
42	0xbc1630fe	-0.009166954
43	0x3d40bc9e	0.04705488
44	0xbd294368	-0.04132405
45	0xbba2e6ca	-0.00497136
46	0xbce45e34	-0.02787695
47	0xbb005136	-0.0019579655
48	0xbce3efe9	-0.027824359
49	0xbd86bfdb	-0.06579562
50	0x3d39e942	0.045388468
51	0x3d530083	0.05151416
52	0x3be74e4d	0.0070588947
53	0xbd238a5b	-0.039926868
54	0xbc51ac0c	-0.012797367
55	0x3cda72a6	0.026665997
56	0x3b5e44f2	0.0033915606
57	0xbd6465ff	-0.055761334
58	0x3c598688	0.013276704
59	0xbc90fcc5	-0.017698655
60	0xbab803ba	-0.0014039197
61	0x3b79e6ae	0.003813188
62	0xbbff5e43	-0.0077932193
63	0xbd44b99c	-0.048028573
64	0xbd0cd805	-0.0343857
65	0xba8fcc62	-0.0010970945
66	0x3b6cb67e	0.0036119516
67	0xbacbcf95	-0.0015549535
68	0x3d1bfec1	0.03808475
69	0xbbd58a9b	-0.006516767
70	0x3cb6f69e	0.022334393
71	0xbd4f0bfc	-0.05054854
72	0x3cc3ebdc	0.023916177
73	0xbd80de43	-0.06292393
74	0xbcaa30b4	-0.020775177
75	0xbb51043d	-0.0031893395
76	0xbc8de135	-0.017319301
77	0x3ce350c6	0.027748477
78	0x3d9eb38c	0.077490896
79	0x3cee514f	0.029091505
80	0x3df0e524	0.11762455
81	0x3d664f38	0.056227893
82	0xbb9b04a7	-0.004730779
83	0x3d407ea4	0.046995774
84	0xbca0ff91	-0.019653114
85	0xbd5c62a8	-0.053805023
86	0x3c1f9fbe	0.009742675
87	0x3d8564c5	0.06513361
88	0xbd3236f8	-0.043509454
89	0xbdac830f	-0.08423435
90	0xbc9eb783	-0.019374615
91	0x3d19ec78	0.03757903
92	0x3d527b46	0.051387094
93	0xbd0fff9e	-0.035155885
94	0x3c8a826d	0.016907895
95	0xbda206f9	-0.07911486
96	0x3d0e3a8c	0.034723803
97	0xbc04b2ed	-0.0080993
98	0xbd033679	-0.03203437
99	0x3ccd3d8d	0.025053764
100	0xbd925f8e	-0.07147132
101	0x3dc35ef0	0.09539592
102	0xbcd1083d	-0.025516624
103	0x3c86c10e	0.016449478
104	0xbd0f5190	-0.034989893
105	0xbd061750	-0.032737076
106	0xbc9ad242	-0.018899087
107	0xba17a81f	-0.0005785245
108	0x3d12b363	0.035815608
109	0xbce25ec2	-0.027633075
110	0xbc23154f	-0.009953811
111	0x3ca9361d	0.020655686
112	0xbd22c62f	-0.039739784
113	0xbba51a9e	-0.0050385734
114	0x3cb10445	0.021608481
115	0x3d2eba5b	0.04265819
116	0x3cb70951	0.02234331
117	0x3d4f1d14	0.05056484
118	0xbd451042	-0.048111208
119	0xbdb0cc00	-0.0863266
120	0xbbb404cf	-0.0054937373
121	0x3d4f6ecd	0.050642777
122	0xbd583112	-0.052781172
123	0xbb2c9138	-0.0026331674
124	0xbc2cb2b8	-0.010540657
125	0x3c2b3739	0.010450178
126	0x3c980472	0.018556807
127	0xbc983cc3	-0.018583661
128	0x3c8affd7	0.016967697
129	0xbd28d3eb	-0.041217726
130	0x3d0bc1a2	0.03412021
131	0x3b9c8e8e	0.004777736
132	0xbc286ff2	-0.010280596
133	0xbdac90e1	-0.08426071
134	0x3cffed26	0.03124101
135	0xbbfc9b0d	-0.007708913
136	0x3d455a79	0.048181985
137	0xbd1fae5a	-0.038984634
138	0xbd6a0d4d	-0.05714159
139	0xbcb170aa	-0.021660168
140	0xbb9c31aa	-0.0047666626
141	0xbd6e6836	-0.058204852
142	0xbd28d557	-0.04121908
143	0xbc103f39	-0.008804136
144	0x3d6a86da	0.05725751
145	0xbd6c704e	-0.05772429
146	0xbbdefc36	-0.006804968
147	0x3cff522f	0.031167118
148	0x3cfce96e	0.030873027
149	0xbbfe5979	-0.007762131
150	0x3bc19c83	0.00590855
151	0xbc921ace	-0.017835047
152	0xbade529c	-0.0016961875
153	0xbd69a8fd	-0.057045925
154	0xbcb6c735	-0.022311786
155	0x3c9fa0aa	0.01948579
156	0xbc825359	-0.015908884
157	0xbd205e4a	-0.03915242
158	0xbd5d2bcf	-0.053996857
159	0xbd39cdf8	-0.045362443
160	0x3cf8f2c3	0.030389195
161	0x3d452ee7	0.048140433
162	0xbd18c791	-0.037299696
163	0x3ba895ae	0.0051447963
164	0xbd5b05a5	-0.05347218
165	0xbd69ff5e	-0.057128303
166	0x3daea00c	0.0852662
167	0x3d49eb9f	0.04929697
168	0x3c5dd73e	0.013540087
169	0x3c976401	0.018480303
170	0x3d9dfbe6	0.077140614
171	0xbc4e17df	-0.0125789335
172	0x3ddab510	0.10679066
173	0x3d70c36a	0.05878011
174	0xbd555aa0	-0.05208838
175	0x3c74d829	0.014944115
176	0xbcfbc05d	-0.030731374
177	0x3d22a97b	0.03971241
178	0xbd00523d	-0.03132843
179	0xbdd1b244	-0.102390796
180	0x3d2b8736	0.041876994
181	0x3d788a2c	0.060678646
182	0x3b70fd7c	0.0036772182
183	0x3d31078e	0.043220095
184	0xbce1b8de	-0.027553972
185	0xbc57c5ba	-0.0131697
186	0x3cbe3d27	0.02322252
187	0x3d257423	0.04039396
188	0xbc14e613	-0.009088057
189	0xbd1c91f7	-0.03822514
190	0xbc62dd1f	-0.013846665
191	0xbd783d5f	-0.060605403
192	0x3c409725	0.011754786
193	0x3ccfcba6	0.025365662
194	0x3c34dae7	0.0110385185
195	0x3c12b849	0.00895507
196	0xbc9490df	-0.018135486
197	0xbd3d9ab1	-0.046290103
198	0xbcb6c141	-0.022308948
199	0xbc9a6c83	-0.01885057
200	0xbdb65819	-0.08903522
201	0x3c052b33	0.008127975
202	0x3beb239b	0.0071758754
203	0xbcd13b7d	-0.025541062
204	0x3d0e2655	0.034704525
205	0xbda8b2f3	-0.08237257
206	0xbd1b58a0	-0.037926316
207	0xbd0dbfc1	-0.0346067
208	0x3a7ec6f0	0.0009718975
209	0xbbd65502	-0.0065408954
210	0xbcb47154	-0.022026695
211	0xbd1bd4f5	-0.03804489
212	0x3d64937a	0.055804707
213	0xbc670585	-0.014100437
214	0x3d99a78e	0.07502662
215	0xbc5f748e	-0.013638629
216	0x3c562f5d	0.013072816
217	0x3d9ef8c3	0.07762291
218	0xbcad28e4	-0.021137662
219	0xbd5079d6	-0.05089744
220	0x3cfdc2ff	0.03097677
221	0x3d180385	0.03711273
222	0x3d0e3dff	0.034727093
223	0x3d540c43	0.051769506
224	0x3d1fae4b	0.038984578
225	0x3b411384	0.0029461095
226	0xbb7934f3	-0.0038025945
227	0x3d037bd1	0.032100502
228	0xbd06a55c	-0.032872543
229	0xbd113241	-0.035448316
230	0x3cb51897	0.022106452
231	0xbd2ce22e	-0.04220789
232	0x3ce1322d	0.027489746
233	0x3c8196c3	0.01581896
234	0x3bb398ab	0.005480846
235	0x3d2b06b5	0.041754443
236	0xbd761d2b	-0.06008641
237	0xbd7e16b4	-0.06203337
238	0xbd3ede6c	-0.046598837
239	0x3ce07b81	0.027402641
240	0x3ca965b4	0.020678379
241	0xbd929c04	-0.07158664
242	0x3cdc6f2b	0.026908478
243	0xbd07701a	-0.033065893
244	0x3d19b987	0.03753045
245	0x3cbee521	0.023302617
246	0x3d737b4f	0.059443768
247	0xbd453d97	-0.04815444
248	0xbd47a96d	-0.04874556
249	0xbdc2c5c9	-0.09510381
250	0x3ccdb5dd	0.025111133
251	0x3c37bc33	0.011214304
252	0xbbfe4d6b	-0.007760694
253	0xbd0a1759	-0.033713672
254	0xbcf3ef3e	-0.029777166
255	0xbc40e2da	-0.011772836

model.model.decoder.retentions.0.W_O f4 [32, 32]
0	0xbc4f4a8b	-0.01265205
1	0xbb223ed7	-0.0024756694
2	0xbd49277c	-0.04910992
3	0x3d1a3b24	0.037654057
4	0x3da6c5ba	0.08143182
5	0xbd2e2fe2	-0.042526133
6	0xbc915ba4	-0.017743893
7	0xbcc57102	-0.024101738
8	0x3d519c2a	0.05117432
9	0xbbf3d9bd	-0.007441728
10	0xbd8dbb03	-0.06920435
11	0xbd53290f	-0.05155283
12	0x3c7c1799	0.0153864855
13	0xbd0e6a53	-0.034769367
14	0x3c2d5216	0.010578653
15	0xbc45b43f	-0.0120669
16	0x3d3d3a0a	0.04619793
17	0xbd53ead3	-0.051737618
18	0x3bc628a9	0.0060473275
19	0x3c51898e	0.012789143
20	0xbcffb958	-0.031216308
21	0xbd0524c5	-0.03250577
22	0xbd16c37f	-0.036807533
23	0x3a2e3ee2	0.00066469435
24	0xbda78293	-0.08179202
25	0xbd1d8ff6	-0.03846737
26	0xbc84b5a2	-0.01619989
27	0x3c6cb73e	0.014447985
28	0x39632240	0.00021661166
29	0xbc8b8f98	-0.017036244
30	0xbca17891	-0.01971081
31	0x3d1b0369	0.03784505
32	0x3d0aa422	0.033847935
33	0x3d1c06d7	0.03809246
34	0x3d2a805e	0.041626327
35	0x3dba95f7	0.09110635
36	0xbd3b56a5	-0.045736928
37	0xbd394422	-0.045230992
38	0x3d490cd8	0.049084514
39	0x3c8cd417	0.017190976
40	0x3d14df84	0.036345974
41	0x3d0ac708	0.033881217
42	0x3c2604c2	0.01013297
43	0x3cdda199	0.027054595
44	0x3d30744d	0.043079663
45	0xbced91d4	-0.0290002
46	0x3d138862	0.036018737
47	0x3cb82fe2	0.02248377
48	0x3d0be706	0.034155868
49	0xbbc71cfe	-0.006076454
50	0xbc0b6d63	-0.008509967
51	0x3d8dc788	0.06922823
52	0xbca3e6b0	-0.020007461
53	0x3bc9a9fc	0.006154297
54	0xbb9426f4	-0.004521245
55	0xbc0dc66b	-0.008653264
56	0xbd9abd7d	-0.07555673
57	0xbd679c48	-0.056545526
58	0xbc0097e5	-0.0078487145
59	0x3c3543cc	0.011063527
60	0x3a6d6590	0.00090559665
61	0x3bb36672	0.005474859
62	0xbd1cde0c	-0.038297698
63	0x3c550dde	0.0130037945
64	0x3d8625cd	0.06550179
65	0xbcb71878	-0.022350535
66	0xbc15df8e	-0.009147538
67	0x3bd0cfc3	0.0063724234
68	0x3c029523	0.007970127
69	0xbd37c729	-0.04486767
70	0x3cb3b5ce	0.021937277
71	0x3d68567c	0.056723103
72	0x3c91564f	0.01774135
73	0x3d74a255	0.059725124
74	0x3c8c8986	0.01715542
75	0x3d71b565	0.059010882
76	0x3ce6eff8	0.028190598
77	0xbd1776ac	-0.03697841
78	0xbda41349	-0.08011491
79	0x3be17f62	0.0068816403
80	0x3c3fce19	0.011706852
81	0xbcf14a40	-0.02945435
82	0x3d201da6	0.039090775
83	0x3c4f599a	0.01265564
84	0xbd2f9922	-0.04287065
85	0xbb9af336	-0.0047287
86	0x3bd12435	0.00638249
87	0xbd1695a6	-0.03676381
88	0x3d0e519f	0.03474581
89	0xbbd953b2	-0.0066322917
90	0x3c9a3394	0.018823422
91	0x3dba0fc8	0.09085041
92	0xbcc79635	-0.024363616
93	0x3d1cd6e6	0.03829088
94	0xbc962951	-0.018330248
95	0x3c18c060	0.0093232095
96	0xbd7ccf8c	-0.06172137
97	0x3cefdb46	0.029279362
98	0xbd0def7e	-0.034652226
99	0x3d774dd6	0.060376965
100	0x3d2ae200	0.041719437
101	0xbc0b42bb	-0.0084997965
102	0xbd03f1ce	-0.032213025
103	0x3cb12f6e	0.021629062
104	0x3d652e5f	0.055952426
105	0x3b4e56a0	0.0031484738
106	0x3c8d1e40	0.017226338
107	0x3c30f8b0	0.010801479
108	0xbccf58d2	-0.025310908
109	0xbd70c829	-0.058784638
110	0x3cbad774	0.022807814
111	0x3d2fb75a	0.042899467
112	0x3cfbb441	0.0307256
113	0xbd625b01	-0.05526257
114	0x3cfc8cfa	0.030828942
115	0xbc146c53	-0.00905903
116	0xbb45c54d	-0.0030177415
117	0x3cdbd99c	0.026837163
118	0x3ba0a256	0.0049021645
119	0xbd7f3765	-0.062308688
120	0xbd88370c	-0.06651124
121	0x3c8f55d0	0.017496973
122	0xbca8e9b3	-0.020619249
123	0xbb3c6006	-0.0028743758
124	0xbda478a8	-0.08030826
125	0xbcf10769	-0.029422479
126	0xbd456ea9	-0.048201237
127	0xbd3d3cfc	-0.046200737
128	0xbd80ab35	-0.06282655
129	0xbd46ee20	-0.048566937
130	0x3b3d1c2c	0.0028855903
131	0x3d33d25b	0.043901782
132	0xbcbb26d2	-0.02284566
133	0x3bb03fd8	0.0053787045
134	0xbbcd73a9	-0.0062698913
135	0x3c93b9f2	0.018033002
136	0x3d6b8578	0.057500333
137	0x3dba0a23	0.09083965
138	0x3d15280b	0.03641514
139	0xbca7a1ae	-0.020462837
140	0x3d23c9aa	0.039987244
141	0xbd5d8a1d	-0.054086793
142	0xbb9e2e8b	-0.0048273257
143	0x3d8da858	0.06916875
144	0x3d1ecfd9	0.038772438
145	0xbd54f94e	-0.051995568
146	0xbd8967a2	-0.067092195
147	0xbcb85f5b	-0.022506407
148	0xbc56af8d	-0.013103378
149	0xbc8fb9c2	-0.01754463
150	0x3d401938	0.04689905
151	0xbcd15016	-0.025550883
152	0xbd08cbcd	-0.033397485
153	0xbd858988	-0.06520373
154	0xbdaa9eb6	-0.08331053
155	0x3cda1093	0.026619231
156	0x3c4f6edd	0.012660709
157	0xbc998bc1	-0.018743398
158	0xbcb4504e	-0.022010949
159	0x3d063713	0.032767367
160	0x3c13158b	0.008977304
161	0xbd2d0e7f	-0.042250153
162	0xbd70b5e9	-0.058767233
163	0xbc36fd06	-0.011168724
164	0xbca98c50	-0.020696789
165	0xba503c94	-0.0007943597
166	0xbc729cab	-0.01480786
167	0xbd1c98a6	-0.038231514
168	0xbc015c0f	-0.007895484
169	0x3c9d150c	0.019175075
170	0x3b0069f9	0.0019594415
171	0xbd633276	-0.055468045
172	0x3bdaf508	0.006682042
173	0xbc90905f	-0.017646967
174	0xbc8542f4	-0.016267277
175	0xbcd64790	-0.02615717
176	0x3983b521	0.0002512122
177	0xbd026fd4	-0.03184493
178	0xbd20890e	-0.039193206
179	0x3d4d734a	0.050158776
180	0x3ce802f7	0.028321726
181	0x3ca33bbc	0.019925945
182	0x3b5b2019	0.003343588
183	0xbd2918a4	-0.041283265
184	0xbc725016	-0.014789602
185	0xbc4befbf	-0.012447297
186	0x3c10dcae	0.008841677
187	0x3cd7e57b	0.026354542
188	0xbd26ebf0	-0.04075235
189	0xbd84fa41	-0.06493045
190	0x3cfe2fd3	0.031028664
191	0x3c6be77f	0.014398455
192	0x3d2e38c2	0.042534597
193	0xbbd07e09	-0.006362681
194	0x3afe3e69	0.0019397262
195	0xbcda2af8	-0.026631817
196	0xbc909610	-0.01764968
197	0x3b6e2fb7	0.0036344358
198	0xbcea236c	-0.028581344
199	0xbce333f0	-0.027734727
200	0xbd5d8439	-0.054081175
201	0xbd5fff26	-0.054686688
202	0xbd107aef	-0.03527349
203	0xbba860dc	-0.0051384997
204	0xbcd3acbe	-0.025839206
205	0x3cfd4110	0.030914813
206	0xbcda84f4	-0.026674725
207	0x3b486cc4	0.0030582407
208	0xbd00dfc6	-0.031463407
209	0x3cdaf2db	0.02672713
210	0xbac11a61	-0.0014732593
211	0xbcc24ecc	-0.023719214
212	0x3d294344	0.041323915
213	0x3ca5f477	0.020258171
214	0xbb83616f	-0.0040094177
215	0x3cdf5769	0.02726336
216	0xbd32d517	-0.04366025
217	0x3ca73e79	0.020415531
218	0x3da1deb5	0.07903806
219	0xbd1c0207	-0.03808787
220	0xbc27fc0d	-0.010252965
221	0xbc903b59	-0.017606424
222	0xbc0412a6	-0.008061087
223	0xbce675ed	-0.028132403
224	0xbc96535d	-0.018350298
225	0x3cd434eb	0.02590414
226	0x3c0af1cb	0.0084804995
227	0xbcc9ec60	-0.024648845
228	0xbbaea099	-0.0053292033
229	0xbb65d5ca	-0.0035070055
230	0xbd4e7f16	-0.050414167
231	0x3c3253ea	0.0108842645
232	0xbc045558	-0.008076988
233	0xbcc6899e	-0.024235543
234	0xbd6aa405	-0.057285327
235	0xbaadbf24	-0.0013255817
236	0xbd3d0c38	-0.04615423
237	0x3ce18727	0.027530266
238	0xbd6767d4	-0.056495503
239	0xbd911ce4	-0.070855886
240	0x3c28a90d	0.010294211
241	0x3d816c02	0.06319429
242	0x3d80cac3	0.06288674
243	0xbd5e7dd5	-0.05431922
244	0x3d5224f6	0.05130478
245	0xbccf8750	-0.025333077
246	0x3cba0e98	0.022712037
247	0x3d3b3989	0.045709167
248	0x3cae8940	0.02130568
249	0xbbdeceb3	-0.006799543
250	0x3cedb512	0.029017005
251	0xbd94c164	-0.07263449
252	0x3ccc95a0	0.02497369
253	0x3d02a8f1	0.031899396
254	0xbc921629	-0.017832832
255	0x3ca6945d	0.020334417

model.model.decoder.retentions.0.group_norm.weight f4 [32]
0	0x3f808fb6	1.0043857
1	0x3f82164c	1.0163054
2	0x3f828f55	1.0199991
3	0x3f83e559	1.0304366
4	0x3f824290	1.0176563
5	0x3f7d6784	0.9898608
6	0x3f820036	1.0156314
7	0x3f82280c	1.0168471
8	0x3f831c1f	1.0242957
9	0x3f831d2e	1.024328
10	0x3f81b517	1.0133389
11	0x3f80239c	1.0010867
12	0x3f827ca2	1.0194285
13	0x3f839595	1.0280024
14	0x3f82430e	1.0176713
15	0x3f82a713	1.0207237
16	0x3f84803b	1.0351633
17	0x3f839f53	1.0282997
18	0x3f7e6598	0.9937377
19	0x3f816639	1.0109321
20	0x3f81daff	1.0144957
21	0x3f82d581	1.0221406
22	0x3f8169a2	1.0110362
23	0x3f839533	1.0279907
24	0x3f7fa12c	0.99855304
25	0x3f863e88	1.0487833
26	0x3f82fbb5	1.0233065
27	0x3f7cd2ab	0.98758954
28	0x3f80b64a	1.005563
29	0x3f7de20b	0.9917304
30	0x3f81341e	1.009403
31	0x3f86bfca	1.0527279

model.model.decoder.retentions.0.group_norm.bias f4 [32]
0	0xbad8da65	-0.0016544579
1	0x3c03174c	0.00800116
2	0xbc988d9a	-0.018622208
3	0xbd1a1704	-0.037619606
4	0xbc4d0a9b	-0.012514736
5	0xbc2128c7	-0.009836382
6	0xbb353f82	-0.0027656262
7	0xbcefa560	-0.029253662
8	0xbcf9b2cd	-0.030480767
9	0x3d07fda0	0.03320086
10	0xbc47c7c2	-0.012193622
11	0xbc4e5f07	-0.0125958985
12	0xbc1c1ec9	-0.009528824
13	0xbc9fa797	-0.019489093
14	0x3cdbc069	0.026825147
15	0x3ce6a718	0.028155848
16	0x3cbf4ad2	0.023351107
17	0xbcd71371	-0.026254388
18	0x3c0fda14	0.008780021
19	0x3bbfa83f	0.005848914
20	0x3ba195a8	0.0049311705
21	0xba48965c	-0.00076518
22	0xbc367eae	-0.011138601
23	0x3c23bfae	0.0099944305
24	0x3c5023f4	0.012703884
25	0x3d36ebef	0.044658598
26	0x3d068631	0.03284282
27	0xbb357601	-0.0027688744
28	0x3c822d15	0.015890637
29	0x3b860af8	0.004090663
30	0xbcea7015	-0.028617898
31	0x3d1864af	0.037205394

model.model.decoder.retentions.0.retentions.0.W_Q f4 [32, 32]
0	0xbc63e2dd	-0.013909069
1	0x3ca11483	0.019663101
2	0x3ceaf6f7	0.028682215
3	0xbcc5996b	-0.024121007
4	0x3d95eb0b	0.073202215
5	0xbc0625b3	-0.008187699
6	0x3cc10306	0.023561012
7	0xbcbf6de6	-0.023367833
8	0xbc44ff46	-0.012023753
9	0x3d1d537b	0.03840969
10	0x3bc7360c	0.006079441
11	0x3c3ceac0	0.011530578
12	0x3d543043	0.05180384
13	0x3ad69adc	0.0016373056
14	0xbbabf389	-0.0052475375
15	0xbd6cf16f	-0.057847437
16	0xbd545308	-0.051836997
17	0xbcbf8f46	-0.023383748
18	0x3cfe671f	0.031055031
19	0x3c09b709	0.008405455
20	0xbc00cbec	-0.007861119
21	0xbcbfd162	-0.023415271
22	0xbc8895ae	-0.016672935
23	0xbcfc0a7c	-0.030766718
24	0x3b712569	0.003679598
25	0xbd48e37c	-0.04904507
26	0x3cdfe3db	0.02733033
27	0x3d288bb8	0.04114887
28	0x3d4cdff3	0.050018262
29	0xbd081c2b	-0.033229988
30	0xbcacf0cc	-0.021110915
31	0xbc24319a	-0.010021592
32	0xbd115728	-0.03548351
33	0xbca6de78	-0.020369753
34	0x3ce95ad3	0.028485691
35	0x3af08598	0.0018350361
36	0xbd1f5d77	-0.038907494
37	0x3cdb30e8	0.026756719
38	0x3d64f262	0.055895217
39	0xbbce997a	-0.006304917
40	0xbce76ee1	-0.028251113
41	0xbd17030b	-0.036868136
42	0xbcd7bde2	-0.02633566
43	0x3bdae2b5	0.0066798576
44	0xbccf73a5	-0.025323698
45	0xbbe7f971	-0.0070792963
46	0x3d6f1db7	0.058377948
47	0x3d04f1ac	0.03245704
48	0x3cdfd682	0.027323965
49	0x3c0daa4f	0.008646562
50	0x3d26b70f	0.040701922
51	0xbc97e9e7	-0.01854415
52	0xbb71956a	-0.003686274
53	0xbd17e3c6	-0.037082456
54	0xbccc8376	-0.02496503
55	0xbc996938	-0.01872693
56	0xbd45181d	-0.0481187
57	0x38884039	6.496948e-05
58	0x3cd61e84	0.026137598
59	0x3ca70d29	0.020392017
60	0x3dbe6c65	0.09298018
61	0xbd1ce31a	-0.03830252
62	0x3c63e80b	0.013910304
63	0xb96ef54c	-0.00022788829
64	0xbcba2416	-0.022722285
65	0xbd4a9ec4	-0.049467817
66	0xbcf7e800	-0.030261993
67	0xbcd2bbcd	-0.025724316
68	0xbd7b7d06	-0.06139853
69	0x3c054bc0	0.008135736
70	0xbd3ecc8a	-0.046581782
71	0xbd3ac658	-0.04559931
72	0x3a24dea2	0.00062892784
73	0xbc04a058	-0.00809487
74	0xbb1a3c30	-0.002353441
75	0x3c6b0a2e	0.014345689
76	0x3cd0609f	0.025436698
77	0x3ccc1067	0.024910165
78	0xbd75879f	-0.05994379
79	0xbc70ff7e	-0.014709352
80	0x3cb682ff	0.02227926
81	0x3a59ef30	0.0008313535
82	0x393de5f1	0.00018110104
83	0xbd54ca65	-0.05195083
84	0xbd2c2b72	-0.04203362
85	0xbc2fb114	-0.010723371
86	0x3bcf2fec	0.0063228514
87	0x398aaa43	0.00026448266
88	0xbbc9c76e	-0.006157807
89	0x3d90207a	0.070374444
90	0xbc157177	-0.00912129
91	0xbc3d97cc	-0.011571836
92	0xbd1625b1	-0.03665704
93	0x3b97bb90	0.0046305135
94	0x3d14eb0f	0.03635698
95	0x3b28f02d	0.0025777922
96	0x3ca55cfd	0.020185942
97	0x3d20c703	0.039252292
98	0xbccfd3d6	-0.025369566
99	0x3bee5973	0.007273847
100	0xbd0a76df	-0.03380477
101	0x3d2d5f8f	0.04232746
102	0x3c862cbb	0.016378751
103	0x3c9e70cb	0.019340893
104	0xbd6c9d64	-0.057767287
105	0x3b13201e	0.0022449563
106	0x3d3aec56	0.045635544
107	0x3bc4760e	0.0059955185
108	0x3d004b8c	0.031322047
109	0xbc008ef9	-0.007846587
110	0xbc2fc5e3	-0.010728332
111	0x3d269efb	0.04067896
112	0xbca38950	-0.019962937
113	0xbc52d025	-0.012867008
114	0xbd81a33e	-0.06329964
115	0xbc0ee24f	-0.008720948
116	0x3c1eb278	0.009686105
117	0xbc503a20	-0.012709171
118	0xbc182f52	-0.009288626
119	0x39d4cbff	0.0004058778
120	0xbd8d7186	-0.069064185
121	0x3b4fd558	0.0031712856
122	0xbc4fc648	-0.012681551
123	0x3d30d165	0.043168444
124	0x3c4e4a3e	0.012590943
125	0x3c2ddf75	0.010612358
126	0x3d468469	0.04846612
127	0xbc9c4ec4	-0.019080527
128	0xbcc76d80	-0.024344206
129	0x3c48953d	0.012242612
130	0x3d22360e	0.03960233
131	0x3c8d3175	0.017235497
132	0x3d005d2e	0.031338863
133	0xbcd2543b	-0.02567493
134	0x3cba4a7f	0.0227406
135	0x3c91f537	0.017817123
136	0x3c11505f	0.00886926
137	0x3cfaa122	0.030594412
138	0xbd2369ee	-0.039895944
139	0x3d027f40	0.031859636
140	0x3b486691	0.0030578712
141	0xbc2e19d8	-0.010626279
142	0xbba342cb	-0.0049823276
143	0xbd6c2c1a	-0.057659246
144	0xbb4b6adb	-0.0031039033
145	0xbc75789e	-0.014982371
146	0x3b0b6a2b	0.0021272998
147	0x3c28218f	0.010261907
148	0xbc1fa2cf	-0.009743406
149	0x3cafdb4e	0.021466877
150	0xbc86d8ae	-0.016460743
151	0xbb871ea6	-0.0041235266
152	0x3d6303a3	0.05542339
153	0x3ce4f75c	0.027949981
154	0xbba3cd9a	-0.004998875
155	0x3cbc8542	0.023012761
156	0xbcc736f7	-0.024318201
157	0x3bc5116a	0.006014039
158	0x3b814ed2	0.0039461637
159	0x3d4a8e03	0.04945184
160	0x3b28c9ad	0.0025754974
161	0xbafb65be	-0.0019180102
162	0x3cc8e840	0.024524808
163	0x3c3565f3	0.01107167
164	0x3b3b7475	0.002860335
165	0x3b810654	0.003937522
166	0xbd556f0a	-0.05210785
167	0xbc330418	-0.010926269
168	0xbc8c9a14	-0.017163314
169	0xbce9e579	-0.028551804
170	0xbcab4a5c	-0.02090948
171	0xbce295cd	-0.027659321
172	0xba34a3d6	-0.00068908685
173	0xbce0cb33	-0.027440643
174	0x3c8cc2a8	0.017182663
175	0x3c67e9d1	0.014154867
176	0x3d0ee324	0.034884587
177	0x3b02c231	0.0019952173
178	0x3a72d9a7	0.0009264
179	0xbd0c29b4	-0.03421946
180	0x3d522654	0.051306084
181	0x3b679d28	0.0035341475
182	0x3a482f96	0.00076364854
183	0x3c707e87	0.014678604
184	0xbcbe49aa	-0.023228485
185	0x3ae027d0	0.0017101709
186	0x3cb108d1	0.02161065
187	0xbc34504d	-0.011005473
188	0x3d0dbfd4	0.03460677
189	0xbc352d47	-0.011058158
190	0xba1e94b0	-0.0006049378
191	0x3d2e97c9	0.042625222
192	0xbb89397c	-0.004187761
193	0xbbae9f53	-0.0053290515
194	0xbb8a7f9a	-0.004226637
195	0xbd44e4a9	-0.04806963
196	0x3cce9be2	0.025220815
197	0xbce3275d	-0.02772873
198	0x3c08d86f	0.008352383
199	0xbc6902d6	-0.014221868
200	0x3d068e05	0.032850284
201	0xbd5c9bfc	-0.053859696
202	0xbcddd973	-0.027081227
203	0x3c15391f	0.009107857
204	0xbccf28e4	-0.025288053
205	0x3bfaf7da	0.0076589407
206	0x3c90fe05	0.017699251
207	0xbd09d68b	-0.03365187
208	0xbc73f144	-0.014889065
209	0x3caa7bf6	0.020811062
210	0x3cc0b38c	0.023523115
211	0x3d90888b	0.070572935
212	0x3b27b863	0.002559208
213	0xbb3fba9b	-0.0029255513
214	0x3cfdc7c9	0.030979054
215	0x3ba15257	0.0049231458
216	0x3b5fc881	0.003414661
217	0x3c9ffe35	0.019530395
218	0x3c10cf42	0.008838477
219	0x3cd6f554	0.026240028
220	0x3c9639fb	0.018338194
221	0xb9bfcbb9	-0.00036582144
222	0xbd0b3285	-0.033983726
223	0xbb8c2189	-0.0042764586
224	0xbc24877b	-0.010042067
225	0xbd6bbbc8	-0.05755213
226	0xbc82ba9d	-0.015958125
227	0x3cd16c98	0.025564477
228	0xbd47efe3	-0.04881276
229	0x3cf5d289	0.030007618
230	0xbc2ba353	-0.010475951
231	0xbbffc65a	-0.007805628
232	0xbcd6dbb0	-0.026227802
233	0xbc8b7ca1	-0.017027201
234	0xbb8f0e6e	-0.004365734
235	0x3c220f17	0.009891293
236	0xbc76845b	-0.015046204
237	0x3b5a83c5	0.00333427
238	0xbbb7bf14	-0.005607495
239	0x3be6684b	0.0070314757
240	0xba5c1a38	-0.0008396241
241	0x3cadfb23	0.021237915
242	0x3ce233a8	0.027612522
243	0xbd3bea10	-0.045877516
244	0xbd8d665f	-0.06904291
245	0xbd085b82	-0.033290394
246	0x3c38e60c	0.011285316
247	0x3d31fe04	0.04345514
248	0xbce7e396	-0.028306764
249	0xbb96e25a	-0.00460462
250	0x3c7c269a	0.015390063
251	0xbbb191f7	-0.0054190117
252	0x3b64eb3f	0.0034930257
253	0x3d29e188	0.04147485
254	0x39663f8e	0.00021958185
255	0x3c827c53	0.015928423

model.model.decoder.retentions.0.retentions.0.W_K f4 [32, 32]
0	0x3cdf239e	0.027238663
1	0xbb9317b2	-0.0044889087
2	0xbc5d3cb4	-0.013503242
3	0x3aa79f01	0.0012788476
4	0xbd563db3	-0.052304935
5	0xbc99d5b1	-0.018778654
6	0x3d5ae937	0.053445067
7	0x3c8599db	0.016308716
8	0xbd356993	-0.044290137
9	0x3bcb04a8	0.0061956234
10	0x3c53d4af	0.012929126
11	0x3c27d672	0.010243999
12	0x3d5341e2	0.051576503
13	0xbd10bd7a	-0.03533695
14	0x3c964d93	0.018347537
15	0xbbc58d5d	-0.0060288147
16	0xbcdd6e12	-0.027030025
17	0x3c4c5c4f	0.01247318
18	0x3c5dfb45	0.013548677
19	0x3d3edbe9	0.04659644
20	0xbd60c9a7	-0.05487981
21	0x3c79c945	0.01524574
22	0xbb16661a	-0.002294904
23	0xbb4996df	-0.0030760092
24	0x3a9eedf0	0.0012125354
25	0x3c44968d	0.011998785
26	0xbd3e36e5	-0.04643907
27	0xbae7b785	-0.0017678594
28	0xbd163fa0	-0.03668177
29	0xbcdcc750	-0.026950508
30	0xbc72400c	-0.014785778
31	0x3bc3f7fe	0.0059804907
32	0xbb2201b9	-0.0024720265
33	0xbcec0340	-0.028810143
34	0x3c76db93	0.015066999
35	0x3d7a50c7	0.06111219
36	0x3ceb2dc2	0.028708342
37	0x3bb0e9f3	0.0053989827
38	0x3d1f30ef	0.038865026
39	0xbcc1b9b4	-0.02364812
40	0xbc507d51	-0.01272519
41	0x3ca1f447	0.0197698
42	0x3aaef1b4	0.001334718
43	0xbb2118c3	-0.002458141
44	0xbd3278dd	-0.043572295
45	0x3b05270c	0.0020317463
46	0x3bd033cd	0.0063538314
47	0xbb0d26e7	-0.002153808
48	0x3d82c16d	0.06384549
49	0x3d79b1ea	0.060960688
50	0xbd402c57	-0.046917286
51	0x3d1c7d38	0.038205355
52	0x3c8b354c	0.016993187
53	0xbbfa0d62	-0.00763099
54	0xbcdf30f3	-0.02724502
55	0x3bfac7c1	0.007653207
56	0xba825379	-0.000994309
57	0xbd235e45	-0.039884824
58	0xbc29f8ca	-0.010374257
59	0x3d44abb2	0.048015304
60	0xbcd30eea	-0.025763948
61	0xbd88fbc7	-0.06688648
62	0x3d376aa7	0.044779446
63	0x3cd0060c	0.025393508
64	0x3d7cff12	0.06176669
65	0x3d0161ca	0.0315874
66	0xbc8ae586	-0.016955148
67	0x3ce0cb6e	0.027440753
68	0xbd7f841d	-0.062381852
69	0x3cd52da9	0.026022749
70	0x3d1b68ee	0.037941866
71	0xbcc12c88	-0.023580804
72	0x3c65fe86	0.014037734
73	0xba16972c	-0.0005744572
74	0x3c987ce3	0.018614238
75	0xbc2f9809	-0.0107174
76	0x3a14c489	0.0005675038
77	0x3ce60481	0.02807832
78	0x3c787388	0.015164264
79	0x3cb8a213	0.02253822
80	0x3b2d0460	0.0026400313
81	0xbc570f91	-0.01312627
82	0x3b517a93	0.003196393
83	0x3c0d472b	0.008622925
84	0xbbad4f26	-0.0052889762
85	0xbc5e94b5	-0.013585259
86	0xbc2b7240	-0.010464251
87	0x3c38b6fa	0.011274094
88	0xbc4374da	-0.011929715
89	0x3bd34579	0.006447491
90	0xbd5cb0d3	-0.05387957
91	0xbc3e3d26	-0.011611259
92	0xbcad130e	-0.02112725
93	0xbc40ae2f	-0.011760279
94	0xbd11ca6a	-0.035593428
95	0x3d73a717	0.05948552
96	0x3c8fda52	0.017560158
97	0xbd01f879	-0.031731103
98	0x3cafcd82	0.021460298
99	0x3d37135d	0.0446962
100	0x3cd02834	0.025409795
101	0xbbd3fdd1	-0.0064694663
102	0xbcfabb1a	-0.030606795
103	0x3cae4eec	0.021277867
104	0xbd6f362c	-0.05840127
105	0xbcb909f3	-0.022587752
106	0x3c0c709d	0.008571771
107	0x3cbb8429	0.022890167
108	0xbc3a0fda	-0.011356318
109	0x3d10fb92	0.035396166
110	0x3c4df896	0.012571475
111	0xbb992459	-0.0046735224
112	0xbc85e074	-0.01634238
113	0x3bc941d0	0.0061418787
114	0x3ca5c327	0.020234657
115	0x3c62686b	0.0138188405
116	0xbc3dd5cc	-0.011586618
117	0xbcfac43b	-0.030611148
118	0xbb230548	-0.0024874974
119	0xbc6bc0db	-0.014389242
120	0xbd411a4b	-0.047144216
121	0xbd33f79d	-0.043937314
122	0x3d5e6afb	0.054301243
123	0x3cd18923	0.025578087
124	0xbb983241	-0.0046446626
125	0xbc20c553	-0.009812671
126	0xb99f3a5e	-0.0003037033
127	0xbc466383	-0.012108686
128	0x3c36a5ce	0.011147929
129	0x3d35c08c	0.04437308
130	0xbd59bf35	-0.053160865
131	0xbc882e59	-0.016623663
132	0x3d5683b9	0.052371714
133	0xbd806fb3	-0.06271305
134	0xb9ef5e4b	-0.00045655886
135	0x3cce649b	0.025194457
136	0x3d8b443c	0.06800124
137	0x3c891a68	0.016736224
138	0x3cae0bc7	0.02124585
139	0x3d96ef89	0.073699065
140	0xbd18c00d	-0.03729253
141	0x3d12e082	0.03585864
142	0xbbd22cf3	-0.00641405
143	0xbb197825	-0.002341756
144	0xbc371187	-0.011173612
145	0xbcbbcc0a	-0.022924442
146	0xba38c2ed	-0.0007048089
147	0x3c1af23a	0.009457165
148	0x3c848f67	0.01618166
149	0x3cd760ad	0.026291216
150	0xbc54bad0	-0.012983993
151	0xbc54cc1d	-0.0129881175
152	0xbc114518	-0.008866571
153	0xbc8ac443	-0.016939288
154	0x3d583dd6	0.052793346
155	0xbd751bd6	-0.059841
156	0x3d0365a1	0.032079343
157	0xbcb4b94f	-0.022061018
158	0xbc44c1ab	-0.012009065
159	0xbd5ae8d7	-0.05344471
160	0xbd1cc9d3	-0.038278412
161	0xbd0ef84b	-0.03490476
162	0xbd3f01ad	-0.046632458
163	0x3cfd21e5	0.030899951
164	0xbc2a11a1	-0.01038018
165	0x3c1d4d26	0.009600913
166	0xbd5b7c81	-0.053585533
167	0xbc923a80	-0.01785016
168	0xbb2fb7c4	-0.0026812414
169	0xbc067a6b	-0.008207898
170	0x3d310d1d	0.043225396
171	0xbca46b56	-0.020070713
172	0x3ce0f00c	0.027458213
173	0xbc65c5fe	-0.014024256
174	0xbc943a74	-0.018094279
175	0x3d2a5d95	0.041593153
176	0x3d1ff5b6	0.039052688
177	0x3d436fa9	0.04771391
178	0xbd9e0539	-0.0771584
179	0xbb7a558b	-0.003819796
180	0x3b4f46c3	0.003162787
181	0xbd1a673a	-0.0376961
182	0xbd48df59	-0.049041126
183	0xbbac82bc	-0.005264608
184	0xbbc80fc0	-0.006105393
185	0xbc508298	-0.0127264485
186	0xbd87612f	-0.06610333
187	0x3aabcba2	0.0013106952
188	0xbca5b40f	-0.02022746
189	0x3cae4da6	0.02127726
190	0xbd000054	-0.031250313
191	0x3d684e08	0.05671504
192	0xbcab3324	-0.02089841
193	0x3c9bdd4b	0.01902642
194	0xbd7c2c22	-0.061565526
195	0xbd5d457d	-0.054021347
196	0x3cf92826	0.030414652
197	0x3b1dfc25	0.0024106589
198	0xbd3f5caa	-0.04671923
199	0xbd647f87	-0.055785682
200	0xbcf0f34c	-0.029412888
201	0xbd1557e3	-0.03646077
202	0x3ca20b17	0.019780679
203	0x3bfcb089	0.0077114743
204	0xbd1f1ded	-0.0388469
205	0x3c20bbb1	0.009810374
206	0xbd1625c4	-0.03665711
207	0x3c7eb936	0.015547087
208	0x3d39d13e	0.045365565
209	0x3c425d4f	0.011863067
210	0xbc1c0c09	-0.009524354
211	0x3b51ba37	0.0032001862
212	0xbbc6a415	-0.0060620406
213	0xbd84862e	-0.06470905
214	0xbd1dc81b	-0.038520914
215	0xbce3bacf	-0.027799038
216	0xbd66252b	-0.05618779
217	0x3c9206f2	0.017825577
218	0xbad4906b	-0.0016217356
219	0x3bbbcecd	0.0057314397
220	0xbcfc60ea	-0.030807931
221	0xbd514dcb	-0.05109958
222	0xbd25de20	-0.040495038
223	0xbba860bc	-0.0051384848
224	0xbd139c9f	-0.036038037
225	0x39154eeb	0.00014239147
226	0x3d1481ab	0.036256474
227	0x3ce196bd	0.027537698
228	0x3d5c1f04	0.053740516
229	0xbd568c27	-0.052379753
230	0x3c0584cd	0.008149338
231	0x3c44c627	0.012010134
232	0xbce7d27a	-0.028298605
233	0xbd0fb339	-0.03508303
234	0xbd733849	-0.05937985
235	0x3bfa6832	0.0076418156
236	0xbbab4887	-0.005227152
237	0xbc52fc1e	-0.012877492
238	0xbc648281	-0.01394713
239	0x3ba83d44	0.0051342566
240	0x3d6d9a3e	0.058008425
241	0x3bafd3e7	0.005365837
242	0xbcd408fb	-0.025883188
243	0xbd757bda	-0.059932567
244	0xbc9e591b	-0.019329598
245	0x3ce78d49	0.028265612
246	0xbc2d4937	-0.010576538
247	0xbb115294	-0.0022174465
248	0xbb8a70b5	-0.0042248615
249	0x3a287688	0.0006426354
250	0x3c3f93ba	0.011692936
251	0xbcd927ed	-0.026508296
252	0xbd226b66	-0.039653204
253	0x3da33da5	0.07970742
254	0x3d1abadf	0.03777587
255	0x3bbf12a2	0.0058310786

model.model.decoder.retentions.0.retentions.0.W_V f4 [32, 32]
0	0xbc89a9f3	-0.01680467
1	0x3c8b6a6a	0.017018516
2	0xbcb4e18d	-0.022080207
3	0xbcbd47b5	-0.023105482
4	0xbd185e44	-0.037199274
5	0xbbfb6e57	-0.0076730656
6	0xbcf16654	-0.02946774
7	0xbbbb8f31	-0.005723857
8	0x3d1f207c	0.03884934
9	0x3d3a7016	0.04551705
10	0x3c14a16c	0.009071689
11	0x3d2ae6b1	0.04172391
12	0x3c602cc7	0.013682551
13	0xbb0b95ed	-0.002129908
14	0x3c4b4b37	0.012408069
15	0xbc6a191a	-0.014288211
16	0x3d2bee24	0.041975155
17	0x3a950b11	0.0011371096
18	0x3bd6b8dd	0.006552799
19	0x3cf4720f	0.029839544
20	0x3daaedc3	0.08346131
21	0x3b7c8c2c	0.0038535697
22	0xbc88c934	-0.016697504
23	0x3cbd56c9	0.023112671
24	0x3c284a26	0.010271585
25	0xbc8a5fa9	-0.016891317
26	0xbcb906e6	-0.022586297
27	0x3d012a39	0.031534407
28	0xbc3360bb	-0.010948355
29	0x3ca9ba26	0.020718645
30	0x3bff3dc1	0.007789344
31	0xbca3f526	-0.020014357
32	0x3cc50f36	0.024055105
33	0x3bf9ae10	0.007619627
34	0x3ce92705	0.028460989
35	0x3bfa3ef7	0.0076369005
36	0x3d6b434b	0.057437222
37	0xbce7f717	-0.028316064
38	0x3c913c3e	0.017728921
39	0xbd43d86d	-0.04781382
40	0xbd54fe1d	-0.052000154
41	0x3c062466	0.008187389
42	0xbb09c3bb	-0.0021021205
43	0xbd1d47bc	-0.03839849
44	0x3c87be4d	0.016570235
45	0xbd36e8fa	-0.044655778
46	0xbcb291b2	-0.021797989
47	0x3cd7724b	0.026299616
48	0xbd0bcf3a	-0.034133174
49	0xbd3a57c5	-0.04549386
50	0xbd7112f0	-0.05885595
51	0xbd00a350	-0.031405747
52	0xbbd03195	-0.006353567
53	0x3c1cb1df	0.009563892
54	0x3d897558	0.06711835
55	0xbca0ac4a	-0.019613404
56	0x3d209f24	0.03921427
57	0x3bbbc595	0.0057303407
58	0x3c720b16	0.014773151
59	0x3a8bb875	0.0010659831
60	0x3cb8ac61	0.022543134
61	0x3bd24f24	0.0064181257
62	0xbc13b53d	-0.009015379
63	0x3c631e17	0.013862154
64	0xbcd82891	-0.026386531
65	0x3cf46462	0.029833023
66	0xbcd2c7e5	-0.025730083
67	0x3c2440a4	0.010025177
68	0xbca0b788	-0.019618765
69	0x3cb33f2b	0.021880707
70	0xbc7de5d3	-0.015496689
71	0xbbc497c1	-0.005999536
72	0x3d43ea10	0.04783064
73	0xbd00f97e	-0.031487934
74	0xbcdb0999	-0.026737975
75	0x3d7e342b	0.06206147
76	0xbc4347b9	-0.0119189555
77	0xbcbd9c51	-0.023145827
78	0xbbca3736	-0.0061711324
79	0x3d5a78be	0.053337805
80	0x3dacf071	0.08444298
81	0x3d5f0ff0	0.05445856
82	0x3c04412b	0.008072178
83	0x3c9905ce	0.018679526
84	0x3bcc46d7	0.0062340307
85	0x3be3fcb6	0.0069576157
86	0xbc86b7e2	-0.016445104
87	0xbd884c61	-0.06655193
88	0x3be57230	0.0070021376
89	0xbc6f309b	-0.014598991
90	0xbd243a3c	-0.0400946
91	0xbcadfc30	-0.021238416
92	0x3d249a6e	0.040186338
93	0x3d04f39e	0.032458894
94	0x3cc31d98	0.023817822
95	0x3cea04ca	0.028566737
96	0xbc4e76a5	-0.012601529
97	0xbd05ad26	-0.03263583
98	0x3c35674a	0.011071989
99	0xbca58625	-0.020205567
100	0x3d02deaa	0.03195063
101	0x3c44b70b	0.0120065315
102	0xbdaf3755	-0.085554756
103	0xbbe09d43	-0.0068546846
104	0xbd871225	-0.06595258
105	0xbc6d7081	-0.014492155
106	0x3d93e85c	0.072220534
107	0x3db04dfb	0.086086236
108	0x3c6a2ae0	0.014292449
109	0xbd6211d6	-0.05519279
110	0xbcb6d816	-0.022319835
111	0xbd282bd6	-0.04105743
112	0xbce822cd	-0.028336907
113	0xbca071e6	-0.019585561
114	0x3adcbc57	0.0016840798
115	0x3c8cce03	0.017188078
116	0x3d26f139	0.04075739
117	0xbc311eea	-0.010810593
118	0xbd00b048	-0.031418115
119	0xbc9b66f4	-0.01896999
120	0xbd370c42	-0.044689424
121	0xbbf50ee8	-0.0074785836
122	0xbcfa269f	-0.030535994
123	0x3acd80dc	0.0015678662
124	0xbd47b576	-0.04875704
125	0x3d09693a	0.033547617
126	0xbd8627c1	-0.06550551
127	0x3d076891	0.033058707
128	0x3c9c716f	0.019097058
129	0x3b0ffe36	0.002197159
130	0x3c6efdce	0.014586879
131	0x3b48d0c3	0.003064201
132	0xbcd3c883	-0.025852447
133	0xbd204c76	-0.03913542
134	0x3b341bb5	0.0027482335
135	0xbd121ed6	-0.03567394
136	0xbd3a8736	-0.045539103
137	0xbb8181e8	-0.0039522536
138	0x3d3c58ef	0.04598325
139	0x3cd32dc1	0.025778653
140	0xbc29c76e	-0.010362489
141	0xbccb3c37	-0.024808986
142	0x3c2307f5	0.009950628
143	0x3ce4cc06	0.027929317
144	0xbd30ef47	-0.043196943
145	0xbcb6f6b9	-0.022334443
146	0x3b92d309	0.0044807238
147	0xbc823c66	-0.01589794
148	0xbd3fd522	-0.04683412
149	0xbcc702bb	-0.024293294
150	0xbcdc2557	-0.026873274
151	0x3d3a4eb6	0.04548522
152	0xbc6b2e26	-0.014354264
153	0x3ca85fad	0.020553434
154	0xbc91ad8c	-0.017782949
155	0x3d3bba52	0.045831986
156	0xbcd7aa88	-0.026326433
157	0x3c8dc51a	0.0173059
158	0x3c679f0c	0.014137041
159	0x3d6c9ae9	0.05776492
160	0xbd2decbd	-0.0424621
161	0x3bac8994	0.005265424
162	0xbd4a9cb7	-0.04946586
163	0x3d62d2a8	0.05537668
164	0x3c3353e4	0.010945294
165	0x3d1f4fbd	0.038894404
166	0xbce8dc63	-0.028425401
167	0xbb04e150	-0.0020275898
168	0x3b9d421c	0.0047991406
169	0xbc9b5f4c	-0.01896634
170	0xbd36312c	-0.044480488
171	0x3c019bd5	0.007910688
172	0xbd0c773d	-0.034293402
173	0xbbcdfe02	-0.0062863836
174	0x3bae4d66	0.005319285
175	0xbbe22125	-0.006900924
176	0xbdd199ed	-0.10234437
177	0x3d152f3f	0.03642201
178	0xbca78550	-0.02044931
179	0xbcbcc946	-0.023045193
180	0xba9c5a99	-0.0011928856
181	0x3a0e2673	0.00054225995
182	0xbcfe6480	-0.031053782
183	0x3c4935c7	0.012280888
184	0xbb5fa813	-0.003412728
185	0x3d2c1e12	0.042020865
186	0x3d050231	0.032472793
187	0x3d0d3e08	0.034482986
188	0xbc8109e4	-0.015751787
189	0xbc95b038	-0.018272504
190	0xbd1877c0	-0.037223577
191	0x3d84d6ea	0.06486304
192	0x3c93b907	0.018032564
193	0x3ccd9b2b	0.025098404
194	0x3c35f8a8	0.011106648
195	0x3b17d9f3	0.002317068
196	0xbd5f4eaa	-0.05451838
197	0xbc3278e7	-0.010893083
198	0xbc1c6f69	-0.009548047
199	0x3c62bbfa	0.013838762
200	0x3d5eb572	0.05437226
201	0x3ca6cc67	0.020361139
202	0x3c13c657	0.009019456
203	0x3b99541f	0.0046792175
204	0x3cb88317	0.022523446
205	0xbcc6d95e	-0.02427357
206	0x3b1070d1	0.00220399
207	0xbcae32d9	-0.02126448
208	0xbcaa6b81	-0.020803215
209	0xbd594600	-0.053045273
210	0xbb586cba	-0.003302379
211	0xbc2b7f2d	-0.010467333
212	0x3c8d3d45	0.01724113
213	0xbd9143bb	-0.07092997
214	0xbb73cca7	-0.003720084
215	0x3daf2eea	0.0855387
216	0xbcdc0513	-0.026857888
217	0xbd2c36a2	-0.04204429
218	0x3c812d2d	0.015768612
219	0x3d248ef1	0.040175382
220	0x3d33e8ef	0.043923315
221	0x3d712c8e	0.05888038
222	0x3d0f1b20	0.034937978
223	0xbb208e24	-0.0024498785
224	0xbc113fa5	-0.008865272
225	0xbd2383fd	-0.039920796
226	0xbd192ad1	-0.03739435
227	0x3b4d72dd	0.0031348981
228	0xbce06523	-0.027391976
229	0xbc83f8ec	-0.016109906
230	0xbca61af1	-0.020276519
231	0xbcd90ee2	-0.026496354
232	0x3be6ee53	0.0070474534
233	0x3d75304d	0.059860516
234	0x3d4e6ad1	0.050394837
235	0x3cd0c671	0.02548525
236	0xbd08bd60	-0.033383727
237	0xbd0c195b	-0.03420387
238	0xbc3fd18f	-0.0117076775
239	0x3d268ac5	0.040659685
240	0xbc942ee7	-0.018088771
241	0xbc1c58f3	-0.0095426915
242	0x3d026243	0.03183199
243	0xbd131e95	-0.035917837
244	0xb9aef406	-0.00033369678
245	0xbc239db0	-0.009986326
246	0xbca31143	-0.019905692
247	0x3d1a298b	0.037637275
248	0x3c1ef00e	0.009700788
249	0xbcb0a1a6	-0.021561455
250	0x3adb542f	0.0016733463
251	0xbb2e0b3a	-0.0026556985
252	0xbbf9fcd2	-0.0076290155
253	0x3d47b8c4	0.04876019
254	0xbd101f7f	-0.035186287
255	0x3c42581c	0.011861827

model.model.decoder.retentions.0.retentions.0.xpos.scale f4 [16]
0	0x3e924925	0.2857143
1	0x3ea92493	0.33035716
2	0x3ec00000	0.375
3	0x3ed6db6d	0.41964284
4	0x3eedb6db	0.4642857
5	0x3f024924	0.50892854
6	0x3f0db6db	0.5535714
7	0x3f192492	0.59821427
8	0x3f249249	0.64285713
9	0x3f300000	0.6875
10	0x3f3b6db7	0.73214287
11	0x3f46db6e	0.77678573
12	0x3f524925	0.8214286
13	0x3f5db6db	0.8660714
14	0x3f692492	0.91071427
15	0x3f749249	0.95535713
