lightning_logs/version_40/checkpoints/epoch=999-step=4000.ckpt (torch, 196557 bytes, 50 tensors)

model.model.pos f4 [50, 32]
0	0x3c42d98d	0.011892688
1	0xbe6446c6	-0.22292623
2	0x3e1f4695	0.15554269
3	0x3dfbf660	0.12302852
4	0xbe840ccd	-0.25791016
5	0x39c90cec	0.00038347335
6	0xbd62b3f9	-0.055347417
7	0x3e53f138	0.20697486
8	0xbe80ece5	-0.25180736
9	0xbe166884	-0.14688307
10	0xbdae5f7b	-0.08514305
11	0x3dcc799e	0.09984134
12	0xbb77a11f	-0.0037785245
13	0x3dfeaa2c	0.124348015
14	0xbe4fe2f0	-0.20301414
15	0x3e40db6c	0.18833703
16	0xbe674848	-0.22586167
17	0x3dd3a655	0.1033446
18	0xbe628d44	-0.22124201
19	0xbd422e7e	-0.04740762
20	0x3e122bf4	0.1427458
21	0xbdd37d3f	-0.10326623
22	0x3e29ff23	0.16601233
23	0x3dc56cf9	0.096399255
24	0xbda4a0dc	-0.08038494
25	0x3e756de3	0.239677
26	0x3d948f95	0.072539486
27	0x3e1f5f9f	0.1556382
28	0x3e2e3269	0.17011417
29	0xbe09bb02	-0.13450244
30	0x3e72f527	0.2372633
31	0x3e2ca2d7	0.16858993
32	0x3eaf0b1f	0.34188172
33	0x3e7b09e0	0.24515486
34	0x3e023375	0.12714942
35	0xbe55c0cf	-0.20874332
36	0x3e7ebcde	0.24876735
37	0xbe2c2f36	-0.16814885
38	0xbe343a3a	-0.17600337
39	0xbdb6ff05	-0.0893536
40	0x3dac3c10	0.084098935
41	0x3e7e3447	0.2482463
42	0xbd990187	-0.074709944
43	0xbe974f08	-0.29552484
44	0x3e7c7fb6	0.24658093
45	0x3e4e896b	0.20169608
46	0x3e0885e4	0.13332325
47	0xbe65b670	-0.22432876
48	0x3e6660f0	0.22497916
49	0x3d0f24ac	0.034947082
50	0x3e64a50f	0.2232859
51	0xbe18ad6f	-0.1490991
52	0xbcba5144	-0.022743829
53	0xbe00a04d	-0.1256115
54	0x3e35f6dd	0.17769952
55	0x3e8420df	0.2580633
56	0x3dbeb668	0.09312135
57	0x3dab217d	0.08355997
58	0x3ce6afb9	0.028159963
59	0x3de5579e	0.11198352
60	0xbe11f803	-0.14254765
61	0xbe2668bd	-0.16250892
62	0xbd9ba041	-0.075989254
63	0xbe97c49f	-0.29642197
64	0xbe4ff15c	-0.20306915
65	0xbe594a9d	-0.21219869
66	0xbe64a80d	-0.22329731
67	0xbe20722f	-0.15668558
68	0x3d9c4926	0.076311395
69	0xbe466313	-0.19373731
70	0x3e1199ce	0.14218828
71	0xbe13a48e	-0.14418241
72	0xbe44fa9e	-0.19236228
73	0xbe85bf50	-0.26122522
74	0xbceef7d0	-0.0291709
75	0xbd7a20b9	-0.061066363
76	0xbdf353da	-0.11881228
77	0x3d8f9d83	0.07012465
78	0x3e6b9c21	0.23008777
79	0x3e7da47a	0.24769774
80	0xbe6a72bf	-0.22895335
81	0x3e234da1	0.15947582
82	0x3e789d21	0.2427869
83	0xbdd7c290	-0.10535157
84	0x3d30837e	0.04309415
85	0x3e42be50	0.19017911
86	0x3e46caaf	0.19413255
87	0xbe0a4d7c	-0.1350612
88	0xbd72f9b6	-0.059320174
89	0xbd76eb39	-0.06028292
90	0xbca466ce	-0.020068552
91	0x3c91950b	0.017771265
92	0x3d3e635d	0.04648148
93	0x3d95f5a1	0.073222406
94	0xbe40ebb6	-0.18839917
95	0x3e809944	0.25116932
96	0xbd5f8b7c	-0.054576382
97	0xbdf6aefa	-0.12045093
98	0xbea33b48	-0.31881166
99	0x3cfdbe04	0.030974396
100	0x3e58218f	0.21106552
101	0x3e15fbe6	0.14646873
102	0xbe45a369	-0.19300617
103	0x3e802b4f	0.25033042
104	0xbd36f847	-0.04467037
105	0xbc483d5d	-0.012221661
106	0xbe15bcea	-0.14622846
107	0x3e9a3abe	0.30122942
108	0xbe3be284	-0.18348128
109	0x3c97f5fa	0.018549908
110	0x3e765910	0.24057412
111	0xbe43de38	-0.19127738
112	0xbe4be802	-0.19912723
113	0xbd76fb0e	-0.06029802
114	0xbe1968ab	-0.14981334
115	0x3d5f6716	0.05454167
116	0x3e5c7782	0.21529964
117	0xbd0f8761	-0.035041217
118	0x3e2df00e	0.16986105
119	0xbe8230a7	-0.25427744
120	0xbe08f0bd	-0.13373084
121	0x3c7530f6	0.0149652865
122	0xbe8fe76f	-0.28106257
123	0xbdc2e4fb	-0.09516331
124	0x3e5d27ef	0.21597265
125	0x3e171315	0.14753373
126	0xbe19a836	-0.15005574
127	0x3eabd3e0	0.33560085
128	0x3e7dc36a	0.24781576
129	0xbe49f274	-0.19721395
130	0xbe754004	-0.23950201
131	0xbdf5f5f2	-0.12009801
132	0xbc50b28e	-0.012737883
133	0x3e604954	0.21902972
134	0xbe06e7d0	-0.13174367
135	0x3e752be8	0.2394253
136	0xbdbd3eea	-0.092405155
137	0x3d14484b	0.036201756
138	0xbe4ca4e6	-0.19984779
139	0xbdced34a	-0.10098894
140	0x3d72b34e	0.05925303
141	0x3df0e0f1	0.11761654
142	0x3e85765e	0.2606687
143	0xbe6a419e	-0.22876593
144	0x3e68f3cf	0.22749256
145	0x3ca5d4b5	0.020243028
146	0xbe4a85b8	-0.19777572
147	0x3d02dd3d	0.03194927
148	0xbda57ff1	-0.080810435
149	0x3e7b873e	0.2456331
150	0xbe51c833	-0.20486526
151	0xbe83150a	-0.2560199
152	0xbaac62ab	-0.0013151964
153	0x3df553fc	0.119789094
154	0x3e0a4359	0.13502254
155	0x3e613545	0.21992977
156	0xbe16f762	-0.14742807
157	0xbe772e55	-0.24138768
158	0x3e3ea9b5	0.18619426
159	0xbcd62f14	-0.026145495
160	0xbe58f52b	-0.21187274
161	0xbc78c125	-0.015182768
162	0x3c734e98	0.014850281
163	0x3e195d20	0.1497693
164	0xbd18b4da	-0.03728185
165	0xbe116359	-0.14198054
166	0xbd22fe6c	-0.039793417
167	0xbd83e248	-0.06439644
168	0x3e0c03dd	0.13673349
169	0x3d804ded	0.06264863
170	0x3df004a0	0.11719632
171	0xbe46bc4e	-0.1940777
172	0x3db04023	0.08605983
173	0x3de0cbba	0.10976358
174	0xbdcc9107	-0.09988599
175	0x3e45e34a	0.19324985
176	0xbd925e03	-0.071468376
177	0xbdf87453	-0.12131562
178	0x3d545b0d	0.051844645
179	0xbe6632b0	-0.22480273
180	0x3e6312b8	0.2217511
181	0xbe6af168	-0.22943652
182	0xbe6c15d1	-0.23055197
183	0xbda6431a	-0.08118267
184	0xbe66417a	-0.22485915
185	0x3b5fd502	0.0034154062
186	0xbe69bcb7	-0.22825895
187	0x3dadbb1f	0.08482956
188	0x3e6bb55d	0.23018403
189	0x3d12ef66	0.03587284
190	0xbd0fc951	-0.0351041
191	0x3d8d9d95	0.06914822
192	0x3e02bdc6	0.12767705
193	0xbd8461d7	-0.06463974
194	0x3db23b5f	0.087027304
195	0xbe76f144	-0.24115473
196	0x3d582c0a	0.052776374
197	0x3e748d97	0.23882137
198	0xbe290cbe	-0.16508767
199	0x3ca98428	0.0206929
200	0xbe530698	-0.20607984
201	0x3e5f2c54	0.21794254
202	0xbe5a723c	-0.2133264
203	0xbe28129b	-0.16413347
204	0x3e725d02	0.23668292
205	0xbd27c4db	-0.04095922
206	0x3e2817f9	0.16415395
207	0xbe04dcd6	-0.12974867
208	0xbe77e38b	-0.24207895
209	0x3e1233ea	0.14277616
210	0xbdc90c0e	-0.098167524
211	0x3e805a19	0.2506874
212	0x3d313b31	0.04326934
213	0x3e0e1f39	0.13879098
214	0xbde0ae34	-0.109707266
215	0xbcbedac6	-0.023297679
216	0xbdf25ff4	-0.11834708
217	0xbe06bcfb	-0.13158028
218	0x3e6bcf5c	0.2302832
219	0xbd19d5bb	-0.037557345
220	0x3878d5c4	5.9326892e-05
221	0x3db6376c	0.0889729
222	0x3e6685af	0.22511934
223	0xbe3e5679	-0.18587674
224	0xbdcaf6b3	-0.099103354
225	0xbe666dec	-0.2250287
226	0x3d3b11e4	0.04567136
227	0xbcbeb64b	-0.023280283
228	0x3e7d5722	0.2474027
229	0x3e5f6cd7	0.21818863
230	0xbe8298a5	-0.25507084
231	0x3b4cb543	0.003123597
232	0xbe83978d	-0.25701562
233	0xbe30e1fa	-0.17273703
234	0xbcf81eb9	-0.030288087
235	0xbe735dff	-0.23766325
236	0xbe7f77e8	-0.24948084
237	0xbe35119b	-0.17682497
238	0xbdc2a03b	-0.09503218
239	0x3e6acf0e	0.22930548
240	0x3c4f1b1d	0.012640742
241	0xbe43bece	-0.19115755
242	0x3da47b9d	0.0803139
243	0x3e279df0	0.16368842
244	0xbe563cb0	-0.20921588
245	0x3e2b2f2a	0.1671721
246	0xbc3f42b3	-0.011673617
247	0xbe82525d	-0.25453463
248	0xbe0e19d3	-0.13877039
249	0xbe5c1a8b	-0.214945
250	0xbe088fe3	-0.13336138
251	0xbac5dcc1	-0.0015095697
252	0x3e746884	0.23867995
253	0xbe00d819	-0.12582435
254	0x3d81e56f	0.06342589
255	0x3d3fa5b3	0.046788882

model.model.embed.weight f4 [2, 32]
0	0x00000000	0.0
1	0x00000000	0.0
2	0x00000000	0.0
3	0x00000000	0.0
4	0x00000000	0.0
5	0x00000000	0.0
6	0x00000000	0.0
7	0x00000000	0.0
8	0x00000000	0.0
9	0x00000000	0.0
10	0x00000000	0.0
11	0x00000000	0.0
12	0x00000000	0.0
13	0x00000000	0.0
14	0x00000000	0.0
15	0x00000000	0.0
16	0x00000000	0.0
17	0x00000000	0.0
18	0x00000000	0.0
19	0x00000000	0.0
20	0x00000000	0.0
21	0x00000000	0.0
22	0x00000000	0.0
23	0x00000000	0.0
24	0x00000000	0.0
25	0x00000000	0.0
26	0x00000000	0.0
27	0x00000000	0.0
28	0x00000000	0.0
29	0x00000000	0.0
30	0x00000000	0.0
31	0x00000000	0.0
32	0x3eb5c9d8	0.35505557
33	0x3eb43b73	0.35201606
34	0xbf066f3d	-0.52513486
35	0xbe97084b	-0.29498515
36	0xbc9165bb	-0.017748704
37	0x3fa68aff	1.3011168
38	0xbf239483	-0.63898486
39	0xbfc117fb	-1.5085443
40	0xbe1f877f	-0.15579031
41	0xbe06ff25	-0.13183267
42	0x3fafde06	1.3739631
43	0x3fb96fa2	1.4487193
44	0xbf2b3ec3	-0.6689264
45	0x3e7a3574	0.24434453
46	0xbf80aa18	-1.0051908
47	0x3ea7fc03	0.32809457
48	0xbf092ec7	-0.53587
49	0xbf829b72	-1.0203688
50	0x3f348819	0.7052017
51	0xbe3ed5fd	-0.18636318
52	0xbee7efe8	-0.4530022
53	0x3fe75ff0	1.8076153
54	0xbfed717a	-1.8550255
55	0x3ff2709b	1.8940614
56	0x3fbd1976	1.4773395
57	0xbdae222d	-0.08502612
58	0xbfc307d7	-1.5236768
59	0x3d90ba01	0.070667274
60	0x3f89a9fb	1.0754999
61	0xbf5235db	-0.82113427
62	0x3e73254c	0.23744696
63	0x3c8075ac	0.01568111

model.model.decoder.encoder.layers.0.self_attn.in_proj_weight f4 [96, 32]
0	0x3ddbbe5c	0.107296675
1	0xbd982525	-0.0742896
2	0x3de8b565	0.11362723
3	0x3e3807c1	0.17971708
4	0xbe1ba4e3	-0.15199618
5	0xbdc555c3	-0.096354984
6	0x3c9bc179	0.019013153
7	0xbe4cfce1	-0.2001834
8	0xbd46391a	-0.0483943
9	0xbca0a5ec	-0.019610368
10	0x3da43145	0.0801721
11	0xbcb18bf2	-0.021673176
12	0x3d9f566e	0.07780157
13	0x3d681408	0.05665973
14	0x3da24cdb	0.07924815
15	0xbc0a3a4f	-0.008436753
16	0x3e4a0bfa	0.19731131
17	0xbe347879	-0.17624082
18	0xbe1a9d3b	-0.15099041
19	0xbd67ee21	-0.05662358
20	0xbdc20a3b	-0.094746076
21	0xbe24000d	-0.16015644
22	0x3cd4f1ab	0.025994143
23	0xbe0e204d	-0.1387951
24	0x3ddb1e87	0.10699182
25	0xba5295a4	-0.00080331624
26	0xbe24dc49	-0.16099657
27	0xbbb3d9d7	-0.005488615
28	0xbde45073	-0.11148157
29	0x3e2e46cd	0.17019196
30	0xbd9cf072	-0.07663049
31	0x3d71f031	0.059066955
32	0x3da47ea2	0.08031966
33	0xbe07760b	-0.13228624
34	0xbd836f54	-0.064177185
35	0xbe446011	-0.19177271
36	0xbdf72e85	-0.1206942
37	0xbe56cf82	-0.20977595
38	0xbe22c054	-0.1589368
39	0x3df12a5a	0.11775656
40	0x3cdc22c2	0.026872043
41	0xbdf3bace	-0.119008645
42	0xbddfd230	-0.10928762
43	0xbdab7c7a	-0.083733514
44	0xbe37ab1e	-0.1793637
45	0x3e2f2093	0.1710227
46	0x3d52a0c4	0.05142285
47	0x3d09ece8	0.033673197
48	0xbe229e91	-0.15880801
49	0xbd2c2ebf	-0.042036768
50	0xbd5c3202	-0.05375863
51	0x3de37c41	0.11107684
52	0x3e186194	0.14880973
53	0x3ce52378	0.027971014
54	0x3e4176fe	0.18893048
55	0xbd5af617	-0.053457346
56	0xbe33ce35	-0.1755913
57	0x3d22281d	0.039589036
58	0x3d6b7dbf	0.057492968
59	0xbdd04658	-0.10169667
60	0x3de647c0	0.11244154
61	0x3ca7df9d	0.02049237
62	0xbe27413b	-0.16333477
63	0xbcbbf9a1	-0.02294618
64	0xbdd5d72e	-0.10441433
65	0xbe4592f9	-0.19294347
66	0xbd040263	-0.03222884
67	0x3e474c71	0.19462754
68	0xbda3fbf0	-0.08007038
69	0xbe3aae79	-0.18230619
70	0x3d65cb32	0.056101985
71	0xbd91d918	-0.071214855
72	0x3d99a178	0.07501501
73	0x3d1193a7	0.035541203
74	0x3e240b14	0.16019851
75	0x3e18416b	0.14868705
76	0x3d5895e5	0.052877326
77	0xbdb1630d	-0.086614706
78	0x3e3768e9	0.17911114
79	0xbe07c77c	-0.13259691
80	0xbdfc9ce9	-0.12334616
81	0x3e381ab0	0.1797893
82	0xbe005ef8	-0.12536228
83	0x3df77de7	0.12084561
84	0x3cc054b6	0.023477893
85	0xbde4a1df	-0.11163687
86	0xbca68b4c	-0.020330094
87	0x3cb08ba7	0.021550966
88	0xbdd07864	-0.10179213
89	0xbd71af14	-0.059004858
90	0xbaefc6fe	-0.0018293557
91	0xbe456f01	-0.19280626
92	0xbd37cfa9	-0.044875775
93	0xbc8d46f6	-0.01724575
94	0x3d814dac	0.06313643
95	0xbd65c1b6	-0.05609294
96	0xbe170e88	-0.14751637
97	0xbd1c55a3	-0.038167607
98	0x3e50435a	0.20338193
99	0xbe16b454	-0.14717227
100	0x3d20be9f	0.03924429
101	0xbdba8008	-0.09106451
102	0x3e0e73fa	0.13911429
103	0x3d959ab3	0.07304897
104	0x3d22c31f	0.039736863
105	0x3c549541	0.012975038
106	0x3e1a4035	0.15063556
107	0x3de6878f	0.112563245
108	0xbe014ab7	-0.12626158
109	0x3cdb7572	0.0267894
110	0xba32c272	-0.0006819136
111	0x3ddbb6fa	0.107282594
112	0xbce65d21	-0.02812058
113	0xbdb5f703	-0.08885004
114	0xbe4b1004	-0.19830328
115	0x3d78f47c	0.060780033
116	0x3cb602f0	0.022218198
117	0xbd31b87f	-0.04338884
118	0x3ce483cf	0.027894882
119	0x3d12deb3	0.035856914
120	0xbc9cf52c	-0.019159876
121	0xbdbbcb69	-0.09169657
122	0xbe0bf550	-0.13667798
123	0x3e35dfce	0.17761156
124	0xbe4889bb	-0.1958379
125	0xbe34d76d	-0.17660303
126	0xbc1de925	-0.0096381055
127	0x3e63442b	0.22193973
128	0x3e286a5a	0.1644682
129	0xbbf5f792	-0.0075063193
130	0xbdc75e77	-0.097348146
131	0x3e58a2a1	0.21155788
132	0x3dd987c1	0.10621596
133	0x3e3d34ed	0.18477221
134	0x3d1a4c84	0.037670627
135	0xbe340fa2	-0.17584088
136	0xbe12b1a3	-0.14325576
137	0x3df09a6d	0.117482044
138	0xbe12b046	-0.14325055
139	0xbbd65e3c	-0.0065419953
140	0x3d92a7d8	0.0716092
141	0x3e0992d0	0.13434911
142	0x3e11f942	0.1425524
143	0x3d4f4a27	0.050607827
144	0x3dca07e0	0.09864783
145	0xbd732a80	-0.059366703
146	0xbdbdaf1a	-0.092619136
147	0x3e02299c	0.12711185
148	0xbe20622b	-0.15662448
149	0x3e4bd72f	0.19906305
150	0x3e4277ea	0.18991056
151	0x3ddb0519	0.10694332
152	0x3da0087f	0.078141205
153	0x3d9f43a6	0.07776575
154	0xbd743a5c	-0.05962597
155	0x3e1f43ed	0.15553255
156	0xbdb7a494	-0.08966938
157	0xbd52ba05	-0.051446933
158	0xbc505f52	-0.012718039
159	0x3ce85cf1	0.02836463
160	0x3e33e048	0.17566025
161	0x3d98fcf6	0.074701235
162	0x3d001ecf	0.03127938
163	0xbe080ee1	-0.13286926
164	0x3e56eaa6	0.20987949
165	0xbd8023f3	-0.06256857
166	0xbe324f0b	-0.17412965
167	0x3d589043	0.052871954
168	0x3e2c9126	0.16852245
169	0xbe4d342f	-0.20039438
170	0xbdf51d27	-0.11968451
171	0xbc3cd7ce	-0.011526061
172	0x3dbdd8e5	0.09269885
173	0x3dd925ae	0.1060289
174	0xbd3b35ab	-0.04570548
175	0x3e4377ad	0.19088621
176	0x3de36e8d	0.1110507
177	0xbd213fef	-0.039367612
178	0x3e33b66f	0.17550062
179	0x3dd30d02	0.103052154
180	0x3c607288	0.013699181
181	0x3dfc8041	0.1232915
182	0xbdad3bf0	-0.08458698
183	0xbe39d3ad	-0.18147154
184	0x3ddcea5f	0.1078689
185	0x3ddd7bdf	0.10814642
186	0xbdd74a55	-0.105122246
187	0xbe0a40a9	-0.13501228
188	0x3cfb5cc4	0.030683883
189	0x3e0fcd27	0.14043103
190	0xbe53724d	-0.20649071
191	0xbdef5d49	-0.116877146
192	0x3d78fb64	0.06078662
193	0xbe2d494a	-0.16922489
194	0xbd630576	-0.05542513
195	0x3da00888	0.07814127
196	0x3add1122	0.0016866068
197	0xbdcfb3e6	-0.10141735
198	0xbe06c178	-0.1315974
199	0x3dd1f05d	0.10250924
200	0xbda729f3	-0.08162298
201	0x3d5bb6cc	0.053641126
202	0xbc16c2ee	-0.009201748
203	0xbe124a01	-0.14286043
204	0x3d95cb3d	0.07314155
205	0x3d06e302	0.032931335
206	0x3e4c05c2	0.19924071
207	0xbe2cd21f	-0.1687703
208	0xbd2cb5e6	-0.04216566
209	0x3dd0e060	0.10199046
210	0x3dd983e6	0.10620861
211	0x3d786e0f	0.060651835
212	0xbe03ffd7	-0.12890564
213	0xbd552ba0	-0.052043557
214	0xbdbdadb5	-0.092616476
215	0xbce2f522	-0.027704779
216	0xbe408181	-0.18799402
217	0xbe3e10c7	-0.18561088
218	0x3d4be491	0.049778525
219	0xbdc59857	-0.09648197
220	0xbe1fcbda	-0.15605107
221	0xbe087195	-0.13324578
222	0xbd82dd88	-0.0638991
223	0x3e041abe	0.12900826
224	0xbc631578	-0.013860099
225	0x3e3da20c	0.18518847
226	0x3e3a0d3a	0.18169108
227	0xbd8bf637	-0.06834071
228	0xbd4df0da	-0.050278522
229	0x3c20749d	0.009793428
230	0xbdbc8af0	-0.09206188
231	0x3e355d05	0.17711265
232	0x3d28f8ef	0.041253027
233	0x3d006dde	0.031354778
234	0x3d7b897e	0.06141042
235	0xbdac264a	-0.084057406
236	0xbdbda4b0	-0.09259927
237	0x3c5770d3	0.013149458
238	0x3e335b2f	0.17515253
239	0xbd3a8e52	-0.045545883
240	0x3d8215c2	0.06351806
241	0xbe052a15	-0.13004334
242	0xbddfae91	-0.10921968
243	0xbd0a8456	-0.03381761
244	0x3db58ee4	0.08865145
245	0xbde76d14	-0.11300102
246	0x3e15a8a4	0.14615113
247	0x3d58f22c	0.052965328
248	0xbd0fbb48	-0.035090715
249	0xbe1793bb	-0.14802448
250	0x3e4fde6a	0.20299688
251	0x3e410b47	0.18851958
252	0x3ca9052c	0.020632349
253	0x3e12cf24	0.1433683
254	0xbc5a2f09	-0.013316878
255	0x3d96a132	0.07354964

model.model.decoder.encoder.layers.0.self_attn.in_proj_bias f4 [96]
0	0xbc0f3321	-0.008740217
1	0x3c0e25c5	0.008675997
2	0x3c100429	0.008790054
3	0x3c184972	0.0092948545
4	0xbc0f72da	-0.00875541
5	0x3c11bfa3	0.008895787
6	0xbc0dd066	-0.008655643
7	0xbc04ef28	-0.00811366
8	0x3c0f5876	0.008749118
9	0xbc08f420	-0.008358985
10	0xbc109881	-0.008825422
11	0x3c0ebf9d	0.008712676
12	0x3c0cfeef	0.008605703
13	0xbc10a938	-0.008829407
14	0x3c0f604b	0.008750985
15	0x3c0cba81	0.008589388
16	0x3c0d0194	0.008606333
17	0x3bf43eff	0.007453799
18	0xbc0f3048	-0.0087395385
19	0x3c0f0bbc	0.008730825
20	0x3c0c0a59	0.008547389
21	0xbc087bc3	-0.008330288
22	0xbc0f2cd4	-0.008738715
23	0xbc0d38dc	-0.008619513
24	0xbc145c6f	-0.009055241
25	0x3c0f5292	0.008747714
26	0x3c0a2ad4	0.008433063
27	0x3c10629b	0.008812572
28	0x3c06c4af	0.008225604
29	0xbc21da63	-0.009878728
30	0xbaed9a6d	-0.0018127688
31	0x3af109f9	0.0018389813
32	0x3ab7812e	0.001400029
33	0x3b5db414	0.0033829259
34	0x3b303856	0.0026889048
35	0x3989d1a0	0.0002628686
36	0xbb29b532	-0.0025895354
37	0xba65e1da	-0.0008769311
38	0x3b477d97	0.0030439848
39	0x3b6139da	0.0034366758
40	0x3afe13ed	0.00193846
41	0xbb21dd91	-0.0024698714
42	0xbae6fcf0	-0.0017622989
43	0x3b2f7992	0.0026775342
44	0xb9894f87	-0.0002618993
45	0xbae6a36f	-0.0017596314
46	0xbaf75c55	-0.0018872122
47	0x3b407775	0.0029368077
48	0xbafc2511	-0.0019237121
49	0xbb349c5e	-0.0027559022
50	0xbaf8c3f1	-0.0018979294
51	0xba833d8b	-0.0010012848
52	0x3b70e586	0.00367579
53	0x3afca5df	0.0019275508
54	0xbb3f5802	-0.0029196744
55	0xbb26df1a	-0.0025462569
56	0xba84f638	-0.001014418
57	0x3b0a5d0f	0.0021112596
58	0x3b225288	0.002476843
59	0x3a31aa2f	0.00067773735
60	0xbb367ff4	-0.0027847262
61	0xba06a7eb	-0.0005136716
62	0xbb223386	-0.0024749949
63	0x3a6ebf90	0.00091075245
64	0x3c95a90f	0.01826909
65	0x3ca6aba7	0.020345522
66	0xbb471f13	-0.0030383512
67	0xbc066e10	-0.008204952
68	0xbc7ec485	-0.015549784
69	0x3a1232d8	0.00055770343
70	0x3c7dd07c	0.015491601
71	0xbc669a21	-0.014074833
72	0x3bc2c41f	0.0059437896
73	0x3cd1f35e	0.025628742
74	0xbc1290fc	-0.0089457
75	0x3bf90568	0.0075995214
76	0x3cbadc9d	0.022810275
77	0xba2e6cf2	-0.00066538074
78	0x3c2bafd2	0.010478931
79	0xbc5083d1	-0.01272674
80	0xbbc75fea	-0.006084432
81	0x3c56d642	0.0131126065
82	0xbb9ca35b	-0.0047802157
83	0xbc190194	-0.009338755
84	0xbc16642f	-0.009179159
85	0xbca48d16	-0.020086806
86	0xbc3a06da	-0.011354173
87	0xbc6fc0c3	-0.01463336
88	0x3b51e8db	0.0032029662
89	0x3c161eae	0.009162588
90	0xba992a0a	-0.0011685502
91	0x3c7afcf0	0.015319094
92	0xbb5a3ba6	-0.0033299713
93	0xb993c05a	-0.00028181338
94	0x3bd32be3	0.0064444407
95	0xbca5dee2	-0.02024788

model.model.decoder.encoder.layers.0.self_attn.out_proj.weight f4 [32, 32]
0	0xbdae7118	-0.08517665
1	0xbd98b134	-0.07455674
2	0xbda0bdad	-0.07848678
3	0x3d0ed541	0.034871344
4	0xbde4e19e	-0.111758456
5	0x3c1e4acf	0.00966139
6	0xbe37d84e	-0.17953607
7	0xbe0335e4	-0.12813526
8	0x3e10a141	0.14124013
9	0xbe0a8671	-0.13527848
10	0x3d76059f	0.060063954
11	0x3c956012	0.018234286
12	0xbdb86718	-0.090040386
13	0x3d29ed78	0.041486233
14	0xbdafaeac	-0.08578238
15	0xbd727eed	-0.059203077
16	0xbe346c2d	-0.17619391
17	0xbe45c2e0	-0.1931262
18	0x3da2a7b8	0.07942146
19	0x3e35860c	0.17726916
20	0x3e1b0639	0.15139093
21	0xbe0fb83f	-0.14035128
22	0x3b0f15d5	0.0021833081
23	0xbd815b09	-0.06316192
24	0xbdf21dd1	-0.11822093
25	0xbd522f3d	-0.05131458
26	0x3dcfe970	0.101519465
27	0xbbea1946	-0.007144126
28	0x3d8d4063	0.068970464
29	0x3e18be05	0.14916237
30	0x3da30953	0.07960763
31	0xbdac4f7d	-0.08413599
32	0x3dddda2b	0.10832628
33	0x3d5d25ed	0.053991247
34	0xbdfd8ef1	-0.123807795
35	0x3dd0a072	0.101868525
36	0xbe360ac5	-0.17777546
37	0x3e0c2026	0.13684139
38	0x3d09b4e6	0.033619784
39	0xbcb71d79	-0.02235292
40	0xbe1a92bb	-0.15095036
41	0x3e22cac6	0.15897664
42	0xbda6456e	-0.081187114
43	0x3d2346bc	0.03986238
44	0x3d1ffb3a	0.039057948
45	0x3d5aa13a	0.053376414
46	0xbd8452c1	-0.064610966
47	0xbd94366f	-0.07236945
48	0xbe0ff478	-0.14058101
49	0xbc1e9e67	-0.009681321
50	0xbdd6fa46	-0.104969546
51	0xbdcde844	-0.10054067
52	0x3d8a2384	0.06745055
53	0xbd3ad005	-0.04560854
54	0xbda54964	-0.08070639
55	0x3d3c6ac0	0.046000242
56	0x3e0de912	0.1385844
57	0xbdd2da21	-0.10295511
58	0x3db41e3f	0.087948315
59	0x3c5e56c4	0.013570491
60	0x3c8825cd	0.016619587
61	0xbd7f44b2	-0.062321372
62	0x3e3c1c94	0.18370277
63	0x3e59b4f4	0.21260434
64	0x3c847e06	0.016173374
65	0x3ddf1d18	0.10894221
66	0x3df27005	0.11837772
67	0x3c9faa19	0.019490289
68	0xbcff44f4	-0.03116081
69	0x3db5fdb4	0.08886281
70	0xbd681656	-0.056661926
71	0xbc19523d	-0.009357986
72	0x3dc5782e	0.09642063
73	0x3d97410a	0.07385452
74	0x3e3119e4	0.17295033
75	0x3e254e55	0.16143163
76	0xbdf0fd84	-0.11767104
77	0x3d8ccdfd	0.06875227
78	0x3d1458fa	0.036217667
79	0x3e03b34c	0.12861365
80	0xbde94c49	-0.11391503
81	0xbe3763c4	-0.17909151
82	0xbe20d243	-0.15705208
83	0x3dd2eb67	0.10298806
84	0x3db612c6	0.088902995
85	0xbdf33890	-0.11876023
86	0x3df2080b	0.1181794
87	0xbe0fd631	-0.14046551
88	0xbe011b18	-0.12607992
89	0x3d34dd19	0.044156168
90	0xbbfcd566	-0.0077158688
91	0x3dead63c	0.11466643
92	0x3e028e15	0.12749512
93	0xbd644146	-0.055726312
94	0x3db84ea5	0.08999375
95	0x3e0b9de6	0.13634452
96	0xbc4b63db	-0.012413944
97	0xbe386d40	-0.18010426
98	0xbcff6a7f	-0.031178711
99	0x3e3e6655	0.18593724
100	0xbdd84005	-0.10559086
101	0xbab3932a	-0.0013700475
102	0x3dce607a	0.10076995
103	0x3dee7761	0.116438635
104	0xbe14a4eb	-0.14516036
105	0xbd0757b6	-0.033042632
106	0x3e3dbc05	0.18528755
107	0xbd68d920	-0.05684769
108	0xbdb37ae2	-0.087636724
109	0xbd50bc16	-0.050960623
110	0xbb02cee7	-0.001995975
111	0xbe04e249	-0.12976946
112	0xbe0f00cb	-0.13965146
113	0x3d0b7ba7	0.03405347
114	0xbdd36263	-0.103215
115	0x3df0da7a	0.11760421
116	0x3cd87ae4	0.026425786
117	0xbbae937d	-0.0053276406
118	0xbd10a4c5	-0.035313386
119	0x3cbc865f	0.023013292
120	0xbcff4ede	-0.031165536
121	0xbe381188	-0.17975438
122	0xbde211bb	-0.11038538
123	0xbde70103	-0.1127949
124	0x3e103a0c	0.14084643
125	0x3dde3fc1	0.10852004
126	0x3de4e46a	0.11176379
127	0xbdbbfb39	-0.09178776
128	0xbe109478	-0.14119136
129	0x3e0c9d3e	0.13731858
130	0xbd8e6585	-0.06952957
131	0x3e258039	0.16162194
132	0xbd7d94f3	-0.061909627
133	0xbb8b85d6	-0.004257898
134	0xbcd2082e	-0.025638666
135	0xbd1be3a4	-0.038058892
136	0x3c97234b	0.018449446
137	0xbd7328fb	-0.059365254
138	0x3d3332f1	0.043749753
139	0xbe00efb0	-0.12591434
140	0x3dcc006e	0.099610195
141	0xbd6ccdf1	-0.05781359
142	0xbaee83eb	-0.0018197274
143	0x3db7710f	0.08957111
144	0x3cfe551b	0.03104644
145	0xbdef737d	-0.116919495
146	0xbe3447d9	-0.17605533
147	0x3cd3c060	0.025848567
148	0xbc861312	-0.016366515
149	0xbd6dd76a	-0.058066763
150	0x3db9ff65	0.09081916
151	0xbd7c0f94	-0.061538294
152	0x3dc35fd9	0.09539766
153	0xbdbd9399	-0.09256668
154	0xbd597693	-0.053091597
155	0x3de4a525	0.11164311
156	0x3b286e66	0.0025700568
157	0xbd486d9e	-0.048932664
158	0x3cf8a749	0.030353205
159	0x3e222125	0.15832956
160	0xbe344967	-0.17606126
161	0xbbbea0aa	-0.0058174925
162	0xbe0cdf11	-0.13756968
163	0x3dce7f98	0.1008293
164	0xbcecbf8b	-0.028899929
165	0xbd00d0fc	-0.031449303
166	0xbe338a36	-0.17533192
167	0x3be47ca6	0.006972867
168	0xbd0c0931	-0.034188453
169	0xbdb9a49c	-0.090646
170	0x3e0ddc23	0.13853507
171	0x3d3e3c0d	0.046443988
172	0xbcc27806	-0.023738872
173	0xbe0f926f	-0.14020704
174	0x3dd7fb76	0.10546009
175	0x3de63c65	0.11241988
176	0x3d9b31e7	0.075778775
177	0x3d4c8cd7	0.049939003
178	0xbdcf276d	-0.10114942
179	0x3cf8eaba	0.030385364
180	0x3da972d2	0.08273853
181	0xbd2a30c2	-0.041550405
182	0xbd35aea5	-0.044356007
183	0xbda05400	-0.07828522
184	0x3d06e387	0.03293183
185	0xbce8a7f2	-0.028400395
186	0x3d9fb0cd	0.07797394
187	0xbe206a02	-0.15665439
188	0xbcec0dce	-0.028815176
189	0xbdf9848a	-0.12183483
190	0xbe1239bb	-0.14279835
191	0xbd98e1df	-0.074649565
192	0x3e01e940	0.12686634
193	0x3e0a01c1	0.13477232
194	0xbdd82d27	-0.10555487
195	0x3e084c8d	0.13310452
196	0x3e0333b1	0.12812687
197	0xbd382613	-0.044958185
198	0x3d4723b3	0.04861803
199	0xbd3fa4b5	-0.046787936
200	0x3e1d2df7	0.15349565
201	0x3e03d103	0.128727
202	0x3e228531	0.15871121
203	0x3dc15a67	0.09441071
204	0x3d660a1e	0.056161992
205	0xbd3264d3	-0.043553185
206	0xbd1ad25a	-0.037798263
207	0xbd762777	-0.06009623
208	0xbd053d14	-0.03252895
209	0xbd7e77dc	-0.062126026
210	0x3db66fd4	0.08908048
211	0x3e1263e1	0.14295913
212	0x3dbb591b	0.09147855
213	0xbd4c725a	-0.04991374
214	0x3e0e6afb	0.13907997
215	0xbd3c4d67	-0.045972254
216	0xbda11837	-0.07865947
217	0x3db3c021	0.0877688
218	0xbd22ca81	-0.039743904
219	0x3e12db31	0.14341427
220	0x3e2af021	0.16693164
221	0xbe012eef	-0.1261556
222	0xbd8c2ef9	-0.06844897
223	0x3e4095f7	0.18807207
224	0xbdeb6bb7	-0.11495154
225	0xbd59dd99	-0.053189848
226	0x3e1dcc57	0.1540998
227	0x3d45d9bf	0.048303362
228	0xbd0d3d4c	-0.034482285
229	0xbcc86bd9	-0.024465488
230	0x3e281b37	0.16416632
231	0x3d603eeb	0.054747503
232	0xbe0a3fda	-0.1350092
233	0xbdaf3e6c	-0.08556828
234	0x3d8ff7e4	0.07029703
235	0x3c652377	0.013985506
236	0x3e2e122e	0.16999123
237	0x3df661b5	0.12030355
238	0x3d97f509	0.074197836
239	0x3d71bd1d	0.059018243
240	0xbdd042e8	-0.10169011
241	0xbd96851c	-0.07349607
242	0xbd3ef207	-0.046617534
243	0xbe162b5a	-0.14664975
244	0xbdba619c	-0.09100649
245	0xbe31a8a9	-0.17349495
246	0x3dfc48a2	0.12318541
247	0x3befe4ee	0.0073209917
248	0x3d047d78	0.03234622
249	0x3e30fa8b	0.17283075
250	0xbcfe2ef1	-0.031028243
251	0xbd682d89	-0.05668405
252	0xbd48332b	-0.048876923
253	0x3e2c9362	0.16853097
254	0xbd69f130	-0.05711478
255	0x3dc1f136	0.094698355

model.model.decoder.encoder.layers.0.self_attn.out_proj.bias f4 [32]
0	0xbc2faf30	-0.01072292
1	0xbbb2bf19	-0.0054549095
2	0x3bfe9a9c	0.0077698957
3	0xbb82a7d3	-0.0039872914
4	0xbbd91663	-0.006624983
5	0xbcb09d5d	-0.021559412
6	0xbb0bfb22	-0.0021359404
7	0x397b7408	0.0002398045
8	0x3a439a10	0.0007461617
9	0xbc30aa58	-0.010782801
10	0x3b3052d7	0.0026904845
11	0xbc45e7d5	-0.012079199
12	0x3c1e8b9b	0.009676839
13	0xbc427478	-0.011868589
14	0xbc1d8e7a	-0.009616489
15	0x3ba03782	0.0048894295
16	0x3c6f6ca8	0.014613308
17	0x3c5360cb	0.012901495
18	0x3bd253f3	0.006418699
19	0x3bf9db83	0.007625045
20	0x3c83bd15	0.016081372
21	0x394b620c	0.00019396114
22	0x3c006a7c	0.007837888
23	0xbc9844e0	-0.01858753
24	0xbba5f4b4	-0.0050645713
25	0xb9436afa	-0.00018636501
26	0x3b30e6cb	0.0026993032
27	0x3bd82ca7	0.00659712
28	0xbc1a62bf	-0.009422957
29	0xb98d4aed	-0.0002694944
30	0x3c875dfb	0.016524306
31	0xb6ee170b	-7.0956353e-06

model.model.decoder.encoder.layers.0.linear1.weight f4 [128, 32]
0	0xbdcf1070	-0.10110557
1	0xbda927ec	-0.082595676
2	0xbd503fe1	-0.05084217
3	0xbe0561ab	-0.13025539
4	0x3de6f206	0.11276631
5	0x3d2794a1	0.040913228
6	0x3e00f158	0.12592065
7	0x3ce46994	0.027882375
8	0xbd7ae383	-0.06125213
9	0xbb39c0db	-0.002834371
10	0x3e074291	0.13208987
11	0x3c36b200	0.011150837
12	0xbda63ad7	-0.081166916
13	0xbdd86a00	-0.10567093
14	0xbd08a6fc	-0.033362374
15	0x3e19a110	0.15002847
16	0xbdc9e2e6	-0.098577306
17	0x3dc61bb4	0.09673253
18	0x3db3ea05	0.0878487
19	0xbdf95fe4	-0.12176493
20	0x3e045455	0.12922795
21	0x3e20f8fb	0.15719979
22	0xbdd2a8e6	-0.10286121
23	0x3e0eeb0a	0.13956848
24	0xbd85cd1c	-0.06533262
25	0xbcc6ffc0	-0.024291873
26	0xbda96c20	-0.08272576
27	0x3e2bb786	0.16769227
28	0xbe063462	-0.1310592
29	0xbc525c11	-0.012839333
30	0xbd73e327	-0.0595428
31	0xbcf26f9e	-0.029594239
32	0x3d87f5ef	0.06638705
33	0x3e3f2c39	0.18669213
34	0xbde23504	-0.11045268
35	0x3e1225e6	0.1427227
36	0xbd92c9b1	-0.07167376
37	0xbdea9da0	-0.11455846
38	0xbd5ff43d	-0.054676283
39	0xbe10850f	-0.14113258
40	0xbcf956ce	-0.0304369
41	0xbcdde92b	-0.027088722
42	0xbe251874	-0.1612261
43	0xbd927899	-0.071519084
44	0x3c21c617	0.009873888
45	0x3e04abb3	0.12956123
46	0x3d1dc9f7	0.038522687
47	0xbd740481	-0.059574608
48	0x3e0784d0	0.13234258
49	0xbe05c7ba	-0.13064471
50	0xbda7a5cd	-0.08185921
51	0x3c928ce6	0.017889451
52	0x3e06ad53	0.13152055
53	0xbe41ee47	-0.18938552
54	0x3d8be425	0.068306245
55	0xbdb54530	-0.08851087
56	0xbc438ef8	-0.011935942
57	0xbddf7fad	-0.10913024
58	0x3e032134	0.12805635
59	0xbc6b885e	-0.014375774
60	0xbdf6f692	-0.12058748
61	0xbbd3c1b8	-0.006462302
62	0xbdcdee67	-0.10055237
63	0xbc9e4cf9	-0.019323813
64	0x3d45923e	0.04823517
65	0x3e362341	0.17786886
66	0x3e1ccd66	0.15312728
67	0xbda1ccab	-0.079003654
68	0x3d1fb723	0.038993012
69	0xbde63a98	-0.112416446
70	0xbcc3b01b	-0.023887685
71	0xbdb420b8	-0.08795303
72	0xbca5b834	-0.020229436
73	0xbd924549	-0.07142121
74	0x3e018ca2	0.12651303
75	0xbd96f36b	-0.07370647
76	0xbdcad18d	-0.0990325
77	0xbd2d6091	-0.04232842
78	0x3d764116	0.060120665
79	0xbd41f8e2	-0.047356494
80	0x3ca36959	0.019947695
81	0x3d2f6d3c	0.042828783
82	0xbcd69be0	-0.026197374
83	0x3d020357	0.031741466
84	0xbd89a9a1	-0.06721807
85	0x3d464e3c	0.048414454
86	0xbe321817	-0.17392002
87	0xbce67a5e	-0.028134521
88	0x3e373fd2	0.1789544
89	0xbbf86573	-0.007580453
90	0x3da64e83	0.08120444
91	0x3b15e7f0	0.0022873841
92	0x3cf365a1	0.029711546
93	0xbe391ba0	-0.18076944
94	0x3e04d4d4	0.12971812
95	0x3e0dd004	0.13848883
96	0xbddad36a	-0.10684855
97	0x3e05ad01	0.13054277
98	0x3d9f257b	0.07770821
99	0x3e0a6030	0.13513255
100	0x3dcb6b1b	0.09932538
101	0x3e0214c9	0.12703241
102	0x3d2582f7	0.0404081
103	0x3e27c45d	0.163835
104	0x3dd385fa	0.103282884
105	0x3cc7403d	0.024322623
106	0xbd7271ea	-0.05919067
107	0x3d1bb2e9	0.03801242
108	0x3d391376	0.045184575
109	0x3ddd3961	0.1080196
110	0xbd969f63	-0.07354619
111	0x3e17a804	0.14810187
112	0x3deee202	0.11664201
113	0x3c643bf3	0.013930309
114	0x3d8786b5	0.0661749
115	0x3e2dc899	0.16971053
116	0x3e2e5fd1	0.17028739
117	0x3d2fc5be	0.04291319
118	0xbd230404	-0.03979875
119	0x3e1c771e	0.15279815
120	0xbd4ae6d5	-0.049536545
121	0xbdabd890	-0.083909154
122	0x3e2c0af6	0.16801056
123	0x3d82ccbd	0.06386707
124	0xbdcf1836	-0.1011204
125	0x3dc612e4	0.09671572
126	0x3e1c0e47	0.15239821
127	0xbdcb3795	-0.09922711
128	0xbdc262a7	-0.09491473
129	0xbc94e522	-0.018175665
130	0xbcbef37d	-0.023309464
131	0x3e1d2583	0.15346341
132	0xbc2120eb	-0.009834508
133	0xbd045236	-0.032304965
134	0x3dd4b74f	0.10386526
135	0x3d94e645	0.07270483
136	0xbda54506	-0.08069806
137	0xbcca0aec	-0.024663411
138	0xbd1480b4	-0.036255553
139	0x3e32fdc1	0.17479612
140	0xbde0097d	-0.1093931
141	0xbdbfe0e8	-0.09369069
142	0x3d1d13fb	0.038349133
143	0xbc804e2b	-0.015662273
144	0xbdc281fb	-0.09497448
145	0xbe2fdeb9	-0.17174806
146	0x3e178800	0.14797974
147	0xbd5d4ff9	-0.054031346
148	0xbdf47501	-0.11936379
149	0x3e0763d0	0.13221669
150	0xbc6ea59d	-0.0145658525
151	0x3e312d70	0.1730249
152	0x3d85b7bc	0.06529185
153	0xbd5f85a7	-0.05457082
154	0xbc0779ad	-0.008268756
155	0x3dad8043	0.084717296
156	0x3dac6155	0.08417002
157	0xbdd6dd4b	-0.10491427
158	0x3d3764d5	0.044773895
159	0x3db1e7f8	0.08686823
160	0x3de6f493	0.112771176
161	0xbdc7f5db	-0.0976369
162	0x3da983b1	0.08277071
163	0xbe2507fe	-0.1611633
164	0x3de2c746	0.11073165
165	0x3de43a41	0.111439236
166	0xbd54acba	-0.051922537
167	0x3e080d71	0.13286377
168	0x3daafffd	0.08349607
169	0x3e066bb9	0.1312703
170	0x3e2b2228	0.16712248
171	0xbdee58a4	-0.116380006
172	0x3dce67b2	0.10078372
173	0xbca165cc	-0.01970186
174	0xbafd1408	-0.0019308338
175	0xbb2ca4a7	-0.0026343258
176	0xbdf654f8	-0.12027925
177	0x3dc0aff2	0.09408559
178	0xbdf6cec7	-0.120511584
179	0xbc890b02	-0.016728882
180	0x3e38288e	0.1798422
181	0x3c872efa	0.016501892
182	0x3e2c1635	0.16805346
183	0xbc60d576	-0.013722768
184	0xbdc1ae89	-0.09457118
185	0xbd534bce	-0.051585965
186	0x398dfac1	0.00027080442
187	0xbe030f19	-0.12798728
188	0xbe0ada32	-0.13559797
189	0x3be139cb	0.0068733445
190	0xbe32da16	-0.17466006
191	0x3df3e337	0.11908572
192	0x3e2210a4	0.1582666
193	0xbde9c93a	-0.11415334
194	0x3e29fd6d	0.1660058
195	0x3d833214	0.06406036
196	0xbd9b6160	-0.07586932
197	0xbe21f32f	-0.15815423
198	0x3e0b1da7	0.1358553
199	0xbded3333	-0.11582031
200	0xbd4936af	-0.049124416
201	0xbe1d6064	-0.15368801
202	0x3dbfbade	0.09361814
203	0x3d32dd79	0.043668244
204	0xbe066b97	-0.1312698
205	0xbde7c2c6	-0.11316447
206	0xbd64dc95	-0.055874426
207	0x3c97254f	0.018450407
208	0xbb09175a	-0.002091846
209	0xbcec7a8f	-0.028867034
210	0xbdafe7d8	-0.085891426
211	0x3deddc9a	0.11614342
212	0x3dfb18d8	0.12260598
213	0xbd89894b	-0.0671564
214	0x3d09248c	0.03348212
215	0xbd4adacb	-0.049525063
216	0xbcada5b8	-0.021197185
217	0x3d83741d	0.06418631
218	0x3db896c8	0.09013134
219	0xbdacd3c4	-0.084388286
220	0x3e1325b3	0.1436985
221	0xbd7ea33e	-0.0621674
222	0xbe12f924	-0.14352852
223	0xbbeb8284	-0.0071871895
224	0xbc3b1ba5	-0.011420165
225	0xbe047627	-0.12935697
226	0x3d5b877c	0.053596005
227	0x3df463b5	0.1193308
228	0x3e49a922	0.19693425
229	0xbe1b5ba1	-0.15171672
230	0xbe0b38bb	-0.1359586
231	0xbcff852d	-0.031191433
232	0xbc1bba4b	-0.009504865
233	0xbcd5fdd4	-0.026122011
234	0xbe21862d	-0.1577384
235	0x3e17d121	0.1482587
236	0xbde99e3e	-0.114071354
237	0x3dbd68fc	0.0924854
238	0xbe0c361f	-0.1369252
239	0x3dbbe93c	0.09175345
240	0x3d85e54b	0.06537875
241	0x3dbb7b48	0.091543734
242	0x3e00cb2a	0.12577501
243	0xbc826270	-0.01591608
244	0x3c9e9e5d	0.019362623
245	0xbe1e04f8	-0.15431583
246	0x3e23aeb5	0.15984614
247	0xbda173b1	-0.078833945
248	0x3dba143b	0.0908589
249	0xbd3272a4	-0.04356636
250	0xbe1bd135	-0.15216525
251	0x3cb93fc0	0.022613406
252	0x3d875629	0.066082306
253	0xbde7f426	-0.113258645
254	0xbd757056	-0.059921585
255	0xbe115fb1	-0.1419666

model.model.decoder.encoder.layers.0.linear1.bias f4 [128]
0	0xbdb79139	-0.08963246
1	0xbddf6824	-0.10908535
2	0xbd8ef3e3	-0.069801114
3	0xbe069a17	-0.13144718
4	0xbcd5b3eb	-0.026086768
5	0xbce0df7a	-0.027450312
6	0x3df6ba97	0.12047308
7	0xbd9c2d53	-0.076258324
8	0x3df8f585	0.12156204
9	0xbbbb4ca3	-0.005715923
10	0xbd07d1e0	-0.033159137
11	0xbdec9533	-0.11551895
12	0x3d230e99	0.039808843
13	0xbd5d61e2	-0.054048426
14	0x3e1080c7	0.14111625
15	0xbc1afde1	-0.0094599435
16	0xbce4820c	-0.027894042
17	0xbdb1d2f7	-0.086828165
18	0xbd8b5b47	-0.06804519
19	0x3c431c20	0.011908561
20	0x3e32865d	0.17434068
21	0xbd4c453a	-0.049870707
22	0xbdcd18ed	-0.1001452
23	0x3d5a71f1	0.05333132
24	0x3e1459b6	0.14487347
25	0xbe1c004e	-0.15234491
26	0xbc21ae38	-0.009868197
27	0x3e03baf7	0.1286429
28	0x3d6834d0	0.05669099
29	0x3d4d91dd	0.050187934
30	0x3e0d9eb4	0.13830072
31	0xbde6f8be	-0.112779126
32	0x3e1df90b	0.15427034
33	0xbdc9c7e1	-0.09852577
34	0x3d3a709f	0.04551756
35	0x3c36c0d3	0.011154371
36	0xbc79b9c2	-0.015242042
37	0x3e0d9299	0.13825454
38	0xbc29ed13	-0.010371464
39	0x3ddebc89	0.10875804
40	0xbc03205c	-0.008003321
41	0x3e225ea2	0.15856412
42	0xbd657b4d	-0.056025792
43	0x3d3aa0d9	0.045563553
44	0xbdde67e6	-0.10859661
45	0x3c4e4508	0.0125897005
46	0x3e49e4ee	0.19716236
47	0x3dc91dc8	0.098201334
48	0xbd756afc	-0.05991648
49	0x3e322c24	0.17399651
50	0x3df5a3a3	0.11994102
51	0xbda0cb48	-0.07851273
52	0xbdaf6707	-0.08564573
53	0x3cd0d7ad	0.025493467
54	0xbac463d1	-0.0014983361
55	0x3e47b076	0.19500908
56	0x3da0bccf	0.078485124
57	0xbc8f6326	-0.017503332
58	0xbd9b3b69	-0.07579691
59	0x3e27cda4	0.1638704
60	0x3d8b1c7b	0.067925416
61	0x3c7a0065	0.015258883
62	0xbda1a37b	-0.078925095
63	0x3dfe1a7f	0.124073975
64	0x3db3b2f8	0.0877437
65	0xbd603cae	-0.05474537
66	0x3daae0e2	0.08343674
67	0x3e0e57fc	0.13900751
68	0x3e203e6d	0.15648814
69	0xbe06ee39	-0.13176812
70	0x3e12defc	0.14342874
71	0x3e21062b	0.15725009
72	0xbd979fc6	-0.07403521
73	0x3db2d96b	0.087328754
74	0x3dca6eb7	0.098843984
75	0x3e310ecf	0.17290805
76	0x3c7a9839	0.015295082
77	0xbc8558dc	-0.016277723
78	0xbd0a5978	-0.03377673
79	0xbde99ccc	-0.1140686
80	0x3e2aaf4b	0.16668431
81	0x3d7058e7	0.058678534
82	0xbd91015b	-0.07080337
83	0x3d674691	0.05646378
84	0xbdf1682d	-0.11787448
85	0xbdf24c52	-0.11830963
86	0xbe317cca	-0.1733276
87	0x3dbae457	0.091255836
88	0x3d9c35d2	0.07627453
89	0xbe1705f7	-0.14748369
90	0x3e8619a6	0.26191443
91	0x3bf36a5d	0.007428451
92	0xbb8c0869	-0.0042734635
93	0x3ddff4df	0.10935377
94	0x3db4a815	0.088211216
95	0xbdbd30f8	-0.09237856
96	0x3e088b52	0.13334396
97	0xbd675a2a	-0.05648247
98	0xbd6561c9	-0.05600146
99	0x3e06631b	0.13123743
100	0x3e1bd9fb	0.15219872
101	0xbdf09dcd	-0.11748848
102	0x3d0b464b	0.034002583
103	0xbe0706a1	-0.13186122
104	0xbe12ebe8	-0.14347804
105	0xbe0d8703	-0.13821034
106	0xbd2fa47b	-0.04288147
107	0xbe03ec81	-0.12883188
108	0x3df14dba	0.11782403
109	0x3e348ee5	0.17632635
110	0x3d6f79e3	0.05846585
111	0x3dd37d9c	0.103266925
112	0xbbc97911	-0.0061484654
113	0x3e0b7746	0.13619718
114	0x3dfcaecd	0.12338028
115	0x3debe328	0.11517936
116	0xbd857eba	-0.06518312
117	0x3dcdfee8	0.10058385
118	0xbe04a00e	-0.12951681
119	0xbdef8dfd	-0.11697004
120	0xbdbcbf2f	-0.09216153
121	0x3d8b770e	0.06809817
122	0x3d256055	0.040375073
123	0x3dac1a6f	0.08403479
124	0x3da8fd95	0.08251492
125	0x3e14a3f2	0.14515665
126	0xbd547b37	-0.05187532
127	0x3e464685	0.19362839

model.model.decoder.encoder.layers.0.linear2.weight f4 [32, 128]
0	0x3d98f375	0.07468311
1	0xbdad7cbf	-0.08471059
2	0xbd90324a	-0.07040842
3	0x3ac1c8ee	0.0014784613
4	0xbd93c359	-0.07214994
5	0xbd3c313e	-0.0459454
6	0x3d91da6c	0.07121739
7	0xbc8af8cb	-0.016964337
8	0x3d154703	0.036444675
9	0xbd838e9e	-0.064236864
10	0x3d93ffe6	0.07226543
11	0xbcce99ba	-0.025219787
12	0xbd3f5ed6	-0.046721302
13	0xbd77ee19	-0.060529802
14	0xbd215945	-0.039391775
15	0xbda4bfbc	-0.08044383
16	0x3d931474	0.071816355
17	0xbd0c4535	-0.03424569
18	0xbdd7b7bc	-0.105330914
19	0x3c142837	0.009042791
20	0xbc8d7fda	-0.017272878
21	0x3cada8a4	0.021198578
22	0x3dcc0def	0.09963595
23	0x3cc36961	0.02385396
24	0xbbd5ad85	-0.0065209293
25	0xbd0c764f	-0.034292515
26	0xbd92accd	-0.071618654
27	0x3d174ee4	0.03694047
28	0xbcdeb8e3	-0.02718777
29	0x3d2cf42a	0.04222504
30	0x3d824476	0.06360714
31	0xbce5d312	-0.028054748
32	0x3d90fc51	0.070793755
33	0xbd186cb7	-0.037213054
34	0x3c6dd3a0	0.014515787
35	0xbdc1ee47	-0.09469276
36	0x3d481447	0.048847463
37	0xbd4fb0a3	-0.050705563
38	0x3dc7e84a	0.097611025
39	0x3ca64f71	0.020301552
40	0x3c7bd34e	0.015370203
41	0x3dc6ae79	0.09701247
42	0x3d5c043d	0.05371498
43	0x3cb30721	0.021853985
44	0xbcb775f4	-0.022395112
45	0xbc4491d3	-0.011997658
46	0xbc2a14a5	-0.010380899
47	0x3d104125	0.035218377
48	0x3d6da879	0.058021996
49	0xbc9b0c45	-0.018926749
50	0xbc95c267	-0.018281175
51	0x3d3e21d8	0.046418995
52	0x3db73204	0.089450866
53	0xbd8e8048	-0.069580615
54	0x3e07a412	0.13246182
55	0xbda57962	-0.080797926
56	0x3de230a4	0.11044434
57	0xbceaa4f4	-0.028643109
58	0x3db75f86	0.089537665
59	0xbd593845	-0.05303218
60	0x3c4b3343	0.012402358
61	0x3d963753	0.07334771
62	0xbe0ed684	-0.13949019
63	0x3d870f6c	0.06594738
64	0xbd439fc2	-0.04775978
65	0xbd58ab0c	-0.052897498
66	0xbc69868a	-0.014253268
67	0xbe3399da	-0.17539158
68	0xbc9e496c	-0.01932212
69	0xbd85ccf7	-0.065332346
70	0x3da67b4a	0.08128984
71	0x3da237d4	0.079208046
72	0xbd9aaf9d	-0.07553027
73	0x3d01d445	0.031696577
74	0x3d91d938	0.07121509
75	0xbc47c448	-0.012192793
76	0xbc131659	-0.008977496
77	0x3bd021ab	0.00635167
78	0x3d852f3a	0.065031484
79	0xbb76b13d	-0.0037642263
80	0xbd218e57	-0.039442386
81	0x3d58c908	0.052926093
82	0x3c941328	0.01807554
83	0x3ceb3fd2	0.028716955
84	0xbda7d0b0	-0.08194101
85	0x3daee85d	0.085404135
86	0xbdc2ba4f	-0.09508192
87	0x3937db53	0.00017533945
88	0xbd7ca492	-0.061680384
89	0xbd8be713	-0.06831183
90	0x3dcfc823	0.10145595
91	0xbdc53bdd	-0.09630559
92	0x3bfe47d1	0.007760026
93	0x3de57e84	0.112057716
94	0xbd80fbb9	-0.06298012
95	0x3cb4b2e4	0.022057958
96	0xbd2fd7c5	-0.042930383
97	0xbdf26451	-0.1183554
98	0xbd5e8116	-0.054322325
99	0xbcc35fbf	-0.023849366
100	0xbdb24760	-0.0870502
101	0xbd120548	-0.035649568
102	0xb6bacc05	-5.566983e-06
103	0x3cc77edc	0.024352483
104	0x3c80707a	0.015678633
105	0x3db4d833	0.08830299
106	0xbcebd5bc	-0.02878844
107	0x3be97e08	0.00712562
108	0xbd8556d4	-0.06510702
109	0x3bb2c30a	0.0054553794
110	0xbcdad794	-0.026714124
111	0xbd86cdd2	-0.06582226
112	0x3d9b8cfc	0.0759525
113	0xbc1b5434	-0.009480525
114	0xbd895aeb	-0.06706794
115	0x3cebaeb8	0.028769836
116	0x3d76157e	0.06007909
117	0xbd102507	-0.035191562
118	0xbcaa7f70	-0.02081272
119	0xbc8c3396	-0.017114442
120	0x3ccf6c15	0.025320092
121	0x3d4fc8f6	0.05072876
122	0xbe04e433	-0.12977676
123	0xbc376b8a	-0.011195073
124	0x3af6f9dc	0.0018842774
125	0x3c915feb	0.017745933
126	0x3c1195c7	0.008885807
127	0x3ca5ef3e	0.020255681
128	0xbd772646	-0.060339235
129	0xbdb2f5db	-0.087382995
130	0xbba47d7c	-0.0050198417
131	0xb769724a	-1.3914492e-05
132	0xbd7b3de1	-0.06133831
133	0x3db6ba3c	0.0892224
134	0x3dab1abd	0.08354709
135	0xbd2811d4	-0.041032627
136	0x3c802123	0.0156408
137	0x3d53c187	0.051698234
138	0x3da2a4fe	0.07941626
139	0xbd8c84db	-0.06861278
140	0xbd4acfb9	-0.049514506
141	0xbcb792f0	-0.022408932
142	0xbdbc448c	-0.09192762
143	0xbc1b693a	-0.009485537
144	0xbcbd4a37	-0.023106677
145	0x3cb6366a	0.022242744
146	0xbd58b922	-0.05291093
147	0x3bdda19d	0.0067636506
148	0x3ac978a9	0.0015371043
149	0xbd8d20e4	-0.06891039
150	0xbc8568d9	-0.016285347
151	0xbd4aed81	-0.049542908
152	0x3c94eef1	0.018180342
153	0x3c8e41cc	0.017365359
154	0xbcce1a02	-0.025158886
155	0x3d9dff27	0.07714682
156	0xbd4d9336	-0.05018922
157	0xbdb396b7	-0.08768981
158	0x3cf6aeef	0.030112712
159	0xbccf4322	-0.025300566
160	0xbd28c991	-0.041207854
161	0xbbe41f5d	-0.0069617466
162	0xbd35c59d	-0.04437791
163	0xbd93eb39	-0.072225995
164	0x3c387f39	0.011260801
165	0x3d970313	0.07373633
166	0xbd05a4e4	-0.032627955
167	0xbc4f194a	-0.012640307
168	0x3d172989	0.036904845
169	0x3d55b1eb	0.05217163
170	0x3d9f839c	0.07788774
171	0x3e0b62ef	0.13611959
172	0xbdd35e5a	-0.103207305
173	0xbd69ebe7	-0.05710974
174	0x3d94f37f	0.07273006
175	0x3d87ded4	0.06634298
176	0x3d2d5692	0.042318888
177	0xbd89f536	-0.067362234
178	0x3d7afbb7	0.06127521
179	0xbd84cf27	-0.06484824
180	0x3d989522	0.0745032
181	0xbd8a5697	-0.06754797
182	0xbd0c9ace	-0.03432732
183	0xbc9363e8	-0.017991975
184	0xbc020ef6	-0.007938137
185	0xbd990718	-0.07472056
186	0x3c3003e8	0.010743119
187	0xbc93c174	-0.018036582
188	0x3d8b292b	0.067949615
189	0x3da7c9b3	0.08192768
190	0xbdd57be5	-0.10424022
191	0xbd62eab3	-0.055399608
192	0xbde9e200	-0.11420059
193	0xbd05bd2c	-0.03265111
194	0x3cda0d1d	0.026617581
195	0xbc9d318f	-0.01918867
196	0xbd368698	-0.044561952
197	0x3cd64bbe	0.026159164
198	0x3d759504	0.059956565
199	0x3d4699b4	0.048486426
200	0xbdb2f223	-0.0873759
201	0x3c6e68c8	0.014551349
202	0xbd1abbc0	-0.03777671
203	0x3d992d38	0.07479328
204	0xbd57b953	-0.052666973
205	0xbda230c5	-0.07919458
206	0xbcce064d	-0.025149489
207	0xbce8f173	-0.028435444
208	0xbd4426d9	-0.04788861
209	0x3d95e994	0.07319942
210	0xbd79af79	-0.06095836
211	0xb9830759	-0.00024991742
212	0x3c305cb0	0.010764286
213	0xbdaf57f2	-0.08561696
214	0xbdd6ed70	-0.10494506
215	0x3bcda133	0.00627532
216	0xbceb772a	-0.028743345
217	0x3cb12a69	0.021626668
218	0x3c241703	0.010015252
219	0x3bac9fe5	0.0052680844
220	0x3d45e7d8	0.048316807
221	0x3de07090	0.109589696
222	0xbd557797	-0.052116003
223	0x3c9cc112	0.019135032
224	0x3de24954	0.110491425
225	0xbdd30d0e	-0.10305224
226	0x3dd0229b	0.101628505
227	0x3dde68bb	0.108598195
228	0x3d68af11	0.05680758
229	0xbdc1a6b8	-0.09455627
230	0xbbd748e6	-0.0065699695
231	0xbdc7e894	-0.09761158
232	0xbd299f48	-0.041411668
233	0x3d6eae8e	0.058271937
234	0x3d9b91d6	0.075961754
235	0xbc8f21f6	-0.017472249
236	0xbca7f9de	-0.020504888
237	0xbd2f9916	-0.042870604
238	0xbd984b65	-0.07436255
239	0xbc2db2be	-0.0106016975
240	0xbdd54413	-0.10413375
241	0xbdcf8b54	-0.101339966
242	0x3d879358	0.066199005
243	0x3d666908	0.05625251
244	0x3d06c371	0.03290123
245	0xbd4de4ed	-0.05026715
246	0xbd53432a	-0.051577725
247	0xbd9dea91	-0.077107556
248	0xbd7fa3cd	-0.062412072
249	0xbd76ca88	-0.060251743
250	0xbd18fc07	-0.037349727
251	0x3d89fd96	0.06737821
252	0xbd5b9cca	-0.053616323
253	0xbd445324	-0.04793085
254	0xbd7b32ca	-0.061327733
255	0x3cad039c	0.021119885

model.model.decoder.encoder.layers.0.linear2.bias f4 [32]
0	0x3d46c8e8	0.048531443
1	0xbdb0655f	-0.08613085
2	0x3d0f01ef	0.034913953
3	0xbd2c174f	-0.042014416
4	0xbb9a4551	-0.00470797
5	0xbd7fc921	-0.06244767
6	0xbd137b26	-0.036006115
7	0x3dc0cf64	0.094145566
8	0xbcd953b0	-0.026529163
9	0x3c80c6b6	0.015719753
10	0x3d7621fe	0.06009101
11	0xbdb7f93d	-0.08983085
12	0x3d6db1be	0.058030836
13	0xbdb26559	-0.08710737
14	0x3d96f480	0.073708534
15	0x3c2dd9aa	0.010610977
16	0x3dc4ef84	0.096159965
17	0xbd6675b5	-0.056264598
18	0x3d6d272e	0.057898693
19	0xbcd3a20b	-0.025834104
20	0x3c59f86c	0.013303857
21	0xbdf43b8c	-0.1192542
22	0x3d35e27d	0.04440545
23	0x3c4b550c	0.0124104135
24	0x3a4ea6fc	0.0007883159
25	0xbdbb59ac	-0.09147963
26	0x3d18b280	0.037279606
27	0xbd22fc57	-0.03979143
28	0x3c445d05	0.011985068
29	0xbcd3d6db	-0.025859287
30	0xbc166310	-0.009178892
31	0x3d121346	0.03566291

model.model.decoder.encoder.layers.0.norm1.weight f4 [32]
0	0x3f7c00be	0.9843863
1	0x3f7ad064	0.9797423
2	0x3f7f79d6	0.9979528
3	0x3f7e7dee	0.99410903
4	0x3f7ba77b	0.9830243
5	0x3f6f896f	0.9356908
6	0x3f73f9aa	0.9530283
7	0x3f742de0	0.953825
8	0x3f76809d	0.9629
9	0x3f7a10b0	0.97681713
10	0x3f7a3991	0.9774409
11	0x3f7d9a0c	0.9906318
12	0x3f76c430	0.9639311
13	0x3f766bcb	0.9625823
14	0x3f711932	0.9417907
15	0x3f7b34a9	0.9812723
16	0x3f75c484	0.96002984
17	0x3f759a89	0.95938927
18	0x3f84ae9f	1.036579
19	0x3f78172a	0.96910346
20	0x3f7a06ba	0.97666514
21	0x3f748686	0.95517766
22	0x3f6bb603	0.920746
23	0x3f73d1e2	0.9524213
24	0x3f74760d	0.9549263
25	0x3f773537	0.96565574
26	0x3f72cbb6	0.9484209
27	0x3f74ce60	0.95627403
28	0x3f75d0c7	0.96021694
29	0x3f779d62	0.9672452
30	0x3f77fca1	0.96869856
31	0x3f79ba79	0.9755016

model.model.decoder.encoder.layers.0.norm1.bias f4 [32]
0	0xbc3d848a	-0.011567244
1	0xbc07976c	-0.008275848
2	0x3bca11da	0.006166679
3	0xba4571b5	-0.0007531897
4	0xbc00ea28	-0.007868327
5	0xbcf4c65c	-0.029879741
6	0xbb041385	-0.0020153236
7	0x3bb7531e	0.005594625
8	0xbc09a113	-0.0084002195
9	0xbbc8995d	-0.006121798
10	0xba67d968	-0.0008844347
11	0xbc282881	-0.010263563
12	0x3c1cb748	0.009565182
13	0xbc116ba5	-0.008875762
14	0x3a972ca1	0.0011533686
15	0x3a9655d6	0.0011469673
16	0x3c03d622	0.008046659
17	0x3c7eebb4	0.015559126
18	0xbb535fbf	-0.0032253114
19	0x3ad44787	0.0016195633
20	0x3c4766ba	0.012170488
21	0xbbe42bad	-0.0069632144
22	0x3c9e314d	0.019310618
23	0xbc86ef29	-0.016471462
24	0xbc0d1383	-0.008610609
25	0xbb427828	-0.002967367
26	0x3c93d5fa	0.018046368
27	0x3b95b27c	0.004568396
28	0xbbc1889c	-0.0059061777
29	0x3c01a0d7	0.007911882
30	0x3c7b3389	0.015332111
31	0x3c5610c0	0.013065517

model.model.decoder.encoder.layers.0.norm2.weight f4 [32]
0	0x3f759d1a	0.9594284
1	0x3f80e067	1.0068482
2	0x3f74e5df	0.95663255
3	0x3f814784	1.009995
4	0x3f8a6d54	1.0814614
5	0x3f7eab62	0.9948026
6	0x3f7f0acb	0.99625844
7	0x3f78d8fe	0.97206104
8	0x3f7f4775	0.9971841
9	0x3f7edf51	0.99559504
10	0x3f815027	1.0102586
11	0x3f78bf01	0.9716645
12	0x3f77db73	0.9681923
13	0x3f884902	1.064728
14	0x3f7b8d73	0.9826271
15	0x3f81e430	1.0147762
16	0x3f7efd34	0.9960511
17	0x3f828b05	1.0198675
18	0x3f7cce66	0.9875244
19	0x3f94d6ef	1.1628093
20	0x3f828305	1.0196234
21	0x3f7bfbe9	0.9843126
22	0x3f7bf1e5	0.98415977
23	0x3f7a6de6	0.9782394
24	0x3f7c8524	0.98640656
25	0x3f830cd7	1.0238293
26	0x3f78f127	0.9724297
27	0x3f795fb3	0.9741165
28	0x3f81f763	1.0153621
29	0x3f7e63fa	0.993713
30	0x3f83f94b	1.0310453
31	0x3f81cdd4	1.0140939

model.model.decoder.encoder.layers.0.norm2.bias f4 [32]
0	0xbc3118c8	-0.010809131
1	0xbd124137	-0.035706725
2	0x3cc7b496	0.024378102
3	0xbce2c812	-0.027683292
4	0xbd0fda55	-0.035120327
5	0xbcdf0ece	-0.02722874
6	0xbce4696f	-0.027882306
7	0x3c77d0aa	0.015125433
8	0x3ce02301	0.027360441
9	0xbcfddf81	-0.030990364
10	0x3d115641	0.03548265
11	0xbcdd1a5f	-0.026990114
12	0x3cfc4bfb	0.030797949
13	0xbd0391c2	-0.032121427
14	0xbceaea9a	-0.02867632
15	0x3ce33782	0.02773643
16	0x3ce8b2aa	0.028405506
17	0x3d0064d4	0.031346157
18	0x3d09fe64	0.03368987
19	0x3d0fb3b5	0.03508349
20	0x3ce949e6	0.02847762
21	0x3cdffdb8	0.027342662
22	0xbce8885e	-0.028385337
23	0xbcdaa10e	-0.026688125
24	0xbceb23e2	-0.028703634
25	0x3cfa7a91	0.030576022
26	0xbcdc7138	-0.026909456
27	0x3ce32531	0.027727695
28	0xbce9c0b3	-0.028534269
29	0xbce688ef	-0.028141467
30	0x3d0489f9	0.032358143
31	0xbd00ef53	-0.031478237

model.model.projection.weight f4 [2, 32]
0	0xbe1e3219	-0.15448798
1	0x3de984ce	0.114022836
2	0x3e1e99ca	0.15488353
3	0xbe099f9e	-0.13439795
4	0xbddbd684	-0.10734275
5	0x3df26082	0.11834814
6	0x3c705096	0.014667651
7	0xbd6ff652	-0.05858452
8	0xbda5fed4	-0.08105245
9	0x3e09e31b	0.1346554
10	0x3d7a58b0	0.061119735
11	0xbd90b619	-0.07065982
12	0x3e1b4a7b	0.15165131
13	0xbddf5652	-0.10905136
14	0x3e0f2876	0.13980278
15	0xbdab4239	-0.0836224
16	0xbd3c114f	-0.045914944
17	0x3db060d0	0.086122155
18	0x3db0a8c5	0.0862594
19	0x3e19d832	0.15023878
20	0xbe2fce4a	-0.17168537
21	0x3dde2439	0.10846753
22	0x3dfe8aeb	0.1242884
23	0x3df33fb3	0.11877384
24	0xbbf5dade	-0.0075028976
25	0x3e32e103	0.17468648
26	0xbd200f83	-0.039077293
27	0xbe0b4a0c	-0.13602465
28	0x3cf75887	0.03019358
29	0xbd434884	-0.04767658
30	0xbe15fc83	-0.14647107
31	0x3e29889a	0.16556016
32	0xbdd1acf9	-0.1023807
33	0xbdd8f841	-0.10594226
34	0xbcfde98b	-0.030995151
35	0xbd908dae	-0.07058273
36	0x3dc77f46	0.09741072
37	0xbe0785f3	-0.13234691
38	0x3e048604	0.12941748
39	0x3d547e08	0.051878005
40	0xbb72538a	-0.0036976063
41	0xbdf67244	-0.12033513
42	0x3e14eae6	0.14542732
43	0x3e075169	0.1321465
44	0x3e0d4847	0.13797103
45	0xbd970146	-0.0737329
46	0xbd9edc87	-0.07756906
47	0xbde61903	-0.11235239
48	0x3d5c851b	0.053837877
49	0x3e2a69a3	0.1664186
50	0x3d968dce	0.07351266
51	0xbdbc0adb	-0.09181758
52	0x3d5fbe4d	0.054624844
53	0xbd024443	-0.03180338
54	0xbc6bf712	-0.014402168
55	0xbe1ad0f0	-0.15118766
56	0xbe2f6815	-0.17129548
57	0x3d8ecef7	0.06973069
58	0xbd0f2974	-0.034951642
59	0xbe011bbd	-0.12608238
60	0xbcf720aa	-0.030166943
61	0xbe201d32	-0.15636137
62	0x3d3c959b	0.046041112
63	0x3dc5e039	0.09661908

model.model.projection.bias f4 [2]
0	0x3d37570d	0.044760752
1	0x3d889e05	0.06670765

model.classifier.weight f4 [2, 32]
0	0x3a814d85	0.0009865022
1	0x3dc71919	0.09721584
2	0x3e0855a8	0.13313925
3	0xbe2af0dd	-0.16693445
4	0xbdbc5734	-0.0919632
5	0xbdd51fc0	-0.104064465
6	0xbca15967	-0.01969595
7	0x3e227cfb	0.15867989
8	0x3de2db6d	0.110770084
9	0x3d043ad0	0.03228265
10	0xbd76cc50	-0.06025344
11	0xbd249650	-0.04018241
12	0xbe1bb82b	-0.15206973
13	0xbe53ecb5	-0.20695765
14	0xbd29e1fb	-0.041475277
15	0x3e263e60	0.16234732
16	0x3dce225c	0.10065147
17	0x3e1a7500	0.15083694
18	0x3cd88227	0.026429249
19	0x3e0069a1	0.12540294
20	0x3e62e9e4	0.22159535
21	0x3db3cdbb	0.08779474
22	0xba6c01fd	-0.0009002982
23	0xbe182c79	-0.14860715
24	0x3c886921	0.016651692
25	0xbc035aa5	-0.008017217
26	0x3cb5fffa	0.022216786
27	0x3e311a5b	0.1729521
28	0xbe470918	-0.19437063
29	0xbdce17aa	-0.10063107
30	0x3e4a3b2b	0.19749133
31	0xbd8abede	-0.06774686
32	0x3cbc61ad	0.022995794
33	0x3e34dc82	0.17662242
34	0x3d51f84f	0.051262196
35	0x3e16a347	0.14710723
36	0x3dfed426	0.12442808
37	0x3e43ab6d	0.19108362
38	0x3e3e755e	0.1859946
39	0x3e113648	0.14180863
40	0xbdf7c0c6	-0.120973155
41	0x3dff3070	0.124604106
42	0xbe04a30b	-0.12952821
43	0x3d8ceeb6	0.06881468
44	0xbe2d1902	-0.16904071
45	0x3db4f62a	0.088360146
46	0x3d67f648	0.056631356
47	0xbe3c37ad	-0.18380614
48	0xbdce00c7	-0.10058742
49	0xbc3faf68	-0.011699535
50	0xbc894638	-0.016757116
51	0xbe8992b1	-0.2686973
52	0xbdcef570	-0.10105407
53	0xbd9d5106	-0.076814696
54	0x3dcdf392	0.10056223
55	0x3dd773c1	0.10520125
56	0x3e1440e1	0.14477874
57	0xbe55bb1b	-0.20872156
58	0x3de30b38	0.11086124
59	0x3dc38c54	0.0954825
60	0x3d37c635	0.04486676
61	0x3d4d8284	0.050173298
62	0x3cfb61e6	0.03068633
63	0x3d96b7ad	0.07359252

model.classifier.bias f4 [2]
0	0x3d72bd64	0.05926265
1	0xbdb3ffaa	-0.087889984
