lightning_logs/version_30/checkpoints/epoch=295-step=1184.ckpt (torch, 196557 bytes, 50 tensors)

model.model.pos f4 [50, 32]
0	0xbe41015d	-0.18848176
1	0x3cf1eab2	0.029530857
2	0x3d8d0aaa	0.068868
3	0x3cd2b0f2	0.02571914
4	0xbe0e683f	-0.13906954
5	0x3e26c8ea	0.1628758
6	0xbe3088c5	-0.17239673
7	0x3dba4c3b	0.09096571
8	0xbc06d73a	-0.008230025
9	0x3e30ba91	0.1725867
10	0xbe53a789	-0.20669378
11	0x3e1e18d8	0.15439165
12	0x3d1a2065	0.03762855
13	0x3da4b719	0.080427356
14	0xbd11b6ca	-0.03557471
15	0x3cb662ca	0.022263903
16	0xbde06357	-0.109564476
17	0xbe6c37c4	-0.23068148
18	0xbe205c22	-0.15660146
19	0x3e548e58	0.20757425
20	0xbe3eccb0	-0.1863277
21	0xbe123821	-0.14279224
22	0x3e22ebbd	0.1591024
23	0x3e4331e6	0.19062003
24	0x3c6291cd	0.013828707
25	0xbe6f1707	-0.23348628
26	0x3e07fdfc	0.13280481
27	0x3e44079c	0.19143528
28	0x3d91a624	0.07111767
29	0xbc581d31	-0.0131905535
30	0xbe37d887	-0.17953692
31	0xbb33de8c	-0.002744588
32	0x3e7a531c	0.24445766
33	0xbe553756	-0.2082189
34	0xbe5b0bae	-0.21391174
35	0x3e0c9789	0.13729681
36	0xbdc5724a	-0.096409395
37	0xbe0a0fab	-0.1348254
38	0x3dbf0bc5	0.09328417
39	0x3de6f2ad	0.112767555
40	0x3dbb9c58	0.091606796
41	0xbe0bc643	-0.1364985
42	0xbd93205e	-0.07183908
43	0xbe8d13b8	-0.27554107
44	0x3e757132	0.23968962
45	0x3ddab85a	0.106796935
46	0xbe605ee4	-0.21911198
47	0xbe863916	-0.26215428
48	0x3e2e2d20	0.17009401
49	0x3e17f63e	0.14840028
50	0x3e786a73	0.24259357
51	0x3e1f7db6	0.15575299
52	0x3e0adba3	0.13560347
53	0xbda561bd	-0.08075283
54	0xbcae6f1c	-0.021293215
55	0xbe2bbb3c	-0.16770643
56	0x3d517070	0.05113262
57	0xbe3393db	-0.17536871
58	0xbe7d581f	-0.24740647
59	0xbe761688	-0.24032032
60	0xbd97c15e	-0.07409929
61	0xbe9343d4	-0.28762686
62	0xbe615db5	-0.22008403
63	0x3db1d2a1	0.086827524
64	0x3d856a2a	0.0651439
65	0x3e0bbfe3	0.13647418
66	0x3e7aaaa4	0.24479157
67	0xbe17d494	-0.14827186
68	0x3d19873e	0.037482493
69	0xbde74804	-0.11293033
70	0x3c05a0fc	0.008156057
71	0xbe5b697b	-0.21426956
72	0x3dc2063b	0.094738446
73	0x3d98a9af	0.074542396
74	0x3e8c5e55	0.2741572
75	0xbdce6598	-0.10077971
76	0x3e0c8f21	0.13726474
77	0xbdedd89d	-0.11613581
78	0x3e2bea72	0.16788653
79	0x3e839ffd	0.25708
80	0x399a62c0	0.00029446743
81	0xbe3faeec	-0.18719071
82	0xbdbd1a8a	-0.092335775
83	0xbe8e0935	-0.277414
84	0xbe82b25c	-0.25526702
85	0xbca15428	-0.01969345
86	0x3e090649	0.13381304
87	0x3de7744b	0.11301478
88	0x3e81658c	0.25272787
89	0xbe8dd65c	-0.27702606
90	0xbe838c15	-0.25692812
91	0xbdf87e3c	-0.12133452
92	0x3d46c8b5	0.048531253
93	0x3d24c795	0.0402294
94	0x3e20a1c8	0.15686715
95	0xbe1182fc	-0.14210123
96	0x3daaa51f	0.083322756
97	0xbe94b678	-0.29045463
98	0xbc7702ce	-0.015076352
99	0x3e4efa7d	0.20212741
100	0x3dd7f0ce	0.10543977
101	0xbe6e8cb8	-0.23295867
102	0x3d4c1c66	0.04983177
103	0x3ea23f75	0.3168904
104	0x3e8d47a9	0.27593735
105	0x3e3a9339	0.18220223
106	0x3d6704e7	0.05640116
107	0xbd4ac857	-0.049507465
108	0xbe96b562	-0.2943526
109	0xbcaf9325	-0.021432469
110	0xbdd1be0a	-0.10241325
111	0xbe148c83	-0.14506726
112	0x3d33311a	0.043748
113	0xbd4b8ed4	-0.04969676
114	0x3d8f5a5d	0.06999657
115	0x3e280cb7	0.164111
116	0xbe7fa80f	-0.24966453
117	0xbe85a1ba	-0.2609995
118	0xbd9196d0	-0.07108843
119	0x3c582b54	0.013193924
120	0xbe280d16	-0.16411242
121	0x3e286228	0.16443694
122	0xbe68c16d	-0.22730036
123	0x3e32a02b	0.17443912
124	0xbd93e67c	-0.07221696
125	0xbd3acb0d	-0.0456038
126	0x3e52d8c7	0.20590506
127	0x3e3861b8	0.18006027
128	0x3e82a20a	0.2551425
129	0xbdc55641	-0.09635592
130	0x3e189dd9	0.14903964
131	0xbe55b17f	-0.2086849
132	0xbd0f8a8f	-0.03504425
133	0x3e5d69c2	0.21622375
134	0x3b40f7b9	0.002944453
135	0x3e5b1021	0.21392871
136	0xbdb89275	-0.090123095
137	0x3e6868f7	0.22696291
138	0xbce85a34	-0.028363325
139	0x3d8bab88	0.06819826
140	0xbdbaaf5f	-0.09115481
141	0x3e3089c9	0.17240061
142	0xbe2ca790	-0.16860795
143	0x3e730b6f	0.2373483
144	0xbe05ff6b	-0.13085715
145	0x3e79ab58	0.24381769
146	0x3d8bbd00	0.06823158
147	0xbcf99420	-0.03046614
148	0x3d2e8aa8	0.0426127
149	0xbda6f6c9	-0.08152539
150	0xbe00f890	-0.12594819
151	0x3e3b28bb	0.18277256
152	0x3b9e790f	0.0048362087
153	0x3e194797	0.14968716
154	0x3e77920d	0.24176808
155	0x3dc1440a	0.094368055
156	0xbe61811f	-0.22021912
157	0x3dcc5c15	0.09978501
158	0xbe5d9b33	-0.21641235
159	0xbdda1b50	-0.10649741
160	0xbe6f3d09	-0.23363127
161	0xbd88374d	-0.06651173
162	0xbdd6b139	-0.10483021
163	0xbd5380b1	-0.0516364
164	0xbe4689a0	-0.19388437
165	0xbe6702c3	-0.22559647
166	0xbe4ab9ee	-0.19797489
167	0x3dc9c55e	0.09852098
168	0xbe0d4803	-0.13797002
169	0xbe802466	-0.2502777
170	0xbe2446aa	-0.16042581
171	0x3e6c849a	0.23097458
172	0x3e4eb978	0.20187938
173	0xbe86574d	-0.2623848
174	0x3e4c8738	0.19973457
175	0xbe210e59	-0.1572813
176	0x3d0dd348	0.03462532
177	0xbdf85cff	-0.121271126
178	0xbdc0fe4d	-0.09423504
179	0x3d52bf8b	0.0514522
180	0x3c0f23c5	0.008736555
181	0x3e4ace44	0.19805247
182	0x3e3ab1e0	0.18231916
183	0xbe2fb72e	-0.17159721
184	0xbe84c66f	-0.25932643
185	0x3dd2eaa8	0.102986634
186	0x3e3bd4e8	0.18342936
187	0x3e77646c	0.24159402
188	0xbe3097a9	-0.17245354
189	0xbe835150	-0.25647974
190	0x3e627d74	0.22118169
191	0xbe2347f6	-0.1594542
192	0xbe35ac65	-0.17741545
193	0xbdd09367	-0.10184365
194	0x3dc6afda	0.0970151
195	0xbd81ae12	-0.063320294
196	0xbd9dc84d	-0.0770422
197	0xbdd01ede	-0.101621374
198	0xbdf800ac	-0.12109503
199	0xbd13e014	-0.03610237
200	0x3e6766f6	0.2259787
201	0xbcd81482	-0.026376966
202	0xbe467572	-0.1938074
203	0x3cca6fc2	0.024711493
204	0x3e245d53	0.16051225
205	0x3de08df5	0.10964576
206	0x3e7906e8	0.24319041
207	0xbd026e2a	-0.031843342
208	0x3daddfd4	0.084899575
209	0xbe1a245d	-0.15052934
210	0x3e0568c3	0.13028245
211	0xbe40af8a	-0.18816963
212	0x3e876c40	0.26449776
213	0xbd879511	-0.06620229
214	0xbe82d4ab	-0.25552878
215	0xbe857892	-0.2606855
216	0xbe85c756	-0.26128644
217	0xbc583266	-0.01319561
218	0xbdfab9ce	-0.12242471
219	0x3e4dd2d1	0.20099951
220	0xbc9f32e5	-0.019433448
221	0xbdccb1a4	-0.0999482
222	0x3bea4005	0.007148745
223	0x3e00f572	0.1259363
224	0xbd348633	-0.044073295
225	0x3e6ec9df	0.23319195
226	0x3e26a67a	0.16274443
227	0xbac6b561	-0.0015160256
228	0x3e493414	0.19648772
229	0xbdd943fc	-0.1060867
230	0xbd8723ea	-0.06598647
231	0xbdeeb4d1	-0.11655582
232	0x3dc4608c	0.09588727
233	0xbdd31671	-0.10307015
234	0x3e18d4cf	0.1492493
235	0x3dd9f9c9	0.10643346
236	0x3bbd7e6e	0.005782894
237	0x3bb2b98b	0.0054542474
238	0x3e0dd834	0.13852006
239	0xbe1128c4	-0.14175707
240	0x3e4cd982	0.20004848
241	0x3caa4c05	0.020788202
242	0xbd025c8d	-0.031826545
243	0xbd361d4e	-0.04446154
244	0x3c7d236c	0.01545034
245	0xbdd0986b	-0.101853214
246	0xbe11cd4b	-0.1423847
247	0xbe47b80c	-0.19503802
248	0xbe5a1df5	-0.2130049
249	0xbe2ee401	-0.17079164
250	0x3e15f874	0.14645559
251	0x3dc32cb3	0.0953001
252	0xbe6fd4cd	-0.23421021
253	0xbe829274	-0.2550236
254	0xbd6f0890	-0.058357775
255	0xbe183ac0	-0.14866161

model.model.embed.weight f4 [2, 32]
0	0x00000000	0.0
1	0x00000000	0.0
2	0x00000000	0.0
3	0x00000000	0.0
4	0x00000000	0.0
5	0x00000000	0.0
6	0x00000000	0.0
7	0x00000000	0.0
8	0x00000000	0.0
9	0x00000000	0.0
10	0x00000000	0.0
11	0x00000000	0.0
12	0x00000000	0.0
13	0x00000000	0.0
14	0x00000000	0.0
15	0x00000000	0.0
16	0x00000000	0.0
17	0x00000000	0.0
18	0x00000000	0.0
19	0x00000000	0.0
20	0x00000000	0.0
21	0x00000000	0.0
22	0x00000000	0.0
23	0x00000000	0.0
24	0x00000000	0.0
25	0x00000000	0.0
26	0x00000000	0.0
27	0x00000000	0.0
28	0x00000000	0.0
29	0x00000000	0.0
30	0x00000000	0.0
31	0x00000000	0.0
32	0xbfd708e7	-1.6799592
33	0x3e213f9f	0.15746926
34	0x3fc5c2c1	1.5450059
35	0x3ecb5dd0	0.3972001
36	0xbf545870	-0.82947445
37	0x3f296f79	0.6618572
38	0x3feb8e4a	1.8402798
39	0xbe5f9b08	-0.21836483
40	0xbeaa7401	-0.3329163
41	0xbe33f313	-0.17573194
42	0xbf3e1ba6	-0.7426094
43	0xbf349067	-0.7053284
44	0xbf897b86	-1.0740821
45	0x3e3cf8eb	0.1845433
46	0xbf57a78f	-0.8424005
47	0xbba577ad	-0.005049667
48	0xbf5f04c7	-0.87116665
49	0x3df0bfc8	0.11755329
50	0x400f6d5b	2.2410495
51	0xbf1fef02	-0.6247407
52	0x3d53ae66	0.05167999
53	0x3fd57119	1.667514
54	0x3f45298f	0.7701654
55	0x3ebab830	0.3646865
56	0x3f966e0b	1.1752332
57	0xbf016a4b	-0.50552815
58	0x3f138360	0.5762234
59	0xbf9705e1	-1.1798669
60	0x3f9a4356	1.2051799
61	0xbf053673	-0.5203621
62	0xbe7409d0	-0.23831868
63	0x3e39835e	0.18116519

model.model.decoder.encoder.layers.0.self_attn.in_proj_weight f4 [96, 32]
0	0xbe42dd32	-0.19029692
1	0x3c1c0e30	0.009524867
2	0x3e43e6d2	0.1913102
3	0x3e299dc4	0.16564089
4	0xbe3cf30d	-0.18452092
5	0x3db452f5	0.08804885
6	0xbd395639	-0.045248244
7	0x3e255a78	0.16147792
8	0xbe4d2e15	-0.2003711
9	0x3cc90438	0.024538144
10	0x3e31bfdf	0.1735835
11	0x3e042a00	0.12906647
12	0x3e180f5d	0.1484961
13	0x3e0e4450	0.13893247
14	0x3bbcb4ca	0.0057588564
15	0x3da5ba6b	0.08092197
16	0xbe5420c3	-0.20715623
17	0x3cd4bd63	0.025969213
18	0x3d8f3ccc	0.06994018
19	0xbe0b3218	-0.13593328
20	0xbc8a1a82	-0.016858343
21	0x3d09518b	0.03352503
22	0xbe1667f1	-0.14688088
23	0x3b88ae38	0.004171159
24	0x3e028509	0.12746061
25	0xbe377f4a	-0.1791965
26	0xbe53168e	-0.20614073
27	0x3e1434a0	0.144732
28	0xbdd762d6	-0.10516898
29	0xbe516211	-0.20447566
30	0x3d59f5e8	0.05321303
31	0xbe0d981b	-0.13827555
32	0xbe2f560b	-0.17122667
33	0xbdb9286d	-0.09040914
34	0x3df8c129	0.121462174
35	0x3dab6719	0.08369274
36	0xbd89fb32	-0.06737365
37	0x3d44ed8c	0.048078105
38	0xbc065dca	-0.008201072
39	0xbd416d14	-0.047223166
40	0x3bc7779f	0.006087258
41	0xbe3b6589	-0.18300451
42	0x3e1e6ac5	0.15470417
43	0x3e3c0496	0.18361124
44	0x3e45e9af	0.19327424
45	0x3de8b63a	0.11362882
46	0x3d71b6dd	0.059012283
47	0x3e42eb4b	0.1903507
48	0xbe0141b7	-0.12622724
49	0x3dd7303e	0.10507248
50	0x3b31657c	0.0027068546
51	0xbcacb3f6	-0.021081906
52	0xbe20e80d	-0.1571352
53	0xbd5c4e22	-0.05378545
54	0xbe1e6930	-0.15469813
55	0x3df981fc	0.12182996
56	0xbc6af5ae	-0.014340801
57	0x3e324220	0.17408037
58	0xbba47cd3	-0.005019763
59	0x3e217209	0.15766157
60	0xbe136aeb	-0.14396255
61	0x3d4225bd	0.04739927
62	0xbe4b8b75	-0.19877417
63	0xbe5b4746	-0.21413907
64	0xbe56fe4f	-0.20995449
65	0x3cf07ea8	0.02935727
66	0x3dfab6c0	0.12241888
67	0x3b2568fd	0.002523958
68	0xbd04ef41	-0.032454733
69	0xbe1858a2	-0.1487756
70	0x3c9c8054	0.01910416
71	0xbe341347	-0.17585479
72	0xbe1d47cb	-0.15359418
73	0xbe306b16	-0.1722835
74	0x3e06ec6d	0.13176127
75	0xbe7c3e02	-0.24633029
76	0xbe2dc8e7	-0.1697117
77	0xbe21e1c1	-0.15808775
78	0xbdf63f88	-0.120238364
79	0xbdd55a84	-0.10417655
80	0x3db22dbc	0.087001294
81	0xbc34d2eb	-0.011036615
82	0xbd53b5df	-0.051687118
83	0x3bdaf802	0.006682397
84	0xbde4033d	-0.1113343
85	0x3e4a581d	0.19760175
86	0x3cf1d398	0.029519841
87	0x3e75fdaf	0.24022554
88	0x3e337837	0.17526327
89	0x3e0bee76	0.13665184
90	0x3de17c90	0.110100865
91	0xbdc79dcf	-0.097468965
92	0xbbf5c17b	-0.0074998713
93	0x3dd7bb75	0.105338015
94	0x3dbf8192	0.093508855
95	0xbe052f1e	-0.13006255
96	0x3e3ad481	0.18245126
97	0xbd9dbd6c	-0.07702145
98	0x3e5b19ea	0.21396604
99	0xbca78ba5	-0.02045233
100	0x3dd5bcee	0.10436426
101	0x3e1c519f	0.15265511
102	0x3d0e4869	0.034737024
103	0xbe472819	-0.1944889
104	0xbd5a152a	-0.05324284
105	0x3d6a599a	0.057214357
106	0x3d87b2dd	0.06625912
107	0x3d854ebf	0.0650916
108	0xbe4d7f54	-0.20068103
109	0x3ce71e43	0.028212672
110	0x3e44c206	0.19214639
111	0x3ddd5a19	0.108082004
112	0xbe6af6a4	-0.22945648
113	0x3de76db8	0.11300224
114	0x3e717aa0	0.23581934
115	0x3db4c6cb	0.08826979
116	0xbdf65c3c	-0.12029311
117	0x3de859d1	0.11345256
118	0xbc89a3d3	-0.01680175
119	0x3b527a60	0.0032116398
120	0x3e2cc5d5	0.16872342
121	0xb8a2a067	-7.754639e-05
122	0xbd810e61	-0.06301571
123	0xbe2f69ba	-0.17130175
124	0xbd362367	-0.044467356
125	0x3e0a67c8	0.13516152
126	0xbd95a1c3	-0.07306244
127	0xbdfa21aa	-0.12213452
128	0x3e415295	0.18879159
129	0xbcda92cc	-0.026681326
130	0xbd380156	-0.04492315
131	0xbe4b3352	-0.19843796
132	0xbdca74b7	-0.09885543
133	0xbe2668b4	-0.16250879
134	0x3e3236ab	0.17403667
135	0xbd1ff8c8	-0.039055616
136	0x3d337518	0.04381284
137	0x3e57d0a9	0.21075691
138	0xbe3c214f	-0.18372081
139	0x3e2fe2c3	0.17176346
140	0x3d0024c1	0.03128505
141	0xbcfd0b8d	-0.030889297
142	0x3d94da62	0.07268216
143	0xbb29c03c	-0.0025901934
144	0xbd91c276	-0.071171686
145	0x3e3b4604	0.18288428
146	0x3c709c18	0.014685653
147	0x3e332ba6	0.1749712
148	0xbdc7bc75	-0.09752742
149	0xbdf65749	-0.12028367
150	0x3dd08fd2	0.101836815
151	0x3e338880	0.1753254
152	0x3e02367d	0.12716098
153	0xbdf7f857	-0.12107914
154	0x3e25f809	0.16207899
155	0x3e116e9a	0.14202347
156	0x3e1125f6	0.14174637
157	0x3debc236	0.11511652
158	0x3e0b07cc	0.13577193
159	0xbc4bc9c4	-0.012438241
160	0xbe23ea82	-0.16007426
161	0x3d8d2781	0.068923004
162	0x3df5998e	0.11992179
163	0xbdbea60d	-0.093090154
164	0xbdead7d3	-0.114669465
165	0xbe3e1547	-0.18562804
166	0x3e258b5f	0.16166447
167	0xbdfa2699	-0.12214393
168	0xbd7f8c25	-0.06238951
169	0x3e24c29e	0.16089866
170	0x3e38c8dd	0.18045373
171	0xbdb41d5d	-0.08794663
172	0x3d905585	0.070475616
173	0x3e463a00	0.19358063
174	0xbd95f2aa	-0.07321675
175	0x3dbb8e22	0.09157969
176	0xbe591ccd	-0.21202393
177	0x3cd05e6e	0.025435653
178	0x3e70b8c2	0.2350798
179	0x3e2b5c8a	0.1673452
180	0xbd6a68f2	-0.05722899
181	0xbda64183	-0.08117964
182	0x3e2d522c	0.16925877
183	0x3e490d2e	0.19633934
184	0xbd6964b2	-0.056980796
185	0xbe1de502	-0.15419391
186	0xbe0673b0	-0.13130069
187	0x3e0a41ba	0.13501635
188	0x3ceac40b	0.028657934
189	0xbe40f0a0	-0.18841791
190	0xbe49788e	-0.19674894
191	0xbe57db95	-0.21079858
192	0xbe24bc26	-0.16087398
193	0xbd19a827	-0.03751388
194	0x3c079f0d	0.008277667
195	0xbe5cd13e	-0.21564195
196	0x3d54a80c	0.051918074
197	0xbe46ea18	-0.19425237
198	0xbe349065	-0.17633207
199	0x3cb3590f	0.021893052
200	0xbdec33b9	-0.11533303
201	0xbd3f165f	-0.046652194
202	0xbdb982ce	-0.09058152
203	0xbe744c73	-0.23857288
204	0x3d35c793	0.044379782
205	0xbdf02d47	-0.11727386
206	0xbe39f05e	-0.18158099
207	0x3de38c2b	0.11110719
208	0xbdedb964	-0.11607626
209	0x3e07a194	0.13245231
210	0x3e2b36d5	0.16720136
211	0x3e3f1cf6	0.18663391
212	0x3db8426e	0.089970455
213	0xbe30d23f	-0.17267703
214	0x3bf45ae3	0.0074571236
215	0x3b0ea4ff	0.0021765826
216	0xbdd997ac	-0.10624632
217	0x3a1a97e0	0.0005897265
218	0xbc8b18eb	-0.016979655
219	0x3d72c100	0.05926609
220	0x3d957211	0.07297147
221	0xbe2a2d94	-0.16618949
222	0x3d6e686f	0.058205064
223	0xbe06793b	-0.13132183
224	0xbe2260fa	-0.15857306
225	0x3d2bc8b5	0.041939456
226	0x3c9e1d95	0.019301215
227	0xbda50fea	-0.08059676
228	0x3dae6be2	0.08516671
229	0x3d97972b	0.0740188
230	0xbe02f7d7	-0.12789856
231	0xbc4d486d	-0.012529475
232	0xbe3d1e7c	-0.1846866
233	0xbd2aa1a2	-0.04165805
234	0xbd2793b0	-0.04091233
235	0x3e2b9d81	0.16759302
236	0x3dcb3576	0.09922306
237	0x3e1dd75b	0.15414183
238	0x3c8a3588	0.016871229
239	0x3c49b509	0.012311229
240	0x3d9976fc	0.074933976
241	0xbb111648	-0.0022138525
242	0xbe510b11	-0.20414378
243	0xbdb17a9e	-0.086659655
244	0x3c25c5c1	0.010117949
245	0x3d355637	0.044271674
246	0xbd121ca1	-0.035671834
247	0xbe630a0c	-0.22171801
248	0xbe56a600	-0.20961761
249	0xbdc20267	-0.094731145
250	0xbe29f125	-0.16595896
251	0xbe1e0568	-0.1543175
252	0x3e097643	0.1342402
253	0xbe0e079c	-0.1387009
254	0xbdddec28	-0.10836059
255	0x3d5ae2a2	0.05343879

model.model.decoder.encoder.layers.0.self_attn.in_proj_bias f4 [96]
0	0x3cb1cafd	0.021703238
1	0x3c78e825	0.015192066
2	0x3cada2ed	0.021195853
3	0x3ca67b8c	0.020322584
4	0x3c9d12b4	0.019173957
5	0x3cb47a01	0.022030832
6	0x3c8bd664	0.017070003
7	0xbcb67d62	-0.022276584
8	0x3ccb96c7	0.02485217
9	0xbc915b3f	-0.017743705
10	0x3b511dd4	0.0031908648
11	0xbcb156a2	-0.021647755
12	0x3cae03ed	0.021242106
13	0xbc90eacc	-0.017690085
14	0xbc9dd125	-0.019264767
15	0x3cbc20bd	0.02296483
16	0xbc457d5a	-0.012053812
17	0xbcad5f10	-0.021163493
18	0xbc237bbf	-0.009978234
19	0xbaf537b5	-0.0018708619
20	0xbb9d5834	-0.0048017744
21	0xbca7a3c2	-0.020463828
22	0xbcc4222f	-0.023942081
23	0x3cb88b5a	0.022527386
24	0xbcaec072	-0.021332
25	0xbcb19b08	-0.02168037
26	0xbcc1117e	-0.023567911
27	0x3ca2b314	0.019860782
28	0x3ca0b050	0.019615322
29	0xbcc088d5	-0.023502747
30	0xbcb399ad	-0.021923864
31	0xbcad0ff9	-0.02112578
32	0xb92f4c9c	-0.0001671784
33	0x391f21df	0.0001517604
34	0xb9b048f6	-0.00033623696
35	0xb993e440	-0.00028208084
36	0x38e986e2	0.0001113543
37	0xb9ae6a57	-0.00033267096
38	0x380446c8	3.1537173e-05
39	0x385d60b5	5.278057e-05
40	0xb9908b27	-0.00027569497
41	0x39491304	0.00019175938
42	0xb9aa588f	-0.00032490908
43	0x38305ac6	4.204621e-05
44	0xb99ac895	-0.00029522614
45	0x37c068bd	2.2936956e-05
46	0x37abe35c	2.0490661e-05
47	0xb92c0319	-0.00016404352
48	0x394de799	0.000196366
49	0x39be9f25	0.00036358196
50	0x38cec5e4	9.8597055e-05
51	0x390268a0	0.00012436742
52	0xb9751def	-0.00023376172
53	0x38ec086b	0.00011254925
54	0x39adc4ad	0.00033143666
55	0xb99650b2	-0.00028670352
56	0x37acd771	2.060432e-05
57	0x38341e01	4.2943288e-05
58	0x38b5a407	8.661305e-05
59	0xb7b448c2	-2.1491553e-05
60	0x3998ebbd	0.00029167338
61	0x3933c5a7	0.00017144401
62	0x39317248	0.00016922608
63	0x392f46c0	0.00016715657
64	0x3c5d1081	0.013492704
65	0x3a905716	0.0011012282
66	0x3c32c45c	0.010911074
67	0x3cf651b3	0.030068254
68	0x3b99448f	0.0046773623
69	0xbc525b9d	-0.012839225
70	0x3c0c997e	0.008581517
71	0xbc9f330e	-0.019433524
72	0x3c59810e	0.013275398
73	0xbb50f111	-0.0031881968
74	0x3c5bb690	0.0134102255
75	0xbbf89c1f	-0.0075869705
76	0xbae44592	-0.0017415753
77	0x3c855e96	0.016280454
78	0xbcd13d43	-0.025541907
79	0x3cd57173	0.026055073
80	0x3b8587dd	0.004075034
81	0x3b3a4fe5	0.0028428969
82	0xbc328b6d	-0.0108974995
83	0xbc0ab2d3	-0.008465487
84	0xbc429d9b	-0.011878396
85	0xbc7a7d7f	-0.01528871
86	0xbaeedc15	-0.0018223549
87	0x3bef7e35	0.007308746
88	0xbc3ba4ac	-0.011452835
89	0xbc927224	-0.017876692
90	0xbc608d06	-0.013705498
91	0x3c64b95f	0.013960212
92	0xbc3c5773	-0.011495459
93	0x3c1ef85e	0.00970277
94	0xbbcf4ac0	-0.0063260496
95	0xbc4592f2	-0.01205896

model.model.decoder.encoder.layers.0.self_attn.out_proj.weight f4 [32, 32]
0	0xbe26366f	-0.16231702
1	0x3de6e731	0.11274565
2	0x3dc7ba76	0.097523615
3	0xbe21eb8b	-0.15812509
4	0xbde83348	-0.11337906
5	0x3e3d74ed	0.18501635
6	0x3d4cf1a5	0.050035138
7	0x3e25b7ba	0.16183367
8	0xbd743036	-0.05961629
9	0x3ddcd07f	0.10781955
10	0x3cc978dd	0.024593765
11	0x3e1d724e	0.15375635
12	0x3e1da515	0.15395005
13	0x3ca1899e	0.019718941
14	0xbdbb7634	-0.09153405
15	0x3dbe11a2	0.09280707
16	0x3d93dce1	0.07219864
17	0xbc6edd9d	-0.014579204
18	0x3de84124	0.113405496
19	0xbe3cafb6	-0.18426403
20	0xbd1c51ac	-0.038163826
21	0x3d99d292	0.07510866
22	0xbdeb0f1d	-0.11477492
23	0xbd59b6f0	-0.05315298
24	0x3e2811c2	0.16413024
25	0x3df76a3e	0.12080811
26	0x3d5b33d2	0.053516217
27	0xbdf85818	-0.121261775
28	0x3d81b4ac	0.063332886
29	0xbdefb7a1	-0.11704946
30	0x3e206a38	0.15665519
31	0xbd0ae106	-0.033906005
32	0x3e252cec	0.16130418
33	0x3d366b12	0.044535704
34	0xbce0bdc6	-0.027434241
35	0xbd0835f0	-0.033254564
36	0xbdc30319	-0.09522075
37	0xbe0aed84	-0.13567168
38	0x3d3241a4	0.04351963
39	0x3d214d25	0.03938021
40	0xbd1cdfb3	-0.038299274
41	0xbd879a2a	-0.06621201
42	0xbe10d85c	-0.14145035
43	0xbe0db460	-0.13838339
44	0xbb34ab65	-0.002756798
45	0x3dfa1889	0.12211711
46	0xbc8bfc21	-0.017087998
47	0x3dffcf97	0.124907665
48	0x3dfa05cb	0.12208136
49	0x39da9400	0.0004169047
50	0xbe16c60f	-0.14723991
51	0x3ccc196b	0.024914464
52	0xbd53aaab	-0.051676434
53	0xbd2f5b19	-0.042811487
54	0xbdc261ed	-0.09491334
55	0xbde58f3e	-0.11208962
56	0x3db465e1	0.08808494
57	0xbe2d83bd	-0.16944785
58	0xbd80b942	-0.06285335
59	0xbddbecaf	-0.10738503
60	0x3de3f4a5	0.111306466
61	0xbdb2d040	-0.08731127
62	0xbc18bc0a	-0.009322176
63	0x3e0855eb	0.13314025
64	0xbc9ab1ec	-0.018883668
65	0xbcf5f2b2	-0.030022953
66	0xbde51014	-0.11184707
67	0xbde61770	-0.11234939
68	0x3d817426	0.06320982
69	0x3d11ad57	0.0355657
70	0x3d1ad36e	0.03779929
71	0x3d0030fe	0.031296723
72	0x3e26e8ec	0.1629979
73	0xbe11bc80	-0.14232063
74	0xbd7721c1	-0.060334925
75	0xbdd3e4f0	-0.10346401
76	0x3df6d11f	0.120516054
77	0xbd97454a	-0.07386263
78	0xbdc56e59	-0.09640188
79	0xbd3100c7	-0.043213632
80	0x3dc03c20	0.09386468
81	0xbdca3c09	-0.09874732
82	0xbdae51e6	-0.08511715
83	0xbe17cec8	-0.14824975
84	0xbe431b8e	-0.1905348
85	0xbd8e862f	-0.06959187
86	0xbde2a49d	-0.11066554
87	0xbd723460	-0.05913198
88	0xbdc48398	-0.09595412
89	0x3d1a3583	0.03764869
90	0xbbaa5b86	-0.0051988987
91	0x3d62ce6c	0.05537264
92	0xbd0a57ee	-0.033775263
93	0x3e008831	0.12551953
94	0x3db1db22	0.086843744
95	0xbdd85c1e	-0.10564445
96	0x3ddf0e6a	0.10891421
97	0x3e0219c1	0.12705137
98	0xbd067cfd	-0.032834042
99	0x3c8b9add	0.017041618
100	0x385c8225	5.2573294e-05
101	0xbe383c5b	-0.17991774
102	0xbd3043ac	-0.043033287
103	0xbe02fa31	-0.12790753
104	0x3e2e8597	0.17043148
105	0x3e0633be	0.13105676
106	0xbd747937	-0.059685912
107	0xbe2179a3	-0.15769057
108	0x3dae3a38	0.08507198
109	0x3da40f54	0.08010736
110	0x3cfe8201	0.03106785
111	0x3e029841	0.12753393
112	0xbd1bdb68	-0.03805104
113	0x3d8ba8d7	0.06819313
114	0x3d5d29c8	0.053994924
115	0xbccc1591	-0.024912627
116	0x3d78675c	0.060645446
117	0xbd87ffc7	-0.066405825
118	0x3e272cf7	0.16325746
119	0x3dd59f58	0.10430783
120	0xbde096a0	-0.109662294
121	0xbe2332c6	-0.15937337
122	0xbe1bb9e7	-0.15207635
123	0x3dca415a	0.09875746
124	0xbe34679e	-0.17617652
125	0x3d9cf820	0.076645136
126	0x3dd1f6d0	0.10252154
127	0x3ddba803	0.10725405
128	0xbd049122	-0.032364972
129	0xbe29753b	-0.16548626
130	0xbdca2ab2	-0.09871425
131	0xbd31a17f	-0.043366905
132	0x3e278254	0.1635831
133	0x3e0fb9de	0.14035746
134	0x3c7dcd4a	0.015490839
135	0x3df7de7b	0.12102982
136	0xbe020ffe	-0.12701413
137	0xbd67a728	-0.056555897
138	0x3d0f3eb3	0.034971904
139	0xbda619f1	-0.08110417
140	0xbdc34a14	-0.09535614
141	0xbe3b6851	-0.18301512
142	0xbdd87e45	-0.10570959
143	0x3d89d141	0.06729365
144	0xbe0f8d09	-0.14018644
145	0xbdf206cd	-0.118177034
146	0x3df53ce0	0.119745016
147	0x3dbc1fd6	0.0918576
148	0xbdcdafd7	-0.100433044
149	0xbd4abcaa	-0.04949633
150	0x3e085aa6	0.1331583
151	0xbd68ad8d	-0.056806136
152	0x3c69f18f	0.014278783
153	0x3de111a6	0.10989694
154	0x3d842779	0.06452841
155	0x3df8e982	0.12153913
156	0x3e1e95cb	0.15486829
157	0xbbf95e30	-0.007610105
158	0x3db6e736	0.08930819
159	0x3e1badbb	0.15202992
160	0xbe06eb20	-0.1317563
161	0x3d9414ed	0.07230554
162	0x3dc0f2e2	0.09421326
163	0x3d673ce3	0.05645455
164	0xbe31d159	-0.17365016
165	0x3e3d1775	0.1846598
166	0xbdc74f26	-0.09731893
167	0xbdb47de1	-0.08813072
168	0xbd319342	-0.043353327
169	0x3d445265	0.04793014
170	0x3db15618	0.08658999
171	0xbd6dd85d	-0.05806767
172	0xbdaf4523	-0.08558109
173	0xbddbd5db	-0.10734149
174	0xbcb44a3a	-0.02200805
175	0x3e19ad5b	0.15007536
176	0x3ce8baf6	0.028409462
177	0x3dcfe468	0.10150987
178	0xbd06c945	-0.03290679
179	0x3d5af790	0.05345875
180	0xbd100ba6	-0.03516736
181	0xbd197da6	-0.037473343
182	0x3dc58f64	0.0964649
183	0x3e03e2ec	0.12879533
184	0x3d633645	0.055471677
185	0xbe0ccb65	-0.13749464
186	0x374a63f4	1.206341e-05
187	0xbe270f01	-0.16314317
188	0xbe14525c	-0.14484543
189	0x3d5f7a41	0.05455995
190	0xbce38d5f	-0.027777372
191	0x3df9e58c	0.12201986
192	0xbdbc660d	-0.09199152
193	0x3e40133c	0.18757337
194	0xbe13e75e	-0.14443728
195	0x3cffbf77	0.031219227
196	0xbba7b3f7	-0.005117889
197	0x3d93c700	0.072156906
198	0xbc11aaa5	-0.0088907825
199	0xbe482509	-0.19545378
200	0xbcaa1c17	-0.020765347
201	0x3e1bb859	0.15207042
202	0x3e1d3b0d	0.15354557
203	0xbda5fb64	-0.081045896
204	0x3c82c8ea	0.015964944
205	0x3dec7664	0.11546019
206	0xbde12927	-0.10994177
207	0xbdd19267	-0.10233002
208	0x3dd5abb3	0.1043314
209	0x3e27cae5	0.16385992
210	0xbda0d49a	-0.078530505
211	0xbd65d2ac	-0.056109115
212	0x3d9dfd9f	0.0771439
213	0xbe310359	-0.17286433
214	0xbdb6049e	-0.088875994
215	0xbc3af0dc	-0.011409964
216	0x3d197682	0.037466533
217	0x3d4fa1a5	0.050691266
218	0xbe3a31e8	-0.181831
219	0xbc23ed84	-0.010005359
220	0x3dc041f6	0.09387581
221	0x3d6e5d2f	0.058194336
222	0x3de288b3	0.110612296
223	0x3c1e80bf	0.00967425
224	0x3ca995a4	0.020701237
225	0xbe125f4c	-0.14294165
226	0x3e137a1f	0.14402054
227	0x3da2088c	0.079117864
228	0xbe16c020	-0.14721727
229	0xbdb252a6	-0.0870717
230	0x3d9ce1f7	0.07660287
231	0xbd70af92	-0.058761187
232	0x3dcb7905	0.09935192
233	0xbdaea0fd	-0.085268
234	0x3e29ae8d	0.16570492
235	0xbdc89d35	-0.0979561
236	0x3e206a9d	0.1566567
237	0x3e233eb7	0.15941893
238	0xbe371877	-0.17880426
239	0xbd24e160	-0.040253997
240	0x3e19971f	0.14999054
241	0x3db205e9	0.086925335
242	0x3d1d3497	0.03838023
243	0x3e1dbf5f	0.15405034
244	0xbdc6db17	-0.09709757
245	0x3d3f79dd	0.046747077
246	0xbdc12ddf	-0.09432577
247	0x3e1eb9c4	0.15500551
248	0xbd4b7007	-0.049667384
249	0x3d63b7ed	0.055595327
250	0xbe01c03d	-0.1267099
251	0xbd24cbe8	-0.040233523
252	0xbcf9268e	-0.030413892
253	0xbcc6fef9	-0.024291502
254	0x3ddbd7b4	0.107345015
255	0xbe2d877d	-0.16946216

model.model.decoder.encoder.layers.0.self_attn.out_proj.bias f4 [32]
0	0xbc00864a	-0.007844517
1	0x3b98b82b	0.0046606264
2	0x3bc3a86d	0.0059710057
3	0x3c6932aa	0.014233271
4	0xbc7e4332	-0.01551895
5	0xbb6be98e	-0.0035997364
6	0x3b11213f	0.002214506
7	0x3c17fb86	0.009276276
8	0x3a9e7881	0.0012090356
9	0x3c3471ec	0.011013489
10	0xbb6fdf3d	-0.0036601566
11	0xbc209ac8	-0.009802528
12	0x3ab40884	0.0013735448
13	0xbc1c9fe1	-0.0095596025
14	0x3bcdc433	0.0062794923
15	0x3bf6ec71	0.00753551
16	0x3c4439a9	0.011976638
17	0x3c8628c4	0.01637686
18	0x3b83a91f	0.0040179635
19	0x3bcf533d	0.0063270614
20	0x3a5374b4	0.00080664014
21	0xbc838971	-0.016056748
22	0xbc5b18a0	-0.01337257
23	0xbc34bad2	-0.01103087
24	0xbcd258f2	-0.025677178
25	0xbbe2aa89	-0.006917302
26	0xbc1dac98	-0.009623669
27	0x3b2923ca	0.0025808685
28	0x3c09657f	0.008386015
29	0x3c740619	0.014894032
30	0xbbaff3ed	-0.0053696544
31	0x3c18597a	0.009298677

model.model.decoder.encoder.layers.0.linear1.weight f4 [128, 32]
0	0xbe01ad99	-0.12663879
1	0xbe08be9b	-0.1335396
2	0x3e1277c5	0.14303501
3	0xbe4516ea	-0.19247022
4	0x3d374104	0.044739738
5	0x3d7f7b6a	0.062373556
6	0x3dceb3eb	0.100929104
7	0x3db6b1ea	0.08920653
8	0x3d15ead3	0.0366009
9	0xbd3a8124	-0.045533314
10	0xbb57d883	-0.0032935448
11	0x3c9c16a1	0.019053759
12	0xbd09e1d0	-0.033662617
13	0x3d82b0b6	0.06381361
14	0x3e1ce6ae	0.15322372
15	0x3d05c4f9	0.03265855
16	0xbd5be3cc	-0.05368404
17	0xbd5c468a	-0.05377821
18	0x3e24b4e2	0.16084626
19	0xbd574a5d	-0.052561153
20	0x3e0475b5	0.12935527
21	0x3ded9eec	0.116025776
22	0x3c9a8f67	0.018867208
23	0xbca6e0bb	-0.020370832
24	0x3dc7e0e3	0.097596906
25	0x3ad7ba05	0.0016458636
26	0xbceee11d	-0.029160077
27	0xbdfce303	-0.123479865
28	0x3e148042	0.14502051
29	0x3b5e26e7	0.00338977
30	0x3daee82e	0.085403785
31	0x3e251d6b	0.16124503
32	0x3dbe6dad	0.09298263
33	0xbd8173a6	-0.06320886
34	0x3d3d58a9	0.04622713
35	0x3e1289a1	0.14310314
36	0xbca636c4	-0.020289786
37	0x3ddbda21	0.10734964
38	0x3dfc01a9	0.12305004
39	0x3da0616b	0.07831081
40	0x3e21dfec	0.15808076
41	0xbd8b9568	-0.06815606
42	0x3d1dde48	0.038542062
43	0x3d947825	0.07249478
44	0xbe07b99a	-0.13254395
45	0x3dd2fb5d	0.1030185
46	0xbe28febb	-0.16503422
47	0xbd2a1d26	-0.041531704
48	0x3e006316	0.12537798
49	0x3dcfaaf0	0.101400256
50	0xbd89d6dd	-0.06730435
51	0xbd992cdd	-0.0747926
52	0xbdb26159	-0.08709974
53	0x3e000dcb	0.12505262
54	0xbd990f19	-0.07473583
55	0xbdea9394	-0.114539295
56	0x3e2adca8	0.16685736
57	0x3e2c9c5f	0.16856526
58	0xbb318de6	-0.0027092635
59	0x3ddd292a	0.10798867
60	0x3e1f8028	0.15576231
61	0xbbf97694	-0.0076130126
62	0xbdbb2e1e	-0.091396555
63	0xbe36e221	-0.17859699
64	0x3dfc4555	0.123179115
65	0xbc851347	-0.016244544
66	0xbe32f965	-0.17477949
67	0xbdbd4f78	-0.09243673
68	0x3dfecf37	0.12441867
69	0x3cc512d6	0.024056833
70	0xbd684206	-0.05670359
71	0xbe14523d	-0.14484496
72	0xbe10c4a9	-0.1413752
73	0xbc2e79d6	-0.010649165
74	0x3e00f775	0.12594397
75	0x3db7a261	0.08966518
76	0x3ded78f4	0.115953356
77	0xbc92d5ff	-0.017924307
78	0xbdd219ae	-0.10258804
79	0xbe040166	-0.12891158
80	0x3de177eb	0.11009201
81	0xbcb33f48	-0.02188076
82	0xbdb7aa5b	-0.089680396
83	0x3de5c526	0.11219244
84	0x3da5bbb8	0.08092445
85	0xbb2aa757	-0.0026039684
86	0x3d862760	0.06550479
87	0xbdb49fdf	-0.088195555
88	0xbdecf3f7	-0.1156997
89	0xbd8b00a0	-0.067872286
90	0x3dc435e4	0.09580591
91	0xbdd56771	-0.104201205
92	0x3df420db	0.11920329
93	0x3d0714f2	0.03297896
94	0x3d0dad26	0.034588955
95	0x3e4b3f8b	0.19848458
96	0xbdb992dc	-0.09061214
97	0x3de47662	0.11155392
98	0x3bff6abc	0.007794706
99	0x3e2b2472	0.16713122
100	0xbdf5dc6e	-0.12004934
101	0xbdf6bdbc	-0.12047908
102	0xbd02773d	-0.031851996
103	0xbda44075	-0.08020107
104	0x3c319fa9	0.010841289
105	0xbde9025f	-0.113774054
106	0xbde5be97	-0.11217993
107	0xbdf3b3e7	-0.11899548
108	0x3dfaa17d	0.12237833
109	0xbdccc3a6	-0.099982545
110	0xbc935897	-0.017986579
111	0x3e160ee6	0.14654121
112	0xbe048a28	-0.12943327
113	0x3df94ebc	0.121732205
114	0x3d605a03	0.054773342
115	0xbe506c96	-0.20353922
116	0xbd1ef372	-0.038806386
117	0x3d85279d	0.06501696
118	0x3e2a4ce4	0.16630894
119	0xbd7c777f	-0.061637398
120	0x3de652b2	0.11246242
121	0x3c8908fb	0.016727915
122	0xbc36ea4b	-0.011164258
123	0xbc7922da	-0.015206063
124	0x3e317fdb	0.17333929
125	0xbe0e3a42	-0.13889411
126	0x3de141a2	0.109988466
127	0x3d3c082d	0.045906235
128	0x3e48bb40	0.1960268
129	0x3e0150d9	0.12628497
130	0xbc0c1953	-0.00855096
131	0xbd7b6fb1	-0.061385814
132	0x3e101b81	0.14072992
133	0xbe2e85be	-0.17043206
134	0xbded8dd3	-0.115993164
135	0x3d99768c	0.07493314
136	0x3d7143c1	0.058902506
137	0x3e30d14e	0.17267343
138	0x3d85b5c2	0.06528808
139	0xbdbc33b4	-0.09189549
140	0x3d752c45	0.05985667
141	0x3d8b3128	0.06796485
142	0xbe00a1c2	-0.12561706
143	0x3e3e325b	0.18573897
144	0xbd939f98	-0.072081745
145	0xbdc47a81	-0.09593678
146	0x3db1073e	0.086439595
147	0xbe343cec	-0.17601365
148	0xbe21299b	-0.15738527
149	0xbc01ef58	-0.007930599
150	0xbd77adad	-0.060468365
151	0xbdfc9081	-0.123322494
152	0xbd156bab	-0.036479633
153	0xbe2b3740	-0.16720295
154	0x3d0e8b4d	0.034800816
155	0xbdac4eb8	-0.08413452
156	0xbc041fd9	-0.008064234
157	0x3e5d8793	0.21633749
158	0x3dc98497	0.09839743
159	0x3d31f64e	0.043447785
160	0xbd64d579	-0.055867646
161	0x3c8dfe13	0.017333066
162	0x3d5f6120	0.054535985
163	0x3cb21668	0.0217392
164	0xbcc0e469	-0.023546414
165	0x3e3add39	0.18248452
166	0xbe154a78	-0.14579189
167	0x3be2fb91	0.0069269617
168	0xbcf62f5d	-0.030051881
169	0x3d04c3a3	0.032413136
170	0xbe15bdd5	-0.14623196
171	0x3e0372ad	0.12836714
172	0xbe3c5734	-0.1839264
173	0xbd9490bc	-0.072541684
174	0xbdc6afe9	-0.09701521
175	0x3d50c281	0.050966743
176	0xbd98d046	-0.074616
177	0x3e20f8cd	0.1571991
178	0x3b567c75	0.003272799
179	0x3e2841b6	0.16431317
180	0xbe129509	-0.14314665
181	0x3da62e29	0.08114273
182	0x3e10abad	0.14127989
183	0x3dbdd38f	0.09268867
184	0xbdad55d0	-0.08463633
185	0x3dde16e4	0.1084421
186	0x3e1e8718	0.15481222
187	0xbe07ce9a	-0.13262406
188	0x3c988129	0.018616276
189	0x3dc39836	0.09550516
190	0x3dcd2a95	0.100178875
191	0x3d169db4	0.03677149
192	0x3df63357	0.12021511
193	0x3d7a7ebb	0.061156016
194	0xbe17a019	-0.14807166
195	0x3df30d61	0.11867786
196	0x3dd7ddf0	0.10540378
197	0xbc831410	-0.016000777
198	0x3e196d47	0.14983092
199	0xbc622701	-0.013803245
200	0xbdb8a080	-0.09014988
201	0x3d6692d6	0.056292377
202	0x3e001fb2	0.12512091
203	0xbd1ef9ba	-0.038812377
204	0x3e11c7ed	0.14236422
205	0x3e0cc31c	0.13746303
206	0xb9d3b6f4	-0.00040381367
207	0xbe34311f	-0.17596863
208	0xbde35444	-0.11100057
209	0x3c215025	0.009845768
210	0xbdca4c45	-0.098778285
211	0x3d793132	0.060837932
212	0xbd066653	-0.032812428
213	0xbddb85d4	-0.10718885
214	0xbbccdcc2	-0.0062519023
215	0x3ca1fcc2	0.019773845
216	0xbdee2da5	-0.116298
217	0xbdd0d342	-0.10196544
218	0xbd0f9157	-0.035050716
219	0x3e224649	0.15847124
220	0xbe1e99b6	-0.15488324
221	0xbd66610f	-0.056244906
222	0x3d5c3ae5	0.053767104
223	0x3dd3229b	0.10309335
224	0x3e3e044e	0.1855633
225	0x3cedb18c	0.029015325
226	0x3da50ebb	0.0805945
227	0x3dc7bfdd	0.09753392
228	0x3e1d9a78	0.15390956
229	0xbdf68c68	-0.12038499
230	0x3d178164	0.03698863
231	0xbdb49343	-0.088171504
232	0xbd127de7	-0.0357646
233	0xbd9ced37	-0.07662433
234	0x3df17127	0.1178916
235	0x3e036d37	0.12834631
236	0xbe198445	-0.14991863
237	0x3d87f975	0.06639377
238	0xbd595185	-0.05305626
239	0x3cea9f05	0.02864028
240	0xbd8328e0	-0.06404281
241	0xbd03b848	-0.032158166
242	0xbe3a88df	-0.18216275
243	0xbc2dc187	-0.010605223
244	0x3e0255ab	0.12727992
245	0x3d17f57b	0.037099343
246	0xbd67d5b6	-0.056600295
247	0x3dc74ba1	0.09731222
248	0x3d391b72	0.04519219
249	0x3e07b1b7	0.13251387
250	0x3d9017cd	0.0703579
251	0x3df6c21a	0.12048741
252	0xbd8f9516	-0.07010858
253	0xbd307414	-0.04307945
254	0x3b920dbb	0.004457203
255	0xbe186fbb	-0.14886372

model.model.decoder.encoder.layers.0.linear1.bias f4 [128]
0	0x3e31720d	0.17328663
1	0x3de1116e	0.109896526
2	0x3d567a32	0.05236263
3	0xbbfa97ed	-0.0076475055
4	0xbdae031e	-0.08496688
5	0x3e1156f8	0.14193332
6	0xbda627fd	-0.08113096
7	0x3db96c40	0.0905385
8	0xbdbc19a9	-0.09184582
9	0x3daf3bab	0.08556303
10	0x3d9bce27	0.0760768
11	0x3e101821	0.14071704
12	0x3dc5f103	0.0966511
13	0x3cf85759	0.030315088
14	0x3e2d10db	0.16900961
15	0xbdf47097	-0.11935537
16	0x3da6e0a2	0.08148314
17	0x3cdf723c	0.02727615
18	0xbe295659	-0.16536845
19	0x3d489550	0.04897052
20	0x3db7468a	0.08949001
21	0x3e1671c2	0.14691833
22	0xbd1f5007	-0.03889468
23	0x3d33b722	0.04387582
24	0xbd7999ef	-0.06093782
25	0x3c5ae1bb	0.013359482
26	0xbe206021	-0.1566167
27	0x3daffa42	0.08592655
28	0x3e15505a	0.14581433
29	0xbe1a1008	-0.15045178
30	0x3e0425df	0.12905072
31	0x3d1e96b1	0.03871793
32	0x3d6e555b	0.05818687
33	0x3d9a78c6	0.07542567
34	0x3dc4e810	0.09614575
35	0xbe264005	-0.16235359
36	0x3da68d6e	0.08132444
37	0xbc6c2e58	-0.014415346
38	0x3da761c6	0.08172946
39	0x3e05710d	0.13031407
40	0xbd0bc6a0	-0.03412497
41	0xbd17646d	-0.036961008
42	0xbc120177	-0.008911482
43	0x3d8cb96a	0.068713024
44	0xbbce5523	-0.00629677
45	0xbdded296	-0.1088001
46	0x3d0105bf	0.03149962
47	0xbcc922ca	-0.024552722
48	0x3ca91ec5	0.020644555
49	0x3d174aac	0.036936447
50	0xbbd4a088	-0.0064888634
51	0x3e28e795	0.16494592
52	0x3ddd400d	0.10803232
53	0xbd7a679c	-0.061133966
54	0xbd94acf2	-0.07259549
55	0xbe364f82	-0.17803767
56	0xbdf9b02d	-0.12191806
57	0x3e375640	0.17903996
58	0x3d58af7c	0.05290173
59	0x3d2aaca9	0.041668568
60	0xbd95d6c2	-0.073163524
61	0x3e0bb6f3	0.13644008
62	0xbe13994e	-0.1441395
63	0x3e129f90	0.14318681
64	0xbd593906	-0.053032897
65	0xbd61cbcc	-0.055125996
66	0xbdb4888b	-0.08815106
67	0xbe2a652c	-0.16640157
68	0x3c4930c8	0.012279697
69	0xbd0de92b	-0.034646194
70	0xbe1a4ac6	-0.15067586
71	0xbd807851	-0.062729485
72	0xbb2f2833	-0.0026726841
73	0x3c99aee3	0.01876015
74	0x3d749d60	0.059720397
75	0x3d95a6dc	0.073072165
76	0x3e1b78dc	0.15182823
77	0x3dc13000	0.094329834
78	0xbcf9c3e2	-0.030488912
79	0x3e28accf	0.16472171
80	0x3d6928c5	0.056923646
81	0xbdc9b994	-0.09849849
82	0x3def93c0	0.11698103
83	0xbdb71840	-0.08940172
84	0xbdf2cc3a	-0.118553594
85	0xbd783ace	-0.060602956
86	0xbdd78dc3	-0.10525086
87	0xbe2a7eb4	-0.16649896
88	0x3d6518a9	0.05593172
89	0xbc8f3ad9	-0.017484115
90	0x3c48d5f3	0.012258041
91	0xbe0750fe	-0.1321449
92	0xbdeae285	-0.114689864
93	0xbe1d420f	-0.1535723
94	0x3dce965e	0.10087274
95	0x3e0e7079	0.13910092
96	0xbd4a549f	-0.049397107
97	0x3d4efd64	0.05053462
98	0xbd53351d	-0.051564325
99	0x3e2db411	0.16963221
100	0x3d7de114	0.06198223
101	0x3e45ce92	0.19317082
102	0xbe2ea6d0	-0.17055821
103	0x3daf4a71	0.085591204
104	0xbe2b0425	-0.167008
105	0x3d5cc055	0.05389436
106	0x3bacf146	0.0052777855
107	0x3c1fa04f	0.00974281
108	0x3c9dd8d1	0.019268425
109	0xbe21b4c2	-0.1579161
110	0xbe0ac444	-0.13551432
111	0x3c357e20	0.011077434
112	0xbd128ea9	-0.035780583
113	0x3e1d1fe9	0.15344204
114	0x3da81685	0.0820742
115	0xbdcec41a	-0.10095997
116	0x3e28cf30	0.16485286
117	0x39d27a18	0.00040145288
118	0x3e4b50e7	0.1985508
119	0xbd0a1360	-0.033709884
120	0xbc7d02e6	-0.015442586
121	0x3e1308c0	0.14358807
122	0xbe03d664	-0.12874752
123	0x3bb93ae8	0.005652774
124	0xbdb9749a	-0.09055443
125	0x3e1285a3	0.14308791
126	0xbd8bb592	-0.06821741
127	0x3dafc222	0.0858195

model.model.decoder.encoder.layers.0.linear2.weight f4 [32, 128]
0	0xbd60ac8d	-0.054852057
1	0xbd723852	-0.059135742
2	0xbdbfbccc	-0.09362182
3	0x3daf9c95	0.085747875
4	0xbd3e582d	-0.04647081
5	0x3dc5413b	0.09631582
6	0xbd99d707	-0.07511716
7	0xbd09a25e	-0.03360211
8	0x3de991da	0.11404772
9	0xbd2ddc9a	-0.04244671
10	0xbcf78313	-0.030213868
11	0x3d58e2a3	0.052950513
12	0xbd9e9dcf	-0.07744943
13	0xbcbc0b23	-0.02295453
14	0x398faa0c	0.0002740178
15	0xbd5aaa4d	-0.053385068
16	0x3d1efa96	0.038813196
17	0xbda67728	-0.08128196
18	0x3d27d494	0.040974215
19	0xbdae0c41	-0.08498431
20	0xbd627c64	-0.05529441
21	0x3d0c0b22	0.034190305
22	0x3d823092	0.0635692
23	0xbbeacea8	-0.0071657486
24	0xbd744781	-0.059638504
25	0xbd87da75	-0.06633464
26	0x3db828de	0.0899217
27	0x3cf4ceb4	0.02988372
28	0xbd80d24c	-0.06290111
29	0x3d2ea90d	0.04264169
30	0x3d81684b	0.063187204
31	0xbcf2da61	-0.029645147
32	0x3d12b6ca	0.035818852
33	0x3d5a2cc9	0.053265367
34	0xbdc211f2	-0.09476079
35	0x3b3c839b	0.0028764966
36	0x3cdc325c	0.026879482
37	0xbb2c0ffe	-0.002625465
38	0xbc79ab76	-0.015238633
39	0x3da5d9f4	0.08098212
40	0x3bebb1eb	0.0071928403
41	0x3d7bafea	0.06144706
42	0x3b69a717	0.0035652572
43	0x3d2d4cca	0.04230956
44	0x3a986b7c	0.0011628713
45	0xbd8fdb54	-0.070242554
46	0x3d7b6dd2	0.06138403
47	0xbd18fdb8	-0.03735134
48	0xbd77edb8	-0.06052944
49	0x3c1aa59a	0.009438897
50	0xbd97be09	-0.07409293
51	0xbd8470d4	-0.06466833
52	0xbc9e8412	-0.019350085
53	0xbd87dbe2	-0.06633736
54	0xbd695368	-0.056964308
55	0xbd832ca3	-0.06404998
56	0x3da0490a	0.07826431
57	0x3cc288ce	0.023746874
58	0xbb3eed54	-0.0029133158
59	0xbc0deece	-0.0086628925
60	0x3d4471c4	0.047960058
61	0xbbbda5ce	-0.0057875877
62	0xbdab6563	-0.08368947
63	0x3d373447	0.04472759
64	0x3cf28f56	0.029609364
65	0xbcda7f67	-0.026672078
66	0xbdb2a918	-0.08723658
67	0xbd89e6c9	-0.06733472
68	0x3c42d735	0.01189213
69	0xbbd67c16	-0.006545554
70	0xbdb62a7d	-0.08894823
71	0xbd1a08ab	-0.037605923
72	0x3d8a438e	0.06751166
73	0x3d3ab195	0.04557951
74	0x3d8bc02a	0.06823762
75	0x3c8d70da	0.017265726
76	0xbd3cff7b	-0.046142083
77	0xbd728ed8	-0.059218258
78	0x3d24df34	0.040251926
79	0xbdaf5e1b	-0.08562871
80	0xbd39a0d0	-0.04531938
81	0xbd1484ed	-0.03625958
82	0x3d63cb57	0.05561384
83	0x3d82b02b	0.063812576
84	0x3ae3d0a5	0.0017380907
85	0xbdac2ba6	-0.08406763
86	0x3acee091	0.0015783479
87	0xbd4f438f	-0.05060154
88	0x3b36655d	0.0027831413
89	0xbc810f2b	-0.015754303
90	0x3da57ae6	0.08080082
91	0x3d9e8d41	0.07741786
92	0x3c9fdeec	0.019515477
93	0xbc033cb5	-0.008010079
94	0xbb98885b	-0.0046549267
95	0xbc0d9eab	-0.008643786
96	0x3d410dc6	0.047132276
97	0xbd403baf	-0.04693192
98	0xbc0e81c5	-0.008697932
99	0x3d328c7b	0.043591004
100	0xbdac73e1	-0.0842054
101	0xbc9fa3d6	-0.019487303
102	0x3c1f0cc1	0.009707631
103	0xbb9721da	-0.0046121897
104	0xbce82a7f	-0.028340576
105	0xbd6ff99f	-0.058587667
106	0x3d122396	0.03567847
107	0x3ddac8d1	0.10682834
108	0x3d846975	0.06465427
109	0x3d8b4251	0.06799758
110	0xbd994796	-0.07484357
111	0xbbdc22f1	-0.0067180325
112	0xbd004d83	-0.03132392
113	0xbd83500f	-0.06411754
114	0x3c9cd1b7	0.019142969
115	0x3d272bad	0.040813137
116	0x3c804e51	0.015662344
117	0xbd22e1cc	-0.039766118
118	0x3cda8925	0.026676724
119	0x3d972356	0.07379787
120	0x3d1b0f93	0.03785665
121	0x3d6bf224	0.05760397
122	0x3d124a3e	0.035715334
123	0x3d3eee03	0.046613704
124	0x3c4ff8ac	0.012693565
125	0x3d38b9f9	0.045099232
126	0x3da2ed06	0.07955365
127	0x3c14c47e	0.0090800505
128	0x3dbbadb9	0.09163994
129	0xbc2c9f93	-0.010536092
130	0x3da561fd	0.080753304
131	0xbd39c701	-0.0453558
132	0xbdc6cc28	-0.097069085
133	0xbd05ef8a	-0.032699145
134	0x3ce5f6bb	0.028071752
135	0xbc9cfa02	-0.019162182
136	0xbc7b0ad3	-0.015322405
137	0xbd973d52	-0.07384743
138	0xbc950c80	-0.018194437
139	0xbd5ffc32	-0.05468387
140	0xbcc67bec	-0.024229012
141	0x3cfc0d8e	0.030768182
142	0x3d51c8c9	0.051216874
143	0xbd35563c	-0.044271693
144	0x3ddcfb5e	0.10790132
145	0x3d360c97	0.0444456
146	0x3d803fff	0.06262206
147	0xbd6edca0	-0.058315873
148	0xbd1b5d4b	-0.037930768
149	0x3d201760	0.039084792
150	0x3dcc2cc8	0.09969479
151	0xbcbe5113	-0.023232019
152	0x3c2fabdf	0.01072213
153	0x3d053075	0.032516915
154	0xbceb93a5	-0.028756926
155	0xbd965ede	-0.07342313
156	0x3d190626	0.03735938
157	0x3d874f2b	0.06606897
158	0xbc9f2a6b	-0.019429406
159	0xbd7b2931	-0.06131858
160	0xbc4863df	-0.012230842
161	0x3db22ebc	0.0870032
162	0x3d5bf06e	0.05369609
163	0xbd9ebaad	-0.07750449
164	0xbcdcd537	-0.026957138
165	0x3d0dc08f	0.034607466
166	0xbd2468dc	-0.040139064
167	0xbd236ca2	-0.039898522
168	0xbd2b9574	-0.041890576
169	0x3d694991	0.056954924
170	0x3dcaa34d	0.098944284
171	0xbd4c26c0	-0.049841642
172	0x3c091c8f	0.008368625
173	0xbd0b3383	-0.033984672
174	0xbc93cb5a	-0.018041302
175	0x3d34c1dd	0.044130195
176	0x3d2ab427	0.041675713
177	0xbd9adc70	-0.07561576
178	0x3d6649a2	0.056222565
179	0x3d7f9c1f	0.062404748
180	0xbc8d8441	-0.017274978
181	0xbda0636e	-0.07831465
182	0x3d159486	0.036518596
183	0xbd25984a	-0.040428437
184	0x3ba28244	0.0049593765
185	0xbdefc9e6	-0.11708431
186	0xbd8f861d	-0.07008002
187	0xbd1c4295	-0.038149435
188	0x3cd1eb43	0.025624877
189	0xbdd9b5cc	-0.10630378
190	0x3d130551	0.035893742
191	0x3ddddce8	0.1083315
192	0x3d361c8c	0.04446082
193	0xbbad32d3	-0.0052855997
194	0x3d119f75	0.03555246
195	0xbd4d8e33	-0.05018444
196	0x3c6c9636	0.01444011
197	0x3d9dd202	0.077060714
198	0x3cfd7c98	0.0309432
199	0x3bee5892	0.007273742
200	0x3d2ef93a	0.04271815
201	0x3da1202f	0.07867467
202	0x3be06451	0.006847896
203	0x3d9e3951	0.07725776
204	0x3c369092	0.011142867
205	0xbdc5fa15	-0.0966684
206	0xbc863ea4	-0.016387291
207	0x3d19329c	0.03740178
208	0xbc1e431a	-0.009659553
209	0x3d178a98	0.036997408
210	0x3c89109b	0.01673155
211	0xbd91ed4b	-0.07125338
212	0xbda251c4	-0.07925752
213	0x3d6e49db	0.058175903
214	0x3ddd865a	0.10816641
215	0xbd98c980	-0.07460308
216	0xbd422922	-0.04740251
217	0xbdb85008	-0.0899964
218	0x3c27acc3	0.010234061
219	0xbcd75afe	-0.026288506
220	0xbd33bd37	-0.04388162
221	0xbda5d329	-0.08096916
222	0xbc72a3fc	-0.014809605
223	0x3e0401c0	0.12891293
224	0xbdd1884c	-0.10231075
225	0x3cf04703	0.029330736
226	0x3d4c0804	0.04981233
227	0x3d4aec07	0.0495415
228	0x3cda8da7	0.026678873
229	0xbca31717	-0.019908471
230	0x3d2d98d8	0.04238209
231	0x3d00f23b	0.03148101
232	0xbd690c68	-0.056896597
233	0x3cca342f	0.024683086
234	0x3cecaac5	0.028890023
235	0x3c802824	0.01564414
236	0x3ded6d5b	0.115931235
237	0xbdd04093	-0.101685666
238	0x3d9e07a5	0.07716302
239	0xbd8fabc0	-0.070151806
240	0x3d9776b6	0.07395689
241	0xbd5bad9f	-0.053632375
242	0xbd58f586	-0.052968524
243	0xbbf258f6	-0.007395859
244	0x3a0dac12	0.00054043636
245	0x3d0eb3b7	0.03483936
246	0x3aede46b	0.0018149739
247	0x3d3b9846	0.045799516
248	0x3cf5d140	0.030007005
249	0x3db8564b	0.09000834
250	0x3da6cac3	0.081441425
251	0x3d3fb285	0.04680111
252	0xbc0569cb	-0.008142899
253	0x3c688e49	0.01419408
254	0x3d2c299b	0.042031866
255	0x3d2a3052	0.041549988

model.model.decoder.encoder.layers.0.linear2.bias f4 [32]
0	0xbaa487ad	-0.0012552642
1	0xbd933dc3	-0.071895145
2	0xbd156829	-0.036476288
3	0x3d583469	0.052784357
4	0x3db6f3a0	0.089331865
5	0xb9d0f24d	-0.0003985338
6	0xbdc3e47a	-0.09565063
7	0x3cf12302	0.029435638
8	0x3da6ec9c	0.081505984
9	0x3d9ca92f	0.07649457
10	0x3d16539f	0.03670084
11	0xbd652a97	-0.05594882
12	0xbd902d88	-0.070399344
13	0xbd42b8e8	-0.04753962
14	0x3da26405	0.079292335
15	0x3c495623	0.012288603
16	0xbcb4fe93	-0.022094047
17	0x3dc8f46e	0.09812246
18	0xbdaa0c11	-0.08303083
19	0x3d69300c	0.056930587
20	0x3c8c72a8	0.017144516
21	0xbd8032c8	-0.06259686
22	0xbd9b6269	-0.075871296
23	0xbd136113	-0.03598125
24	0xbcac99f5	-0.021069506
25	0x3c4b7ea6	0.012420332
26	0xbd8adcf4	-0.06780425
27	0xbb8e109c	-0.004335476
28	0x3c8f7d75	0.017515877
29	0x3caf83e6	0.021425199
30	0xbd2ff146	-0.042954706
31	0x3da9c4fc	0.08289525

model.model.decoder.encoder.layers.0.norm1.weight f4 [32]
0	0x3f79b0da	0.9753548
1	0x3f8284ce	1.0196779
2	0x3f789b71	0.97112185
3	0x3f81b212	1.0132468
4	0x3f8211e7	1.0161713
5	0x3f7ea50c	0.9947059
6	0x3f7763af	0.9663648
7	0x3f7fcf71	0.99925905
8	0x3f8120eb	1.0088171
9	0x3f7edb18	0.9955306
10	0x3f7d2536	0.98884904
11	0x3f840d6c	1.0316596
12	0x3f77d313	0.9680645
13	0x3f7df2cb	0.991986
14	0x3f7b733e	0.9822272
15	0x3f82126d	1.0161873
16	0x3f78f18a	0.9724356
17	0x3f817509	1.0113841
18	0x3f784c1f	0.9699115
19	0x3f80672a	1.0031483
20	0x3f7c5c77	0.9857859
21	0x3f7b868e	0.9825219
22	0x3f7f2e65	0.9968017
23	0x3f79ca90	0.9757471
24	0x3f78857b	0.97078675
25	0x3f7f73d4	0.99786115
26	0x3f7d02e0	0.9883251
27	0x3f7e8cfc	0.99433875
28	0x3f7edac8	0.99552584
29	0x3f84b4ef	1.0367717
30	0x3f7c0279	0.9844127
31	0x3f80a955	1.0051676

model.model.decoder.encoder.layers.0.norm1.bias f4 [32]
0	0x3b0777b3	0.0020670712
1	0x3ace2f7b	0.0015730703
2	0xbb2f13c6	-0.0026714667
3	0x3c8ba880	0.01704812
4	0xbc93c02b	-0.018035969
5	0x3b910c9d	0.0044265524
6	0xbcafd901	-0.02146578
7	0x3c0aab8f	0.008463754
8	0xbc0671de	-0.008205859
9	0x3c517fbb	0.012786801
10	0xba5057a8	-0.0007947632
11	0xb98230b0	-0.00024831807
12	0x3c9bf130	0.019035906
13	0xbc5ba87f	-0.013406872
14	0x3c2a6a1b	0.010401274
15	0x3c0265eb	0.007958869
16	0x3ca46e84	0.02007223
17	0x3c67bf37	0.01414471
18	0xbc660935	-0.014040281
19	0x3c6b2abd	0.014353451
20	0x3c247a9e	0.010039
21	0xbd062111	-0.03274638
22	0xbc84cf94	-0.016212262
23	0xbc365811	-0.011129395
24	0xbce5c3b1	-0.028047414
25	0xbc11b8cc	-0.008894157
26	0xbcabdd2b	-0.020979485
27	0x3b8b9411	0.0042595943
28	0x3b276eb1	0.0025548155
29	0x3bbf45ae	0.005837164
30	0x3b8c40d1	0.0042801877
31	0x3be7504f	0.007059134

model.model.decoder.encoder.layers.0.norm2.weight f4 [32]
0	0x3f7db0fa	0.9909817
1	0x3f7eba76	0.99503267
2	0x3f7cadd7	0.9870276
3	0x3f851fe8	1.0400362
4	0x3f833d38	1.0253057
5	0x3f8165a3	1.0109142
6	0x3f7b1fbf	0.98095316
7	0x3f85c532	1.0450804
8	0x3f7c1168	0.9846406
9	0x3f830163	1.0234798
10	0x3f7f3f2b	0.9970576
11	0x3f89b8ee	1.0759561
12	0x3f7f0a62	0.9962522
13	0x3f809d9b	1.0048097
14	0x3f7def6e	0.99193466
15	0x3f804498	1.0020933
16	0x3f80b8c7	1.005639
17	0x3f8507dc	1.0393023
18	0x3f8074f1	1.0035688
19	0x3f857dcc	1.0429015
20	0x3f7a6d5b	0.97823113
21	0x3f7f386c	0.9969547
22	0x3f84ab2d	1.0364739
23	0x3f83bc4f	1.0291842
24	0x3f800d3e	1.0004041
25	0x3f7cf232	0.9880706
26	0x3f800c40	1.0003738
27	0x3f7af546	0.9803051
28	0x3f80c53e	1.0060194
29	0x3f7e26f4	0.9927819
30	0x3f8058a7	1.0027055
31	0x3f827cdb	1.0194353

model.model.decoder.encoder.layers.0.norm2.bias f4 [32]
0	0xbc3bbb5f	-0.011458247
1	0xbc59092c	-0.013246816
2	0x3c38f978	0.011289947
3	0x3c44ab74	0.012003768
4	0xbc5013d1	-0.012700037
5	0xbc3f254c	-0.011666607
6	0xbc2b6a4b	-0.010462354
7	0x3c6849c6	0.014177745
8	0xbc365834	-0.011129428
9	0x3c4f1949	0.012640306
10	0xbc3cfa0d	-0.011534226
11	0xbc5c60ee	-0.013450844
12	0xbc3c18bf	-0.011480509
13	0xbc3e8c8b	-0.011630188
14	0x3c3b0288	0.011414178
15	0xbc4fe314	-0.012688417
16	0x3c523e9a	0.012832308
17	0x3c4fe7b3	0.012689519
18	0x3c41e42b	0.011834185
19	0x3c46b685	0.012128477
20	0xbc3145f9	-0.010819905
21	0xbc3cce6c	-0.011523824
22	0xbc435690	-0.011922494
23	0xbc3e9356	-0.011631807
24	0xbc43d90a	-0.011953602
25	0xbc561c0a	-0.0130682085
26	0xbc3e981a	-0.0116329435
27	0x3b97c3d5	0.0046314993
28	0x3c3ea76a	0.011636594
29	0xbc5880be	-0.013214288
30	0xbc3f16d2	-0.011663156
31	0x3c410513	0.011780995

model.model.projection.weight f4 [2, 32]
0	0x3df62d25	0.120203294
1	0xbd5df237	-0.054186072
2	0xbdd10207	-0.10205465
3	0x3de73479	0.11289305
4	0x3d002473	0.03128476
5	0xbb9a51e1	-0.0047094678
6	0x3d4391a2	0.04774631
7	0xbd9d4a62	-0.07680203
8	0xbda7d73e	-0.08195351
9	0x3d4d7eab	0.050169628
10	0xbcd3d969	-0.025860505
11	0xbe12fd65	-0.14354475
12	0x3bec8314	0.007217774
13	0xbd40c0f6	-0.047059022
14	0xbe06d26e	-0.1316621
15	0xbc391f17	-0.011298916
16	0xbd84f553	-0.064921044
17	0xbca341a2	-0.019928757
18	0xbd99b128	-0.07504493
19	0x3d00bbdc	0.031429157
20	0x3e197dee	0.14989445
21	0x3b8d5a03	0.0043137087
22	0xbd28630a	-0.041110076
23	0x3dacffee	0.08447252
24	0xbd4d3fd8	-0.050109714
25	0xbdb2ce53	-0.087307595
26	0x3dd900ac	0.10595831
27	0xbdef38a4	-0.11680725
28	0x3d99b7dd	0.07505772
29	0x3e05233a	0.13001719
30	0xbd9ee4c2	-0.07758476
31	0x3bfeaf7d	0.0077723847
32	0x3d2a77cd	0.041618157
33	0xbd4894a3	-0.048969876
34	0x3d9b341c	0.075782984
35	0xbe1bfa8d	-0.15232296
36	0xbce8aeb8	-0.028403625
37	0x3e0f6e0f	0.14006828
38	0xbd95948d	-0.073037244
39	0x3d2e6215	0.042574007
40	0xbb5a58ca	-0.0033317083
41	0xbd3e1abc	-0.046412215
42	0xbd841fe4	-0.06451395
43	0xbd8594fa	-0.06522556
44	0x3e326727	0.17422162
45	0xbb49a4ea	-0.0030768462
46	0x3e1c5a2f	0.15268777
47	0xbe1936e7	-0.1496235
48	0x3d162f9b	0.036666494
49	0xbdb800d8	-0.08984536
50	0x3d1f5870	0.0389027
51	0xbc19db70	-0.009390697
52	0x3dcf2a99	0.10115547
53	0x3cd0e28d	0.025498653
54	0xbcadf6bc	-0.021235816
55	0x3dc4e577	0.096140794
56	0xbe196f47	-0.14983855
57	0xbdb93158	-0.09042615
58	0xbe1eb22f	-0.15497659
59	0xbcdcfc90	-0.0269759
60	0xbe2777b1	-0.16354252
61	0x3e11f836	0.14254841
62	0x3d0aa315	0.033846933
63	0xbc848c6b	-0.016180238

model.model.projection.bias f4 [2]
0	0xbd05892a	-0.032601513
1	0x3ddf043e	0.10889481

model.classifier.weight f4 [2, 32]
0	0xbe3440a5	-0.17602785
1	0x3dada4f2	0.084787264
2	0x3e298b85	0.16557129
3	0x3df9ebaa	0.122031525
4	0xbe211a72	-0.15732744
5	0x3c2de44f	0.010613515
6	0xbd7a3f74	-0.06109567
7	0x3ddd7a40	0.10814333
8	0xbc8b3028	-0.016990736
9	0x3e389f1d	0.18029447
10	0xbde8c7ba	-0.1136622
11	0xbe4139a5	-0.18869646
12	0xbdefa57c	-0.117014855
13	0xbdb99305	-0.09061245
14	0x3dcdd499	0.100503154
15	0x3d510a88	0.051035434
16	0xbd901586	-0.07035355
17	0x3df28767	0.11842232
18	0x3e20b26a	0.1569306
19	0x3b8a1a4c	0.0042145606
20	0xbb42c555	-0.002971967
21	0xbda85024	-0.082184106
22	0xbe147ccd	-0.14500733
23	0xbe077e47	-0.13231765
24	0xbd3bb5e0	-0.045827746
25	0xbe081ae0	-0.13291502
26	0xbc5c6257	-0.01345118
27	0xbaed4fdf	-0.0018105468
28	0x3dd265d1	0.10273326
29	0x3dd58d75	0.104273714
30	0xbd6454a2	-0.055744775
31	0x3dfd6b13	0.123739384
32	0x3d78720a	0.06065563
33	0x3dd692b1	0.10477198
34	0xbd25ef08	-0.04051116
35	0xbe59c322	-0.21265844
36	0xbd044b9f	-0.03229868
37	0x3e293a8b	0.16526239
38	0xbc146797	-0.009057901
39	0xbbb63f78	-0.0055617653
40	0x3d3b15a0	0.04567492
41	0x3d3fccf3	0.046826314
42	0x3ce29eba	0.027663577
43	0x3d04b1ec	0.032396242
44	0x3ddc74a7	0.10764437
45	0x3e01e8ea	0.12686506
46	0x3a7a1e1a	0.00095412286
47	0x3dda3e54	0.106564194
48	0xbdc9015a	-0.09814711
49	0xbd72764d	-0.05919485
50	0xbae07892	-0.0017125777
51	0xbe22d4c2	-0.15901473
52	0x3cb0eb29	0.021596508
53	0x3e2c3e51	0.16820647
54	0x3e5cd4ed	0.215656
55	0x3e062932	0.13101652
56	0x3cc8332e	0.024438467
57	0xbdfd72c5	-0.12375406
58	0x3e2692dd	0.16266961
59	0x3bd02826	0.0063524423
60	0xbe335c45	-0.17515667
61	0x3dc8019d	0.09765933
62	0x3e198fc4	0.14996248
63	0xbe0d5ef4	-0.13805753

model.classifier.bias f4 [2]
0	0xbd833332	-0.06406249
1	0xbe3dbd32	-0.18529204
