lightning_logs/version_36/checkpoints/epoch=250-step=1004.ckpt (torch, 219976 bytes, 66 tensors)

model.model.pos f4 [50, 32]
0	0x3d3eed58	0.046613067
1	0x3d935e6d	0.07195745
2	0x3d12e33f	0.03586125
3	0xbe35dfe8	-0.17761195
4	0xbe2fa6b8	-0.17153442
5	0x3e75c78e	0.24001905
6	0xbddbfc04	-0.107414275
7	0xbd4cf784	-0.050040737
8	0x3e2d5a66	0.16929016
9	0xbde8d7d3	-0.1136929
10	0x3e26dafe	0.16294476
11	0x3e2b82b1	0.16749074
12	0xbb86302f	-0.0040950994
13	0x3e59e0b5	0.21277125
14	0x3dd7b170	0.105318904
15	0xbe6e1205	-0.23249061
16	0xbd75985f	-0.059959766
17	0xbd03f153	-0.032212567
18	0xbe123c44	-0.14280802
19	0x3e014a4b	0.12625997
20	0xbcab8ecc	-0.020942114
21	0xbdbe6081	-0.092957504
22	0xbca0ae2f	-0.019614307
23	0x3c2d3156	0.010570845
24	0xbd09ded5	-0.033659775
25	0xbe6cce00	-0.23125458
26	0xbe7b6516	-0.2455028
27	0xbe228ee7	-0.15874825
28	0x3e18d323	0.14924292
29	0x3df11d48	0.11773163
30	0x3d06f6bd	0.03295015
31	0xbd51bd0d	-0.051205683
32	0x3cbbf6fe	0.022944923
33	0x3e21d49f	0.15803765
34	0x3dc411c5	0.09573702
35	0x3b1e3eeb	0.0024146389
36	0xbe696040	-0.22790623
37	0x3e38bf5f	0.18041752
38	0xbe634176	-0.2219294
39	0xbe6f34f4	-0.23360044
40	0x3e853f1a	0.26024705
41	0x3e8560b0	0.2605033
42	0x3b10ac6a	0.0022075423
43	0xbe075553	-0.13216142
44	0xbe384be4	-0.179977
45	0x3ca4daea	0.020123918
46	0xbe7b2fd4	-0.24529964
47	0x3e012e8f	0.12615417
48	0x3e199f4b	0.15002172
49	0x3d3879e3	0.045038115
50	0xbe6eef1e	-0.23333403
51	0xbb352db9	-0.002764566
52	0xbe3294f7	-0.17439638
53	0xbe29cd1a	-0.16582146
54	0xbdb6284d	-0.088944055
55	0xbe1bfe81	-0.15233804
56	0xbdca48be	-0.09877156
57	0x3dc102fe	0.09424399
58	0xbb934ce9	-0.0044952524
59	0xbd8ac2b9	-0.06775422
60	0xbd083fe9	-0.033264074
61	0x3e7be8fc	0.24600595
62	0x3e816e17	0.25279304
63	0xbe12f16e	-0.1434991
64	0x3e0a70a4	0.13519531
65	0xbe840111	-0.25782064
66	0xbe1191a3	-0.14215712
67	0x3e85440f	0.26028487
68	0x3e731742	0.23739341
69	0x3e203193	0.15643911
70	0x3daab877	0.08335965
71	0x3d4ec720	0.05048287
72	0x3e4ea1df	0.20178936
73	0xbe5d384a	-0.21603504
74	0xbe176d92	-0.14787892
75	0x3df25344	0.11832288
76	0x3da6291c	0.0811331
77	0xbe0a0406	-0.13478097
78	0x3cce8389	0.025209205
79	0x3df5f34d	0.120092966
80	0x3d7ce272	0.061739393
81	0x3e5be615	0.21474488
82	0x3d29aabb	0.041422587
83	0x3d999881	0.07499791
84	0xbe6251ef	-0.22101568
85	0x3d28f9c7	0.04125383
86	0xbbae993d	-0.005328326
87	0x3e0e7f2b	0.13915698
88	0xbe26fef1	-0.1630819
89	0xbe61d2f2	-0.22053126
90	0x3ddf0395	0.10889355
91	0xbe284b22	-0.16434911
92	0xbe61a92a	-0.22037187
93	0xbe431c9f	-0.19053887
94	0xbcd09012	-0.025459323
95	0xbe434919	-0.19070853
96	0x3e018579	0.12648572
97	0x3c242c6d	0.010020358
98	0xbd3e95ca	-0.04652957
99	0x3d3167f5	0.04331203
100	0x3e882728	0.26592374
101	0xbe81373a	-0.25237447
102	0x3e85544b	0.26040873
103	0xbbfa6d4d	-0.007642424
104	0xbe8b3b1f	-0.27193543
105	0x3de26b74	0.11055651
106	0x3cf3d2eb	0.02976366
107	0x3e65c287	0.22437488
108	0xbdbd7b77	-0.09252065
109	0xbd91dd72	-0.071223155
110	0x3dc10c19	0.094261356
111	0x3e1a5e1e	0.15074965
112	0xbdb7b230	-0.089695334
113	0xbe4332d7	-0.19062363
114	0xbe047e86	-0.1293889
115	0x3d0b332c	0.03398435
116	0x3da354f0	0.07975185
117	0xbe7c7522	-0.24654058
118	0x3e306fce	0.1723015
119	0x3e5d6b38	0.21622932
120	0x3e36aa00	0.17838287
121	0x3e7096f9	0.23495091
122	0xbde8ec4a	-0.113731936
123	0xbc110087	-0.008850223
124	0xbe0f1979	-0.13974561
125	0x3e633883	0.22189526
126	0x3d3ee493	0.046604704
127	0x3c2ee300	0.010674238
128	0x3ce8feb9	0.028441774
129	0x3e346aaf	0.17618822
130	0x3e7c390f	0.24631141
131	0x3e84e565	0.25956264
132	0x3e4bd429	0.19905151
133	0x3e078452	0.1323407
134	0x3e40de2c	0.18834752
135	0xbca6b1d7	-0.020348473
136	0x3bcaa888	0.0061846413
137	0xbe6f5b30	-0.23374629
138	0xbddd2343	-0.10797741
139	0xbca42cc1	-0.020040872
140	0x3d35c631	0.044378463
141	0xbc6bde82	-0.014396312
142	0x3ccd3c06	0.025053035
143	0x3d830d24	0.06398991
144	0xbc01169e	-0.0078789275
145	0xbb0f8574	-0.0021899613
146	0x3e2b1189	0.16705908
147	0xbdac338c	-0.08408269
148	0xbb682949	-0.0035424998
149	0xbe3a80d7	-0.18213211
150	0xbe1055c8	-0.14095223
151	0x3de1f210	0.11032498
152	0xbe650b1f	-0.22367524
153	0xbdc61b93	-0.09673228
154	0x3e1f0d43	0.15532403
155	0xbcc6cfb9	-0.024268972
156	0x3dc6b388	0.097022116
157	0xbe1034c2	-0.14082626
158	0xbd33f44d	-0.043934155
159	0xbe82e90f	-0.25568435
160	0xbbd3fcf5	-0.006469364
161	0x3db0cca3	0.08632781
162	0x3d9097be	0.070601925
163	0x3e59afc0	0.2125845
164	0xbd036815	-0.032081682
165	0xbe530218	-0.20606267
166	0x3c87b181	0.016564133
167	0xbd84514d	-0.064608194
168	0xbe4ac0dc	-0.19800133
169	0x3db573cf	0.08859979
170	0x3e3e61ac	0.18591946
171	0xbca7c951	-0.020481737
172	0x3d23798f	0.03991085
173	0x3db6861b	0.08912297
174	0x3e85aa5d	0.2610654
175	0xbe661ee2	-0.22472718
176	0x3e2b633b	0.16737072
177	0x3e407ba7	0.1879717
178	0x3db3b1db	0.087741576
179	0x3e193e11	0.14965083
180	0xbe662df8	-0.22478473
181	0x3c9dcbcc	0.019262217
182	0xbd7d9bd0	-0.061916173
183	0xbe71c268	-0.23609316
184	0x3e503aba	0.20334902
185	0x3d5a97f4	0.05336757
186	0x3dcfa1f4	0.10138312
187	0xbe6dd5c9	-0.23226084
188	0xbe7725e2	-0.24135545
189	0x3e84482d	0.25836316
190	0xbe865935	-0.26239935
191	0xbdca0a75	-0.09865276
192	0x3e23885e	0.15969989
193	0xbe52aaff	-0.20573042
194	0x3da546ab	0.080701195
195	0xbb937ba3	-0.0045008226
196	0x3d01e119	0.03170881
197	0xbe087377	-0.13325296
198	0xbddd6257	-0.108097725
199	0xbda5cf5b	-0.080961905
200	0xbda95f5a	-0.0827014
201	0xbd4ba945	-0.049721975
202	0xbe224524	-0.15846688
203	0xbe1ffa2a	-0.15622774
204	0x3d7cb273	0.06169362
205	0x3d4ca40d	0.04996114
206	0xbd0e2ac0	-0.03470874
207	0xbe215285	-0.15754135
208	0x3d956ea3	0.07296493
209	0xbe6362cf	-0.22205661
210	0xbe5ff563	-0.21870951
211	0xbd5a3a85	-0.053278465
212	0x3d175593	0.036946844
213	0x3e2eecd1	0.17082526
214	0x3e4d78ec	0.2006566
215	0xbdb96289	-0.09051997
216	0xbe01deb7	-0.12682615
217	0x3e7aa644	0.24477488
218	0xbe858f4e	-0.26085895
219	0xbddeec20	-0.10884881
220	0x3e500ee4	0.2031818
221	0x3c97b6f7	0.018519862
222	0x3e5ad6e5	0.21371038
223	0x3e855a30	0.2604537
224	0xbe722c71	-0.23649766
225	0xbe824125	-0.25440326
226	0x3e6a81d5	0.2290109
227	0x3c1b682b	0.009485285
228	0x3e63b961	0.22238685
229	0x3e13c28a	0.1442968
230	0xbdb74be8	-0.08950025
231	0xbe6c3f3a	-0.23070994
232	0xbdb83ffa	-0.089965776
233	0x3d0b028d	0.03393798
234	0x3cb6df55	0.02232329
235	0x3d8ef57b	0.069804154
236	0xbc19084a	-0.009340355
237	0x3dcd2759	0.100172706
238	0x3e3dfd82	0.18553737
239	0x3e2b5971	0.16733338
240	0x3d325aaa	0.043543495
241	0x3defa561	0.117014654
242	0x3df2ebc0	0.11861372
243	0xbd721556	-0.05910238
244	0xbd99e840	-0.07515001
245	0xbdb3e12b	-0.08783182
246	0x3e23acb9	0.15983857
247	0x3e2a989a	0.16659775
248	0x3cc2c25f	0.023774324
249	0x3de8161a	0.113323405
250	0x3e33f2dc	0.17573112
251	0x3dea7f0c	0.114500135
252	0x3da83ab4	0.08214322
253	0xbe49ef8f	-0.1972029
254	0x3e508b73	0.20365696
255	0xbd574e07	-0.052564647

model.model.embed.weight f4 [2, 32]
0	0x00000000	0.0
1	0x00000000	0.0
2	0x00000000	0.0
3	0x00000000	0.0
4	0x00000000	0.0
5	0x00000000	0.0
6	0x00000000	0.0
7	0x00000000	0.0
8	0x00000000	0.0
9	0x00000000	0.0
10	0x00000000	0.0
11	0x00000000	0.0
12	0x00000000	0.0
13	0x00000000	0.0
14	0x00000000	0.0
15	0x00000000	0.0
16	0x00000000	0.0
17	0x00000000	0.0
18	0x00000000	0.0
19	0x00000000	0.0
20	0x00000000	0.0
21	0x00000000	0.0
22	0x00000000	0.0
23	0x00000000	0.0
24	0x00000000	0.0
25	0x00000000	0.0
26	0x00000000	0.0
27	0x00000000	0.0
28	0x00000000	0.0
29	0x00000000	0.0
30	0x00000000	0.0
31	0x00000000	0.0
32	0xbf393f8a	-0.7236258
33	0xbf1a0c39	-0.601749
34	0xbfc1073a	-1.508033
35	0x3db19863	0.086716436
36	0xbfb58c1c	-1.4183383
37	0x3f3003a4	0.68755555
38	0x3f601fc7	0.8754849
39	0xbf319dfb	-0.69381684
40	0xbda5c88a	-0.080948904
41	0x3c425e85	0.0118633555
42	0x3f8baa6a	1.0911381
43	0xbff0e879	-1.8820945
44	0x3d7cb321	0.061694268
45	0x3fced782	1.6159518
46	0xbd2f1cf9	-0.04275224
47	0x3ed58fda	0.41711313
48	0xbd6cb979	-0.057794068
49	0xbd5ba077	-0.053619828
50	0xbf9aee04	-1.2103887
51	0xbf1a5342	-0.6028329
52	0x3f804a1d	1.0022618
53	0xbf422f5e	-0.75853527
54	0xbfa6236d	-1.2979561
55	0xbedf6fd3	-0.43640003
56	0x3f8e37ff	1.1110839
57	0x3fe7644e	1.8077486
58	0x3e03478c	0.12820262
59	0xbf267022	-0.6501485
60	0xbed2428b	-0.41066393
61	0x402d7eb4	2.7108583
62	0xbe8084f4	-0.25101435
63	0xbedb6c8f	-0.4285626

model.model.decoder.layers.0.ln1.weight f4 [32]
0	0x3f800473	1.0001358
1	0x3f7c9c49	0.9867597
2	0x3f7bc4f5	0.9834741
3	0x3f7d2673	0.98886794
4	0x3f7d5d8a	0.98970854
5	0x3f7dc525	0.99128944
6	0x3f800810	1.000246
7	0x3f81545b	1.0103868
8	0x3f7d260d	0.98886186
9	0x3f7a5e63	0.9780027
10	0x3f7c92b7	0.9866137
11	0x3f7c699f	0.98598665
12	0x3f7c9e21	0.98678786
13	0x3f7dc9e0	0.9913616
14	0x3f7ceff8	0.98803663
15	0x3f7e444d	0.9932297
16	0x3f7d2c5d	0.9889582
17	0x3f7d8fec	0.9904773
18	0x3f7d1c8e	0.98871696
19	0x3f7dd5f3	0.99154586
20	0x3f7ebcd8	0.995069
21	0x3f7eba08	0.9950261
22	0x3f7e2886	0.99280584
23	0x3f7d3c4c	0.9892013
24	0x3f7d128b	0.9885642
25	0x3f7dbd79	0.9911724
26	0x3f7f7f2f	0.9980344
27	0x3f7ecb74	0.99529195
28	0x3f7c99b2	0.9867202
29	0x3f7ddce7	0.99165195
30	0x3f802497	1.0011166
31	0x3f7f09f2	0.9962455

model.model.decoder.layers.0.ln1.bias f4 [32]
0	0x3b54ae56	0.0032452545
1	0x3bfc512d	0.0077001066
2	0x3b2de7ca	0.0026535862
3	0x3a86a4ab	0.0010272464
4	0xbcd93eaf	-0.026519148
5	0xb9ce55d1	-0.0003935532
6	0x3bb4e44b	0.0055203787
7	0xbcec3b88	-0.02883698
8	0x3b73a63b	0.0037177939
9	0x3a16ae4a	0.0005748017
10	0xbaee2e5b	-0.0018171774
11	0x3bbdd851	0.005793609
12	0xbaa9f522	-0.0012966732
13	0x3c23aac6	0.009989446
14	0xbc70705d	-0.014675227
15	0xbaeaf581	-0.0017925949
16	0x3905077d	0.00012686658
17	0x3c30773b	0.010770614
18	0xbb9e0d7a	-0.004823384
19	0x3b5d880f	0.003380302
20	0x3bca37bd	0.0061711953
21	0xbbab0bf8	-0.0052199326
22	0xba95d57f	-0.0011431425
23	0x3b0a2124	0.0021076882
24	0xba201bcf	-0.00061076594
25	0x3ad9a004	0.0016603475
26	0xbb6839ab	-0.0035434763
27	0xbb9c5b05	-0.0047715926
28	0x3babe1da	0.0052454295
29	0x3c00f396	0.007870575
30	0xbc183a22	-0.009291204
31	0xbc04c835	-0.008104374

model.model.decoder.layers.0.ln2.weight f4 [32]
0	0x3f7ccb60	0.98747826
1	0x3f7d82ed	0.990279
2	0x3f807752	1.0036414
3	0x3f82ed3d	1.0228649
4	0x3f8184f8	1.0118704
5	0x3f8443c1	1.0333177
6	0x3f81cfa5	1.0141493
7	0x3f7f5939	0.9974552
8	0x3f804266	1.0020263
9	0x3f836c14	1.0267358
10	0x3f812cf7	1.0091847
11	0x3f7c2bdf	0.9850444
12	0x3f7d778c	0.9901054
13	0x3f81e629	1.0148364
14	0x3f8130b7	1.0092992
15	0x3f7dcbe9	0.9913927
16	0x3f810e6e	1.0082529
17	0x3f82dab3	1.0222992
18	0x3f7ead17	0.99482864
19	0x3f7fb07c	0.9987867
20	0x3f8263b9	1.0186683
21	0x3f7cf05d	0.98804265
22	0x3f821f01	1.0165712
23	0x3f81b480	1.0133209
24	0x3f8292b5	1.0201021
25	0x3f821892	1.0163748
26	0x3f805f45	1.0029074
27	0x3f80b9ea	1.0056736
28	0x3f7f4b94	0.997247
29	0x3f81cd42	1.0140765
30	0x3f81e9ab	1.0149435
31	0x3f80a3dd	1.0050007

model.model.decoder.layers.0.ln2.bias f4 [32]
0	0x3c1f0d52	0.009707766
1	0x3bb21459	0.0054345545
2	0xbc90f339	-0.017694103
3	0x3be8fc64	0.0071101654
4	0xbca4a183	-0.020096546
5	0x3c20437a	0.009781713
6	0x3cc8f12e	0.024529066
7	0x3c517088	0.012783177
8	0xbc240b9f	-0.010012536
9	0xbcab69a7	-0.020924402
10	0x3c94e35d	0.018174822
11	0xbb85b51b	-0.0040804273
12	0xbc949f3e	-0.018142339
13	0x3cd20f97	0.0256422
14	0x3c82faa9	0.015988665
15	0x3cb6c85d	0.022312338
16	0xbc379862	-0.0112057645
17	0xbb9cc390	-0.004784055
18	0x3b89ebd8	0.004209023
19	0xbbea78b1	-0.007155501
20	0x3c9d656e	0.019213405
21	0x3c3329c4	0.010935251
22	0xbc91be7d	-0.017791027
23	0x3babbcac	0.0052409973
24	0x3be684fb	0.0070348955
25	0x3d19d643	0.03755785
26	0x3b47c855	0.0030484397
27	0xbc329b70	-0.010901317
28	0x3bcc4ef4	0.006234998
29	0x3c7f2e3e	0.01557499
30	0xbb5d54b9	-0.0033772422
31	0x3c471744	0.012151543

model.model.decoder.layers.0.msr.WQ f4 [1, 32, 32]
0	0xbd8f07e4	-0.06983927
1	0x3d23fc30	0.040035427
2	0xbbc64316	-0.0060504777
3	0xbd320cc0	-0.04346919
4	0x3bc3f9e0	0.005980715
5	0x3caeb57b	0.021326771
6	0x3d2a4662	0.04157103
7	0xbbb3d00b	-0.005487447
8	0x3ce724c6	0.028215777
9	0x3d21c652	0.039495774
10	0x3c19092e	0.0093405675
11	0xbcfd54ee	-0.030924287
12	0x3cecf40a	0.02892496
13	0x3dcf7e80	0.1013155
14	0x3d59cbe3	0.053172957
15	0xbd8d7aa4	-0.069081575
16	0xbd74371f	-0.05962288
17	0x3b66e784	0.003523321
18	0x3d0d6b6f	0.034526285
19	0xbd5cb345	-0.053881902
20	0x3d20996f	0.039208826
21	0x3cdd69d6	0.027028006
22	0xbd9a1917	-0.07524317
23	0xb95efea6	-0.00021266434
24	0xbd005909	-0.03133491
25	0xbb98cbd5	-0.0046629705
26	0xbc372902	-0.011179211
27	0xbdd99097	-0.106232814
28	0xbcb5182b	-0.02210625
29	0x3d6f94a2	0.058491357
30	0xbd28e4c0	-0.041233778
31	0x3c94f037	0.01818095
32	0xbdcd9d65	-0.10039786
33	0x3c462c09	0.01209546
34	0xbc17bff7	-0.009262077
35	0xbce3d780	-0.02781272
36	0x3ce958d4	0.02848474
37	0xbd298a45	-0.04139163
38	0xbaf4992f	-0.0018661375
39	0x3c9d9aac	0.019238792
40	0x3d0a4633	0.033758353
41	0xbc073faf	-0.008254929
42	0xbd4bfde2	-0.04980267
43	0x3bf0ec05	0.0073523545
44	0xbd384d50	-0.044995606
45	0x3cf843a2	0.030305687
46	0xbbeae719	-0.0071686623
47	0x3c929acd	0.01789608
48	0xbd5a501d	-0.05329906
49	0x3d76d061	0.06025732
50	0xbb5c75c5	-0.0033639532
51	0xbc46efa4	-0.012142096
52	0xbdd36910	-0.103227735
53	0x3c9ad818	0.01890187
54	0x3cdda441	0.027055861
55	0x3c2e0d6e	0.010623319
56	0xbc298516	-0.010346672
57	0xbcb974a7	-0.022638632
58	0x3d3e1279	0.046404336
59	0xbd90031a	-0.070318416
60	0xbc8240ff	-0.015900133
61	0xbcebdb58	-0.028791115
62	0xbca77afa	-0.020444382
63	0x3d3e422e	0.046449833
64	0x3ce7b97c	0.028286688
65	0xbccf2800	-0.025287628
66	0xbc9ab47e	-0.018884894
67	0x3c108e44	0.008822981
68	0xbc4af19e	-0.012386708
69	0x3d8ac8b3	0.067765616
70	0x3c2ff53c	0.010739621
71	0xbd6d6910	-0.057961524
72	0xbb02b4d8	-0.0019944217
73	0x3c251ae7	0.010077215
74	0xbb192d54	-0.0023372965
75	0x3d6c4461	0.0576824
76	0x3d862902	0.0655079
77	0x3d05b364	0.032641783
78	0x3d2c8ac2	0.042124517
79	0xbd2590d7	-0.040421333
80	0xbd29c7ba	-0.04145024
81	0x3d33f867	0.043938067
82	0xbc08ef57	-0.008357844
83	0xbb110964	-0.0022130841
84	0x3c33d3b7	0.01097577
85	0x3d87c2f5	0.06628982
86	0xbaeb848e	-0.0017968582
87	0x3c122f34	0.008922387
88	0xbd297d4c	-0.041379258
89	0xbd96f5cf	-0.07371103
90	0xbd06d072	-0.032913633
91	0x3d766ef2	0.0601644
92	0x3d4c0a3d	0.04981445
93	0x3c40ecf6	0.011775246
94	0x3d5c07a1	0.053718213
95	0xbca6bd05	-0.020353803
96	0x3da7dac0	0.0819602
97	0x3d88e014	0.066833645
98	0xbc80dfa7	-0.015731646
99	0xbd84c6f4	-0.0648326
100	0xbd8e4edb	-0.06948634
101	0x3c102a30	0.008799121
102	0xbcbae9e5	-0.022816608
103	0xbc2af147	-0.010433502
104	0x395e0f7b	0.00021177337
105	0xbc8893cd	-0.01667204
106	0x3c68fab8	0.014219932
107	0xbd9cfcfa	-0.07665439
108	0x3d840831	0.06446875
109	0xbd89422d	-0.06702075
110	0x3cff4c86	0.031164419
111	0xbc1ea74c	-0.009683441
112	0xbbc7b0b0	-0.006094061
113	0x3d73a07d	0.059479225
114	0x3bd84cbc	0.0066009443
115	0xbd36f03b	-0.044662695
116	0x3caec85b	0.021335771
117	0x3c7832fe	0.015148876
118	0x3c7370f0	0.014858469
119	0xbb0416e5	-0.0020155248
120	0x3c3a5aed	0.011374217
121	0x3d004e7e	0.031324856
122	0xbb646b7f	-0.0034854112
123	0x3c0a9f89	0.008460888
124	0x3c8b5786	0.017009508
125	0x3c1a8a4b	0.009432386
126	0x3a6a24fd	0.0008931903
127	0xbc60081b	-0.0136738075
128	0xbb1ecd3c	-0.0024231216
129	0xbde1326f	-0.109959476
130	0x3b9bb28d	0.0047515095
131	0x3ccd4d0f	0.025061158
132	0xbc0b8d9e	-0.008517651
133	0xbd03afbd	-0.03215002
134	0x3a4b9e23	0.00077673997
135	0x3c9e4170	0.019318312
136	0xbd4dc00d	-0.050231982
137	0x3a833a38	0.0010011857
138	0xbc216be3	-0.009852382
139	0xbcf47dfb	-0.029845228
140	0x3d90a755	0.07063166
141	0x3d8ae73e	0.06782387
142	0xbd228ee3	-0.03968705
143	0x3d3dcd8f	0.046338614
144	0xbd5e7ce1	-0.054318313
145	0x3c991aa1	0.018689455
146	0xbc8042c6	-0.01565684
147	0xbbdaadc6	-0.0066735474
148	0xbc03ea56	-0.0080514755
149	0x3b30306a	0.0026884326
150	0xbe151542	-0.1455889
151	0x3d3c556d	0.045979906
152	0xbc67f5c9	-0.014157721
153	0xbe0a641b	-0.1351475
154	0xbcc07de6	-0.023497533
155	0x3bd28392	0.006424376
156	0x3e0f3171	0.13983704
157	0x3c0ff622	0.00878671
158	0xbcac29ba	-0.02101599
159	0xbd9533c0	-0.07285261
160	0x3c935836	0.017986398
161	0xbd30be37	-0.043150153
162	0xbb41b76c	-0.002955879
163	0x3cdc1385	0.026864776
164	0xbd614431	-0.054996673
165	0xbc808feb	-0.015693625
166	0xbb33fd20	-0.0027464107
167	0x3a93a17f	0.001126334
168	0xbd2d4953	-0.042306256
169	0xbcc5f9f8	-0.024167046
170	0x3d59a7c5	0.053138513
171	0xbc68f21c	-0.01421788
172	0xbd707577	-0.058705773
173	0xbd195564	-0.03743495
174	0x3c2a4725	0.010392939
175	0x3cf356f6	0.029704552
176	0xbbb20b71	-0.005433493
177	0xbd43c24e	-0.047792725
178	0xbbd1f123	-0.0064069196
179	0x3cf8996f	0.0303466
180	0x3c61443e	0.01374918
181	0xbccb2d09	-0.024801748
182	0x3aa8ebdd	0.0012887676
183	0x3c894807	0.016757978
184	0x3d4df6c5	0.050284166
185	0xbbc5252a	-0.006016393
186	0xbd7382e6	-0.059451006
187	0x3d199488	0.037495166
188	0xbc89892d	-0.016789043
189	0x3cd96729	0.026538448
190	0x3bc6a34a	0.006061946
191	0xbcea3799	-0.028590964
192	0xbd5eed99	-0.05442581
193	0x3c898bc3	0.016790276
194	0xbd94f8a4	-0.07273987
195	0xbbb8a702	-0.0056351433
196	0x3d0e20bd	0.03469919
197	0x3d8b5705	0.06803707
198	0x3cffad40	0.031210542
199	0xbc34ae29	-0.011027851
200	0x3dc1fbf7	0.094718866
201	0x3c438543	0.011933628
202	0x3d036556	0.032079063
203	0xbc897516	-0.016779464
204	0xbc845ca0	-0.016157448
205	0x3d7e6e75	0.06211706
206	0x3d156a51	0.036478344
207	0xbcbe3429	-0.023218231
208	0xbad1dfec	-0.0016012168
209	0x3cf8e883	0.030384308
210	0xbd019966	-0.031640433
211	0x3c96558e	0.018351343
212	0xbbc04ded	-0.0058686645
213	0x3c7190bd	0.014743981
214	0x3d5b217e	0.053498738
215	0xbdbf9520	-0.09354615
216	0x3df54960	0.11976886
217	0x3c96d98e	0.018414285
218	0xbd11657e	-0.03549718
219	0xbcfc7d36	-0.030821424
220	0xbcfef31b	-0.031121781
221	0xbc431063	-0.011905762
222	0x3c7c61f2	0.015404211
223	0x3a8ea43f	0.0010882689
224	0xbd81b146	-0.0633264
225	0xbbae2c5f	-0.005315348
226	0x3d360f1e	0.04444801
227	0x3bbbf3c7	0.0057358476
228	0xbd82ea48	-0.06392342
229	0xbd27950b	-0.040913623
230	0x3cfed5fd	0.031107897
231	0x3b8a41f5	0.0042192885
232	0x3d473f03	0.048644077
233	0xbd91d738	-0.07121128
234	0x3d2eedbd	0.042707194
235	0x3c5cecf6	0.01348423
236	0x3d796dff	0.060895916
237	0xbd9d370f	-0.07676517
238	0xbdd4f6f2	-0.103986636
239	0x3d81a8da	0.06331034
240	0xbbfe6371	-0.007763319
241	0x3ce4fc7a	0.027952421
242	0xbd53df21	-0.051726464
243	0xbcc67a6b	-0.024228295
244	0x3b8c0adc	0.0042737555
245	0xbd65d417	-0.056110468
246	0xbca95f49	-0.020675318
247	0x3cc34999	0.023838805
248	0x3bcdccbe	0.0062805107
249	0xbd7090ba	-0.058731772
250	0x3c980762	0.018558208
251	0x3d7f8e1d	0.06239139
252	0x3d7b1748	0.0613015
253	0xbcfbabda	-0.030721594
254	0x3d1f7f14	0.03893955
255	0xbceed312	-0.02915338

model.model.decoder.layers.0.msr.WK f4 [1, 32, 32]
0	0xbc0293db	-0.007969822
1	0x3ae08dfe	0.0017132161
2	0x3d4bc4d1	0.049748246
3	0xbd976f99	-0.073943324
4	0xbc1c1174	-0.0095256455
5	0x3d7bda04	0.061487213
6	0x3d271f48	0.040801316
7	0xbd18b540	-0.03728223
8	0xbc79b49e	-0.015240816
9	0xbd284089	-0.04107717
10	0xbdb7708b	-0.08957013
11	0x3d06008d	0.03271537
12	0x3c647d52	0.013945894
13	0x3d8983c7	0.06714588
14	0x3c8eb79a	0.017421532
15	0xbd44eb97	-0.04807624
16	0xbd970e67	-0.07375794
17	0xbc48395e	-0.012220709
18	0xbdbcf675	-0.092266954
19	0x3da31b15	0.0796415
20	0x3d6c711a	0.05772505
21	0x3cc59e30	0.024123281
22	0x3af79a49	0.0018890585
23	0xbc11ef46	-0.008907145
24	0xbc89de7b	-0.01682972
25	0x3ceb543a	0.028726686
26	0x3d4980e5	0.04919519
27	0x3c8286f6	0.015933495
28	0x3d825bde	0.063651785
29	0xbd097d65	-0.03356685
30	0xbcfb7781	-0.030696632
31	0xbc948bed	-0.018133128
32	0xbcc107b7	-0.023563249
33	0x3c880781	0.01660514
34	0xbd712ce3	-0.058880698
35	0x3a19605d	0.0005850846
36	0x3d50ac7c	0.050945744
37	0x3c0e7839	0.0086956555
38	0x3c4dacd5	0.012553413
39	0xbd549007	-0.051895168
40	0x3c4f5fc3	0.012657109
41	0x3c23be3e	0.009994088
42	0x3d871880	0.0659647
43	0xbd0e9d51	-0.034817997
44	0xbd023374	-0.03178735
45	0xbc99c5d7	-0.018771095
46	0x3d71c84c	0.05902891
47	0xbd0a9ba1	-0.033839826
48	0xbdb64641	-0.089001186
49	0xbba11ae4	-0.0049165357
50	0xbd0d93b4	-0.03456469
51	0x3c65721a	0.014004255
52	0x3d1a313d	0.037644614
53	0x3bed06ce	0.007233477
54	0xbc1c8b1b	-0.00955465
55	0x3c77b690	0.01511921
56	0xbc210134	-0.009826947
57	0xbd29e473	-0.04147763
58	0xbc37708d	-0.011196268
59	0x3d8cf4b1	0.06882609
60	0x3db46d5d	0.08809922
61	0x3d0dd831	0.034630004
62	0x3bbf3ab1	0.005835854
63	0x3c482be2	0.012217494
64	0xbd0d4acb	-0.034495156
65	0xbd0f3eb3	-0.034971904
66	0xbd3a7155	-0.045518238
67	0xbcfab4da	-0.030603815
68	0xbd05dbba	-0.03268025
69	0xbc206133	-0.009788799
70	0xbd442a13	-0.047891688
71	0x3cac75e5	0.02105231
72	0x3d419e02	0.04726983
73	0x3c90f6ef	0.017695872
74	0x3d408978	0.0470061
75	0xbd1ffb25	-0.03905787
76	0xbc3f0ff6	-0.01166152
77	0x3d9411a4	0.07229927
78	0x39d3e495	0.00040415363
79	0xbcd52859	-0.026020216
80	0x3da89bf3	0.0823287
81	0xbafd1d1e	-0.0019311046
82	0xbd3050c3	-0.04304577
83	0xbd1b1857	-0.03786501
84	0xbd4aaa8d	-0.049479056
85	0xbc9347d7	-0.017978592
86	0x3c1ad29b	0.009449626
87	0x3cedb580	0.02901721
88	0xbce031b1	-0.027367445
89	0x3bcde148	0.006282959
90	0x3d958a6d	0.07301793
91	0x3cd040c1	0.025421502
92	0x3cbeb386	0.023278963
93	0x3d3f8845	0.046760816
94	0xbd12b3a4	-0.03581585
95	0xbd3095f2	-0.04311175
96	0xbcb33277	-0.02187465
97	0x3d2410e8	0.040055186
98	0x3d06a85e	0.03287541
99	0x3dc37168	0.09543115
100	0xbbacc9ef	-0.005273096
101	0xbcc1da4a	-0.023663659
102	0x3cdfba8e	0.027310636
103	0xb89d8a0d	-7.512057e-05
104	0xbdc56c73	-0.09639826
105	0xbd61f0a7	-0.055161145
106	0xbd76bc83	-0.060238373
107	0x3d826542	0.0636697
108	0x3d594aac	0.05304973
109	0xbd0432c3	-0.032274973
110	0xbba112ba	-0.0049155625
111	0xbd28958c	-0.041158244
112	0xbd567b2a	-0.052363552
113	0x3d2a7960	0.04161966
114	0xbc6a7272	-0.014309512
115	0xbcca2178	-0.024674162
116	0xbd7606e4	-0.060065165
117	0xbc4e89d3	-0.012606102
118	0xbc063a15	-0.008192559
119	0xbd4549b3	-0.04816599
120	0xbd5640e2	-0.05230797
121	0xbd2fe93b	-0.042947035
122	0xbd56b905	-0.052422542
123	0x3d18873c	0.037238345
124	0x3c13d16f	0.009022101
125	0x3d943ce6	0.07238178
126	0xbb593f50	-0.003314931
127	0x3cdca143	0.026932364
128	0x3c6e97b1	0.014562533
129	0x3c082a90	0.008310929
130	0xbcd351d5	-0.025795856
131	0x3b955a93	0.0045579164
132	0xbd06753c	-0.032826647
133	0x3d020e83	0.03175212
134	0xbc434966	-0.011919355
135	0x3c9a045b	0.018800905
136	0xbc9b42a6	-0.018952679
137	0x3db3f7da	0.08787508
138	0x3d1bdb2f	0.038050827
139	0x3d3f6a0e	0.046732
140	0xbcdb7e72	-0.026793692
141	0xbc5cf018	-0.013484977
142	0xbd001d87	-0.03127816
143	0x3d533049	0.05155972
144	0xbc604f19	-0.013690733
145	0x3d374474	0.044743016
146	0xbca8e73c	-0.020618074
147	0x3d291dab	0.04128806
148	0x3d605cb8	0.054775923
149	0xbca6c780	-0.0203588
150	0x3c881ad0	0.016614348
151	0x3bcec046	0.006309542
152	0xbd4657a0	-0.04842341
153	0xbcdf30db	-0.027244976
154	0x3d26400a	0.040588416
155	0xbd646e66	-0.055769347
156	0x3c6ad089	0.014331945
157	0x3c3e8540	0.011628449
158	0x3af5b644	0.0018746336
159	0x3d4822f0	0.048861444
160	0xbc8a0567	-0.01684828
161	0xbdb746c0	-0.08949041
162	0xbc93407b	-0.017975083
163	0x3da49adf	0.08037352
164	0xbccecdca	-0.025244612
165	0xbd199841	-0.037498716
166	0xbc317968	-0.010832168
167	0x3ba85fb0	0.00513836
168	0xbd9d2fde	-0.076751456
169	0x3d88f23e	0.06686829
170	0xbd52f1cc	-0.051500127
171	0xbd389382	-0.04506255
172	0xbd2661a4	-0.04062046
173	0x3c5154af	0.012776538
174	0x3cd57049	0.026054518
175	0x3cc7ab64	0.024373718
176	0xbbc92708	-0.006138686
177	0x3d2afc63	0.0417446
178	0xbcb20277	-0.021729691
179	0xbcf45674	-0.02982638
180	0xbdf507fd	-0.11964414
181	0x3cdc749d	0.026911074
182	0xbca987b8	-0.020694599
183	0xbca404fd	-0.02002191
184	0x3d30230c	0.043002173
185	0xbd8cc61c	-0.06873724
186	0x3d81138c	0.063025564
187	0xbc21f579	-0.009885185
188	0x3cb8a5a4	0.022539921
189	0xbcf496f7	-0.029857142
190	0xbbdf0e4a	-0.0068071233
191	0x3d204560	0.03912866
192	0xbc630e85	-0.013858442
193	0xbc37ab64	-0.011210296
194	0xbd56a564	-0.052403823
195	0x389edea9	7.575501e-05
196	0x3d804196	0.062625095
197	0xbd7b1b25	-0.061305184
198	0x3ce51ab9	0.027966844
199	0xbd056881	-0.032570366
200	0x3caf3c89	0.02139117
201	0xbaec796f	-0.0018041561
202	0xbc9bbec0	-0.019011855
203	0xbcc88b4a	-0.02448048
204	0x3d2eb0b9	0.042649005
205	0x3bc8f055	0.0061321654
206	0x3d49bf05	0.049254436
207	0x3d261c97	0.04055461
208	0x3ca41dc2	0.02003372
209	0x3c28e519	0.010308527
210	0xbc399842	-0.011327805
211	0x3c20397f	0.009779333
212	0xbd911b7c	-0.0708532
213	0x3ce04f74	0.027381636
214	0xbbc9bdfb	-0.0061566806
215	0x3d713d62	0.05889643
216	0x3ca13238	0.019677266
217	0xbcc08c50	-0.023504406
218	0x3b93d498	0.004511427
219	0x3c1dd623	0.009633574
220	0x3d9d0fac	0.07669005
221	0x3c42a15a	0.0118792895
222	0x3d542c72	0.0518002
223	0x3daeb1f9	0.08530039
224	0xbd88238b	-0.06647404
225	0x3d2069d4	0.039163426
226	0xbc2c8210	-0.010529056
227	0xbc66ec27	-0.014094389
228	0xbda688c0	-0.08131552
229	0x3c386b76	0.011256089
230	0x3dbab706	0.0911694
231	0xbcc7bda7	-0.024382425
232	0x3d301c63	0.04299582
233	0x3c8a9123	0.01691491
234	0x3d837e2d	0.064205505
235	0xbaa680af	-0.0012703146
236	0xbbf8e313	-0.0075954287
237	0xbca9fd95	-0.0207508
238	0xb9ad6618	-0.00033073197
239	0xbc8b169a	-0.01697855
240	0xbcef37af	-0.029201357
241	0x3cfa48fd	0.030552382
242	0xbbf05632	-0.007334494
243	0x3c94ef83	0.018180614
244	0x3ddc4eda	0.10757227
245	0x3c885a20	0.016644537
246	0xbcb287d8	-0.021793291
247	0x3d75b905	0.0599909
248	0xbd723082	-0.059128292
249	0x3d138e3b	0.036024313
250	0x3d3023ef	0.04300302
251	0xbd6ad0d2	-0.057328053
252	0x3ceb0c1c	0.028692298
253	0xba33e306	-0.0006862137
254	0x3dd5a42c	0.10431704
255	0xbcaa383b	-0.020778766

model.model.decoder.layers.0.msr.WV f4 [1, 32, 32]
0	0xbdc7bc3b	-0.09752699
1	0x3d93926f	0.07205664
2	0xbd7f33bd	-0.0623052
3	0xbce105b7	-0.027468545
4	0x3bb18788	0.005417768
5	0x3dbfce91	0.09365571
6	0xbb845d84	-0.0040394682
7	0xbcfff0b1	-0.0312427
8	0x3dcc4a94	0.09975162
9	0x3d494222	0.049135335
10	0x3d973c6e	0.07384573
11	0x3d369713	0.04457767
12	0xbcea97a6	-0.028636765
13	0xba5f9685	-0.0008529204
14	0x3d4c29f7	0.04984471
15	0xbc7e9b4a	-0.0155399535
16	0xbd7676bd	-0.06017183
17	0xbce1f373	-0.027581906
18	0xbd40dcd0	-0.047085583
19	0x3c2d6528	0.0105832
20	0x3cae7bd4	0.02129928
21	0xbceb4fe8	-0.028724626
22	0xbd298e23	-0.041395318
23	0xbc801f31	-0.015639873
24	0xbd1aa51f	-0.037755128
25	0x3c40229f	0.011727004
26	0xbd2e26c2	-0.04251743
27	0xbd8fdac6	-0.070241496
28	0x3d9830f4	0.07431212
29	0xbd71e1d1	-0.059053246
30	0xbd9028c0	-0.070390224
31	0xbcb11d78	-0.021620497
32	0xbd094686	-0.033514522
33	0x3d61cb53	0.055125546
34	0xbb933930	-0.0044929013
35	0x3cbed51b	0.023294976
36	0x3d69b162	0.05705393
37	0xbc30a089	-0.010780462
38	0xbda5aa6a	-0.080891445
39	0x3d02caa0	0.03193152
40	0x3c970925	0.018436978
41	0x3d5df71b	0.054190736
42	0xbd424830	-0.047432125
43	0xbd84bcf6	-0.06481354
44	0xbda3eafb	-0.08003803
45	0x3d72aeea	0.059248842
46	0x3cb9c45b	0.022676637
47	0x3cc428bb	0.023945203
48	0xbdb91464	-0.09037092
49	0xbd5a431c	-0.053286657
50	0xbd332cf4	-0.043744043
51	0xbb4f6294	-0.003164445
52	0x3cc4fc5e	0.02404612
53	0xbd2d0028	-0.042236477
54	0xbc1edb8a	-0.009695897
55	0x3d168401	0.036746982
56	0x3d4bd9a3	0.0497681
57	0xbbb7a3b2	-0.005604231
58	0xbd281765	-0.041037936
59	0xbd1fa84f	-0.03897887
60	0xbd45250f	-0.048131045
61	0x3bbdbbe4	0.0057902206
62	0xbd561bb4	-0.052272514
63	0x3ca5ce84	0.020240076
64	0x3d0272f5	0.031847913
65	0x3ca94a7b	0.020665398
66	0x3d22eef5	0.03977867
67	0x3d33563b	0.043783408
68	0x3c0f605a	0.008750999
69	0x3c1b42b8	0.009476356
70	0xbd192ea9	-0.037398014
71	0xbd1d1afe	-0.03835582
72	0xbda52cef	-0.08065211
73	0xb9bdda56	-0.00036211562
74	0x3d1a60e6	0.037690066
75	0xbd5ce1aa	-0.053926148
76	0x3bdef0f6	0.006803627
77	0x3c308de3	0.010776016
78	0x3cae9002	0.021308903
79	0xbcf298a4	-0.0296138
80	0xbb43d73a	-0.0029882924
81	0xbbe8ddbf	-0.0071065123
82	0x3cf8af71	0.030357094
83	0x3bf955a6	0.007609087
84	0x3cce56a6	0.025187802
85	0x3d2b1917	0.041771974
86	0x3d8f030b	0.06983002
87	0xbd630cb7	-0.055432048
88	0xbc0ace08	-0.008471973
89	0xbb4d2b25	-0.0031306234
90	0xbcba2f14	-0.022727527
91	0x3aee2b88	0.0018170932
92	0xbc6d2217	-0.01447346
93	0x3c8aebbf	0.016958116
94	0xbd7a16c5	-0.06105687
95	0xbd6bcc88	-0.057568103
96	0xbc1a7036	-0.009426167
97	0xbd193009	-0.037399326
98	0xbd6bc888	-0.05756429
99	0xbd7ea555	-0.06216939
100	0xbd0500bd	-0.032471407
101	0x3d109c6f	0.035305437
102	0xbac09d95	-0.0014695401
103	0xbd4b71ef	-0.049669202
104	0x3ce6d914	0.028179683
105	0x3c6a6f60	0.01430878
106	0xbc52f4c0	-0.012875736
107	0x3d598ce3	0.053112876
108	0x3c9b7b2b	0.01897963
109	0xbbf59712	-0.0074948156
110	0xbd0be9ce	-0.03415852
111	0x3ce9a6f7	0.028521998
112	0x3d0982a9	0.033571873
113	0xbd4f71bf	-0.050645586
114	0x3d28d422	0.04121793
115	0x3d7f152a	0.062276043
116	0xb7ee3e2a	-2.8400758e-05
117	0xbd6d279f	-0.057899114
118	0x3cc64933	0.024204826
119	0x3d4807dc	0.04883562
120	0x3d931796	0.07182233
121	0xbc890554	-0.016726173
122	0x3cebbb30	0.028775781
123	0xbd1d5593	-0.038411688
124	0xbae0a481	-0.001713887
125	0xbde1e5c7	-0.11030155
126	0x3c919068	0.017769054
127	0xbd687a05	-0.056756992
128	0x3d360546	0.044438623
129	0xbcaab28c	-0.02083709
130	0xbceb41ca	-0.028717894
131	0xbcdb6d71	-0.026785584
132	0x3c142d54	0.00904401
133	0xbd6cba8f	-0.057795104
134	0x3d771724	0.060324803
135	0xbc007a9a	-0.0078417305
136	0xbce06479	-0.02739166
137	0xbda1df66	-0.07903938
138	0x3ab7d9be	0.0014026684
139	0xbc96d75b	-0.018413236
140	0x3d8e2e5a	0.069424346
141	0xbce48c18	-0.027898833
142	0x39a12bb8	0.00030740886
143	0x3c67ded2	0.014152246
144	0x3c4637d9	0.012098276
145	0xbdc4957a	-0.09598823
146	0xbc14a37f	-0.009072184
147	0x3c79fab3	0.015257525
148	0x3d1e0dbd	0.03858732
149	0xbd0d1c07	-0.034450557
150	0x3da6345e	0.08115457
151	0x3d84575c	0.06461975
152	0xbd819b95	-0.06328503
153	0xbc6e7599	-0.014554405
154	0xbd4ac9e8	-0.04950896
155	0xbd35b9c5	-0.044366617
156	0x3cd19bb5	0.025586942
157	0xbce8a168	-0.028397277
158	0xbcba546c	-0.022745334
159	0xbcaa85ff	-0.020815847
160	0x3d0f2c20	0.03495419
161	0x3c6891a0	0.014194876
162	0x3d9a6ca1	0.075402506
163	0x3db7ccf5	0.08974639
164	0xb9e68146	-0.00043965335
165	0x3d5309c4	0.051522985
166	0x3d3916f0	0.04518789
167	0xbd3953dc	-0.04524599
168	0x3da94087	0.08264261
169	0x3db12a52	0.0865065
170	0xbb50fca8	-0.0031888876
171	0xbd49779d	-0.049186338
172	0x3d9622fa	0.0733089
173	0x3da0aa8c	0.07845029
174	0x3d7b7b84	0.06139709
175	0xbc0d1690	-0.008611336
176	0xbcca4819	-0.024692582
177	0xbd7d5b34	-0.061854556
178	0xbcba75b5	-0.022761205
179	0x3d73231c	0.059359655
180	0xbd0a4cbc	-0.033764586
181	0xbc7473c9	-0.014920183
182	0x3d12d99e	0.035852067
183	0xbdc81b11	-0.097707875
184	0x3cf1ffea	0.029540975
185	0x3cf27e14	0.029601134
186	0xbdff3ad0	-0.124623895
187	0x3cbfd95a	0.023419071
188	0x3c0bb162	0.008526178
189	0xbc65d657	-0.014028153
190	0x3d5ede8b	0.054411452
191	0x3c4df660	0.012570947
192	0xbd286761	-0.041114215
193	0x3ca2efd8	0.019889757
194	0x3d5122bd	0.05105852
195	0x3cd6264b	0.026141306
196	0xbd7e71f4	-0.062120393
197	0x3cf73d7f	0.03018069
198	0x3c1d71b4	0.0096096285
199	0xbc68d0ce	-0.014209939
200	0x3da406c1	0.08009101
201	0x3bb9c547	0.0056692692
202	0x3da262dc	0.07929012
203	0x3c9ed9c7	0.019390954
204	0x3cfc7fa0	0.030822575
205	0x3d6bec81	0.057598595
206	0xbcf2860c	-0.029604934
207	0x3df9f929	0.12205727
208	0x3d03ce27	0.032179024
209	0xbc8f8897	-0.017521186
210	0xbc973614	-0.018458404
211	0xbd5c78cb	-0.053826135
212	0xbd170e66	-0.036878966
213	0x3b9d8dbf	0.004808157
214	0xbd0445f8	-0.03229329
215	0xbd8c85a8	-0.068614304
216	0xbd53848a	-0.05164007
217	0x3d046726	0.032324933
218	0xbd0b28d8	-0.0339745
219	0xbc707f0f	-0.014678731
220	0x3dc8675d	0.0978534
221	0xbc362f44	-0.011119667
222	0xbd214c46	-0.03937938
223	0xbd683c46	-0.056698106
224	0x3d1fdf93	0.039031576
225	0xbc988055	-0.018615881
226	0xbd0af5c9	-0.033925805
227	0xbd0bcf2f	-0.034133133
228	0x3cfed214	0.031106032
229	0x3cfd9429	0.030954437
230	0xbd431a07	-0.047632243
231	0x3ccceb12	0.025014434
232	0xbd77f44f	-0.060535725
233	0xbd5b655b	-0.053563457
234	0xbcd6666e	-0.02617189
235	0x3cc09de2	0.023512784
236	0x3d54bb82	0.051936634
237	0x3d24735b	0.040149074
238	0x3d8b66bf	0.06806707
239	0x3badbd99	0.005302143
240	0xbcffe219	-0.031235741
241	0xbcaea5fc	-0.021319382
242	0x3ccaeb33	0.024770355
243	0xbcb74f7a	-0.022376765
244	0xbd845a3e	-0.06462525
245	0xba3826b4	-0.000702481
246	0x3d92a6d0	0.07160723
247	0x3d09c0fe	0.033631317
248	0xbd12cc38	-0.03583929
249	0xbcb2b10b	-0.021812936
250	0x3dc3a7c7	0.09553485
251	0x3c791c0f	0.015204444
252	0x3c8426b7	0.016131742
253	0x3c1753cb	0.009236286
254	0x39d5ee61	0.00040804132
255	0x3d110498	0.03540477

model.model.decoder.layers.0.msr.WO f4 [32, 32]
0	0xbe82f799	-0.25579527
1	0x3e06cc85	0.13163956
2	0x3e840084	0.25781643
3	0x3ec791b3	0.38978347
4	0xbdf5440f	-0.11975872
5	0xbe136309	-0.14393248
6	0x3d93d6b2	0.07218684
7	0x3dc4ef16	0.096159145
8	0xbe0e9139	-0.13922586
9	0xbe0a2567	-0.1349083
10	0x3dc3ee8c	0.095669836
11	0x3d0bd277	0.03413626
12	0x3e0dcd4a	0.13847843
13	0x3cb66231	0.022263618
14	0x3d8f247c	0.06989381
15	0xbe430473	-0.19044666
16	0x3dc3a30d	0.09552584
17	0xbe259278	-0.16169155
18	0x3d8b1c45	0.06792501
19	0x3b307bdf	0.0026929302
20	0x3d1c7f78	0.0382075
21	0x3cdb1c8d	0.026747013
22	0x3de645e5	0.112438
23	0x3e456088	0.19275105
24	0xbe140973	-0.1445673
25	0x3b8e17cd	0.0043363334
26	0x3dfc6e4f	0.12325727
27	0xbe8c7709	-0.27434567
28	0x3c85ec88	0.016348138
29	0x3da332e9	0.07968695
30	0xbcad65d9	-0.021166729
31	0x3d1524f5	0.036412198
32	0xbe89d831	-0.26922753
33	0xbe503a7b	-0.20334809
34	0xbd59138d	-0.05299716
35	0xbe0950cc	-0.13409728
36	0xbd25ed02	-0.04050923
37	0xbe058b4d	-0.1304142
38	0x3d2366ef	0.039893087
39	0x3d9275a0	0.071513414
40	0x3dc76050	0.09735167
41	0x3cd90fb5	0.026496748
42	0xbdc5f9db	-0.09666797
43	0xbe24d266	-0.16095886
44	0x3e1b9ca3	0.15196471
45	0xbe34eb4e	-0.17667887
46	0xbecc04ea	-0.398475
47	0xbe2e1bd2	-0.170028
48	0xbd5d19f2	-0.05397982
49	0x3c9e3558	0.019312546
50	0x3dfbd14f	0.12295782
51	0xbe323678	-0.1740359
52	0xbd52971a	-0.051413633
53	0xbdc53989	-0.096301146
54	0x3d481978	0.048852414
55	0x3dfb2d00	0.122644424
56	0x3c3e4482	0.011613013
57	0xbd726f7f	-0.059188362
58	0xbe0faf22	-0.14031652
59	0xbd10fe5b	-0.035398822
60	0x3e239c29	0.15977539
61	0x3b30a619	0.002695447
62	0xbe132d4d	-0.1437275
63	0x3e91a355	0.28444925
64	0xbe8c61fd	-0.2741851
65	0xbd284496	-0.041081034
66	0xbe103d72	-0.1408594
67	0x3e78b640	0.24288273
68	0x3d613709	0.054984126
69	0xbd5041aa	-0.050843872
70	0x3db07693	0.08616366
71	0x3a87e5f2	0.0010368212
72	0xbe8f6fb4	-0.2801491
73	0x3e42f7ff	0.19039916
74	0x3e15c827	0.14627133
75	0x3e014459	0.12623729
76	0xbd02654f	-0.031834897
77	0x3de8c03b	0.1136479
78	0x3e942d7b	0.2894095
79	0xbd841aed	-0.06450448
80	0x3ddea811	0.108719
81	0x3e7dbf43	0.24779992
82	0x3d2679b7	0.04064342
83	0xbd8f0b49	-0.06984574
84	0x3e2c91a3	0.16852431
85	0xbe2f19eb	-0.1709973
86	0xbe7ffa78	-0.2499789
87	0xbd71aefe	-0.059004776
88	0xbdff85b4	-0.12476674
89	0xbd5ee71d	-0.054419626
90	0xbe211423	-0.15730338
91	0x3db1f305	0.086889304
92	0x3d3a23ab	0.045444172
93	0x3d3248e1	0.043526534
94	0x3d3cc85f	0.046089526
95	0xbe106249	-0.14099993
96	0x3dca3a03	0.09874346
97	0x3d56b8a9	0.0524222
98	0xbe4cc298	-0.19996107
99	0x3e49b351	0.1969731
100	0x3eea287d	0.45734015
101	0xbe4ba96c	-0.19888848
102	0xbdb60dd8	-0.08889359
103	0x3e5f4fba	0.21807757
104	0x3e399fde	0.1812739
105	0xbc8ae2ed	-0.01695391
106	0x3e63da00	0.22251129
107	0xbd6345ca	-0.055486478
108	0xbe320c9e	-0.17387626
109	0x3d443c0f	0.04790884
110	0x3c51f7e4	0.012815449
111	0xbe099a32	-0.13437727
112	0xbdb7b434	-0.08969918
113	0xbd57fa41	-0.052728895
114	0xbe6afbe9	-0.22947659
115	0x3d81506f	0.063141696
116	0xbe61d029	-0.22052063
117	0x3e0ae4c6	0.13563833
118	0x3e02a34f	0.1275761
119	0xbe885725	-0.26628986
120	0xbdbb734b	-0.0915285
121	0xbd0ae402	-0.03390885
122	0xbda60465	-0.08106307
123	0x3e50ee75	0.20403464
124	0x3e7304bf	0.23732279
125	0xbd44b06f	-0.048019823
126	0x3e10a403	0.14125066
127	0x3e08911a	0.13336602
128	0x3e800e76	0.25011033
129	0x3d1952e2	0.03743256
130	0xbd8a68fb	-0.06758305
131	0xbde84dc9	-0.11342961
132	0xbcfca4f3	-0.030840373
133	0x3e342ff6	0.1759642
134	0xbd35e006	-0.0444031
135	0xbd17afbd	-0.03703283
136	0x3e56bd50	0.20970654
137	0xbdce8d90	-0.10085595
138	0xbdc14672	-0.094372645
139	0xbe5a9465	-0.2134567
140	0xbc900f77	-0.0175855
141	0xbcd7b00b	-0.026329061
142	0x3d376c24	0.044780865
143	0x3e3f4c06	0.18681344
144	0x3e2a50ff	0.1663246
145	0x3df3daef	0.11906993
146	0x3e44fad1	0.19236304
147	0xbdedce4e	-0.11611615
148	0xbeb8715a	-0.3602398
149	0x3c3e4f98	0.011615656
150	0x3db0bee2	0.08630158
151	0x3d12718a	0.03575281
152	0x3eb2afda	0.3489979
153	0x3d163a48	0.036676675
154	0xbeba1e7e	-0.3635139
155	0x3eb5ac0f	0.35482833
156	0xbe5b1a99	-0.21396865
157	0xbe33e9cb	-0.17569654
158	0x3e074416	0.13209566
159	0xbe051870	-0.12997603
160	0x3de05063	0.109528325
161	0xbe161257	-0.14655434
162	0x3dd77797	0.10520857
163	0x3e9660ba	0.29370672
164	0x3e2d1e77	0.16906153
165	0xbd28cc33	-0.041210365
166	0xbdc15f2a	-0.09441979
167	0xbdaf5fa0	-0.08563161
168	0x3eec280b	0.461243
169	0x3e577b88	0.21043217
170	0x3e238c18	0.1597141
171	0xbe8c7d66	-0.2743942
172	0xbd76c65c	-0.060247764
173	0x3e7fba02	0.249733
174	0xbe007b80	-0.12547112
175	0xbcd85e9f	-0.026412306
176	0xbdce214a	-0.10064943
177	0x3e18e82e	0.1493232
178	0x3da605c6	0.0810657
179	0x3daa95b4	0.08329335
180	0x3f131380	0.5745163
181	0xbe2899c7	-0.16464911
182	0x3e030e53	0.12798433
183	0xbe73e448	-0.23817551
184	0x3e439dfe	0.19103238
185	0x3e970215	0.29493776
186	0xbecbb70a	-0.39788085
187	0xbee43a91	-0.44575933
188	0x3db16599	0.08661956
189	0x3e599562	0.21248391
190	0xbdf51256	-0.11966388
191	0xbd05f2d5	-0.032702286
192	0xbe3f0980	-0.18655968
193	0x3e300d9c	0.17192692
194	0xbd68b335	-0.05681153
195	0xbd2110e4	-0.03932275
196	0xbe38baa4	-0.18039948
197	0x3d959d50	0.073053956
198	0x3dd47511	0.10373891
199	0x3d55c1e8	0.052186877
200	0xbee527ea	-0.44757015
201	0x3e0cabb9	0.13737382
202	0x3e738d64	0.23784405
203	0x3d276c2c	0.040874645
204	0x3d6fe2a5	0.058565754
205	0x3d66ec20	0.05637753
206	0xbd7bd666	-0.061483763
207	0x3ee463d4	0.44607413
208	0xbe565f36	-0.20934758
209	0x3cdb2887	0.026752723
210	0xbebde880	-0.37091446
211	0x3dca3b23	0.09874561
212	0x3be217a2	0.00689979
213	0x3c09456f	0.008378371
214	0x3dc5e6ea	0.09663184
215	0x3e84b285	0.2591745
216	0x3e3df1dc	0.18549293
217	0x3e7b83c2	0.2456198
218	0xbe27f4a0	-0.16401911
219	0x3eb2aa49	0.34895542
220	0xbe7d84ba	-0.24757662
221	0xbdceb41d	-0.10092948
222	0xbe0a13ef	-0.13484167
223	0x3d8c3d04	0.06847575
224	0xbeb92698	-0.36162257
225	0xbcc8512f	-0.024452774
226	0x3e1c7544	0.15279108
227	0x3e21714b	0.15765874
228	0xbe3ae82a	-0.18252626
229	0x3e294ee9	0.16534008
230	0xbe0e1007	-0.13873301
231	0x3c0e71b0	0.008694097
232	0x3df3e39a	0.11908646
233	0xbdfd86e5	-0.12379245
234	0xbdd3b00f	-0.10336315
235	0xbd25ec8c	-0.04050879
236	0xbedb5ee6	-0.4284584
237	0xbcffdf60	-0.031234443
238	0xbd01257e	-0.031529896
239	0x3dfca090	0.12335312
240	0x3d8e6cf8	0.06954378
241	0x3d6653c3	0.056232225
242	0x3d5b67fd	0.053565968
243	0x3e16344e	0.1466839
244	0xbd8a286e	-0.067459926
245	0x3e5f8a2c	0.21830052
246	0x3e2e761b	0.17037241
247	0xbd535878	-0.051598042
248	0x3eb3a161	0.3508406
249	0xb9d57365	-0.00040712502
250	0xbc129b35	-0.008948137
251	0xbed7542a	-0.420564
252	0xbdd1506c	-0.102204174
253	0xbc60b9f4	-0.01371621
254	0x3e98ebdd	0.2986745
255	0x3e738df4	0.2378462

model.model.decoder.layers.0.msr.WG f4 [32, 32]
0	0x3aa16a4e	0.0012315006
1	0x3e19555b	0.14973967
2	0xbdbd19c8	-0.09233433
3	0x3e7f43c3	0.24928193
4	0xbe5632a6	-0.20917758
5	0xbcbc498e	-0.022984292
6	0xbec97179	-0.39344385
7	0xbc5ddebd	-0.0135418745
8	0xbd56bf33	-0.052428436
9	0xbe550664	-0.20803219
10	0xbe57c47e	-0.2107105
11	0x3d0756e2	0.033041842
12	0xbdc244ce	-0.0948578
13	0xbac5136a	-0.0015035693
14	0xbdf762bc	-0.12079379
15	0x3c143ad7	0.009047232
16	0x3eafb9d4	0.34321463
17	0xbe285c41	-0.16441442
18	0x3d891261	0.066929586
19	0xbe10c680	-0.14138222
20	0xbdc6ba5e	-0.097035155
21	0x3d2eacda	0.042645313
22	0x3c3d4b4d	0.011553598
23	0x3ddc670f	0.10761844
24	0xbec7ce79	-0.39024714
25	0xbd8b87cd	-0.06813011
26	0xbe3f24f1	-0.18666436
27	0x3dded2b4	0.10880032
28	0xbec19929	-0.37812164
29	0xbdfa8f91	-0.12234414
30	0xbe43ee3d	-0.1913385
31	0x3e4eeccd	0.2020752
32	0xbdfbd019	-0.12295551
33	0xbd19f84b	-0.037590306
34	0x3db3232c	0.08746943
35	0x3e6e5389	0.23274054
36	0x3e953f0d	0.29149666
37	0x3dccbc2f	0.09996831
38	0xbe832950	-0.25617456
39	0xbdedb91c	-0.116075724
40	0x3cd655c8	0.02616395
41	0x3e54dd30	0.20787501
42	0xbe2b4124	-0.16724068
43	0x3e26c066	0.16284332
44	0xbd6a7dd1	-0.057248894
45	0x3e8dff64	0.2773391
46	0x3ec3984b	0.38202128
47	0xbdb0e7e2	-0.08637978
48	0x3e83ee46	0.25767726
49	0x3e12418d	0.14282818
50	0xbecf1063	-0.4044219
51	0x3e4815ef	0.19539617
52	0x3dd27cf0	0.10277736
53	0xbe1a10ac	-0.15045422
54	0xbe1162c1	-0.14197828
55	0xbd11e698	-0.035620302
56	0x3bbf9c6a	0.0058475034
57	0xbafbf904	-0.0019223993
58	0x3e02deed	0.12780352
59	0x3c968489	0.018373745
60	0x3b131958	0.0022445526
61	0x3ddd341a	0.10800953
62	0x3e0a5734	0.13509828
63	0x3ea4f566	0.32218474
64	0x3df858fd	0.12126348
65	0x3e898bb9	0.26864412
66	0xbe23bfaa	-0.15991083
67	0x3e85bebc	0.2612208
68	0xbdabf3e6	-0.08396129
69	0xbd967acd	-0.07347641
70	0x3de321f1	0.11090458
71	0xbe213144	-0.1574145
72	0x3c4c88ad	0.012483758
73	0xbbf49d05	-0.0074650072
74	0xbcaa3d5a	-0.020781208
75	0xbc8ca432	-0.017168138
76	0x3e2a2817	0.16616856
77	0xbd7c0ab4	-0.061533645
78	0x3e7de8e2	0.24795869
79	0xbdbf8814	-0.09352127
80	0xbe8ffa88	-0.28120828
81	0xbb198fe4	-0.0023431713
82	0xbe5c5aac	-0.21518964
83	0x3dac7428	0.084205925
84	0xbebf2221	-0.37330726
85	0x3de313a7	0.11087733
86	0x3d89e8b9	0.067338414
87	0x3e08cfa0	0.13360453
88	0xbc6877df	-0.014188736
89	0xbe11513a	-0.14191142
90	0x3ce5032e	0.027955618
91	0xbdeee806	-0.11665349
92	0x3da9a9ac	0.082843155
93	0xbe447c81	-0.1918812
94	0xbe4e3253	-0.20136385
95	0xbd2bbe0d	-0.041929293
96	0x3e7e0252	0.24805573
97	0x3da7d338	0.08194584
98	0xba6e451b	-0.0009089277
99	0x3e76fe50	0.2412045
100	0x3e52b94d	0.20578499
101	0xbc0753e7	-0.00825975
102	0x3df66c73	0.12032404
103	0xbd98423f	-0.074345104
104	0xbe2fdb16	-0.17173418
105	0x3eb07272	0.34462315
106	0x3bc2281e	0.0059251925
107	0x3d195f9c	0.037444696
108	0xbc043044	-0.008068148
109	0x3e498b84	0.19682127
110	0xbe8e9d93	-0.27854595
111	0xba6b975a	-0.0008987092
112	0xbd83f848	-0.0644384
113	0xbdb3f7c0	-0.08787489
114	0xbd776d4c	-0.060406968
115	0x3d640868	0.05567208
116	0x3d6c0460	0.05762136
117	0xbe1710a6	-0.14752445
118	0x3e9f94e3	0.3116828
119	0xbe3ca115	-0.18420823
120	0x3d0279be	0.031854384
121	0x3ea29463	0.31753835
122	0x3e2cbf2e	0.16869804
123	0x3d4bbc9c	0.04974042
124	0xbddb5c7c	-0.10710999
125	0x3d10d3f0	0.03535837
126	0x3db26926	0.08711462
127	0x3e91e9a9	0.2849858
128	0xbd8e5d63	-0.06951406
129	0xbdbc514a	-0.09195192
130	0x3e69bc17	0.22825657
131	0xbe3a3b3a	-0.18186656
132	0xbd67ca8d	-0.05658965
133	0xbe100f1e	-0.14068267
134	0x3e0ee4fb	0.13954537
135	0xbe08600d	-0.1331789
136	0xbe5eb8a6	-0.21750125
137	0x3dd7751a	0.10520382
138	0xbee940dc	-0.45557296
139	0x3e7defb2	0.24798468
140	0x3dc0c62c	0.09412798
141	0x3dce99ef	0.10087954
142	0x3cac1da3	0.021010226
143	0x3e440a46	0.19144544
144	0x3d04e56d	0.03244536
145	0x3ec1f7c4	0.37884343
146	0x3ee5fca1	0.44919303
147	0x3e9c2baf	0.30502078
148	0xbe52e996	-0.20596918
149	0x3e97d1e9	0.29652336
150	0x3e087940	0.13327503
151	0xbdf9877e	-0.12184046
152	0x3ddbbfed	0.10729966
153	0x3e8034d3	0.25040302
154	0x3d612c92	0.054974146
155	0x3d1b1e5e	0.037870757
156	0x3e472894	0.19449073
157	0xbe1b95e2	-0.15193895
158	0x3da9e216	0.082950756
159	0xbebfb292	-0.37440926
160	0xbc6ae460	-0.014336675
161	0x3c6b2b0c	0.014353525
162	0x3d55481e	0.05207073
163	0xbe27b0dd	-0.16376062
164	0xbd858795	-0.06520001
165	0x3d63dbc3	0.055629503
166	0x3de10792	0.10987772
167	0xbe97ef2c	-0.2967466
168	0x3e43c3fd	0.19117732
169	0xbe616e8b	-0.22014825
170	0xbe141245	-0.14460094
171	0x3cc22e56	0.023703735
172	0x3d945a22	0.07243754
173	0x3df4cbf8	0.119529665
174	0x3dc67357	0.09689968
175	0x3e60c34d	0.21949501
176	0xbe783544	-0.24239069
177	0xbdd11fc9	-0.10211141
178	0x3de3a8df	0.11116194
179	0x3ec450da	0.38342935
180	0xbe50e806	-0.2040101
181	0x3d2d8767	0.042365458
182	0xbd8bd76e	-0.06828199
183	0xbe3f651c	-0.18690914
184	0x3dfb86f6	0.12281601
185	0xbd8e1ab9	-0.06938691
186	0x3cdc4043	0.026886111
187	0x3e8949be	0.26814073
188	0xbdca8b4e	-0.098898515
189	0x3e8e1f0b	0.2775806
190	0x3ad2698e	0.0016053186
191	0xbdb400f8	-0.08789247
192	0x3e88747c	0.2665137
193	0x3d9f99e9	0.07793028
194	0x3cf8e363	0.030381864
195	0xbe5a9ab4	-0.21348077
196	0xbe08d1f6	-0.13361344
197	0x3c295bb4	0.010336805
198	0xbeaf405f	-0.342288
199	0xbe3e2340	-0.18568134
200	0x3e104772	0.14089754
201	0x3dd22f63	0.102629445
202	0x3cefc16e	0.02926704
203	0x3d1d8244	0.03845431
204	0x3dfee0bb	0.12445208
205	0xbe1619a9	-0.14658226
206	0xbe85e710	-0.2615285
207	0x3e310b4a	0.17289463
208	0xbe204871	-0.15652634
209	0x3dc27e21	0.094967134
210	0xbdf6427b	-0.12024399
211	0x3e018a93	0.12650518
212	0xbe7b0da0	-0.24516916
213	0x3c96b294	0.0183957
214	0xbe1239ee	-0.14279911
215	0x3e815e57	0.25267288
216	0x3d0ceb6c	0.034404203
217	0xbcbe3561	-0.023218812
218	0xbd06c5e2	-0.03290356
219	0xbe92a7dc	-0.28643692
220	0x3e7979fa	0.24362937
221	0x3e854ff9	0.26037577
222	0xbacb89e3	-0.0015528764
223	0x3e9e689a	0.3093918
224	0xbd2d444b	-0.042301457
225	0x3e7eb471	0.2487352
226	0xbd795d6a	-0.060880102
227	0x3e0fa3e0	0.14027357
228	0x3de17cf9	0.11010165
229	0x3d7b9cf0	0.061428964
230	0xbd751e95	-0.05984362
231	0xbe7c4f7c	-0.24639696
232	0xbd112eb8	-0.035444945
233	0x3d858140	0.06518793
234	0xbdd02a29	-0.101642914
235	0xbe367e45	-0.17821606
236	0x3e5634d0	0.20918584
237	0x3dea20fe	0.11432074
238	0xbe3fa150	-0.1871388
239	0xbe0ec05f	-0.13940571
240	0x3dd4e394	0.103949696
241	0x3c116831	0.008874939
242	0x3eba42bd	0.36379042
243	0xbde520cf	-0.11187898
244	0x3c996284	0.018723734
245	0x3d93cf45	0.07217268
246	0xbd53c85e	-0.051704757
247	0xbdad9bba	-0.08476968
248	0xbe6efd38	-0.23338783
249	0xbd87f6c7	-0.06638866
250	0xbe1d4188	-0.1535703
251	0xbd0ba6d1	-0.034094635
252	0xbd8a41c2	-0.067508236
253	0x3af7874e	0.0018884928
254	0x3ed408cd	0.41412964
255	0xbedc46c2	-0.43022734
