lightning_logs/version_52/checkpoints/epoch=4-step=125.ckpt (torch, 181901 bytes, 50 tensors)

model.model.pos f4 [12, 32]
00000000: 30a9 94bd 96fa b3be 1805 613e b76d 653e
00000010: 20a4 d03d 64f2 bf3b 43c9 8cbe aa5c 9d3e
00000020: 836e b83d 1600 35be e821 4ebe be1c 0bbe
00000030: e10d 473e c79a 49be b84a 4fbe e7d7 84bd
00000040: 634e 7c3e dd11 f33a 0a80 a8be 42dc 803e
00000050: 8bce c03c bfcd 59be aa79 433e 8f0c 62be
00000060: 2eec e1bd 27eb 93bd a341 b3be f316 b53e
00000070: 4558 63be 56fa 403e 47a4 2bbe eeed 4cbe
00000080: c827 093e 3fad 233e cee5 abbe 0dd2 153e
00000090: c1a6 493d 0529 a03d 8786 133d 3bf4 51bd
000000a0: 04dc 433e b164 a43d c4e3 41be f663 39bd
000000b0: cdfb a13c 3c84 853d fcbb efbd 73e9 96be
000000c0: 465c 673e e0eb a9bd 0454 07bd e021 08be
000000d0: 5263 0f3e f446 a5bd ceef 5b3e 4fb4 9dbe
000000e0: f395 8d3e 2612 b43e e0d0 95be 5ce5 9c3e
000000f0: 773d 893d 3d1a 79be a842 083e 1e97 b93e
00000100: b003 7a3e 2d52 0dbe 63ac 97be 08ca cd3d
00000110: 6963 aabe 94fe 2abe 6b68 79be a783 e93d
00000120: 0821 8cbe 8d86 1abe 1d28 123e b4ae 05bd
00000130: c7ff 5fbe aa4b a1be 1a05 d33c 135c a13e
00000140: d8e7 ffbd 79c7 9b3c b1db e3bd ac92 a13d
00000150: 9df5 c2bd 5620 aabe 55d2 373e ae25 b3be
00000160: e91d b9be e1d9 86be 60dd 2bbd 20cc 7f3e
00000170: f0bc 07bd 6c9f 053c 7338 53be 4e48 b43e
00000180: 1d8a a8bd 75d4 a23e d01e 6fbe 8eba 813b
00000190: a217 afbe 4120 8a3e 0b60 17be eeef a3bc
000001a0: af25 443e d611 ccbd 608e acbd 9e2d b83e
000001b0: 2be9 92be d3d2 f2bd e1dd 0dbe 5495 81bd
000001c0: 87d0 8cbe 201b b13e 493a 71be d311 b8bc
000001d0: 0f79 963e c24f 9a3e 3810 9dbe 778e 803e
000001e0: aa01 4abe ea92 bebd 7aff 943e 9925 32be
000001f0: daa3 533e 5bdd a03e e153 a73e 4d4b debd
00000200: eb43 97bc 71f5 a23d 0c8d 3bbc c0a4 383e
00000210: 8994 64bd f3d3 7e3e b476 16be f98c 733e
00000220: 7b08 0cbe ed8c 91be a52a 183e 0d22 36be
00000230: dcda 593e e81a 8fbe 8021 cdbd dce4 84be
00000240: 1199 6f3e 2bcf 5dbe 9879 87be 58c8 f63d
00000250: dd0f 8c3e 2320 3c3d de55 923e 4dd2 aabe
00000260: a885 873a e811 983e 9082 503e 20b6 9bbd
00000270: 32e5 2a3e 8f76 12be 75ef 25be 4145 883e
00000280: 41ce a1be 1525 b93d 2eb0 2ebe f2f6 96be
00000290: 8844 783d f586 99bd 8f4c a53d ca4f 4fbd
000002a0: 976b aa3d 26e5 41bc b337 783e a874 b6be
000002b0: 6414 83be 3932 1e3e b83b 893e a7e2 8f3e
000002c0: 837e 673a ce4d 03be 1ff6 b83e 76c8 b2bc
000002d0: a098 a1be 4a4b 94be fc23 40be 2be4 263e
000002e0: 39ed 2e3e 1546 61be 29d4 8b3e 3ccd 553e
000002f0: 2559 97be 51c4 6a3e c0ec 283e f530 e03d
00000300: f389 bcbe 7cce 723e 067f 913e 9653 e2bd
00000310: fcee b3bc 2d50 ad3e d853 203e 1f22 98bd
00000320: 7ff9 5c3e 3e5d cd3d 2f00 9abe 4713 a3be
00000330: e248 7e3c 5a5b 0fbe 16a5 14be e2ee 91be
00000340: bc41 94bd b401 113e 04c3 11bd 83da ba3d
00000350: ac28 a13e 4849 133d c9aa 9fbd 465c 91be
00000360: ed63 1c3d 94ab 69be 94aa 57be e634 9a3e
00000370: d17f 3cbd 57fc babe 747b 3d3e c17f 9b3e
00000380: cf08 0b3e bf4c b4be f975 0dbe 3d32 473d
00000390: f6cc 7abd 08d6 8bbd fc14 17bd 5596 93be
000003a0: 8105 733e 0841 78be d9ca 213d f2a5 5abe
000003b0: 4d00 43be 1df9 b93d ef38 893e 1682 eabd
000003c0: af39 a03e c963 62be dc77 fcbd ba30 983e
000003d0: eabc b23e 9e34 a5be 2cfa afbe aee1 97be
000003e0: b1e3 e9bd 402a 9a3e 0e24 4d3d 098c 84be
000003f0: c275 f4bb 7d4f 36be f51d a53b 5142 6ebd
-0.072588325 -0.3515212 0.219746 0.22405134 0.10187554 0.0058577526 -0.274973 0.3073476
0.090054534 -0.17675814 -0.20130122 -0.13585183 0.19438888 -0.19687949 -0.20243347 -0.064864926
0.24639277 0.0018544752 -0.32910186 0.25168043 0.023535987 -0.21269892 0.1908938 -0.22075103
-0.11031376 -0.07222586 -0.35011014 0.3536907 -0.22201641 0.18845496 -0.16761886 -0.20012638
0.13394082 0.15984057 -0.33573765 0.1463091 0.049231295 0.07820324 0.036016967 -0.051258307
0.19126898 0.08027018 -0.18934542 -0.045261346 0.019773388 0.06519362 -0.11705777 -0.29474983
0.22593793 -0.08296943 -0.033039108 -0.13294172 0.14002731 -0.08070174 0.21478197 -0.30801627
0.27653465 0.35170096 -0.2926092 0.30643737 0.067011766 -0.24326415 0.13306677 0.36248106
0.24415469 -0.13800879 -0.29623708 0.100483 -0.3327897 -0.16698676 -0.24356239 0.11402064
-0.2736895 -0.1509039 0.14273115 -0.032637313 -0.21874915 -0.3150304 0.025759269 0.3151556
-0.124953926 0.019016014 -0.11125887 0.078893036 -0.09519503 -0.33227795 0.17951329 -0.34989685
-0.36155632 -0.26338103 -0.041959167 0.24980211 -0.03313917 0.008155685 -0.20627002 0.35211414
-0.08229468 0.31802717 -0.23351598 0.0039590066 -0.34197718 0.26977733 -0.14782731 -0.020011868
0.19155 -0.099643394 -0.084255934 0.35972303 -0.28693518 -0.11856618 -0.13854171 -0.0632731
-0.27502844 0.34591007 -0.2355739 -0.022469437 0.29389235 0.30138975 -0.30676436 0.25108692
-0.19727197 -0.093053654 0.29101163 -0.17397155 0.20667973 0.3141888 0.32681182 -0.10854206
-0.018465003 0.079569705 -0.011447202 0.18031597 -0.055805717 0.2488554 -0.14693719 0.23784246
-0.1367511 -0.2842783 0.14860018 -0.17786427 0.21274894 -0.27950215 -0.10016155 -0.25955856
0.23398234 -0.2166106 -0.26459956 0.12049931 0.27355853 0.045929085 0.28581136 -0.33363572
0.0010339515 0.2970116 0.20362306 -0.07603097 0.16688994 -0.14303039 -0.16204627 0.26615337
-0.31602672 0.09040276 -0.17059395 -0.2948528 0.06061223 -0.07496444 0.08071243 -0.050613202
0.083213024 -0.011834418 0.24239998 -0.35635877 -0.25601494 0.15448846 0.26803374 0.2810261
0.00088308024 -0.12822649 0.36125275 -0.021824103 -0.31561756 -0.2896369 -0.18763727 0.16297977
0.17082681 -0.2199939 0.27310303 0.20879072 -0.295602 0.22926451 0.16496563 0.10946838
-0.36823997 0.2371158 0.28417224 -0.11051099 -0.021964543 0.33850232 0.15656984 -0.07428383
0.2157955 0.1002755 -0.30078265 -0.31850645 0.015520306 -0.13999692 -0.145161 -0.28502566
-0.072391 0.14160806 -0.035586372 0.09123709 0.31476343 0.03595856 -0.077962466 -0.28390712
0.038181234 -0.22819358 -0.21061164 0.30118483 -0.046020333 -0.36520645 0.18504125 0.30370906
0.13577579 -0.35214803 -0.13814534 0.048631895 -0.061230622 -0.068279326 -0.036885247 -0.28825632
0.23732568 -0.24243557 0.03950009 -0.21352366 -0.19043083 0.09080718 0.2680125 -0.11450593
0.3129401 -0.22108378 -0.12327549 0.29724675 0.34909755 -0.32266706 -0.34370553 -0.29664367
-0.11420382 0.3011036 0.050083213 -0.25888088 -0.007460327 -0.1780376 0.0050389715 -0.058168713

model.model.embed.weight f4 [2, 32]
00000000: 0000 0000 0000 0000 0000 0000 0000 0000
00000010: 0000 0000 0000 0000 0000 0000 0000 0000
00000020: 0000 0000 0000 0000 0000 0000 0000 0000
00000030: 0000 0000 0000 0000 0000 0000 0000 0000
00000040: 0000 0000 0000 0000 0000 0000 0000 0000
00000050: 0000 0000 0000 0000 0000 0000 0000 0000
00000060: 0000 0000 0000 0000 0000 0000 0000 0000
00000070: 0000 0000 0000 0000 0000 0000 0000 0000
00000080: 51ab 32bf b4e3 293f e054 2e3e 4ea1 a4be
00000090: 94b6 f9be 197c 653e 91b3 84be 3b6b 95be
000000a0: 46f7 523e 3738 49bf 33c2 813f 1da8 43bf
000000b0: 4976 193f 7ef0 88be a3fe cb3f 26f4 a23e
000000c0: 474c 93bf d23c 87be f4ab 413f 68f0 2240
000000d0: c71b 16bd 1f39 a23e 3247 4bbe 3241 9a3e
000000e0: a62f 56bf f77a 0abf 89ec 3f3f c743 d5be
000000f0: eeda a63f 7a3c b2bc 2ac8 e9be f8c7 e33f
0.0 0.0 0.0 0.0 0.0 0.0 0.0 0.0
0.0 0.0 0.0 0.0 0.0 0.0 0.0 0.0
0.0 0.0 0.0 0.0 0.0 0.0 0.0 0.0
0.0 0.0 0.0 0.0 0.0 0.0 0.0 0.0
-0.6979266 0.6636307 0.17024565 -0.32154316 -0.4877211 0.22410621 -0.25918248 -0.29183373
0.2060214 -0.786014 1.013739 -0.76428396 0.59946114 -0.2674598 1.5937084 0.31826895
-1.1507653 -0.2641359 0.75653005 2.5459232 -0.036647584 0.31684205 -0.19851378 0.30127865
-0.83666456 -0.5409388 0.749703 -0.41653273 1.3035562 -0.021757353 -0.45660526 1.7795401

model.model.decoder.encoder.layers.0.self_attn.in_proj_weight f4 [96, 32]
00000000: d636 4fbe 9e02 1cbe f316 15bd f4d4 e03d
00000010: 7089 0c3e 13ce fb3d 0546 b0bc a698 60bd
00000020: 75ff 4dbd c570 2f3c 3632 b9bc fa1f 263e
00000030: fb15 3d3e 1331 94bd 57d7 1abe 16d2 253d
00000040: d8d0 4c3e 26da 233e f87e 253e 0427 183e
00000050: 27cd 7eba bcc1 3fbe 523b 20be 3abf 223e
00000060: 17e1 44be 34cc fa3c 0664 383d 902f 843c
00000070: 2d1f e13d 52c9 e83d e11f f63d 4f53 92bd
00000080: 7e2d 513e 7d4f 35be f165 5fbe 8ae2 05bd
00000090: 522d 27bd 2325 ccbd 3ce6 553e a47d fa3d
000000a0: 7560 693d 385d b33d 4f67 f6bd 8161 95bd
000000b0: 82f5 563d 445a ddbc 7f0d c8bd 9a4e 4bbe
000000c0: 08a2 18be 70be 26bd a58c 213e 10c9 0d3e
000000d0: 3ef5 e1bd f5b6 afbd e8e5 5abe 50f1 a03b
000000e0: c89f 2cbe c6d8 07be ab05 f43d 0b49 2abe
000000f0: 2d1e f5bd c7b0 cd3d 8608 943d 90a3 aabd
00000100: 915a 263e 90a3 36bd 9a4a 4c3e 0615 e63d
00000110: ddbe cf3d c80e fcbd f452 12bd ccda 0e3e
00000120: fca7 073e c9b1 bebd 50b1 f9bd ceaa 98bd
00000130: 41bd 463e 9d71 5e3e 6f1f 85bd 7a76 70bd
00000140: 32da 883d c802 1d3e 2ca2 afbd ccfb 4bbe
00000150: d9bf 2b3e 13e9 a33d a6d2 1e3e 0c24 b63d
00000160: d991 b83d ca38 b1bd f55f fc3c 4bde 453e
00000170: 1043 38be 012a 6bbd da7b bebd 6be2 173e
00000180: d988 b9bc 72dc d23c 8985 a83d 928e 51be
00000190: 8015 41be 0d31 983c f6a8 f8bd 7dd4 5fbd
000001a0: ea9f 11be f64e 2ebe 83e4 5cbe dc03 ecbd
000001b0: 4bca 35be 22d1 523d ffe8 053e 9479 11bd
000001c0: c701 ca3c 4e4d b03d 7763 e0bd af69 99bc
000001d0: 5d38 eabd ad93 983d d454 293d 95af 15bd
000001e0: ec17 50be 16c6 88bd 514c 38be 2a34 a23c
000001f0: 8507 793d 7111 003d 145b 50be 06f0 0bbe
00000200: 41cd 623e c2b7 15be 0532 febd 6f1a 2cbe
00000210: b1cf 863d 3c19 1bbe 07a5 23be 1450 1d3e
00000220: 4509 2fbe f546 053d 596d 043d e1a3 153d
00000230: d29e b5bb 3f80 d2bd 8571 cebd 0b54 6b3c
00000240: 4550 26be 55c6 d7bd 64da 44be 3f16 173e
00000250: ad8f 9bbd ea35 aa3d 1b7a 11bd a33a 6b3d
00000260: dd6f 0e3d ae13 1e3e 3177 6dbd f487 183e
00000270: 0e74 4a3e 842b b3bd c13a adbd e04d 97bd
00000280: d724 46be 6ab3 cc3d cbc0 ca3d 3531 4a3e
00000290: 20c0 ebbd 6c73 30be 19d2 473e 54e2 273e
000002a0: 3574 2f3e 7b0f b43d e6a7 96bd 5187 28be
000002b0: 4862 3cbe 5ec4 313e e325 113e d6f5 5c3e
000002c0: 8f77 fb3c ed3d a6bc a156 7a3d 3a5e 0f3e
000002d0: 8aa2 0c3e 4ee2 53be 6d74 59be 1d7c 52be
000002e0: 3d53 ef3d 8e29 e7bb 167e 353e 1979 2b3e
000002f0: bf2f 5b3e 723d 5d3e b85b 1abe d7cd 3b3c
00000300: b5e3 453e ab94 02bd 2756 b53d 927d 28be
00000310: dcd4 3f3e c2ff c63c 10fc dc3c 8de7 21be
00000320: 4e91 3bbd 0539 d4bd 1ba0 21bc 878d 08be
00000330: 22f8 34be 89b0 eb3d bb6d ae3c f667 093e
00000340: 445c d3bd 9696 093e d5d1 7e3d 1ec9 8c3d
00000350: cfe4 3a3e db83 ce3d 9a15 293e 2c8d ffbd
00000360: 0651 1dbe 9bd0 1d3b c804 afbc bab6 31bd
00000370: c11a 37be 96a7 373e 8a8a fdbd 9e9a f3bd
00000380: 7fbc 38be 9364 823c 7a52 4bbc 2f8e ee3d
00000390: edfd 5cbe 571a 0ebd 390a fb3d 5d66 07be
000003a0: d725 12be c3d4 a43c b51c 2cbe bd7d 25bd
000003b0: 8a6d 9f3d b195 6fbd f4e4 b3bd 8a5d 59be
000003c0: b0a7 3d3e 90dc 543d c8da 7bbd 443a a4bd
000003d0: b8cd d93d 9ba7 10bc 505e 00be aea9 d83d
000003e0: 8b31 393e 6134 91bd 5de3 d43d 0cdd 373e
000003f0: bd71 af3c 1fea aabd 1b9a 4bbe 2e36 ce3c
-0.20235762 -0.15235373 -0.03639884 0.109781176 0.13724303 0.12295165 -0.021517763 -0.054833077
-0.05029245 0.010708039 -0.02260695 0.16223136 0.18465416 -0.07235923 -0.15121208 0.040483557
0.20001543 0.16001186 0.16161716 0.14858633 -0.0009719901 -0.18726248 -0.15647629 0.1589326
-0.1922649 0.03061495 0.045017265 0.01613596 0.109922744 0.11366524 0.12017799 -0.07144796
0.2042751 -0.17706104 -0.21816231 -0.032686748 -0.040814705 -0.09968021 0.20888609 0.12230995
0.056976754 0.087580144 -0.12031423 -0.07293988 0.05248023 -0.027020581 -0.09768199 -0.19854203
-0.1490556 -0.04070896 0.15776308 0.1384623 -0.11033104 -0.08579818 -0.21376765 0.004911579
-0.16857827 -0.13266286 0.119151436 -0.16629426 -0.11968646 0.10043483 0.07228188 -0.08331978
0.16245486 -0.04458958 0.19950333 0.11234479 0.10143826 -0.12307507 -0.03572364 0.13950652
0.13247675 -0.093112536 -0.12192023 -0.074544534 0.19408132 0.21723028 -0.06500136 -0.058706738
0.066822425 0.15333092 -0.08575854 -0.19920272 0.16772403 0.0800344 0.15510044 0.08893594
0.09012193 -0.0865341 0.030807475 0.1932308 -0.17994332 -0.057413105 -0.093009666 0.14832465
-0.022648262 0.025739882 0.08228595 -0.20464543 -0.18855858 0.018578077 -0.12141602 -0.054646004
-0.14221159 -0.17022309 -0.21571545 -0.115241736 -0.1775295 0.051468976 0.13077162 -0.035516337
0.02465905 0.08608495 -0.109564714 -0.018727152 -0.11436532 0.07450042 0.041340664 -0.0365444
-0.20321625 -0.06678407 -0.17997862 0.019800264 0.060798187 0.031266633 -0.20347244 -0.1366578
0.2214861 -0.1462088 -0.12411884 -0.16806959 0.06582583 -0.15146345 -0.15980922 0.15362579
-0.1709338 0.032538373 0.032330845 0.03653324 -0.0055426145 -0.10278367 -0.10080246 0.014363299
-0.16241558 -0.10535876 -0.19223934 0.1475458 -0.07595763 0.083110645 -0.03551684 0.057428967
0.03477465 0.15437195 -0.057974998 0.14895612 0.19770834 -0.08748534 -0.08458472 -0.073879
-0.19349991 0.09995158 0.099000536 0.19745333 -0.11511254 -0.1723153 0.1951374 0.16394931
0.17134173 0.08792015 -0.07356243 -0.16457869 -0.18396866 0.17360064 0.14174609 0.21578154
0.030696658 -0.0202932 0.061117772 0.14000788 0.13733879 -0.20691797 -0.21235819 -0.20555158
0.11685798 -0.0070545143 0.17723879 0.16745414 0.21404932 0.21605471 -0.1507405 0.01146265
0.19325145 -0.031880062 0.08854323 -0.16454151 0.18733543 0.024291877 0.026975662 -0.15810986
-0.04579287 -0.10362438 -0.009864832 -0.13335238 -0.1767278 0.11508281 0.021292558 0.13418564
-0.10320333 0.1343635 0.06221183 0.068742976 0.18251346 0.10083743 0.16512147 -0.12478098
-0.15362939 0.0024080637 -0.021364585 -0.043387152 -0.178813 0.17935023 -0.1237994 -0.11894725
-0.18040656 0.015917098 -0.012409801 0.11648213 -0.2158124 -0.03469309 0.12257809 -0.13222642
-0.14272247 0.020120984 -0.16807826 -0.040403116 0.07784565 -0.058492366 -0.08783904 -0.21227089
0.18520999 0.051968157 -0.061487943 -0.08018926 0.10634941 -0.008829023 -0.12535977 0.10579239
0.18085305 -0.070900686 0.103949286 0.17955416 0.02141654 -0.08345436 -0.19883005 0.02517232

model.model.decoder.encoder.layers.0.self_attn.in_proj_bias f4 [96]
00000000: c07e debb b59e cdbb 664a 73bb bf20 d53b
00000010: 9e06 d63b e5b1 d9bb 89ed 6a3b 4cd0 d23b
00000020: 1437 d23b b356 c6bb 6878 c03b fb94 d93b
00000030: f554 d93b 19e9 da3b 3438 d53b d7cb d0bb
00000040: 5cfb d13b 6cc0 d83b 297b de3b 9bbf d4bb
00000050: e021 9e3b c2ec d0bb ebcb d7bb a4be c33b
00000060: 179f d4bb c881 d6bb 627f cb3b c351 cabb
00000070: c870 d03b ef6c eb3b 2b96 d03b 7040 d1bb
00000080: bc6f df37 94ba c2b7 0e78 51b8 cbab 4737
00000090: 327c ed35 5e60 5338 9b40 50b7 b2d1 c037
000000a0: 414d 8eb6 e1f4 00b8 71fd 8d37 8188 21b8
000000b0: 0069 48b8 d0b8 acb7 9b83 81b7 d12a 5db8
000000c0: 6e43 6637 66ad 50b6 03db 16b8 8e1c 29b7
000000d0: 99aa 9337 58f4 f9b7 1079 9137 b8c2 4a38
000000e0: 9434 8037 9f23 9234 ffc1 9d37 f945 c4b7
000000f0: d4cb a937 f851 5db8 8c07 3037 e389 d6b6
00000100: 6420 b1bb 0258 b03b f9c1 a73b a8e5 b63b
00000110: 42c5 e03b 0745 b43b 1163 82bb 7406 c6bb
00000120: 5afc b2bb 8d0d b8bb 62fd b0bb 13be b93b
00000130: b3ab b93b 588b 9ebb 6c85 8b3b 25d7 c03b
00000140: fb0e f5ba 7b21 7e3a 58ae babb 7b31 c1bb
00000150: c6db ac3b 6dec be3b f4d7 063b 4c90 b43b
00000160: 3c83 ab3b bcca d03b a6df 813b bc33 bf3b
00000170: 3479 b73b f874 a63b 5bd8 b73b 32a8 cdb9
-0.006790012 -0.006275023 -0.0037123202 0.006504148 0.0065315505 -0.006643521 0.0035847148 0.0064335223
0.006415257 -0.006052816 0.0058737285 0.0066400743 0.006632442 0.0066806194 0.006506944 -0.006371956
0.006408138 0.0066147354 0.006789584 -0.0064925677 0.0048258156 -0.00637588 -0.006585588 0.005973654
-0.0064886915 -0.006546233 0.0062102536 -0.0061742975 0.006361101 0.0071846168 0.0063655577 -0.0063858554
2.6635702e-05 -2.3213484e-05 -4.9941293e-05 1.1901323e-05 1.7694022e-06 5.039607e-05 -1.2412808e-05 2.298583e-05
-4.2409233e-06 -3.074564e-05 1.6926528e-05 -3.851252e-05 -4.7781505e-05 -2.0590058e-05 -1.5439282e-05 -5.2730382e-05
1.3724768e-05 -3.1095346e-06 -3.5966757e-05 -1.0079833e-05 1.7603206e-05 -2.9796895e-05 1.7341721e-05 4.83419e-05
1.5283273e-05 2.7220537e-07 1.8806195e-05 -2.3397604e-05 2.0241285e-05 -5.2766845e-05 1.0492175e-05 -6.393749e-06
-0.0054054726 0.005381585 0.005119559 0.0055815764 0.0068594525 0.0055013928 -0.003979095 -0.0060432497
-0.0054622116 -0.0056168498 -0.0054012993 0.0056684106 0.00566622 -0.0048383884 0.0042578485 0.005885022
-0.0018696481 0.000969432 -0.005697053 -0.005895791 0.0052752225 0.005826524 0.0020575495 0.0055103656
0.00523415 0.006371824 0.0039634285 0.0058350246 0.0055991653 0.0050798617 0.0056105084 -0.00039225962

model.model.decoder.encoder.layers.0.self_attn.out_proj.weight f4 [32, 32]
00000000: a630 103e dac6 34bd 4013 183d 03dc 693c
00000010: db1b de3c 5bcd 87bd 83ca 56bd 7af7 943c
00000020: f2bd e93d f740 ef3d 01f8 75bc 6dc4 c1bd
00000030: 1267 1cbe 27ed 9c3d df5b cabd 7972 01be
00000040: dc3a 533d 6500 d7bd 7990 aa3d 40fc a7bd
00000050: d216 debd 6075 fdbd 02c5 2e3d cac5 afbd
00000060: 73d1 d73d 5162 7fbd 69af d73d 23aa 13be
00000070: 9545 0d3e 4256 2dbe 23bf 7a3c c90e 003e
00000080: c4f9 df3c 9e17 1a3e ae6b 77bd 025e a53d
00000090: 6e90 dcbd e02e d83d 967a 283e 0dd5 25be
000000a0: b250 04bd 3dd9 be3c c6e1 1cbe d0c2 e0bd
000000b0: c6cc bb3d 18fb eaba 6df4 94bd 42ab 2a3e
000000c0: e7be d43d 59fd 52bd daf5 a83c efc2 2dbd
000000d0: 003b f53d 3514 17be 5d40 48bd c587 28bc
000000e0: d69a fe3d 766a 953d dcea b6bd f0a4 50bd
000000f0: 4f3c 243d f2ce 6e3d 2996 81bc 1f70 d2bd
00000100: dd02 dd3d 3571 043e 2954 293d 4243 2fbe
00000110: dd8e 033e 92fa fcbd 0899 1ebe d9b6 bf3c
00000120: 0462 b9bd 622b bf3d ab27 2d3e 133c 32bc
00000130: ba8f 1cbe 6fa3 813d 0f66 33be d0a2 1fbe
00000140: 3df6 b0bd 4ef4 333e a4ac 5f3d 57f1 753d
00000150: 24c3 103d 71a4 2dbe 2a63 d2bc 26f9 a1bd
00000160: 0709 fe3d ca93 173e e986 f3bd b6df 1abe
00000170: 83e5 36bd 536a e6bd 0d9c 83bd 46ff 06be
00000180: 6f1e 2ebe 4740 b7bc a9e1 afbd ea79 7b3c
00000190: d35e f73d fb1b f5bd 63a3 1b3e f4b7 a6bd
000001a0: 8253 2cbd 7c5c cdbd 4a62 8fbd 98f9 273d
000001b0: 4269 f2bd 9e8d 433d b430 8ebd 0050 babd
000001c0: 62ba b13d b751 a83d a29f 0b3d 9565 123e
000001d0: 1a13 0c3e 55c1 243e 3501 f73d 6b22 04bc
000001e0: ee6d 6b3c 9ef9 acbd da0b c6bc 2756 b63d
000001f0: 0479 4ebc 037a 0f3c 05ab d73d 4b60 0abe
00000200: 8706 b83d 0fcf ce3d 8728 23be aa33 dcbc
00000210: 17d1 113d 3e23 1abe 7728 d8bd d921 91bd
00000220: fb2f 89bd 877c 17be 1e40 e83d 3e1b 4e3d
00000230: ccb7 ce3d a92f cdbc b078 db3d f180 633b
00000240: 1616 9f3c 49d0 9ebd bf5e 06be 0c23 d9bd
00000250: 9a90 db3c fd05 8f3d d857 e8bd ecd9 003e
00000260: 407a 9dbc 0799 2a3e 63bc 23be 11a4 d2bd
00000270: 507e 5b3b 999f ff3d 1d56 c3bb be16 adbd
00000280: 146d 8fbc d212 923d 4e72 983d 8d14 023e
00000290: 6b41 ed3d dcf5 63bd a530 26bd 8c87 25be
000002a0: a6fa 143e bbd9 ad3d b830 92bd 6727 3d3d
000002b0: 3ec1 2b3e 30ed 243e 48c7 4abd a906 38bb
000002c0: 9969 63bd eda3 ed3d a84b 243e 48e0 2dbe
000002d0: 9a91 ccbc 17c6 323e d792 0a3e 9540 d53d
000002e0: 3e34 02be 0aa0 b6bd e629 4a3d 9a4b f73d
000002f0: 63a5 e83b 4bfd 473d 2c7e 96bd 6428 85bc
00000300: 1a48 85bd af74 a93d 69df 04be 0f16 e23c
00000310: a3af 8c3d d08f d8bd 5ed1 173e 8420 923d
00000320: 614d d1bc fdc3 19be 245b fabc d24a 84bc
00000330: ecf4 ccbd bdf5 fe3d 736f c6bd 4fe3 7d3c
00000340: d56e 9c3c f312 293e b516 253d 0789 223d
00000350: 63a8 2fbe 7c86 283e 72fb 1abe de5b 093e
00000360: 9320 0ebc d085 163d 1ca2 17be 90ae a73d
00000370: a3db a0bc 2ea9 16be 3263 45bc 161e e13c
00000380: 93f3 71bd 2551 34bd d197 25bd 76e5 03be
00000390: 4286 673d b3bc 2cbe 208b d0bb c6b5 aa3c
000003a0: 9a70 193d 2ec9 cbbd 83d6 e43c f531 0f3d
000003b0: a9fb e5bd 2f72 c3bd 1a7d 8f3c ab4a 14be
000003c0: 40e1 63bd aad6 4f3d 8c5c 8ebd 1978 f0bd
000003d0: aa75 12be aa1f 293c ee99 283e b863 1b3d
000003e0: 81cc 213e b99b 65bd d10e 81bd e708 183e
000003f0: 434f 22bd 596c 3bbc 2653 c43b 405d 8ebd
0.14081058 -0.044134952 0.037127733 0.014273646 0.027112892 -0.06630965 -0.052439224 0.018184412
0.11413182 0.11682313 -0.015012742 -0.09461293 -0.15273693 0.07662421 -0.09880804 -0.12641324
0.051569805 -0.10498122 0.08328337 -0.0820241 -0.108441964 -0.12375903 0.04266835 -0.08582647
0.10537996 -0.06234962 0.10531504 -0.14420371 0.13796075 -0.16927436 0.01530436 0.1250564
0.027340777 0.15048072 -0.060405426 0.08074571 -0.10769735 0.10555816 0.16453013 -0.16194554
-0.03230352 0.023296947 -0.153205 -0.109746575 0.09169917 -0.0017927615 -0.07273183 0.16666892
0.10387974 -0.051511142 0.020625044 -0.04242223 0.11974144 -0.14753802 -0.048889507 -0.010286276
0.12431876 0.072956964 -0.089315146 -0.050938547 0.040096577 0.058302827 -0.015818672 -0.10275292
0.10791562 0.1293381 0.041340027 -0.171155 0.12847467 -0.1235248 -0.15488064 0.023402618
-0.09051898 0.093344465 0.16909663 -0.010878581 -0.15289202 0.063300006 -0.17519401 -0.15589452
-0.08640716 0.17573664 0.054608002 0.060044613 0.03534235 -0.1695726 -0.02568205 -0.079088494
0.124040656 0.14802471 -0.118909664 -0.15124401 -0.044652473 -0.112507485 -0.06426249 -0.13183317
-0.17003797 -0.022369517 -0.08587963 0.015348891 0.12078633 -0.119682275 0.15199046 -0.08140555
-0.042071827 -0.100274056 -0.07001169 0.041009516 -0.118364826 0.04774248 -0.06942883 -0.0909729
0.08678128 0.08218711 0.034087785 0.14296563 0.13679162 0.16089375 0.12060777 -0.0080648465
0.014369471 -0.08446048 -0.024175573 0.08903151 -0.012602095 0.008757117 0.10530666 -0.13513295
0.0898562 0.10098087 -0.15933429 -0.026880104 0.035599794 -0.15052506 -0.10554593 -0.07086534
-0.06698605 -0.14793597 0.113403544 0.05031895 0.1009365 -0.02504714 0.10716379 0.0034714306
0.019419711 -0.07754571 -0.1312208 -0.10602388 0.02680235 0.06983564 -0.1134488 0.1258313
-0.019223332 0.16659938 -0.15989833 -0.102851994 0.0033492036 0.12481613 -0.0059611932 -0.08451603
-0.017508067 0.07132496 0.07443677 0.12703152 0.11584743 -0.05565439 -0.040573735 -0.16164988
0.1454874 0.084887944 -0.071381986 0.046180155 0.16772935 0.16106105 -0.049506456 -0.0028080142
-0.055520628 0.11603532 0.16044486 -0.16980088 -0.024971772 0.17458378 0.13532577 0.10412709
-0.12715241 -0.08917244 0.049356364 0.12074967 0.0070997938 0.048825543 -0.07348284 -0.016254611
-0.06507893 0.08274209 -0.12975849 0.027598409 0.068694375 -0.10574305 0.14825961 0.07135108
-0.025549592 -0.1501617 -0.030561037 -0.016148958 -0.10007653 0.124492146 -0.09689226 0.015496089
0.019095818 0.16511135 0.04030486 0.03968146 -0.17154078 0.16457552 -0.15134981 0.13413951
-0.0086747585 0.036748707 -0.14807934 0.08187592 -0.019635981 -0.14712974 -0.012047576 0.027480166
-0.05907018 -0.044022698 -0.040427987 -0.12880501 0.056524523 -0.16868858 -0.0063642412 0.02083863
0.0374609 -0.09950481 0.027934318 0.034959752 -0.11229641 -0.09543263 0.017515708 -0.14481609
-0.055634737 0.05074183 -0.06951246 -0.11741657 -0.14302698 0.010322491 0.1646497 0.037936896
0.15800668 -0.05605671 -0.06301654 0.14847146 -0.03962637 -0.011439406 0.0059913574 -0.0695138

model.model.decoder.encoder.layers.0.self_attn.out_proj.bias f4 [32]
00000000: 5ee0 aebb 3ce7 b9bb 34d2 b9bb fe28 5bbb
00000010: 13a5 7b3b 87a6 1a3a a99b c23b 1913 933b
00000020: 3972 bc3b fe0b b63b fff1 b6bb 4271 bdbb
00000030: 8b7a b23b a291 a3bb a529 aa3b 975c ac3b
00000040: 2258 a33b 2b55 c23b d9a3 ac3b 8db0 55ba
00000050: be52 c03b 8744 c1bb 729c 29bb ff0a b9bb
00000060: 8cbb b4bb 8fdf b5bb af9d af3b 2a5c c3bb
00000070: 7c9d bf3b c876 9c3b 713d ba3b 1b34 6cbb
-0.0053368052 -0.0056733172 -0.00567081 -0.0033441181 0.0038397952 0.00058994483 0.0059389663 0.0044883606
0.005750921 0.005555629 -0.0055830474 -0.0057813236 0.005446737 -0.004991726 0.0051929527 0.005260061
0.0049848715 0.005930563 0.0052685556 -0.00081516133 0.0058692386 -0.0058980617 -0.0025880602 -0.005647063
-0.0055155214 -0.005550332 0.0053593735 -0.0059619145 0.005847631 0.004774902 0.005683594 -0.00360418

model.model.decoder.encoder.layers.0.linear1.weight f4 [128, 32]
00000000: 8b72 1dbe 01ff 2d3e d7d5 6e3c ee18 fa3d
00000010: 7064 65bb 1f5c 29bc d863 2fbe 5195 1ebe
00000020: 0911 8bbb e550 893d a9d1 003e e7dd db3d
00000030: d070 5e3d de5c 09bd 2ff2 f03c c71d 14be
00000040: 7e76 933d 9597 d3bd 7584 313c 2579 073e
00000050: e5aa 933c a335 2f3e 7f9a 57bd 51cd 89bd
00000060: f1f8 2f3e f3ad 773d 071f b7bc 7ffb 1dbe
00000070: 5703 c7bd 14d7 96bd 7afe e33c 55c7 bd3d
00000080: fc65 053e 297a 11be 0ffe d63c 9ee7 91bd
00000090: 2584 0bbe 4b52 7e3c 5b74 ad3d d582 03be
000000a0: ddd0 a43d 3c39 943d 096e 08be 684c 23be
000000b0: 1648 1e3e d326 19be 47a8 adbd 58dd 8d3d
000000c0: 4f81 2e3e c7ac a43c 3443 56bd b864 06be
000000d0: cda0 2fbd c9ac 25bd e6d8 0c3d ff63 1bbe
000000e0: 03b1 973d 751a dbbd 1820 2dbe a164 6bbb
000000f0: 8ad0 17be fe96 11be ecad 1d3e 2876 d73c
00000100: c6ea 013e 10b6 50bc 0d41 523d 7a4a 02be
00000110: 0eb7 bd3d b9f7 ae3d 1007 60bd 689a 0bbe
00000120: 0a57 ee3c 5718 233e 81f8 c0bd 947d 30be
00000130: 1a7b 16be d95e 92bd 60c7 93bd 8fe3 53bb
00000140: 9603 1f3e 8cc7 e23b 679f 903c bcab 1abe
00000150: 165a 88bd 2df8 233e 49de fe3d 26f8 103e
00000160: c97a 663d 3b3d 11be eb9b ac3d 52f8 babb
00000170: c24e 2ebe 5efd 1fbe 8aa5 b13c f956 08be
00000180: 5501 bb3d 8b53 ba3c 2509 1bbe 0f27 18be
00000190: 76c0 493d f37b 0d3b e12d 623c ddc0 393b
000001a0: 4b90 2bbe f084 923d d4a7 20be 7bf0 a33d
000001b0: 4416 823d 890b 053e 3674 cdbd 7758 02be
000001c0: 67c7 68bc bdeb ca3d 9391 2abc 94b5 25be
000001d0: 2952 a4bd 0215 32bc 3af6 b5bc 9e7f 5fbd
000001e0: 6be2 2d3e 605e 873d 7105 21bc 02ac 0dbe
000001f0: 1878 7e3d f322 ff3d 1760 1cbd 7d2f aabd
00000200: b3ef 1f3e a14b a0bc 5812 d83d 7427 c5bd
00000210: aba0 283e 98d1 1fbe 840d 9bbd 881d d63d
00000220: 87b2 f33d 0ff7 f23d 51ef 05be f3e5 1abe
00000230: 7703 1fbe 342f 2f3c efc4 92bd fddd 26be
00000240: 284d acbd f3b0 f23d 75fb 8f3b de54 dc3c
00000250: 391e 763d c1eb 983d 3a91 0a3e 25c4 a73d
00000260: a8d8 7d3d 78db ddbd 65a9 16be 3c8e c8bd
00000270: def9 3b3d 9487 fdbd ad59 803d fa36 8a3d
00000280: 7303 ea3d 5b2e c53d ea7c 17bc ea63 da3d
00000290: 740d c0bd d1a4 5bbb e7a3 543d 8d4c 003e
000002a0: 7c0e e33d 7161 a9bd d6b0 b6bd 111b f338
000002b0: 10fa 2b3d 91e7 123e 5767 093e 6bc9 c33d
000002c0: 608c 8f3c 2d4f 163e 4f12 7abd 5b64 203e
000002d0: 7315 18be 25ae d63d 2826 683d d785 92bd
000002e0: be52 6dbd 6a60 0c3d 5624 363e 54a2 e2bd
000002f0: c611 053e 2089 4bbd bd0a b43d 85ae 383d
00000300: 9250 9f3d 4d6d 0e3e b1f3 cfbd 217f 963d
00000310: 5d60 21be a83a e1bd f629 f83b 2d69 20be
00000320: f160 03bc 3ebb b2bd 54b7 113c 6edb 29bc
00000330: 811f 06be f6b6 2c3e cbb3 5fbc 9aca a6bb
00000340: 8847 c73c f9db f6bd 50c4 563d fcf6 863c
00000350: 8c96 063e 589c 9fbd 1301 0c3e a8f9 c03c
00000360: beca 353e 8575 c53d eb12 153d 4fcb 0abe
00000370: d751 e2bd ae01 0d3e 2092 ba3d d43b 52bc
00000380: 8cc5 863d 5d02 1d3e 3c63 243e 5f08 0dbe
00000390: 2dd1 493b 57ed 2ebe 5fe0 8fbd aa43 12be
000003a0: 5172 503d 77d2 25be 6d8d dd3d db69 023e
000003b0: 0bf1 053d bd87 f4bd 30ef 133e 1557 ee3c
000003c0: 79e1 46bc a4ab 0ebe 8d23 e7bc 21cb 113d
000003d0: ac3f 063e 5d2c 2bb9 2851 dabd e0eb 6bbc
000003e0: 0e7b ccbd ee65 003e 2697 193d 94a2 023c
000003f0: 4f8a 393d 85fe b63d d94d efbd 053a 19bd
-0.15375726 0.16991808 0.014577351 0.12211786 -0.0035002492 -0.010336905 -0.17127931 -0.15486647
-0.004243974 0.067048825 0.12579979 0.10735684 0.054306805 -0.03353583 0.029412357 -0.14464484
0.07200335 -0.10331646 0.010834803 0.13229807 0.018025825 0.17110305 -0.052637573 -0.06728614
0.17184807 0.060468625 -0.022353662 -0.1542797 -0.09717434 -0.07365242 0.027831305 0.09266535
0.13027185 -0.14206757 0.026244191 -0.071242556 -0.13624628 0.01552255 0.08469459 -0.12842877
0.0804765 0.07237479 -0.13323225 -0.15947115 0.15457186 -0.14956217 -0.08479362 0.069269836
0.17041515 0.020101918 -0.052310184 -0.13124359 -0.04287796 -0.040447984 0.034386538 -0.15174864
0.07406809 -0.10698406 -0.16906774 -0.0035918134 -0.14825645 -0.14217755 0.15398377 0.026301458
0.12687215 -0.01273872 0.05133157 -0.12723723 0.092634305 0.08543343 -0.054694235 -0.1363312
0.029094238 0.15927254 -0.09422398 -0.17235404 -0.14695397 -0.07146997 -0.07215762 -0.003233168
0.15528712 0.0069207605 0.017654134 -0.15104574 -0.066578075 0.1601264 0.12444741 0.14157161
0.05626944 -0.14183514 0.084281765 -0.0057058716 -0.17022231 -0.15623996 0.02168538 -0.13314427
0.091311134 0.022744915 -0.15140207 -0.1485865 0.04925581 0.0021588772 0.013804884 0.0028343715
-0.16754262 0.07154262 -0.15689021 0.080048524 0.06351903 0.12992682 -0.10031931 -0.12729059
-0.0142076975 0.09908245 -0.010410684 -0.16182548 -0.08023483 -0.010869266 -0.022212137 -0.054565065
0.16980903 0.066097975 -0.0098279575 -0.13835147 0.06212625 0.12457838 -0.038177576 -0.08309839
0.15618782 -0.019567313 0.10550374 -0.09626666 0.1646754 -0.15607297 -0.07570937 0.104548514
0.11899286 0.11863529 -0.13079573 -0.15126781 -0.15528665 0.010692406 -0.07166468 -0.1629562
-0.08413154 0.11850157 0.0043939897 0.026895937 0.060087416 0.074668415 0.13531962 0.081917085
0.061974198 -0.10832876 -0.14713056 -0.09792754 0.04589259 -0.12379375 0.06267104 0.06748767
0.11426439 0.09627982 -0.00924609 0.10663588 -0.09377566 -0.0033514986 0.051914122 0.12529202
0.11086747 -0.082705386 -0.089204475 0.000115921845 0.041986525 0.14346148 0.13418327 0.09559902
0.01752299 0.1467864 -0.061052617 0.15663283 -0.14851932 0.10482434 0.056677014 -0.07154434
-0.057940237 0.034271635 0.17787299 -0.11066118 0.12995061 -0.04969132 0.08791111 0.04508831
0.077790394 0.13908882 -0.10153902 0.07348467 -0.15759416 -0.10997516 0.0075733615 -0.15665121
-0.008018718 -0.0872712 0.0088938065 -0.0103672575 -0.13097955 0.16866669 -0.013653706 -0.00509007
0.024326101 -0.12053675 0.052433312 0.016475193 0.13143367 -0.07793492 0.13672285 0.023556545
0.17753121 0.09641556 0.036394995 -0.13554119 -0.11050766 0.13770172 0.091099024 -0.012831647
0.06580648 0.15332933 0.1605348 -0.13772725 0.0030794844 -0.17082725 -0.07025217 -0.14283624
0.05089027 -0.16193567 0.108179905 0.12735693 0.03270058 -0.119399525 0.14446712 0.029094258
-0.012138718 -0.13932663 -0.028215194 0.03559411 0.13110226 -0.00016324357 -0.106600106 -0.014399499
-0.09984408 0.12538883 0.037497662 0.007973332 0.045297917 0.089352645 -0.1168477 -0.037408847

model.model.decoder.encoder.layers.0.linear1.bias f4 [128]
00000000: 703f 073e c761 be3d dd11 3c3c c75a af3d
00000010: efd2 02bd bc45 77bd ddd0 0e3e bb84 00be
00000020: 032e 0fbe a333 5e3c 2a25 153e a2bc 583d
00000030: 9678 7c3d be78 b0bd 89c6 0e3e 2a1a a33d
00000040: 4fae d83c bd15 f33d 15fb 0f3e 8bc5 08be
00000050: d321 d43d 5378 2d3e 50f6 e0bd 2e75 313e
00000060: e724 5cbc bb18 7dbc 8c4c 193e 2968 783d
00000070: a698 0abe 74f2 68bd fdb9 79bd b714 083d
00000080: 37c6 24be f54a ae3b 034f 85bd 620f 253e
00000090: d261 553d c898 d73d 176d 5bbd 4ae6 36be
000000a0: d35a 0bbe a2ed a43c dee5 143e 7e9f 183c
000000b0: c10d 4b3d b52c 003e b7f3 a9bd 9d42 e63d
000000c0: b3dd a0bb 2ebf d0bd 4229 213e af5d 6abd
000000d0: 0ee9 c33d 81a8 c13d 9f69 4abd e4fa c1bd
000000e0: 6c22 a1bd 0ac6 09bd e0a2 1c3e 463b 2f3d
000000f0: 6712 25be 7087 103e 85e4 233d 5fe3 1a3d
00000100: 88cb 2a3e 9263 07be a5dd c0b8 5088 17be
00000110: da3b 143e fe8f 843c a3cb d5bd 1322 b3bb
00000120: 563a 22bd 9ff8 f63d bac9 cd3d b4a2 7b3c
00000130: 3bbe 083c 22e0 b0bc ab09 7c3d 878a 363e
00000140: 4501 213e 105f 01bc c3db 04be e292 d6bd
00000150: 9dd8 253e bc43 76bc a545 f73d ed5c ba3d
00000160: d295 173e ac61 06be 9a60 0c3e 1912 193d
00000170: fb8b acbd a1e1 04bb cbb8 d1bc 4843 a53d
00000180: af54 a1bd 8526 46bd 47a4 e4bc 993d cfbd
00000190: edfb 14bd 8a3e 923d 0a8c 903c f6c7 eb3d
000001a0: d363 2c3e 9434 a9ba 922f 2cbd 2537 02be
000001b0: ea70 3fbd 300b b6b9 3089 d43d 71fb 163e
000001c0: df8b 47bd 0016 083e 0db0 9e3d 170d 1ebd
000001d0: 6b0c 2abb 4e16 e2bd 0b3a 2d3e 35d2 9dbd
000001e0: 0eaa 49bd ea38 1dbe 5fb4 9b3d 86f1 22be
000001f0: 8bde 2cbc f83b b13d b25f 373e fd3c 15be
0.13207793 0.09295993 0.011478868 0.08562236 -0.031939443 -0.06036924 0.13946863 -0.12550633
-0.13982396 0.013562116 0.14564958 0.05291427 0.061638437 -0.0861678 0.13942923 0.07963975
0.026450304 0.118693806 0.14060624 -0.13356607 0.10358014 0.16940431 -0.109844804 0.17329857
-0.013436533 -0.015447791 0.14970607 0.06064621 -0.13534793 -0.056871846 -0.060968388 0.03322288
-0.16091238 0.005318994 -0.06509211 0.1611915 0.05209524 0.105271876 -0.053570833 -0.17861286
-0.13608865 0.020132843 0.14540812 0.00931537 0.049573664 0.12517054 -0.08298438 0.11243174
-0.004909241 -0.10192715 0.15738395 -0.05721825 0.09565936 0.09455968 -0.049417134 -0.09471682
-0.078678936 -0.03363613 0.15296507 0.042781137 -0.16120301 0.14114165 0.040012855 0.037814494
0.16679204 -0.13221577 -9.196558e-05 -0.14798093 0.14475957 0.016181942 -0.10439231 -0.0054667084
-0.039606415 0.120591395 0.10048242 0.015358616 0.008346136 -0.02159125 0.061532658 0.17826281
0.1572314 -0.0078962 -0.12974457 -0.104772344 0.16195913 -0.015030798 0.120738305 0.090997554
0.14803246 -0.13123196 0.13708726 0.037370775 -0.08425137 -0.0020276087 -0.025600811 0.080694735
-0.0787748 -0.04837658 -0.027910365 -0.10119171 -0.036373068 0.07140835 0.0176449 0.11512749
0.16834955 -0.0012909346 -0.042037554 -0.12716348 -0.046738543 -0.0003472208 0.10377729 0.14744355
-0.048717376 0.13289642 0.07748423 -0.038586702 -0.0025947343 -0.110394105 0.16916673 -0.077061094
-0.049234442 -0.15353742 0.076027624 -0.15912446 -0.010551105 0.08654016 0.17907599 -0.14574046

model.model.decoder.encoder.layers.0.linear2.weight f4 [32, 128]
00000000: bd8a 793d c35d 5b3c 0799 cdbb 6d03 49bd
00000010: 8041 9fbd 9f0e 4d3d f0e3 873d 0b89 af3d
00000020: fd8a 9cbc 11f2 77bd b767 ac3d 19a9 74bb
00000030: aa08 abbc 75f6 873d ec86 973c 6ea8 523d
00000040: 9314 20bd d4ac a3bd bede 8a3c 2e95 563d
00000050: 4406 21bc e06c de3c 9147 b4bc fc09 693c
00000060: 1598 fcbc 09c8 72bc 2184 15bc 5661 2abd
00000070: f06a 103c 8a8f 44bd d9e2 15bd b349 da3b
00000080: c7af 21bd 75b6 973d 8650 68bc e9b9 31bc
00000090: bd63 e8bc 1f87 9bbc 29ae 3c3d a5a4 003d
000000a0: cce3 9cbd 5ac8 123d d9aa cdbc 4f2d 99bd
000000b0: 708e 16bd ce7a 87bc 1da1 543d 3a1c 9abd
000000c0: cc29 10bc 644b 99bc 1103 993c c45b 75bd
000000d0: 33d7 44bd 1de5 183d 7a32 0e3d 7156 2e3d
000000e0: 250c 79bd 7da9 a6bc e4a3 e83c bf9d ae3b
000000f0: f80a a63d 205f b63c b93c d93c ce25 e43c
00000100: cca6 903c b4af 743c 3472 97bd b3b5 893c
00000110: 332d 3d3d e4a2 5d3d 6340 db3c bfea a03d
00000120: 78e2 53bd 864c aa3d d0fc 94bb 64b6 a83c
00000130: 3e8c aabd f683 993d c62e 3d3b 1378 a6bd
00000140: 8bb7 98bd 63fe 8c3d c81d 1f3d 53aa 033d
00000150: bfcf 433c 64c2 9cbd 9403 2b3c 6919 a1bd
00000160: b4db e0bb 1416 43bc f925 9abc 5167 883c
00000170: 8b90 96bd 2e16 c9bc 3601 af3d 6050 d0bc
00000180: 0138 d7bc 00c0 983d e3c8 e2bc 7c0c 753d
00000190: b65b 9abd 9367 743d 0c97 34bd 1128 903d
000001a0: ac6d 673d f617 253d 45cb 85bd c213 713d
000001b0: e6fd e73c 1df2 a13d cfd4 58bb 5f20 b5bb
000001c0: 1734 09bc 2dc5 913d a2a4 0f3c a989 833d
000001d0: c3eb 35bd b600 ba3c 8556 803d 0d61 9e3d
000001e0: 4f8b 973d 598e fcbb 3aff 833d 89c4 1fbd
000001f0: 85b9 1f3d 0b88 aebc 08e1 c0bc b375 963d
00000200: df62 87bc 06bf e13c c21d 44bd 78f9 afba
00000210: 3721 8f3d 6512 30bd c2ac 38bd a5d2 6c3d
00000220: df10 253d d8ca 1b3d dca7 94bd ba36 653d
00000230: b5ff 333d 72c7 123d 7491 2bbd c133 b13b
00000240: 1f04 5cbd cb98 8d3d 0f3b 99bc 8a2e 1bbd
00000250: f1e9 983d 0182 9fbd f706 1c3d 0e67 853d
00000260: 68f0 09bd 44e7 353d f8aa a4bd fa3a b4bd
00000270: 9dc8 91bd 5da4 453d 17ad 8dbd 6b41 54bb
00000280: 5584 7abc 8525 6fbb 03ed 793c 5b28 293c
00000290: d5fc c5bc 06a1 a8bd 7191 98bd 7136 53bd
000002a0: 0dd5 fcbc c866 45bc 63df 7b3d 2147 f9bb
000002b0: 4d4e 5bbb 934b 943c e942 18bd cf3e 3bbd
000002c0: b369 abbd bd5d 5a3d aaae 2cbd bd82 e4bc
000002d0: 88b3 993d 4365 c33a 817d 763b 2354 893d
000002e0: a9fa 61bd 8835 6f3d 9ba6 25bd 9f78 24bc
000002f0: 65e1 8e3c af82 88bd 1cdc 80bc 250e 8e3d
00000300: 8ec9 873d 1d85 8a3d 8bf4 50bc 8138 96bd
00000310: d119 7bbd dca6 923d 381c 90bd d451 9f3c
00000320: 04e6 a9bd 9d7a 39bd d4db 77bd 8721 193b
00000330: 8199 9f3d 7d5b afbd 69e8 c6bc ad98 a0bd
00000340: a841 773d b85d 3e3d ffda 71bd bd11 5ebd
00000350: d71b d13c 0f9f 44bd 3a4b a33d f4fe 843c
00000360: 8a7e 94bd aea2 07bd f8f5 3d3c fdc2 673c
00000370: c9a3 783c 0451 fabc b79c 52bc f920 17bc
00000380: 172d 69bd b9a6 b13d d7ac 39bc f47c 913d
00000390: be82 b63d 298a 823d 959f 24bd 4ae1 2a3c
000003a0: 024d 503c 5ca0 173d 0a82 043d 5037 513d
000003b0: a1ef 8ebd 7e72 0d3d fd65 48bc 3414 933d
000003c0: 036d c83c c9d9 b0bc 8c45 143d 1f3a 42bd
000003d0: f2fd 0dbd 4155 823c fc3a 9a3d bc24 833d
000003e0: 6830 563d 53f0 0ebd 8260 f1bc 756f 843b
000003f0: d008 833c ff9b 67bd 3f6d 623d 9271 e3bc
0.060923327 0.013389054 -0.006274346 -0.049075533 -0.07776165 0.050062772 0.066352725 0.08571061
-0.019109244 -0.060533587 0.084182195 -0.0037332235 -0.020878155 0.06638805 0.018496953 0.05143016
-0.03908212 -0.07991949 0.016951915 0.052388363 -0.009828154 0.027151525 -0.022006782 0.014223572
-0.030834237 -0.0148182 -0.00912574 -0.041596733 0.008814558 -0.047988452 -0.036593292 0.0066616177
-0.039474275 0.07407848 -0.0141793545 -0.010847547 -0.028367871 -0.01898533 0.04606453 0.031407017
-0.07660636 0.0358356 -0.02510588 -0.07479345 -0.036756933 -0.01653805 0.051911462 -0.07524915
-0.008799028 -0.018712707 0.01867822 -0.059901968 -0.048056792 0.037327874 0.034716107 0.042562906
-0.060802598 -0.02034449 0.028398462 0.0053288634 0.08107561 0.022262156 0.026518213 0.027850058
0.01765766 0.014934469 -0.073948294 0.016810274 0.046185683 0.054110423 0.0267641 0.07857274
-0.05172965 0.08315377 -0.004546739 0.020594783 -0.0832753 0.07495873 0.002886699 -0.08128371
-0.07456883 0.06884458 0.03884676 0.032144856 0.011951386 -0.076542646 0.010437865 -0.07866175
-0.006862128 -0.011907119 -0.018816935 0.016650828 -0.07351788 -0.024546709 0.08545153 -0.02542895
-0.026271822 0.07458496 -0.02768368 0.05982636 -0.07537024 0.05966909 -0.044089362 0.07038892
0.056501076 0.040306054 -0.06532911 0.058856733 0.02831931 0.079075076 -0.0033085828 -0.0055275406
-0.008374236 0.071176864 0.008767279 0.06422741 -0.044414293 0.022705417 0.06266502 0.07733355
0.07399618 -0.007707399 0.06445165 -0.03900579 0.038995285 -0.021305105 -0.023544803 0.07346668
-0.016526638 0.027556907 -0.04787994 -0.0013425788 0.06988757 -0.042986292 -0.04508663 0.057818074
0.040299293 0.038035244 -0.07258579 0.055960394 0.043945033 0.035834737 -0.04188676 0.005407781
-0.053714868 0.069139086 -0.01870492 -0.03788618 0.07466496 -0.07788468 0.03809258 0.06513797
-0.033676535 0.044410005 -0.08040422 -0.088003114 -0.07118342 0.048252452 -0.0691778 -0.0032387625
-0.0152903395 -0.003649087 0.015254262 0.010324563 -0.024168411 -0.08233838 -0.07449616 -0.05156559
-0.03086331 -0.012048431 0.061492335 -0.007607356 -0.003346342 0.018102443 -0.037173185 -0.045714196
-0.0836977 0.053312052 -0.04215876 -0.027894372 0.07504946 0.0014907498 0.0037611427 0.06705501
-0.05517069 0.05840066 -0.04044209 -0.010038524 0.01744146 -0.06665551 -0.015729956 0.069362916
0.066302404 0.067636706 -0.012753616 -0.07334996 -0.061303917 0.07160732 -0.07036632 0.019448198
-0.08295825 -0.04528295 -0.06051238 0.002336593 0.077929504 -0.08562372 -0.024280744 -0.078416206
0.06036535 0.046476096 -0.05904674 -0.054216135 0.02552597 -0.048003253 0.07973333 0.016234852
-0.07250698 -0.033114128 0.011594288 0.01414561 0.015175768 -0.03055621 -0.012854747 -0.00922417
-0.056927767 0.08674378 -0.011332712 0.07103911 0.08911656 0.06374008 -0.04019125 0.01042969
0.012713673 0.037018165 0.032350577 0.05107814 -0.06979299 0.034533016 -0.012231347 0.07181588
0.024466043 -0.021588223 0.036199138 -0.04741871 -0.03466601 0.015909793 0.075307816 0.06403491
0.052292258 -0.03489716 -0.029464964 0.004041607 0.015995413 -0.056545254 0.055279966 -0.027764115

model.model.decoder.encoder.layers.0.linear2.bias f4 [32]
00000000: 13e0 1c3d 07d4 85bd f622 57bb 7657 ca3c
00000010: 1cb9 0abd 1177 a1bc 37da 86bd b330 a73d
00000020: 8630 8d3d 08c1 acbc 42eb e2bb d1c1 93bd
00000030: 595c d63c c434 863d 7af3 8f3c 696b 98bd
00000040: a65e dbbc 1cef 48bd 5dd2 c7bc 9cba 913a
00000050: e629 2bbd 5202 6abd 7264 02bd 2933 9cbd
00000060: 2425 973d 853a 873d 8eb0 9ebd 557f 97bc
00000070: a263 523d 3a99 8aba a4e9 d0bc f11c 91bd
0.03829963 -0.06534582 -0.0032827235 0.024699908 -0.03386794 -0.019710096 -0.0658459 0.081635855
0.06894021 -0.021088138 -0.0069250176 -0.07214702 0.026167082 0.06553033 0.017572153 -0.07442362
-0.02677853 -0.049056157 -0.024392301 0.0011118236 -0.041788004 -0.05713112 -0.031834073 -0.076269455
0.07380131 0.066029586 -0.07748519 -0.018493334 0.05136455 -0.001057423 -0.025502034 -0.07085598

model.model.decoder.encoder.layers.0.norm1.weight f4 [32]
00000000: 74ec 7d3f 94df 7e3f bd44 7f3f 656b 7e3f
00000010: d969 803f 7215 7f3f c259 7f3f f9a2 803f
00000020: 3a87 803f 1a20 803f d3bc 803f 13d5 7d3f
00000030: 892f 7e3f 9b55 803f f91a 7f3f e024 7f3f
00000040: b731 803f 4805 7f3f 090e 803f f236 803f
00000050: 8a4a 7e3f a3ef 7d3f 066d 7f3f bf43 7f3f
00000060: e8a4 7e3f 2e5b 7f3f ebd9 7e3f 7b45 803f
00000070: 9071 7e3f 90a5 7e3f e23d 803f 4216 803f
0.99188924 0.99559903 0.9971426 0.9938262 1.0032302 0.996421 0.99746335 1.0049735
1.0041268 1.0009797 1.0057625 0.9915325 0.9929128 1.0026125 0.9965053 0.9966564
1.0015172 0.99617434 1.0004283 1.0016768 0.9933249 0.9919378 0.9977573 0.9971275
0.99470377 0.99748504 0.99551266 1.0021204 0.9939203 0.9947138 1.0018885 1.0006793

model.model.decoder.encoder.layers.0.norm1.bias f4 [32]
00000000: 4cd9 7abb d783 8bbb 196b 34bb b335 aebb
00000010: 28a5 e2ba 8f07 87bb 7f14 513b b867 f139
00000020: 7b11 633b 6d55 353b 2c1e 41bb 07c5 5bbb
00000030: d282 b43b 59ac 3bbb 766f 293b 23b8 383b
00000040: d798 b33a 5b8c 5c3b 5f10 983b 6e95 b83a
00000050: 6ecc c439 4926 86bb f716 c8ba 1605 80bb
00000060: 496b 36bb 9d9c 65bb e07b 083b c787 90bb
00000070: c607 683b 0ab1 683b d877 213b b815 23ba
-0.0038276492 -0.00425766 -0.0027529655 -0.00531646 -0.0017291652 -0.004120774 0.0031903086 0.00046044379
0.003464787 0.0027669326 -0.0029467447 -0.0033534185 0.005508759 -0.0028636663 0.002585379 0.0028185926
0.0013702166 0.0033652994 0.0046406235 0.001408262 0.00037536345 -0.0040939194 -0.0015265633 -0.0039068563
-0.0027834943 -0.0035035976 0.0020825788 -0.004410717 0.0035405024 0.0035505914 0.0024638083 -0.0006221193

model.model.decoder.encoder.layers.0.norm2.weight f4 [32]
00000000: fa11 7e3f 4722 803f fce5 7e3f 0cad 803f
00000010: 19d6 7f3f a775 7e3f 7976 7f3f 2a9e 803f
00000020: b77d 803f eb2e 803f 46bc 803f fdf7 7d3f
00000030: ade4 7d3f 50b0 7e3f 98d7 7e3f 63cf 7e3f
00000040: 2733 803f 6221 7e3f bf57 803f 0969 803f
00000050: 52ef 7e3f 29af 7f3f a9a3 7f3f ad4e 803f
00000060: 376d 7e3f da9e 7f3f 2fad 7f3f cc9d 7f3f
00000070: 316f 7e3f 494b 7e3f 7747 803f e5a9 7f3f
0.9924618 1.0010461 0.9956968 1.005281 0.9993606 0.99398273 0.9979015 1.0048268
1.0038365 1.0014318 1.0057456 0.99206525 0.99177057 0.9948778 0.9954772 0.99535197
1.001561 0.9926969 1.0026778 1.0032054 0.99583924 0.9987665 0.998591 1.002401
0.993854 0.99851763 0.9987363 0.99850154 0.99388415 0.99333626 1.0021809 0.99868613

model.model.decoder.encoder.layers.0.norm2.bias f4 [32]
00000000: ff57 46bb e377 503b 0645 4bbb 3763 593b
00000010: b7bc 4c3b 980f 493b be19 4c3b ba98 4e3b
00000020: 394d 4d3b 79c4 4c3b 068c 4dbb fb5f 49bb
00000030: 74ed 453b b286 353b d98a 4b3b 9916 4b3b
00000040: 558a 4d3b 0b36 453b 6f90 4d3b 3609 8abb
00000050: eb81 4a3b 2ee0 4c3b 9025 4c3b 4fc0 51bb
00000060: 483d 4bbb 1720 4cbb 493b 4c3b 21fb 4bbb
00000070: 69cf 4a3b c12b 483b 2de0 4c3b cee7 4bbb
-0.0030264852 0.003180974 -0.0031016483 0.003317071 0.0031240412 0.003067946 0.0031143273 0.0031524138
0.0031326546 0.0031245037 -0.0031363978 -0.0030727375 0.0030201348 0.0027698693 0.0031058101 0.003098881
0.003136297 0.0030092027 0.0031366607 -0.004212524 0.003090019 0.0031261551 0.0031150319 -0.0032005494
-0.0031011868 -0.0031147057 0.0031163266 -0.0031125026 0.003094638 0.0030543657 0.003126155 -0.0031113508

model.model.projection.weight f4 [2, 32]
00000000: 6420 0fbe a949 203e edd4 833d dea3 90bc
00000010: 7aa1 613d 77d8 82bd 43ab eabd 6d5e c93d
00000020: dbea a9bd 157e 7d3d f1f2 ba3d 3528 b73c
00000030: fed6 f23d 9ab4 6b3b 74c3 213e f482 773d
00000040: 17e1 0d3e 1415 87bd a7c2 873b 1cf9 0dbe
00000050: 409c e73d 7030 c83d 9f3b 03be 69c4 f23d
00000060: 3f8d a2bd ab17 93bd ead1 27be c0e4 0c3e
00000070: d2bb 153e e7c1 cebd a376 0bbd 6da7 29be
00000080: 75d1 0d3e 1cb7 14be 9c4d e93d bedf 073e
00000090: 6991 c6bd ac6c 9abd a8b0 803d b5a9 41bd
000000a0: 53fa adbd cb81 c5bd 284a c2bd da81 7b3d
000000b0: e7f8 bd3d d655 a83d e6f7 243e bb8b 30be
000000c0: 6ebc 2e3e 3676 d23d b547 28bd 9590 043e
000000d0: dd20 73bc 3041 13bd bd6e cc3d 5e04 eb3d
000000e0: 82c2 33bd f063 b63c 5d55 263e 5eb7 4d3c
000000f0: 767b 0dbe e07a b83d 2bb6 123e 7c4a 7dbc
-0.139772 0.15653099 0.06437097 -0.017656263 0.055085637 -0.06388944 -0.11458447 0.098324634
-0.08296748 0.06188782 0.09128369 0.02235804 0.11857413 0.0035965801 0.15797216 0.06042762
0.13855396 -0.06595817 0.0041430774 -0.13864559 0.11309099 0.09774864 -0.12815712 0.118538685
-0.07937097 -0.07182249 -0.1638867 0.13759136 0.14622429 -0.10095578 -0.034048688 -0.16567774
0.13849433 -0.14522976 0.11391756 0.13268945 -0.096957035 -0.07540259 0.062836945 -0.047280986
-0.08495011 -0.09643897 -0.094868004 0.061403133 0.0927599 0.08219497 0.16110191 -0.17240803
0.17064068 0.10276453 -0.04108401 0.12945779 -0.014839378 -0.03595084 0.09982059 0.11475442
-0.04388667 0.02226445 0.16243501 0.012555925 -0.13816628 0.090078115 0.14327304 -0.015459653

model.model.projection.bias f4 [2]
00000000: 4ef2 c43d 41ab 223e
0.096165285 0.1588564

model.classifier.weight f4 [2, 32]
00000000: 783f 2cbe c96b d23d 40a3 883c 8863 e43c
00000010: 2ca4 d23d 2da0 e0bd 1e0b 8d3d 7b76 13bd
00000020: 4f64 363e 737b 023e a3e6 30be d4b8 2bbe
00000030: 0803 e43d fb90 15bd ee4d aa3d fca4 073e
00000040: 94a0 f13d 80c9 0abe 0569 54bd 4608 883d
00000050: f80e fdbc 548d 023e 5261 bdbd 2836 6f3d
00000060: cb33 dbbd 240a 02be 81ca 0c3e d152 0cbd
00000070: 8446 a3bc 9f77 883c 6112 c83d 0b66 c93c
00000080: 3fac 04be d75c 963d 00df 113e 4fe7 0e3b
00000090: 20ff 493c 1028 29be 0890 c8bd 1d92 1bbe
000000a0: bbe3 2fbd 5756 cfbd 2260 8f3d d75d a2bd
000000b0: f281 943d 1799 21bd d932 e1bd 24c2 153c
000000c0: 443b e23c 8b46 27be 415c 21be 13ec 963d
000000d0: a35d b7bd 72c6 d13d 2166 eabd fb44 bf3d
000000e0: 87e7 b83d e2a5 6abc 540e 6abb 8720 9e3c
000000f0: c376 19be 1ea1 0dbd 9e1a 25be 047a 793d
-0.16821086 0.10274465 0.016679406 0.027879491 0.102852196 -0.10968051 0.06886886 -0.036001664
0.17811702 0.12742405 -0.17275481 -0.16769725 0.11133391 -0.036515217 0.08315645 0.1324653
0.11798206 -0.13553429 -0.051857967 0.06642203 -0.030890927 0.12749225 -0.09247078 0.058401257
-0.10703238 -0.12699181 0.13749124 -0.034258667 -0.019931085 0.016658602 0.097691305 0.02458479
-0.12956332 0.073419265 0.14245224 0.002180535 0.012328893 -0.16519189 -0.09793097 -0.15192457
-0.04294179 -0.1012389 0.07000758 -0.07928055 0.072513476 -0.03945264 -0.109960265 0.009140525
0.02761615 -0.16335504 -0.15757848 0.07369246 -0.08953407 0.102429286 -0.11445261 0.09339329
0.09028535 -0.014321776 -0.0035714107 0.01930262 -0.1498671 -0.03457748 -0.16123435 0.06090738

model.classifier.bias f4 [2]
00000000: ade8 1abe e05c 113e
-0.15127821 0.14195585
