lightning_logs/version_32/checkpoints/epoch=330-step=1324.ckpt (torch, 196557 bytes, 50 tensors)

model.model.pos f4 [50, 32]
0	0xbe81a839	-0.25323656
1	0x3d10ecf2	0.03538222
2	0x3e0a8b40	0.13529682
3	0x3e3e4993	0.18582754
4	0x3e52c78e	0.20583937
5	0x3e7506a3	0.23928313
6	0x3e463932	0.19357756
7	0x3d187225	0.03721823
8	0x3e577bc8	0.21043313
9	0xbe0cfc07	-0.13768016
10	0x3c00f2bd	0.007870373
11	0xbe6b1fd7	-0.22961365
12	0x3cba148d	0.022714878
13	0xbdc729fc	-0.09724805
14	0xbdfc93a8	-0.12332851
15	0x3e3419a8	0.17587912
16	0x3d0d45bc	0.034490332
17	0xbd887969	-0.06663782
18	0x3d8241e7	0.06360226
19	0x3d170964	0.03687419
20	0x3d645201	0.055742268
21	0x3d7f7a68	0.062372595
22	0x3e85f93b	0.2616671
23	0xbe6836e8	-0.22677195
24	0xbacfa4ef	-0.0015842001
25	0xbe08b91e	-0.13351867
26	0x3e84a09d	0.25903788
27	0x3e877556	0.26456708
28	0x3cb590d5	0.022163788
29	0x3d6a1810	0.057151854
30	0x3e7d814c	0.24756354
31	0xbe321e37	-0.17394339
32	0x3e4b00f6	0.19824585
33	0xbe0831c0	-0.13300228
34	0x3e0bf205	0.13666542
35	0x3e1092f3	0.14118557
36	0x3e207098	0.15667951
37	0xbda34cc5	-0.07973627
38	0x3e790394	0.24317771
39	0x3d47da4a	0.04879216
40	0xbe76bc88	-0.24095356
41	0xbbed838c	-0.0072483476
42	0xbe5a0467	-0.21290742
43	0x3db149ba	0.0865664
44	0x3dde0f6f	0.108427875
45	0xbdc095d6	-0.09403579
46	0xbe5a3251	-0.21308257
47	0x3e5fe449	0.21864428
48	0x3e8ae7b7	0.2712991
49	0xbd2c8e61	-0.04212797
50	0xbe689e53	-0.22716646
51	0x3e24b277	0.16083704
52	0x3d9df366	0.0771244
53	0x3e4cf6df	0.20016049
54	0xbd7a8eda	-0.06117139
55	0xbe72da7d	-0.23716159
56	0xbe8fb333	-0.28066406
57	0xbd9d8a4e	-0.07692395
58	0xbdbb6d6a	-0.091517285
59	0xbd859a50	-0.065235734
60	0x3e59a11f	0.21252869
61	0xbe8623a2	-0.2619906
62	0xbe01f8bf	-0.12692545
63	0xbd455cf6	-0.048184358
64	0x3e0f430a	0.13990417
65	0xbe595e78	-0.21227443
66	0xbddbb865	-0.1072853
67	0xbd6695a0	-0.056295037
68	0xbe08b056	-0.13348517
69	0x3cddfaa4	0.027097054
70	0x3ddd2ee0	0.10799956
71	0x3e3e3d42	0.18578056
72	0x3e5d0849	0.21585192
73	0xbdbf2c58	-0.0933463
74	0xbe1c7fed	-0.15283175
75	0xbd8761d2	-0.066104546
76	0x3d05f394	0.032702997
77	0x3e061a50	0.13095975
78	0x3d33944d	0.043842603
79	0xbe88879f	-0.2666597
80	0x3e6fa399	0.23402251
81	0xbe58d0b9	-0.21173371
82	0x3e368787	0.17825137
83	0x3db4ff63	0.08837774
84	0x3e43cfe2	0.1912227
85	0xbcc1a314	-0.023637332
86	0xbdecabc0	-0.11556196
87	0x3a681272	0.0008852846
88	0x3e6cb7e1	0.23117019
89	0xbc857c9b	-0.016294768
90	0x3e86012a	0.26172763
91	0x3e1cd055	0.15313847
92	0x3c80a428	0.015703276
93	0xbd8d8323	-0.06909778
94	0xbdeeb9c1	-0.116565235
95	0xbcb3f197	-0.021965785
96	0x3e5fde6a	0.21862188
97	0x3e92e11d	0.28687373
98	0xbd3946fc	-0.04523371
99	0xbe73dcb8	-0.23814666
100	0x3e09dd76	0.13463387
101	0x3db7ce50	0.08974898
102	0x3e2fe875	0.17178519
103	0xbe3bdbe9	-0.18345608
104	0x3d9e573e	0.07731484
105	0xbe3eccce	-0.18632814
106	0xbe64f146	-0.22357664
107	0xbdd0e3e4	-0.10199717
108	0xbbfd91b0	-0.0077383146
109	0xbd8575f5	-0.06516639
110	0x3e3372f5	0.17524321
111	0x3e0cbe5d	0.13744493
112	0xbd9069d9	-0.07051439
113	0x3e42e461	0.19032432
114	0xbe2a6244	-0.16639048
115	0xbde55113	-0.11197104
116	0xbe93be12	-0.2885595
117	0xbe98e6b2	-0.29863507
118	0x3e394f3d	0.18096633
119	0xbd2c7ab8	-0.04210922
120	0xbe18944f	-0.14900325
121	0x3e0ce5c2	0.1375952
122	0xbddb1450	-0.10697234
123	0xbe903f1e	-0.28173155
124	0x3e96276f	0.2932696
125	0xbe81d312	-0.25356346
126	0xbe9c07b1	-0.30474618
127	0x3cc05bd1	0.023481281
128	0x3e618471	0.22023179
129	0x3e624496	0.22096476
130	0x3e4d4165	0.20044477
131	0xbe0fddf8	-0.14049518
132	0xbe71b409	-0.23603834
133	0x3e2a69cd	0.16641922
134	0xbccbcac2	-0.024876956
135	0x3d5e5abe	0.054285757
136	0x3e26fea8	0.16308081
137	0x3d8e2959	0.0694148
138	0xbe1baf19	-0.15203513
139	0xbe180645	-0.14846142
140	0xbe0401f1	-0.12891366
141	0x3c80561a	0.015666056
142	0xbb680837	-0.0035405287
143	0x3c2954ce	0.01033516
144	0xbe4530c0	-0.19256878
145	0x3dae671a	0.08515759
146	0xbdcfbfec	-0.10144028
147	0xbe074a6a	-0.1321198
148	0xbe407317	-0.18793903
149	0x3e73daec	0.23813981
150	0xbd9b6d69	-0.07589228
151	0x3e3ff0e9	0.18744244
152	0xbe7d15bd	-0.24715324
153	0x3dda0616	0.10645692
154	0xbdd86750	-0.1056658
155	0xbd642ad4	-0.055704907
156	0x3d7400f4	0.05957122
157	0x3d47f545	0.04881789
158	0x3d627d93	0.05529554
159	0x3e35e470	0.17762923
160	0xbe5903be	-0.21192834
161	0x3c59401b	0.013259913
162	0xbe48c5b4	-0.19606668
163	0x3dde16d7	0.108442
164	0xbde387d3	-0.11109891
165	0x3d012221	0.03152669
166	0xbe116ff8	-0.14202869
167	0xbe83b835	-0.25726476
168	0xbd0b634c	-0.034030244
169	0xbe5f422b	-0.21802585
170	0xbe77f7f3	-0.24215679
171	0x3e1a789b	0.1508507
172	0x3e85c25d	0.2612485
173	0x3d554ee5	0.052077193
174	0xbda7d7cf	-0.08195459
175	0x3db7898a	0.0896178
176	0x3e22d162	0.15900186
177	0x3d43fd66	0.04784908
178	0x3e52b2b5	0.20575984
179	0x3ba39a73	0.004992777
180	0x3e657ebe	0.2241163
181	0x3dd22c90	0.10262406
182	0x3e7a8407	0.24464427
183	0x3d17bf1c	0.03704749
184	0x3df26332	0.11835326
185	0xbe273477	-0.16328607
186	0xbdf031b7	-0.11728232
187	0xbe21171f	-0.15731476
188	0x3de71ad3	0.11284413
189	0xbd984139	-0.07434315
190	0x3e7dcc29	0.24784912
191	0x3e1b2ce4	0.15153843
192	0xbe7902d1	-0.2431748
193	0xbe81c874	-0.25348246
194	0xbe372e53	-0.17888765
195	0x3e7cc498	0.2468437
196	0x3e61d844	0.22055155
197	0xbe13824d	-0.14405175
198	0x3d087752	0.033316918
199	0x3e3d58a6	0.18490848
200	0x3de51b72	0.111868754
201	0x3e66f04a	0.225526
202	0xbdcf983d	-0.10136459
203	0xbdfdfff1	-0.124023326
204	0x3e4376a4	0.19088227
205	0x3e14257f	0.14467429
206	0x3afb718c	0.001918362
207	0xbd49cc73	-0.049267244
208	0x3cbadcd5	0.022810379
209	0xbe6679fb	-0.2250747
210	0x3b20e21f	0.0024548841
211	0xbd65e79e	-0.05612909
212	0xbc9f5993	-0.019451892
213	0x3e4aacc1	0.19792463
214	0xbe2f6193	-0.17127065
215	0x3d58ef4a	0.05296258
216	0xbe618bbe	-0.22025964
217	0xbda520e8	-0.08062917
218	0x3e8149b3	0.2525154
219	0xbe6769e3	-0.22598986
220	0xbe624991	-0.22098376
221	0xbe0ddcbb	-0.13853733
222	0xbe0ac8d4	-0.13553172
223	0xbe590420	-0.2119298
224	0x3e41c26f	0.18921827
225	0x3e103b4a	0.14085117
226	0x3e597160	0.21234655
227	0x3d89eb08	0.06734282
228	0xbe56ea0a	-0.20987716
229	0x3c54ae34	0.012980986
230	0x3e38db2c	0.18052357
231	0xbd9474f2	-0.07248868
232	0xbcf41743	-0.029796248
233	0x3c0aefa7	0.008479989
234	0xbe0b8e27	-0.13628446
235	0x3e212c03	0.15739445
236	0xbe422e20	-0.18962908
237	0x3e4e4d1e	0.20146605
238	0x3e7685a7	0.24074422
239	0x3dfdad3c	0.123865575
240	0x3e3ac844	0.18240458
241	0x3e74deba	0.23913088
242	0xbe15991e	-0.14609191
243	0x3d0f52f6	0.034991227
244	0x3d9725cb	0.07380255
245	0x3e632df9	0.22185506
246	0x3e811dfb	0.25218186
247	0xbe4d95dd	-0.200767
248	0x3e5f2783	0.21792416
249	0x3def0a58	0.11671895
250	0x3c77644c	0.015099596
251	0xbd4d8266	-0.050173186
252	0x3e811d05	0.25217453
253	0x3ca3d6cd	0.019999886
254	0x3cfda7d4	0.030963816
255	0x3cfe9722	0.031077925

model.model.embed.weight f4 [2, 32]
0	0x00000000	0.0
1	0x00000000	0.0
2	0x00000000	0.0
3	0x00000000	0.0
4	0x00000000	0.0
5	0x00000000	0.0
6	0x00000000	0.0
7	0x00000000	0.0
8	0x00000000	0.0
9	0x00000000	0.0
10	0x00000000	0.0
11	0x00000000	0.0
12	0x00000000	0.0
13	0x00000000	0.0
14	0x00000000	0.0
15	0x00000000	0.0
16	0x00000000	0.0
17	0x00000000	0.0
18	0x00000000	0.0
19	0x00000000	0.0
20	0x00000000	0.0
21	0x00000000	0.0
22	0x00000000	0.0
23	0x00000000	0.0
24	0x00000000	0.0
25	0x00000000	0.0
26	0x00000000	0.0
27	0x00000000	0.0
28	0x00000000	0.0
29	0x00000000	0.0
30	0x00000000	0.0
31	0x00000000	0.0
32	0xc0078de6	-2.1180358
33	0x3f9570aa	1.1675007
34	0x3cb26830	0.021778196
35	0x3fa3407f	1.2754058
36	0x3eae43c2	0.3403607
37	0xbf5cc0df	-0.862318
38	0xbe8c5eea	-0.27416164
39	0xbfcc5641	-1.5963823
40	0x3f382ffc	0.7194822
41	0x3f2f67a5	0.68517524
42	0xbc910950	-0.017704636
43	0xbf603b51	-0.8759051
44	0xbfafcaeb	-1.3733801
45	0x3fa0eb0f	1.2571734
46	0x3e90bed6	0.28270596
47	0xbf29cc75	-0.663276
48	0x3ffce50f	1.9757403
49	0xbf9bdb8c	-1.2176375
50	0x3f3bff3a	0.7343632
51	0xbf3bd11e	-0.7336596
52	0xbd189714	-0.037253454
53	0x3e42c6c0	0.1902113
54	0xbf26838e	-0.65044487
55	0x3f16b07a	0.5886303
56	0x3f956419	1.1671172
57	0x3f81e8e4	1.0149198
58	0xbfc1e1c3	-1.5147022
59	0x3ee73940	0.45160866
60	0x3ef3e8c9	0.47638538
61	0xbebecd42	-0.37265974
62	0xbfb7fe88	-1.4374552
63	0xbe055222	-0.13019612

model.model.decoder.encoder.layers.0.self_attn.in_proj_weight f4 [96, 32]
0	0xbd03f0ad	-0.03221195
1	0x3e42b482	0.19014171
2	0xbd3abd43	-0.04559065
3	0x3e1e1326	0.15436992
4	0x3d15458c	0.03644328
5	0xbe0f1de4	-0.13976246
6	0x3d77da52	0.06051094
7	0x3e1eb663	0.15499263
8	0x3dd16bcf	0.10225641
9	0x3e00b7c8	0.12570107
10	0xbd55a7d4	-0.052162006
11	0x3e22a064	0.15881497
12	0xbda848e0	-0.08217025
13	0x3d0fc5d1	0.03510076
14	0x3d9b4179	0.07580847
15	0xbd9e4cc9	-0.07729489
16	0xbe5eb4b7	-0.21748625
17	0xbd49ab43	-0.049235594
18	0x3e195c6d	0.14976664
19	0x3cb19ebf	0.021682141
20	0xbe156c2f	-0.1459205
21	0x3d6db226	0.058031224
22	0xbdfa6e92	-0.12228121
23	0x3cdbaef6	0.026816826
24	0xbe47b256	-0.19501624
25	0x3d40d868	0.04708138
26	0x3df56437	0.11982005
27	0xbd1910b2	-0.037369438
28	0x3d9ee579	0.07758612
29	0xbd8d4b52	-0.06899132
30	0x3dd25953	0.102709435
31	0x3e2ea56b	0.1705529
32	0xbdc769ee	-0.09737001
33	0xbe41cbee	-0.18925449
34	0xbe1824c3	-0.14857773
35	0x3d2220c7	0.03958204
36	0xbe1ddb53	-0.15415697
37	0x3e22cc5e	0.15898272
38	0xbe1e8bcf	-0.1548302
39	0x3cfc405c	0.030792408
40	0xbb9ff564	-0.0048815478
41	0x3ddd1ee8	0.107969105
42	0x3d576f38	0.0525963
43	0x3e3b8584	0.18312651
44	0xbe3ed1de	-0.18634745
45	0x3e27bff5	0.1638182
46	0x3e427e19	0.18993415
47	0xbdbf05ce	-0.09327279
48	0x3c50e56f	0.012750014
49	0x3dca350b	0.098733984
50	0x3cd1f096	0.025627416
51	0x3d27be56	0.040953003
52	0xbda5af2f	-0.08090054
53	0xbbb65b60	-0.005565092
54	0x3d6d764e	0.057974152
55	0xbdc7d36a	-0.09757121
56	0x3d30dada	0.043177463
57	0xbcd428ff	-0.025898455
58	0xbdff7298	-0.12473029
59	0x3d94e1e4	0.07269648
60	0xbe166d08	-0.1469003
61	0x3dcb2abb	0.099202596
62	0x3d0b953f	0.03407788
63	0x3d4a45a6	0.04938283
64	0xbe3caa0d	-0.18424244
65	0xbe32f735	-0.17477114
66	0x3c8d6075	0.017257908
67	0x3ce28403	0.027650839
68	0x3ded58b1	0.11589182
69	0xbe2db4bb	-0.16963474
70	0xbdfc1498	-0.123086154
71	0xbe00da57	-0.1258329
72	0xbbe092d0	-0.006853439
73	0xbdbb4c0d	-0.09145365
74	0x3e35d499	0.17756881
75	0xbdcd7e27	-0.10033827
76	0x3d81a6d6	0.063306496
77	0x3dfb5c51	0.12273467
78	0xbe27cb98	-0.16386259
79	0xbe592ecd	-0.2120926
80	0xbdd0a6d1	-0.10188068
81	0xbdb81db9	-0.08990044
82	0x3e56de7d	0.2098331
83	0xbe1d3436	-0.15351948
84	0x3dec626e	0.115422115
85	0x3d340449	0.0439494
86	0x3d067be3	0.03283299
87	0xbe2be856	-0.16787848
88	0xbdf8a249	-0.121403284
89	0x3cea1d99	0.028578566
90	0x3d9ea53f	0.07746362
91	0x3e1cdfae	0.15319702
92	0xbd317b1f	-0.043330308
93	0xbd51e255	-0.051241238
94	0xbe278d34	-0.16362458
95	0x3dc32376	0.09528248
96	0x3e46b160	0.194036
97	0xbe09004d	-0.13379021
98	0x3d468c2d	0.048473526
99	0x3dbdbfa9	0.09265072
100	0x3ddd3658	0.10801381
101	0xbe10ab99	-0.1412796
102	0x3d65c4ca	0.056095876
103	0xbe4a551d	-0.1975903
104	0x3e1d5340	0.15363789
105	0x3e0b5750	0.13607526
106	0x3cb69dd6	0.022292059
107	0x3e32287b	0.17398255
108	0x3e259ef5	0.16173919
109	0x3e30a182	0.1724911
110	0x3df033b6	0.11728613
111	0x3d511f9b	0.051055532
112	0xbe1baedb	-0.15203421
113	0x3d36a78a	0.04459337
114	0x3dd54066	0.10412674
115	0xbe42b173	-0.19013004
116	0xbd5ec174	-0.05438371
117	0x3e3aa13c	0.18225569
118	0xbe4fd9fa	-0.20297995
119	0xbcb7775a	-0.022395778
120	0x3d5362d9	0.05160794
121	0x3e6529e4	0.22379261
122	0xbd177c34	-0.036983684
123	0xbdc2c511	-0.09510244
124	0x3e6780cb	0.22607724
125	0x3d72f757	0.059317913
126	0x3c682ba2	0.014170559
127	0xba57d838	-0.0008233818
128	0xbe35c7c5	-0.17751987
129	0xbe455b8e	-0.19273207
130	0x3d4e76b6	0.05040618
131	0x3e345aa9	0.17612709
132	0xbcd2d034	-0.025734045
133	0x3de010a2	0.109406725
134	0xbe4c4d88	-0.19951451
135	0x3ddf82f2	0.10913648
136	0xbd7aeccc	-0.061260983
137	0x3d92b13c	0.07162711
138	0x3dcca44e	0.09992276
139	0xbda21e2e	-0.079159126
140	0x3d817b85	0.063223876
141	0xbd05d04c	-0.03266935
142	0x3c01419d	0.007889179
143	0x3dcfd2f4	0.10147658
144	0xbe0ebcc7	-0.139392
145	0x3dd812f9	0.10550494
146	0xbca371d4	-0.019951738
147	0x3d1837cd	0.03716259
148	0x3d52c1ea	0.051454462
149	0x3b22bce7	0.0024831833
150	0x3de73d10	0.112909436
151	0xbde73685	-0.11289696
152	0xbde668a0	-0.112504244
153	0xbe79da0a	-0.24399582
154	0x3b9d21b2	0.0047952766
155	0xbe0fbc23	-0.14036612
156	0x3e0e8b52	0.13920334
157	0x3d2e24f5	0.042515714
158	0xbda8829a	-0.08228035
159	0x3d6ec06e	0.058288984
160	0xbe42846f	-0.18995832
161	0x3d98c5a7	0.07459574
162	0xbd5a1818	-0.053245634
163	0x3d9e08cb	0.07716521
164	0x3e3e2218	0.18567693
165	0xbdca5a8a	-0.0988055
166	0xbdba22a6	-0.0908864
167	0x3df244fb	0.11829563
168	0x3e278ae9	0.16361584
169	0xbccb647a	-0.024828184
170	0x3dfdd20c	0.12393579
171	0xbe0b799a	-0.13620606
172	0x3d4b1627	0.049581673
173	0x3ddd9b60	0.10820651
174	0x3daa8eed	0.08328042
175	0x3d4bfc4e	0.049801163
176	0xbe1d25c8	-0.15346444
177	0x3e564427	0.20924436
178	0x3e1e8ccb	0.15483396
179	0x3b2155cc	0.002461779
180	0xbdc759c5	-0.09733919
181	0x3ce6a953	0.028156912
182	0x3d979b34	0.074026495
183	0xbdb61e1f	-0.08892464
184	0x3d96532b	0.07340082
185	0x3e17e3cd	0.14832993
186	0x3cc096e8	0.023509458
187	0xbb5f170e	-0.0034040841
188	0xbdd10a0c	-0.102069944
189	0x3e5c86d5	0.2153581
190	0xbd668ec3	-0.056288492
191	0xbe42d2a5	-0.19025667
192	0xbd8296c6	-0.06376414
193	0xbdab49c7	-0.08363681
194	0x3d4b353e	0.049611323
195	0x3dd5655b	0.10419723
196	0xbe30f3a9	-0.17280449
197	0x3ddeb594	0.10874477
198	0x3b53d79e	0.0032324563
199	0x3d8060a7	0.06268435
200	0x3e6fde94	0.2342475
201	0x3de22695	0.11042515
202	0xbe0acea6	-0.13555393
203	0xbe182d93	-0.14861135
204	0x3e070b61	0.13187934
205	0xbe1f554d	-0.15559883
206	0xbcf89416	-0.03034405
207	0x3dd8557a	0.10563178
208	0xbd6b1f6c	-0.057403013
209	0xbdb64911	-0.08900655
210	0x3de76390	0.11298287
211	0x3e090c2a	0.13383546
212	0xbd101067	-0.035171892
213	0x3e15aacc	0.14615935
214	0x3af84c55	0.0018943647
215	0x3e103259	0.14081706
216	0xbd7334cb	-0.05937652
217	0x3b5cc186	0.0033684685
218	0x3d0fe144	0.03512694
219	0x3dbc6f54	0.09200922
220	0xbe14a260	-0.14515066
221	0xbe2f72f5	-0.17133696
222	0x3d92ed6a	0.071741894
223	0xbe410f8d	-0.18853588
224	0x3c10a14a	0.008827517
225	0xbc80b163	-0.015709585
226	0xbe17da7d	-0.1482944
227	0xbe453dea	-0.192619
228	0xbddd8f45	-0.10818342
229	0x3d2c7a5b	0.042108875
230	0xbe10444b	-0.14088552
231	0x3d5ceb47	0.053935315
232	0xbe372bbf	-0.17887782
233	0xbb73f769	-0.0037226325
234	0x3d64777c	0.05577801
235	0x3d66dfaf	0.056365665
236	0x3e35191e	0.17685363
237	0xbe18f551	-0.14937331
238	0xbd990460	-0.074715376
239	0x3e29229a	0.16517106
240	0xbd05f937	-0.032708373
241	0x3e4ed8ef	0.20199941
242	0xbdabd007	-0.083892874
243	0xbd412814	-0.047157362
244	0xbe3a84f2	-0.18214777
245	0xbe4de5b1	-0.20107152
246	0x3e1156f8	0.14193332
247	0x3e2af69b	0.16695635
248	0x3d9ad048	0.07559258
249	0x3cee1777	0.029063923
250	0x3dfa3ac1	0.12218238
251	0xbd85694a	-0.06514223
252	0x3d60335b	0.054736476
253	0xbdc0c3b9	-0.09412331
254	0x3e065dfa	0.13121787
255	0x3e05bcab	0.13060252

model.model.decoder.encoder.layers.0.self_attn.in_proj_bias f4 [96]
0	0xbcea0f2d	-0.02857169
1	0x3ceb1ec1	0.028701188
2	0x3cdc47a0	0.026889622
3	0x3cec94c8	0.028879538
4	0xbd122f1a	-0.03568945
5	0xbcecfb3d	-0.028928393
6	0x3ceeaccc	0.02913513
7	0xbd02f763	-0.031974208
8	0xbcf89533	-0.030344581
9	0xbca00f08	-0.019538417
10	0xbd059c52	-0.03261978
11	0x3d0a4f15	0.033766825
12	0xbcc05170	-0.023476332
13	0xbce408b6	-0.027836185
14	0x3cf9d450	0.030496746
15	0xbce7308c	-0.028221391
16	0x3cc1c9a5	0.023655722
17	0xbd0881ac	-0.03332679
18	0xbcfe9b41	-0.03107989
19	0xbc982873	-0.018573975
20	0xbc8aacda	-0.016928125
21	0x3cf71d1b	0.030165246
22	0xbcfb0c29	-0.030645447
23	0x3cf89cf9	0.030348288
24	0xbcfad4a2	-0.03061897
25	0xbcf25c17	-0.029584927
26	0xbceab902	-0.028652672
27	0x3cfc0bbf	0.03076732
28	0xbd02149a	-0.03175793
29	0x3cd69e9e	0.026198681
30	0x3ced8569	0.028994279
31	0xbcfd4d38	-0.03092061
32	0xb8ce8b8d	-9.848839e-05
33	0xb980647f	-0.00024488938
34	0xb9387e34	-0.00017594622
35	0xb97a174f	-0.00023850541
36	0x39af4ed0	0.0003343732
37	0xb7947c15	-1.7700755e-05
38	0xb9806d8c	-0.0002449568
39	0x39b5b2ec	0.00034656317
40	0x39872dcc	0.00025783328
41	0x39aee34c	0.00033357216
42	0x39be5204	0.0003630073
43	0xb96e096a	-0.00022700956
44	0xb89ae8b3	-7.386636e-05
45	0x3911c89f	0.00013903015
46	0xb9a1f746	-0.00030892546
47	0xb8f735da	-0.000117879084
48	0xb924c216	-0.00015712561
49	0x39a302aa	0.00031091768
50	0x38f811af	0.00011828855
51	0x39c74a4b	0.0003801159
52	0x3950f57a	0.00019927873
53	0xb8e7b77c	-0.00011049115
54	0x39af8f43	0.0003348534
55	0xb95f4463	-0.00021292413
56	0x39708697	0.00022938322
57	0x38d87ffe	0.00010323523
58	0x388d68a2	6.742893e-05
59	0xb93604f9	-0.00017358725
60	0x39623d1b	0.00021575803
61	0xb8c350e6	-9.313393e-05
62	0xb96fe8b3	-0.00022879503
63	0x39db4d4f	0.00041828534
64	0x3bb482b7	0.0055087465
65	0x3bcf236f	0.0063213627
66	0x3c908109	0.017639654
67	0x3cb4ad3d	0.022055263
68	0xbb8c5387	-0.004282418
69	0xbc4b0270	-0.012390718
70	0xbc167c8d	-0.009184969
71	0x3c93674f	0.017993597
72	0x3c2ed7fd	0.010671613
73	0xbbb8c6ff	-0.0056389566
74	0x3c11cffa	0.008899683
75	0x3c5884cf	0.013215258
76	0x3b9ead73	0.004842454
77	0xbd187187	-0.037217643
78	0xbc51d622	-0.012807401
79	0x3c60e8a0	0.013727337
80	0xbb8f5f9a	-0.0043754103
81	0x3c125402	0.008931162
82	0xbc37e52a	-0.011224071
83	0xbcb13f89	-0.021636741
84	0x3c4a894a	0.012361834
85	0x3c827bc4	0.015928157
86	0x3c48adac	0.012248438
87	0xbc5e0249	-0.0135503495
88	0xbc1ae1d4	-0.009453256
89	0xbc1fd3f1	-0.009755121
90	0x3c0a7164	0.008449886
91	0xbc57da92	-0.01317467
92	0x3c318640	0.01083523
93	0xbc902d15	-0.017599622
94	0xbc96e829	-0.01842125
95	0xbcabfc73	-0.0209944

model.model.decoder.encoder.layers.0.self_attn.out_proj.weight f4 [32, 32]
0	0xbcb1baca	-0.021695513
1	0x3e3cfec3	0.18456559
2	0x3d87b9bd	0.06627224
3	0x3e14bc01	0.14524843
4	0x3dce52a1	0.10074354
5	0xbdac6075	-0.08416835
6	0xbb5c3741	-0.003360227
7	0x3e18a8b9	0.14908113
8	0xbe032dfb	-0.12810509
9	0xbd864635	-0.0655636
10	0xbdc2b999	-0.09508056
11	0x3d9a2209	0.07526023
12	0x3c855007	0.016273512
13	0x3bbd3fc3	0.0057754233
14	0xbc69d1e1	-0.01427123
15	0xbd89fe3e	-0.06737946
16	0xbe2b7594	-0.16744071
17	0x3d9f2f10	0.07772648
18	0xbd15fced	-0.036618162
19	0x3e098f34	0.13433534
20	0x3ded1cfb	0.11577793
21	0x3db8e35a	0.09027739
22	0xbde48114	-0.11157432
23	0x3e3290a0	0.17437983
24	0x3da4bd36	0.080439016
25	0x3cefbb4a	0.029264111
26	0x3d9e351a	0.07724972
27	0xbd981f62	-0.07427861
28	0x3e23e17d	0.16003986
29	0x3d0b5324	0.034014836
30	0xbdb4cc94	-0.08828083
31	0x3dd66d8f	0.104701154
32	0xbc5d7372	-0.013516294
33	0x3e1b64d0	0.15175176
34	0xbd7d8eed	-0.061903883
35	0xbcc2b4b9	-0.023767816
36	0xbe38a5fc	-0.18032068
37	0xbce27789	-0.02764489
38	0x3e068473	0.13136463
39	0x3dd07e16	0.10180299
40	0x3d2957d3	0.04134352
41	0xbde05b79	-0.10954947
42	0xbe1f36e2	-0.1554828
43	0xbd24ac7b	-0.040203553
44	0xbd01a617	-0.031652536
45	0x3ce606b1	0.028079363
46	0xbb863b44	-0.0040964205
47	0x3debbc02	0.11510469
48	0xbd696b39	-0.05698702
49	0x3d717ec1	0.058958773
50	0xbd99223d	-0.074772336
51	0x3b9ba130	0.0047494397
52	0xbc1fface	-0.009764386
53	0xbd28ffab	-0.04125945
54	0x3df67502	0.12034036
55	0xbe2672b5	-0.16254695
56	0xbcafaba3	-0.021444147
57	0xbc0d6445	-0.008629863
58	0x3dccb622	0.099956766
59	0xbe308381	-0.17237665
60	0x3ccd7218	0.025078818
61	0xbde32d3f	-0.110926144
62	0xbe20c939	-0.1570176
63	0xbdd0cd96	-0.101954624
64	0xbe025e57	-0.127313
65	0x3ca05fd6	0.019576948
66	0x3e470b17	0.19437824
67	0x3e2edf53	0.17077379
68	0xbe4bdab3	-0.19907646
69	0xbdb8a1c1	-0.09015227
70	0x3e10ae55	0.14129002
71	0x3e25435a	0.16138974
72	0xbdc953df	-0.0983045
73	0x3da6148a	0.08109386
74	0x3d7cea72	0.061747022
75	0xbe0ee8f7	-0.13956057
76	0xbc3f8a97	-0.011690757
77	0xbde9d544	-0.1141763
78	0xbe0b1271	-0.13581254
79	0x3c92a9e8	0.017903283
80	0x3e2a02f0	0.16602683
81	0x3d11904a	0.035537995
82	0xbbe7ee1a	-0.0070779445
83	0xbe0d4a48	-0.13797867
84	0x3e03ff6f	0.12890409
85	0x3cac0065	0.020996282
86	0x3cb5ff2c	0.022216402
87	0xbe24c593	-0.16090994
88	0x3e19aa2b	0.1500632
89	0x3e012891	0.12613131
90	0x3d0d728c	0.03453307
91	0xbe0ec922	-0.13943914
92	0x3db0a22d	0.086246826
93	0xbe3d8fa2	-0.18511823
94	0x3d451654	0.048116997
95	0xbe1cc216	-0.15308413
96	0xbe02e135	-0.12781222
97	0x3e1f5839	0.15560998
98	0xbe120254	-0.142587
99	0x3dda3443	0.106544994
100	0x3e150304	0.14551932
101	0x3d9cb667	0.07651978
102	0xbe251b0e	-0.16123602
103	0x3d8257f9	0.06364436
104	0x3d9953f8	0.07486719
105	0x3d870fcb	0.06594809
106	0xbdb4ee58	-0.08834523
107	0xbc4e7738	-0.012601666
108	0xbd9275e4	-0.07151392
109	0xbd97bf2a	-0.074095085
110	0x3e384661	0.17995597
111	0x3ca9f9b8	0.020748958
112	0x3df2fed3	0.1186501
113	0xbd969792	-0.073531285
114	0xbb8e8f83	-0.004350604
115	0x3ddc74a1	0.10764433
116	0xbe29485d	-0.1653151
117	0xbdb0dd81	-0.086359985
118	0x3e1304fa	0.14357367
119	0xbdff2d85	-0.12459854
120	0xbe0a8fe3	-0.13531451
121	0xbe273c8a	-0.16331688
122	0x3dfd1e8a	0.123593405
123	0xbdc20548	-0.094736636
124	0x3cc8ca95	0.024510661
125	0x3b272a2f	0.002550732
126	0xbdfc6775	-0.1232442
127	0xbc808589	-0.015688675
128	0x3db87102	0.090059295
129	0x3d84fae4	0.06493166
130	0x3de2cbaf	0.11074006
131	0xbd2df71d	-0.042471994
132	0xbd549568	-0.051900297
133	0xbcecb6c2	-0.02889574
134	0x3df79336	0.12088625
135	0x3d731b53	0.05935223
136	0x3d4a9db9	0.049466822
137	0x3e34c621	0.17653705
138	0x3dcebe22	0.10094859
139	0x3cf9b00a	0.03047945
140	0x3cd646c4	0.02615679
141	0xbd776ac1	-0.060404543
142	0x3e070960	0.1318717
143	0xbdf94fa6	-0.12173395
144	0xbdd15169	-0.10220606
145	0x3dc8122c	0.09769091
146	0xbd8d1fa2	-0.06890799
147	0xbcf35e55	-0.029708067
148	0x3c187a54	0.009306509
149	0xbda05842	-0.07829334
150	0xbd33f2ba	-0.043932654
151	0xbcf85ab4	-0.030316688
152	0xbe326b08	-0.17423642
153	0x3dcfee88	0.10152918
154	0x3de47db4	0.111567885
155	0xbd406ae8	-0.046976954
156	0x3d8b762c	0.06809649
157	0xbccb65a7	-0.024828745
158	0xbd89826f	-0.06714331
159	0xbbe987e7	-0.0071267965
160	0xbdc725bc	-0.09723994
161	0x3dc096ae	0.0940374
162	0xbd93e7ce	-0.072219476
163	0x3e1eaa61	0.15494682
164	0x3ded8ee7	0.11599522
165	0x3da166e1	0.07880951
166	0x3db184fc	0.08667943
167	0xbe077b41	-0.13230611
168	0xbd12c81c	-0.03583537
169	0x3e2e3f4c	0.17016333
170	0xbe19a7d0	-0.15005422
171	0xbda81053	-0.082062386
172	0x3d6637e0	0.05620563
173	0xbcfd612a	-0.03093012
174	0x3d40b072	0.04704327
175	0xbe31017f	-0.17285727
176	0xbe16ec8f	-0.14738677
177	0x3ddd3a29	0.10802109
178	0x3d7bf4d4	0.061512783
179	0xbe249b88	-0.16074955
180	0xbd9c28c0	-0.0762496
181	0x3c2d3a6d	0.010573012
182	0x3b9dda22	0.004817263
183	0xbd373767	-0.04473057
184	0x3e403672	0.18770769
185	0x3cf7c064	0.030243106
186	0x3d89562e	0.067058906
187	0xbcc44ca4	-0.023962326
188	0xbb033b8c	-0.0020024506
189	0xbdeb1442	-0.11478473
190	0x3e2e4795	0.17019494
191	0x3d11beaf	0.03558224
192	0xbe361644	-0.17781931
193	0x3cdacf0c	0.026710056
194	0xbd1b9bec	-0.037990496
195	0xbd5a1ef4	-0.053252175
196	0xbd3d27df	-0.046180602
197	0xbd1566cd	-0.03647499
198	0xbd68c3ad	-0.056827236
199	0x3e107b7e	0.14109609
200	0xbd4b70a5	-0.049667973
201	0xbdf1f540	-0.11814356
202	0x3d2bf121	0.041978005
203	0xbdbf2d7f	-0.093348496
204	0xbe3e70c9	-0.18597712
205	0x3de722a8	0.11285907
206	0xbc13806b	-0.009002785
207	0x3d94d5f0	0.07267368
208	0xbc81c382	-0.015840296
209	0x3ccf052a	0.025271017
210	0xbe1cd557	-0.15315758
211	0xbe09bdf1	-0.13451363
212	0x3e1d666b	0.153711
213	0x3e204599	0.1565155
214	0xbd1691ca	-0.03676013
215	0xbe1c555a	-0.15266934
216	0x3c8e548d	0.017374301
217	0x3d7dc699	0.061956976
218	0x3d6ad834	0.057335094
219	0xbcaf1806	-0.02137376
220	0x3df4c979	0.1195249
221	0x3de4ef0f	0.11178409
222	0x3c99185a	0.01868837
223	0xbd184193	-0.03717191
224	0x3e157fe2	0.14599565
225	0xbe0fbab5	-0.14036067
226	0xbde231f2	-0.110446826
227	0x3e30d985	0.17270477
228	0xbc1f03e7	-0.00970552
229	0xbca8e9ef	-0.02061936
230	0xbe109e4a	-0.14122882
231	0x3de699f7	0.11259835
232	0xbd1a8088	-0.037720233
233	0xbba164a6	-0.0049253283
234	0x3dd63cb6	0.104607984
235	0xbe210c11	-0.15727259
236	0xbe1ca819	-0.15298499
237	0x3d21eff6	0.039535485
238	0x3dbdba0d	0.09264002
239	0x3d0ebd90	0.03484875
240	0xbe0687db	-0.13137762
241	0xbcd7d9b4	-0.026348926
242	0x3de3fc2f	0.111320846
243	0x3c257b3e	0.010100184
244	0x3de37088	0.11105448
245	0x3deb9f2b	0.11504968
246	0xbd97f1f2	-0.07419194
247	0xbe0444fa	-0.12916937
248	0xbca83fba	-0.0205382
249	0xbd6e48ec	-0.058175012
250	0xbd231e1c	-0.039823636
251	0x3da16234	0.07880059
252	0x3e2108bc	0.15725988
253	0xbd4d6332	-0.05014343
254	0xbe1d042a	-0.1533362
255	0xbdb8d946	-0.090258166

model.model.decoder.encoder.layers.0.self_attn.out_proj.bias f4 [32]
0	0xbbcdeaaf	-0.00628408
1	0x3c4e7c92	0.012602942
2	0x3c957724	0.018245287
3	0xbb32c15a	-0.002727589
4	0x3c1e5c14	0.009665508
5	0xbc518ab4	-0.012789417
6	0x3c04ff57	0.008117518
7	0x3c39e813	0.011346835
8	0x3ad68944	0.0016367813
9	0x3c2850e9	0.010273197
10	0xbccaa15e	-0.024735149
11	0x3b9e381a	0.004828465
12	0x3cffb198	0.031212613
13	0x3c8d5675	0.01725314
14	0x3c11bc50	0.008894995
15	0x3ce7c301	0.028291227
16	0x3c057e5b	0.008147801
17	0x3c0182b7	0.0079047
18	0xbc832125	-0.016007015
19	0x3d173ba9	0.03692213
20	0x3b8246cb	0.0039757243
21	0xbc798486	-0.01522935
22	0xbc115662	-0.008870693
23	0xbc827f03	-0.015929705
24	0xbb4d957b	-0.0031369615
25	0x3bca0237	0.006164815
26	0xbc085d80	-0.008323073
27	0xbbf85cc5	-0.0075794184
28	0xbb5f5281	-0.0034076276
29	0x38d2e7b6	0.0001005674
30	0xbc3c7bcd	-0.011504126
31	0xbc50998f	-0.012731924

model.model.decoder.encoder.layers.0.linear1.weight f4 [128, 32]
0	0xbe3805fd	-0.17971034
1	0xbdaba8d0	-0.08381808
2	0x3d09ba07	0.033624675
3	0x3cfe8507	0.031069292
4	0x3e21c122	0.1579633
5	0x3a3b2317	0.00071387127
6	0x3d029b97	0.031886663
7	0x3dfcc612	0.123424664
8	0xbd11a015	-0.035553057
9	0x3d507a4d	0.050897885
10	0xbd1aec44	-0.037822977
11	0x3cde6ec1	0.027152421
12	0x3cabb60b	0.020960828
13	0xbd916950	-0.07100165
14	0xbe0fda46	-0.14048108
15	0xbde0d907	-0.10978895
16	0xbdd57c9c	-0.10424158
17	0x3c0205be	0.007935939
18	0x3d2b6a64	0.04184951
19	0x3c3650fb	0.011127706
20	0xbe03c754	-0.12869006
21	0xbd7a7bd0	-0.061153233
22	0x3c9aad3b	0.01888143
23	0x3e31cc4a	0.17363086
24	0x3e3d5e63	0.18493037
25	0xbddf6443	-0.10907795
26	0xbd4bfa99	-0.049799535
27	0xbbcd964e	-0.006274021
28	0xbd858172	-0.0651883
29	0xbdb05b4a	-0.08611162
30	0xbcea392e	-0.028591719
31	0x3e339d9b	0.1754059
32	0xbc6df958	-0.01452478
33	0xbc321df4	-0.010871399
34	0xbd160401	-0.036624912
35	0x3e1d0abd	0.15336128
36	0xbe1ff857	-0.15622078
37	0x3c8856b2	0.016642902
38	0xbd026717	-0.031836595
39	0xbd4196b9	-0.04726288
40	0xbc778084	-0.015106324
41	0xbdd84f12	-0.105619565
42	0xbd82b287	-0.06381708
43	0x3cf28507	0.029604448
44	0xbd4b0644	-0.049566522
45	0x3e3b1e7f	0.18273352
46	0x3d886382	0.066596046
47	0xbe197862	-0.14987329
48	0x3de9413f	0.11389398
49	0x3d261fb5	0.040557582
50	0x3deabf71	0.11462296
51	0xbdb29d79	-0.08721442
52	0x3dca0dee	0.09865938
53	0xbe003026	-0.12518367
54	0xbd10d4fb	-0.035359364
55	0xbe0d7364	-0.1381355
56	0x3d933d91	0.07189477
57	0x3d22f650	0.039785683
58	0xbaba19ea	-0.0014198397
59	0x3dc56c96	0.09639852
60	0x3df9c385	0.121954955
61	0xbbc600ee	-0.0060425913
62	0xbda6b23c	-0.08139464
63	0x3d72d83c	0.05928825
64	0x3e47b59c	0.19502872
65	0xbe4697c5	-0.19393833
66	0xbde2eb49	-0.11080033
67	0xbdac49a4	-0.08412483
68	0xbde5e328	-0.11224967
69	0xbd41065e	-0.047125213
70	0xbded1623	-0.11576488
71	0x3e22098c	0.15823954
72	0x3e40bf98	0.18823087
73	0x3d8ede01	0.06975938
74	0xbe37cbc8	-0.1794883
75	0xbe6c3ead	-0.23070784
76	0xbdd9bcc3	-0.106317066
77	0x3e0e40e8	0.13891947
78	0xbd07e78a	-0.033179797
79	0xbdddb5d3	-0.10825696
80	0x3e45d339	0.19318856
81	0xbe3ebc5c	-0.18626541
82	0x3c42fcf9	0.011901134
83	0x3dc8e2ae	0.09808861
84	0x3e0ac851	0.13552977
85	0xbdbfd15e	-0.093661055
86	0xbd8eacd1	-0.06966556
87	0xbdf10dae	-0.11770187
88	0xbdfa0aed	-0.12209115
89	0xbd8e01e5	-0.06933955
90	0x3d48202c	0.048858806
91	0x3df0e262	0.11761929
92	0x3dadc8dd	0.08485577
93	0x3dfa7763	0.122298025
94	0x3dc7154a	0.097208574
95	0xbe6043b7	-0.21900831
96	0xbdf6b97b	-0.12047096
97	0x3bc3d011	0.005975731
98	0x3e227f62	0.15868905
99	0x3e2a7ba1	0.16648723
100	0x3e0816a9	0.13289894
101	0xbd5b41b8	-0.05352947
102	0x3e03794d	0.12839241
103	0x3deb881c	0.1150057
104	0x3db5ab12	0.0887052
105	0xbd3fce9b	-0.046827894
106	0xbdfb3e27	-0.12267714
107	0xbdf44bf2	-0.11928548
108	0x3e0f915a	0.14020291
109	0xbda9b5e4	-0.08286646
110	0xbdfb98ef	-0.12285029
111	0x3d876a25	0.06612042
112	0x3d38b4f6	0.045094453
113	0x3d85ade3	0.06527307
114	0x3d6d0e1a	0.057874776
115	0xbdfa9223	-0.122349046
116	0x3d98adbb	0.074550115
117	0x3e2dafd6	0.16961607
118	0xbd3a4ccf	-0.045483407
119	0xbdd720bf	-0.10504293
120	0x3c2f9ca0	0.010718495
121	0xbd942722	-0.072340265
122	0x3ddf1427	0.10892516
123	0x3bc85b28	0.0061143823
124	0xbd853071	-0.0650338
125	0xbdc973c9	-0.098365374
126	0x3cfcab59	0.030843424
127	0xbe036544	-0.12831599
128	0x3e13e7d4	0.14443904
129	0x3e0b2e25	0.13591821
130	0xbda09397	-0.078406505
131	0xbdfbf00e	-0.12301646
132	0xbdcd04c8	-0.100106776
133	0x3d82154d	0.06351719
134	0x3d6f8e42	0.058485277
135	0x3e13edd7	0.14446197
136	0x3e2b585b	0.16732924
137	0x3de65968	0.11247522
138	0xbe24810c	-0.16064852
139	0xbe413e24	-0.18871361
140	0xbdc253db	-0.094886504
141	0x3df303d5	0.11865965
142	0x3e3bcd2f	0.1833999
143	0x3e24cad6	0.16093001
144	0xbdd12c21	-0.10213495
145	0x3e07abfb	0.13249199
146	0xbd9423dc	-0.07233402
147	0x3e0f93c5	0.14021213
148	0xbe32e55f	-0.1747031
149	0x3dfb6213	0.122745655
150	0xbd6cb48b	-0.057789367
151	0xbd49d270	-0.049272954
152	0xbe13ad08	-0.14421475
153	0xb7b0c82c	-2.1074047e-05
154	0x3e049542	0.12947562
155	0x3d9c22df	0.07623839
156	0x3e1a74a5	0.15083559
157	0x3cb1b5ff	0.021693228
158	0xbdc9e6e8	-0.09858495
159	0x3e07fa79	0.13279141
160	0x3df4aa5c	0.11946556
161	0x3bea587d	0.007151662
162	0x3e2541c9	0.16138376
163	0xbe066bca	-0.13127056
164	0x3ce0a74a	0.02742352
165	0xbcc94521	-0.024569096
166	0x3d90de82	0.0707369
167	0xbe32a1a1	-0.17444469
168	0x3c50eae7	0.012751318
169	0x3d9ddfa9	0.077086754
170	0xbcb40bb4	-0.021978237
171	0x3df8dcd0	0.12151492
172	0xbd18b881	-0.03728533
173	0x3cd97395	0.026544372
174	0xbd9a9086	-0.07547097
175	0xbd0c391a	-0.034234144
176	0xbce4faf5	-0.027951697
177	0x3d02e1a0	0.031953454
178	0x3e1b9d08	0.15196621
179	0x3cb0e4ec	0.021593533
180	0xbd153d81	-0.036435608
181	0xbdd43365	-0.10361365
182	0xbd7e9a52	-0.06215889
183	0x3e011354	0.1260503
184	0xbde83f83	-0.11340239
185	0xbdbce44e	-0.09223233
186	0xbda96fb1	-0.082732566
187	0xbcd4b896	-0.025966924
188	0xbcc7d7d8	-0.024394915
189	0xbd9ade89	-0.075619765
190	0x3e0e260d	0.13881703
191	0x3e11c6f2	0.14236048
192	0x3e366a93	0.17814092
193	0xbd21d2c7	-0.039507654
194	0xbd1c5112	-0.038163252
195	0xbd2778b0	-0.04088658
196	0xbdcd918f	-0.10037529
197	0x3dcc833a	0.09985967
198	0xbdf86597	-0.12128752
199	0x3e533510	0.2062571
200	0x3e28fd3a	0.16502848
201	0xbd42c991	-0.04755551
202	0xbdd4e6b0	-0.10395563
203	0xbe595bb9	-0.21226396
204	0x3dc7e725	0.09760884
205	0x3e03f539	0.12886514
206	0xbd45f79f	-0.048331853
207	0x3de9c110	0.11413777
208	0xbd9f80ab	-0.07788213
209	0xbe49f503	-0.19722371
210	0x3d293158	0.041306823
211	0xbdae9b55	-0.08525721
212	0xbd5ae813	-0.05344398
213	0xbd471a84	-0.04860927
214	0xbbe354ba	-0.0069375904
215	0xbd987ed8	-0.074460685
216	0x3e1315b6	0.14363751
217	0x3d9c92bf	0.07645177
218	0x3dbd48fe	0.09242438
219	0x3e0b878b	0.13625924
220	0xbe0f5d8a	-0.14000526
221	0x3d49f749	0.049308095
222	0x3d8e4536	0.06946795
223	0xbe170820	-0.14749193
224	0xbde836fe	-0.11338614
225	0xbe1b7ffb	-0.1518554
226	0xbdd21d82	-0.102595344
227	0xbdc9c438	-0.09851879
228	0xbd7762e6	-0.06039705
229	0x3e307a6d	0.17234202
230	0x3e1af8a4	0.15133911
231	0x3df1a9bb	0.11799952
232	0xbce90dd6	-0.02844898
233	0x3e0c6881	0.1371174
234	0xbdf1b03e	-0.11801194
235	0xbdae9a2a	-0.08525498
236	0xbe20005e	-0.1562514
237	0xbc457e3a	-0.012054021
238	0xbd3e2ed2	-0.04643137
239	0xbd93fd0a	-0.07225998
240	0xbe14cbc1	-0.14530851
241	0xbc6f9712	-0.01462342
242	0xbe1578d9	-0.14596881
243	0x3e1a4a37	0.15067373
244	0x3dee2b36	0.116293356
245	0x3de3921d	0.11111853
246	0xbe23efde	-0.16009471
247	0x3e46c44b	0.19410817
248	0x3e2a89d8	0.16654146
249	0xbda6fa3f	-0.081531994
250	0xbd99ab48	-0.075033724
251	0x3e079b19	0.13242759
252	0x3dfd167b	0.123578034
253	0xbe0015b5	-0.1250828
254	0x3dd4bea3	0.103879236
255	0xbe0f7166	-0.14008102

model.model.decoder.encoder.layers.0.linear1.bias f4 [128]
0	0xbd802220	-0.06256509
1	0xbd8945f0	-0.06702793
2	0xbdaff6e4	-0.085920125
3	0xbd848d86	-0.06472306
4	0x3d8a6a15	0.06758515
5	0xbdeeb517	-0.11655634
6	0x3d4cf549	0.05003861
7	0x3de51ffc	0.11187741
8	0xbdcfcd4e	-0.10146581
9	0xbdc4de07	-0.09612661
10	0xbd31bb74	-0.04339166
11	0xbd86882f	-0.06568944
12	0x3c8a5ecc	0.016890906
13	0x3c328353	0.010895568
14	0x3dc94789	0.098280974
15	0xbde9b15c	-0.11410782
16	0x3cdce2df	0.02696365
17	0x3d1a755f	0.03770959
18	0x3e0178f0	0.1264379
19	0x3d02e8f9	0.03196046
20	0x3dcad3a1	0.09903646
21	0xbdc1fd54	-0.09472147
22	0x3db262e8	0.08710271
23	0xbdf33805	-0.11875919
24	0x3e0d8e38	0.13823783
25	0x3dbebaec	0.09312996
26	0xbd7caf10	-0.06169039
27	0x3e0a2b85	0.13493164
28	0x3e134fa4	0.14385849
29	0x3e33b3ed	0.17549105
30	0xbe14591b	-0.14487116
31	0x3cae9698	0.021312043
32	0xbe0e234f	-0.13880657
33	0x3b96cfa8	0.0046023913
34	0xbd09fd36	-0.033688746
35	0x3cff20db	0.031143596
36	0x3daac956	0.08339183
37	0xba2e2ae1	-0.00066439627
38	0x3d3023a6	0.043002747
39	0x3de2b442	0.11069538
40	0xbdf57cac	-0.1198667
41	0xbd494b10	-0.04914385
42	0x3dceb922	0.10093905
43	0xbd9261be	-0.07147549
44	0xbdf27f53	-0.118406914
45	0xbdce64f3	-0.10077848
46	0x3c652e2a	0.013988057
47	0x3dfa470c	0.12220582
48	0xbe25baab	-0.1618449
49	0x3df12887	0.11775308
50	0x3dd7976c	0.10526928
51	0x3dd0cbd9	0.10195131
52	0xbd163c6d	-0.03667872
53	0x3d28bff7	0.041198697
54	0x3e362266	0.1778656
55	0xbdb934ea	-0.09043296
56	0x3d5edc42	0.054409273
57	0x3e160b1b	0.14652674
58	0x3d945dee	0.07244478
59	0xbcf16cf8	-0.029470906
60	0xbe08911e	-0.13336608
61	0xbdc22f2f	-0.09481656
62	0xbdb10717	-0.086439304
63	0xbe3af8cb	-0.1825897
64	0x3d5941ea	0.053041376
65	0xbd9174aa	-0.0710233
66	0xbbf1af44	-0.0073756296
67	0x3dbb3459	0.09140844
68	0xbe2977ce	-0.16549608
69	0xbca94505	-0.020662794
70	0xbdd041b1	-0.1016878
71	0xbdda6ee4	-0.10665682
72	0x3e016198	0.12634885
73	0x3de23c64	0.11046675
74	0x3d811192	0.063021794
75	0x3d8a58b8	0.06755203
76	0x3e35e008	0.17761242
77	0xbc8656a2	-0.016398732
78	0xbca9faee	-0.020749535
79	0xbd019b96	-0.03164252
80	0x3d51e3fa	0.051242806
81	0x3d81d95f	0.06340288
82	0xbd394670	-0.04523319
83	0x3e23be2c	0.15990514
84	0xbdbb0142	-0.09131099
85	0x3e15035f	0.14552067
86	0x3e23fe5d	0.16015
87	0x3de45cc9	0.1115051
88	0x3d82f731	0.06394804
89	0x3e04fd61	0.12987281
90	0x3e1bc3e0	0.15211439
91	0xbe0aade7	-0.13542901
92	0x3daa6adb	0.08321162
93	0x3b862963	0.004094289
94	0x3e0f988d	0.14023037
95	0xbc011822	-0.007879289
96	0xbc9cb659	-0.019129919
97	0x3e109f49	0.14123262
98	0x3d24627b	0.04013298
99	0xbdcd828e	-0.10034667
100	0x3c7aca13	0.015306967
101	0x3b8d03ec	0.004303446
102	0x3df20090	0.118165135
103	0x3e0862e7	0.13318978
104	0x3b710f87	0.0036782937
105	0x3c8988f6	0.01678894
106	0xbe026905	-0.12735374
107	0xbd9467e0	-0.07246375
108	0xbe06774c	-0.13131446
109	0xbd1d330f	-0.03837877
110	0x3e066d41	0.13127615
111	0x3d4f3e95	0.050596792
112	0xbe0b0b66	-0.13578567
113	0x3e14f349	0.14545931
114	0xbe0e77e8	-0.13912928
115	0x3d1adce7	0.037808325
116	0xbdbf01ce	-0.09326516
117	0x3e4852c0	0.19562817
118	0x3c1669ed	0.009180528
119	0x3d88009c	0.06640741
120	0xbd99e59e	-0.07514499
121	0x3d64cb77	0.0558581
122	0x3df64573	0.12024965
123	0x3d942cac	0.07235083
124	0x3bf3b0a3	0.007436828
125	0xbdd5e44a	-0.10443933
126	0x3e4303ed	0.19044466
127	0x3dffb8e0	0.12486434

model.model.decoder.encoder.layers.0.linear2.weight f4 [32, 128]
0	0x3e000424	0.1250158
1	0x3dc7ce58	0.09756154
2	0xbbf3df8d	-0.007442421
3	0xbdeeae54	-0.11654344
4	0x3dd21c93	0.10259356
5	0xbd876828	-0.06611663
6	0xbd899acb	-0.067189775
7	0xbd83fdb4	-0.064448744
8	0x3dbde74d	0.09272633
9	0x3d74d7a3	0.05977596
10	0xbcf19746	-0.029491078
11	0xbcff4198	-0.031159207
12	0xbdc298c0	-0.09501791
13	0xbdb0b518	-0.08628291
14	0xbd5336ba	-0.051565863
15	0xbbbf6505	-0.0058409
16	0x3d0e246c	0.034702703
17	0xbd69a0c7	-0.057038095
18	0xbcb75b1a	-0.022382308
19	0x3d071d5f	0.032986995
20	0x3c2744c9	0.010209271
21	0xbde0cfe4	-0.10977152
22	0xbb8ee4c0	-0.004360765
23	0x3e018a8f	0.12650512
24	0x3d84bcd2	0.06481327
25	0x3cbef80f	0.023311643
26	0x3dfba0b9	0.12286515
27	0x3d695a8d	0.05697112
28	0x3b500381	0.003174037
29	0xbd6ca5bb	-0.05777524
30	0x3d568fbe	0.052383177
31	0x3d011848	0.031517297
32	0xbd898599	-0.06714935
33	0xbd9d003d	-0.07666061
34	0x3d9be47d	0.0761194
35	0x3db7f964	0.08983114
36	0x3dce016b	0.10058864
37	0xbd0c1390	-0.034198344
38	0xbcac5095	-0.021034518
39	0xbd26ff5b	-0.04077087
40	0x3c707aa0	0.014677674
41	0x3d093bb5	0.033504207
42	0x3d160b24	0.03663172
43	0x3dbe4570	0.09290588
44	0x3b5ed58a	0.003400179
45	0xbdae5e58	-0.085140884
46	0xbda529d8	-0.08064622
47	0xbd0e398d	-0.034722853
48	0xbd88a34d	-0.06671772
49	0x3c8252ff	0.015908716
50	0x3c9a236d	0.01881572
51	0x3d2b44d5	0.04181369
52	0x3d5296f2	0.051413484
53	0x3e03959e	0.12850043
54	0x3d1eb70a	0.03874878
55	0xbdda61d0	-0.106631875
56	0x3db91e98	0.090390384
57	0x3c8b9293	0.017037665
58	0x3dd1f317	0.10251444
59	0x3d808445	0.062752284
60	0x3d3a0836	0.045417987
61	0x3cd494e6	0.025949907
62	0x3bc5f787	0.0060414704
63	0xbd7ee512	-0.062230177
64	0x3d6e43b2	0.058170028
65	0xbd17e70a	-0.03708557
66	0xbd2d9e05	-0.042387027
67	0xbd8f4268	-0.06995088
68	0x3d843c0b	0.06456765
69	0xbd016cf2	-0.03159804
70	0xbca9a339	-0.020707713
71	0x3d0489b9	0.032357905
72	0x3d957e62	0.07299496
73	0xbd50e900	-0.051003456
74	0x3d57b0d1	0.05265886
75	0x3d83aaab	0.06429037
76	0xbda63ff9	-0.081176706
77	0xbdd9aa13	-0.10628142
78	0xbca3d114	-0.019997157
79	0x3dcaaea1	0.09896589
80	0xbd93ff40	-0.072264194
81	0xbcad4044	-0.021148808
82	0xbd010d05	-0.031506557
83	0xb9cceefd	-0.00039087972
84	0x3dbe1db4	0.09283009
85	0x3da0a0fe	0.07843207
86	0x3d4df5dc	0.050283298
87	0xbdb3afdd	-0.08773778
88	0xbc404d53	-0.0117371855
89	0x3d1bf50e	0.0380755
90	0xbca0b76e	-0.019618716
91	0x3cbf4220	0.02334696
92	0xbd9a563c	-0.07535979
93	0x3ca971b2	0.020684097
94	0x3cadc59a	0.021212388
95	0xbcb58f08	-0.02216293
96	0x3e1684fc	0.14699167
97	0x3d5c201b	0.053741556
98	0x3b9f0899	0.00485332
99	0xbd13e024	-0.03610243
100	0x3d702bac	0.0586354
101	0x3ced320f	0.028954534
102	0x3c06b5e2	0.008222075
103	0xbdba5a6b	-0.09099277
104	0xbe006fdf	-0.12542675
105	0x3c776396	0.015099427
106	0x3cba75c1	0.022761228
107	0x3c912a72	0.017720435
108	0xbc00390a	-0.007826099
109	0xbdd156a9	-0.10221607
110	0xbd2f7666	-0.042837523
111	0x3d7191af	0.058976825
112	0x3cdf647f	0.0272696
113	0x3d63d6db	0.055624824
114	0xbd8f1bf2	-0.06987752
115	0x3d362d6f	0.044476923
116	0xbd3745cc	-0.044744298
117	0x3c8b7492	0.017023358
118	0xbd57b10a	-0.052659072
119	0xbd5824e1	-0.052769545
120	0xbd2839d5	-0.041070778
121	0xbccd3d7d	-0.025053734
122	0x3c966fae	0.0183638
123	0x3bd066d0	0.0063599125
124	0xbdbd89d9	-0.09254808
125	0x3becd88d	0.0072279633
126	0xbdb93b62	-0.090445295
127	0xbc5cf26c	-0.013485532
128	0xbda22ce2	-0.07918717
129	0x3d9d38f2	0.07676877
130	0x3da051b6	0.07828085
131	0x3db70fb2	0.089385405
132	0x3d045c72	0.032314725
133	0xbc98721d	-0.018609101
134	0x3dbe7568	0.09299737
135	0xbcf99596	-0.030466836
136	0x3c9788f9	0.01849793
137	0xbd0bbdc7	-0.034116533
138	0xbd179baf	-0.037013706
139	0xbd979396	-0.07401197
140	0x3beffbce	0.0073237186
141	0x3d022da2	0.0317818
142	0xbccc8f69	-0.024970727
143	0x3dfc5405	0.12320713
144	0x3c20d108	0.009815462
145	0x3d35b0f2	0.0443582
146	0xbd74f948	-0.059808046
147	0xbd895719	-0.06706066
148	0xbd0fe00e	-0.035125785
149	0xbcb0546f	-0.021524636
150	0xbc50b449	-0.012738296
151	0xbd37de94	-0.04489
152	0x3c46a767	0.012124873
153	0x3db1ba5e	0.08678125
154	0xbd54703c	-0.051864848
155	0xbb141c4c	-0.0022599874
156	0x3c656853	0.014001924
157	0xbd761038	-0.06007406
158	0xbca2b052	-0.019859467
159	0x3d99085f	0.074723
160	0xbcd040a6	-0.025421452
161	0xbd529a7b	-0.051416855
162	0x3d8fef77	0.07028096
163	0xbd4a2e0e	-0.049360327
164	0x3b08d3b2	0.0020878133
165	0xbd201d7a	-0.03909061
166	0x3da9cf28	0.08291465
167	0xbda99590	-0.0828048
168	0xbb3c7f61	-0.0028762447
169	0x3bfb2033	0.0076637506
170	0x3d0831fe	0.0332508
171	0xbcfc2bdb	-0.03078263
172	0xbd4ccb69	-0.049998675
173	0x3dc7f6e4	0.097638875
174	0xbc4a7b96	-0.012358567
175	0xbcd4287b	-0.025898209
176	0xbd9f3332	-0.077734366
177	0x3d567622	0.052358754
178	0xbd3aede0	-0.04563701
179	0x3d506486	0.050877117
180	0xbd2ae17a	-0.041718937
181	0x3d8e817c	0.06958291
182	0x3dea5b1d	0.1144316
183	0x3dcf5c56	0.101250336
184	0x3dbc9aea	0.09209235
185	0x3d9baa33	0.07600822
186	0xbd015fe6	-0.031585597
187	0xbcb56c67	-0.022146417
188	0x3d39afd8	0.045333713
189	0xbc99f391	-0.0187929
190	0xbd941762	-0.072310224
191	0xba13ff0b	-0.00056456093
192	0xbd479f2a	-0.048735775
193	0x3da4d9f9	0.080493875
194	0x3dfa14c8	0.12210995
195	0x3b45d868	0.0030188803
196	0xbd313e0e	-0.04327207
197	0x3ddf25be	0.108958706
198	0xbd98fba4	-0.07469872
199	0xbd97cfc8	-0.07412678
200	0xbd13e729	-0.036109123
201	0xbc4d09d9	-0.012514555
202	0x3dbec3a9	0.09314663
203	0xbd5971af	-0.053086933
204	0xbd4cd07e	-0.05000352
205	0xbc75cb40	-0.015002072
206	0x3d958fcd	0.073028184
207	0xbd713743	-0.058890592
208	0x3cec271e	0.028827246
209	0xbd857043	-0.06515553
210	0x3d3c046c	0.045902655
211	0x3b6a342b	0.003573666
212	0xbda5bf6c	-0.080931515
213	0x3bbec6ac	0.0058220234
214	0x3ab9d154	0.0014176765
215	0x3d381308	0.044940025
216	0x3d87ef0a	0.0663739
217	0xbd3fce89	-0.046827827
218	0xbd1d9b40	-0.038478136
219	0xbdc70cf3	-0.09719267
220	0x3d0ed31a	0.03486929
221	0xbd157e1e	-0.036497228
222	0x3de6353c	0.112406224
223	0xbc98cdbe	-0.018652793
224	0xbda6f6f8	-0.08152574
225	0xba31a0fb	-0.0006776002
226	0x3dc1967a	0.09452529
227	0x3da4b55d	0.08042405
228	0x3cf18567	0.029482557
229	0x3da1b562	0.07895924
230	0xbdb70fbd	-0.08938549
231	0x3dcd3e10	0.10021603
232	0xbd890bf5	-0.06691734
233	0xbd2d0541	-0.04224134
234	0xbc67c893	-0.014146942
235	0xbdb00eec	-0.08596596
236	0xbb64a7cc	-0.0034890054
237	0xbccd807f	-0.025085686
238	0x3c7ce53b	0.015435512
239	0x3d36e3fc	0.044651017
240	0xbcf1dc70	-0.029524058
241	0xbcab2594	-0.020891942
242	0xbce2195d	-0.027599985
243	0xbc4b53f3	-0.012410152
244	0xbdb6a697	-0.08918493
245	0xbdc0f210	-0.0942117
246	0x3d704a15	0.0586644
247	0xbd10d28d	-0.035357047
248	0x3d4d7386	0.050159
249	0xbc23d27a	-0.009998912
250	0x3d95339b	0.072852336
251	0xbca41f23	-0.020034378
252	0x3c81c66a	0.015841682
253	0xbdf819ed	-0.1211432
254	0x3d6d880f	0.057991084
255	0xbcccafcd	-0.024986172

model.model.decoder.encoder.layers.0.linear2.bias f4 [32]
0	0x3d262220	0.040559888
1	0xbd03dac7	-0.032191064
2	0xbd096229	-0.03354088
3	0xbcea52f2	-0.028604005
4	0x3a82ce04	0.000997961
5	0xbaad25fb	-0.0013210172
6	0xbcc502f4	-0.02404926
7	0x3d66920c	0.056291625
8	0xbc8f8372	-0.017518733
9	0x3cf921fe	0.030411717
10	0x3d52cdbf	0.051465746
11	0x3d7eeb50	0.06223613
12	0xbd13c123	-0.03607286
13	0x3dad4f2f	0.08462369
14	0x3d83122c	0.063999504
15	0x3dbd6790	0.092482686
16	0x3d0673b3	0.032825183
17	0xbd279e1c	-0.04092227
18	0xbdbd815d	-0.0925319
19	0xbcdde5d2	-0.027087126
20	0xbd68a3cd	-0.056796838
21	0xbd656360	-0.056002975
22	0x3d20fe92	0.039305277
23	0x3cc74a60	0.024327457
24	0x3d5142e3	0.05108918
25	0x3da1c8cd	0.07899628
26	0x3d552693	0.05203874
27	0xbdb5bfec	-0.08874497
28	0x3cbfdd97	0.023421092
29	0x3da13161	0.078707464
30	0x3d9e4fd0	0.07730067
31	0xbd9b152f	-0.075724

model.model.decoder.encoder.layers.0.norm1.weight f4 [32]
0	0x3f7baea8	0.9831338
1	0x3f7be70d	0.9839943
2	0x3f822d8f	1.0170153
3	0x3f7788ca	0.966931
4	0x3f81ff04	1.015595
5	0x3f7f77fb	0.9979245
6	0x3f808dff	1.0043334
7	0x3f762562	0.9615079
8	0x3f7a29bf	0.9771995
9	0x3f7c1b5c	0.9847925
10	0x3f812af1	1.009123
11	0x3f7a838e	0.97856987
12	0x3f768b88	0.9630666
13	0x3f7d228b	0.98880833
14	0x3f7d52f0	0.9895468
15	0x3f7b05d1	0.9805575
16	0x3f7f5178	0.99733686
17	0x3f787783	0.9705736
18	0x3f809226	1.0044601
19	0x3f7a7aab	0.97843426
20	0x3f7cee45	0.9880107
21	0x3f7bb7c9	0.9832731
22	0x3f7e7ea5	0.99411994
23	0x3f7e94f6	0.99446046
24	0x3f7bd00e	0.9836434
25	0x3f7d09f3	0.98843306
26	0x3f7d81ff	0.99026483
27	0x3f7af43f	0.9802894
28	0x3f79dc27	0.9760155
29	0x3f7d15cc	0.98861384
30	0x3f815c4d	1.0106293
31	0x3f8122ea	1.008878

model.model.decoder.encoder.layers.0.norm1.bias f4 [32]
0	0xbc06881a	-0.00821116
1	0x3b70ea39	0.0036760701
2	0x3c986716	0.018603843
3	0xbc513e5b	-0.012771214
4	0x3c094c00	0.008379936
5	0xbc47b7cf	-0.0121898195
6	0x3c3f9126	0.011692321
7	0x3cec4141	0.02883971
8	0xbca97367	-0.020684911
9	0x3beeb448	0.007284675
10	0xbc330e64	-0.010928724
11	0x3bcf6235	0.006328846
12	0x3cef7787	0.0292318
13	0x3b40f325	0.00294418
14	0x3c71bfb0	0.0147551745
15	0x3cb3c103	0.021942621
16	0xbb924ce0	-0.0044647306
17	0x3c9e37d0	0.019313723
18	0xbb9cd8c3	-0.004786582
19	0x3d19d607	0.037557628
20	0xbbf99b3a	-0.0076173814
21	0xbcb89a33	-0.022534465
22	0xbc46b72a	-0.012128631
23	0xbcbb2579	-0.022845017
24	0xbc9eed19	-0.019400166
25	0x3bd630b7	0.006536569
26	0xbb597ff2	-0.0033187834
27	0xbc579662	-0.013158413
28	0xbc7da8bc	-0.015482124
29	0x390f88ca	0.000136885
30	0xbbed22d9	-0.00723682
31	0xbc890cbc	-0.016729705

model.model.decoder.encoder.layers.0.norm2.weight f4 [32]
0	0x3f7c45aa	0.985438
1	0x3f809c7e	1.0047758
2	0x3f86b509	1.0523998
3	0x3f7b23db	0.98101586
4	0x3f841ece	1.0321901
5	0x3f8203d8	1.0157423
6	0x3f832c1b	1.0247835
7	0x3f7c0ed9	0.98460156
8	0x3f80b259	1.0054427
9	0x3f831b1e	1.024265
10	0x3f7b0a11	0.98062235
11	0x3f81d5dc	1.014339
12	0x3f7bbcd2	0.9833499
13	0x3f8173cf	1.0113467
14	0x3f80deab	1.0067953
15	0x3f80220a	1.0010388
16	0x3f82f9ce	1.0232484
17	0x3f7e23f1	0.9927359
18	0x3f8397b5	1.0280672
19	0x3f7f3684	0.9969256
20	0x3f7f3ad0	0.99699116
21	0x3f8173cc	1.0113463
22	0x3f81facd	1.0154663
23	0x3f8106dd	1.008022
24	0x3f7d069e	0.9883822
25	0x3f8178fa	1.0115044
26	0x3f8175aa	1.0114033
27	0x3f86a707	1.0519723
28	0x3f7cfc8d	0.9882286
29	0x3f7a4522	0.9776174
30	0x3f86d19a	1.0532715
31	0x3f86be0e	1.052675

model.model.decoder.encoder.layers.0.norm2.bias f4 [32]
0	0xbbaeda39	-0.0053360728
1	0x3c94a71e	0.018146094
2	0x3ca3b614	0.019984283
3	0xbc801b3a	-0.015637983
4	0x3c9e2bb4	0.019307949
5	0xbca3591b	-0.01993995
6	0x3c9e7305	0.019341955
7	0x3c8ed553	0.017435705
8	0xbc9c8f8c	-0.019111417
9	0x3c9b684f	0.018970637
10	0x3c842e7b	0.016135445
11	0x3c93368a	0.017970342
12	0x3c769435	0.015049984
13	0x3ca13854	0.01968018
14	0x3c934783	0.017978435
15	0x3c91cd7a	0.017798174
16	0x3c9bb5ea	0.019007642
17	0x3c8c4002	0.017120365
18	0xbaad845a	-0.0013238296
19	0xbcd20c3d	-0.025640601
20	0x3b0c7959	0.0021434634
21	0xbc932d01	-0.017965795
22	0xbc950b46	-0.018193852
23	0xbc99cfc2	-0.018775824
24	0xbc68b10f	-0.01420237
25	0x3c9a6ba3	0.018850153
26	0xbc9f379e	-0.0194357
27	0xbc974162	-0.018463794
28	0xbc851d23	-0.016249245
29	0x3c633f98	0.013870142
30	0xbcf6087c	-0.030033343
31	0xbca36b68	-0.019948676

model.model.projection.weight f4 [2, 32]
0	0xbd8ad196	-0.067782566
1	0xbd911cfb	-0.07085606
2	0xbdbd56f7	-0.09245103
3	0x3d41bf24	0.047301427
4	0xbde7de25	-0.113216676
5	0xbe25ef36	-0.16204533
6	0xbd868f3a	-0.06570287
7	0xbdc7fb4e	-0.097647294
8	0xbd872fac	-0.066008896
9	0x3cd6a8a0	0.026203454
10	0xbe0d43cd	-0.13795395
11	0x3e1e15cc	0.15438002
12	0xbe1ce15a	-0.1532034
13	0x3c903315	0.017602483
14	0xbd750c64	-0.05982627
15	0xbe233d07	-0.15941249
16	0x3da2bb8f	0.0794593
17	0xbd410592	-0.047124453
18	0xbde0f727	-0.109846406
19	0x3dc14bf0	0.09438312
20	0xbd743d0e	-0.05962854
21	0xbe013b4d	-0.12620278
22	0x3c7a66ad	0.015283269
23	0xbe2d742f	-0.16938852
24	0x3e251ef0	0.16125083
25	0x3e1f4b17	0.15555988
26	0xbce22c4a	-0.02760901
27	0x3dc32ad1	0.09529651
28	0xbc3b4b0e	-0.011431469
29	0xbdd3e0d6	-0.103456184
30	0xbc988d98	-0.018622205
31	0x3e08a531	0.13344266
32	0xbdbc181b	-0.09184285
33	0xbd366ab3	-0.04453535
34	0x3de609e5	0.11232356
35	0xbe086a4c	-0.13321799
36	0xbe212ce7	-0.15739785
37	0xbe189a43	-0.14902596
38	0x3e33c5af	0.17555879
39	0xbb7fef74	-0.0039052637
40	0xbe126443	-0.1429606
41	0x3e1326c0	0.1437025
42	0x3bf1d223	0.0073797866
43	0x3bcc0534	0.006226206
44	0xbd358ed6	-0.044325672
45	0xbc701a95	-0.014654775
46	0xbc30f9a8	-0.01080171
47	0xbe0e0f8a	-0.13873115
48	0xbe2e7374	-0.1703623
49	0xbbd60d10	-0.006532319
50	0x3b93a664	0.0045059193
51	0x3e1a9795	0.15096886
52	0xbd8b73bc	-0.06809184
53	0x3d3dc625	0.046331543
54	0xbe0c53ea	-0.13703886
55	0x3e09dc2a	0.13462892
56	0xbd4e346a	-0.050342955
57	0xbc3c8a7d	-0.011507628
58	0x3d4c7948	0.04992035
59	0x3e1130a2	0.14178708
60	0x3dac6b4e	0.08418904
61	0xbe0a65de	-0.13515422
62	0xbe0ccd3d	-0.13750167
63	0xbe1a4edb	-0.15069143

model.model.projection.bias f4 [2]
0	0x3d99bd82	0.07506849
1	0xbe0261a9	-0.12732567

model.classifier.weight f4 [2, 32]
0	0xbe047e09	-0.12938704
1	0x3dd05bc0	0.1017375
2	0x3d9c2abd	0.07625339
3	0xbd3f8f04	-0.04676725
4	0x3d04e66b	0.032446306
5	0xbe41c761	-0.18923713
6	0x3db2d161	0.08731342
7	0x3e12aae5	0.14323004
8	0xbdf227fc	-0.11824033
9	0x3e334469	0.17506565
10	0x3d1e5a82	0.038660534
11	0x3e17f5f4	0.14839917
12	0x3cf2d2de	0.029641565
13	0x3e098581	0.13429834
14	0x3e44e965	0.19229658
15	0x3a032e20	0.00050041266
16	0x3d296434	0.041355327
17	0x3d4fcb86	0.050731204
18	0xbe0ec51a	-0.13942376
19	0x3e0f4782	0.13992122
20	0x3d545e72	0.051847883
21	0xbe194969	-0.1496941
22	0xbe3eb6a8	-0.18624365
23	0xbda3cb58	-0.07997769
24	0xbdfb8632	-0.12281455
25	0x3bec667a	0.0072143646
26	0x3d847bd0	0.06468928
27	0xbe197d21	-0.14989139
28	0xbd367046	-0.044540666
29	0x3e010053	0.1259778
30	0xbe3b6a95	-0.18302377
31	0xbd4f2283	-0.050570022
32	0xbdf9c335	-0.12195436
33	0xbe030e23	-0.12798361
34	0xbe495d4a	-0.19664493
35	0x3c6fd702	0.014638664
36	0xbe403de1	-0.18773605
37	0xbd93b619	-0.07212467
38	0xbdad7b1d	-0.084707476
39	0xbdf7a868	-0.12092668
40	0xbd71cbb7	-0.05903217
41	0xbd112fc0	-0.03544593
42	0x39bdba01	0.00036187473
43	0xbe112036	-0.14172444
44	0x3b70a2c0	0.00367181
45	0x3cdb8779	0.026797997
46	0xbd306618	-0.043066114
47	0xbdc77e25	-0.09740857
48	0xbe4ecc3c	-0.20195097
49	0xbe2a68dc	-0.16641563
50	0xbdcb52e3	-0.09927919
51	0x3e1e87ea	0.15481535
52	0x3d81a278	0.063298166
53	0x3e0e12ed	0.13874407
54	0x3e221e65	0.15831907
55	0x3d52c574	0.051457837
56	0xbdb87cd8	-0.09008187
57	0xbe1a8d44	-0.15092951
58	0x3e477874	0.19479543
59	0x3e20504c	0.15655631
60	0xbc198bb3	-0.009371686
61	0x3de961f4	0.11395636
62	0xbde781fe	-0.11304091
63	0x3e51a7df	0.20474194

model.classifier.bias f4 [2]
0	0xbdae63c8	-0.085151255
1	0xbdef1314	-0.11673561
