lightning_logs/version_50/checkpoints/epoch=5-step=150.ckpt (torch, 181901 bytes, 50 tensors)

model.model.pos f4 [12, 32]
000000 4b cd 1f bc b2 7f b6 be 71 27 5c 3d 93 4b 95 3e
       -0.0097535355 -0.356443 0.05374855 0.2915922
000010 7e 4c 53 be 09 f2 1e 3e 4e 3f 93 be 37 1b 8c be
       -0.20634648 0.15522017 -0.28759235 -0.27364513
000020 15 c3 57 be 29 ce a4 be fc f4 c0 bd 43 c7 8a 3e
       -0.21070512 -0.32188538 -0.09421727 0.2710515
000030 17 e6 cd 3d 95 48 4e 3d e5 e0 88 bb a9 64 a5 be
       0.10053652 0.05036219 -0.0041772 -0.3230336
000040 1e 87 b9 3e ee 64 b1 3e b6 81 0f 3e 00 8c 34 be
       0.362359 0.34647316 0.14014325 -0.17631531
000050 87 be 2d be 9d 27 05 be 29 ae 0d bd d3 e1 76 3e
       -0.16967212 -0.13003393 -0.03458992 0.24109583
000060 f3 4b 5b be 46 ed 98 bc 74 31 5c 3e b1 b3 07 3d
       -0.21415691 -0.018667828 0.2150324 0.03313035
000070 b4 48 59 3e 3c 74 ab be f6 1c 41 3e 24 af 28 3e
       0.2121914 -0.33487117 0.18858704 0.16473061
000080 eb d4 d4 3b 1c ca 82 bd 3e d7 47 3d 47 55 a2 be
       0.0064951084 -0.063862056 0.048789255 -0.31705686
000090 e9 e6 52 3e 95 a2 ba be ae b1 98 3e 66 2e 0a 3e
       0.20595898 -0.36452165 0.2982306 0.13494262
0000a0 c9 91 b4 3e 78 76 9c 3e 2e 3f a2 3e d4 10 48 3e
       0.35267475 0.30559134 0.31688827 0.1953767
0000b0 61 b1 ea bc ef 04 9f 3e f1 47 3d be 99 30 62 bd
       -0.028649034 0.31058452 -0.18484475 -0.055222128
0000c0 f0 73 99 3e 82 be 11 3e e6 8d 2d 3d 1e dd 83 be
       0.29971266 0.14232829 0.042371653 -0.25754637
0000d0 50 62 b7 3e 44 20 bb be 7d bf 5d 3d d9 81 ae 3e
       0.35817194 -0.36548054 0.054137696 0.3408344
0000e0 81 94 71 be 18 ba 17 be 4b df c0 bd dc 9f 93 3e
       -0.23591806 -0.14817083 -0.0941759 0.288329
0000f0 57 3c ae be 80 9d b4 be 76 dd 62 3e a4 43 a4 bc
       -0.3403041 -0.35276413 0.22154793 -0.020051785
000100 7b ee 15 be a9 74 be 3c 5e 38 55 be 66 1d 42 be
       -0.14641754 0.023248987 -0.20822284 -0.18956527
000110 df a6 48 3e ab de e9 bd 0e 48 ab be ec 37 b6 3e
       0.19594906 -0.11419424 -0.3345341 0.3558954
000120 4a c0 62 be 8a 08 8c be f6 75 bc bd b9 cd a0 3e
       -0.22143665 -0.27350265 -0.09202187 0.31406954
000130 c5 18 ad bd 02 01 39 3c 8c 25 85 bd d3 19 31 3e
       -0.0845199 0.011291744 -0.06501302 0.17295007
000140 cf ae 47 be 70 6c 91 3d 18 8d d5 bc 2c 12 a6 bd
       -0.19500278 0.07100761 -0.026068255 -0.08108935
000150 86 f1 2f 3e 7b d9 14 bd 87 ff a8 bd 87 05 76 3e
       0.17181978 -0.036340218 -0.08251863 0.24025546
000160 d9 5a af be 52 12 24 3e 09 11 05 3e f4 e2 cd bd
       -0.34249 0.16022614 0.1299478 -0.100530535
000170 ab 69 73 be 17 1a 8a be 66 a7 33 3e ba e4 8c be
       -0.23770778 -0.2697303 0.17544326 -0.27518255
000180 1b 2b 88 bd 03 3d 84 bd 27 2f 63 3e 08 88 58 be
       -0.06648847 -0.064569496 0.22185956 -0.21145642
000190 19 66 b5 be 4d 62 6f be 64 b6 62 bd 39 a9 b0 3e
       -0.35429457 -0.23377343 -0.055349723 0.34504107
0001a0 a7 6e 88 be bc df f3 3d 7d ab a5 bd 3e 92 1d 3e
       -0.2664692 0.11907908 -0.080893494 0.15387818
0001b0 4c b7 b9 3e 67 17 61 bd 2b 15 dd 3d e2 d7 2e be
       0.36272657 -0.05495396 0.10795053 -0.1707454
0001c0 cb c4 89 3e 83 05 e5 bd e1 12 57 bd 53 bc 83 3e
       0.26907954 -0.11182692 -0.05250824 0.25729617
0001d0 0c ec ad 3e b5 0c 0f be 92 2a 22 bc 9c cb 9f 3e
       0.33969152 -0.13969691 -0.009897845 0.3121003
0001e0 3e 2e 8a be 9c 22 59 3d 7f 23 83 bd b4 ac 87 be
       -0.26988405 0.05301152 -0.06403255 -0.2649895
0001f0 c2 a2 0d be 9d 5c a2 be 14 b1 4d 3d c4 97 5c 3e
       -0.13831618 -0.31711283 0.050217703 0.21542269
000200 64 84 a7 3e 72 16 b7 bd de e1 6b bd 0b a1 aa be
       0.32718194 -0.08939828 -0.05758845 -0.3332599
000210 d9 b8 09 be ae 20 0e 3e dc c6 d3 3b 12 02 73 be
       -0.1344942 0.13879654 0.006462915 -0.23731259
000220 d8 8f 49 3e ff 36 2c 3d 4f b6 4b be 31 1c 9b be
       0.19683778 0.042044636 -0.19893764 -0.30294946
000230 0a a1 a3 3d 69 5c ac be cc 0b 85 3e 85 f9 9e be
       0.079897 -0.33664253 0.25985563 -0.31049743
000240 e2 35 0f 3d a9 1c 5c be 84 bb 38 3e 41 c4 14 3e
       0.034963496 -0.21495308 0.18040282 0.1452799
000250 22 62 89 bc bf 7c ad 3e 16 77 68 be 42 9d aa 3e
       -0.016770426 0.33884236 -0.22701678 0.33323103
000260 8d ec 89 be c6 15 33 3e ec 0e a7 be 30 bd 1d be
       -0.26938286 0.17488775 -0.32628572 -0.154042
000270 ea 57 18 be fe 50 50 bd 00 b2 bb 3e 1f 98 29 3c
       -0.14877287 -0.05085849 0.3665924 0.01035121
000280 23 d6 56 bd cc 33 2b 3e ec c5 9d 3c 2f b4 c4 bd
       -0.05245031 0.16718978 0.019259416 -0.0960468
000290 6b 97 2c 3e c0 49 54 3e 7f f6 97 be 14 a8 3d 3e
       0.16854636 0.20731258 -0.2968025 0.18521148
0002a0 24 be 90 be ab 5e 38 3e 70 c7 64 3e de a8 51 bd
       -0.28270066 0.18004863 0.22341704 -0.051186435
0002b0 32 ee 03 bc e5 a5 36 be c0 7a aa 3d 88 e3 9b 3e
       -0.008052396 -0.17836721 0.08324194 0.3044703
0002c0 dd 31 b9 be 5f 05 9b 3e 7e 75 37 be ea 53 84 3e
       -0.36170855 0.30277535 -0.17915913 0.2584527
0002d0 9b c7 b0 be ce 00 9a 3d f1 f5 b4 bd dc c3 ad 3e
       -0.34527287 0.07519685 -0.08835972 0.3393849
0002e0 88 9d 84 3e 55 77 53 3d 03 8d b0 3d 5b 6a 79 be
       0.25901437 0.051627476 0.08620646 -0.24356978
0002f0 37 f7 6f 3e f8 b2 27 be ee f2 d3 bd 61 2f 96 be
       0.23434149 -0.16376865 -0.103490695 -0.29333022
000300 16 2d 8f 3e 57 e2 9b be 14 15 f9 bd 3f 44 2e 3e
       0.27964085 -0.3044612 -0.121622235 0.17018221
000310 ea 8c 8c 3e e6 25 3f 3d 2e 19 3c 3e 41 63 53 bd
       0.2745126 0.046667002 0.1836898 -0.051608328
000320 60 72 62 bd 4d 58 02 be 3b f5 6f be e6 7f d1 3d
       -0.055284858 -0.12728997 -0.23433392 0.10229473
000330 ae d0 2d 3e 00 d2 91 be 7e 2b b6 be a8 db be bc
       0.16974136 -0.2848053 -0.35580057 -0.0232981
000340 78 3c 84 bd c6 4c d5 3d df ac 92 be dd 78 1e be
       -0.06456846 0.10415034 -0.28647515 -0.15475793
000350 ad 69 ad 3e 7b 38 38 be e6 18 15 3e 71 f6 1e 3e
       0.33869687 -0.17990296 0.14560279 0.15523697
000360 c0 75 7d ba 83 db ec bd dd b1 9f be aa af 18 be
       -0.000966873 -0.11565306 -0.31190386 -0.1491076
000370 29 8c 36 be 2b 12 d1 bc 25 83 a2 bd ac da a4 3e
       -0.17826904 -0.025521358 -0.0793517 0.32198083
000380 d0 52 b0 3e bb 58 81 be 92 c4 cd 3d a2 3a 8e 3d
       0.3443818 -0.25263008 0.100472584 0.06944777
000390 64 29 0d 3e 1c 5e a8 3e d5 e8 c6 3d b2 9a 1d 3e
       0.1378532 0.328843 0.09712378 0.15391043
0003a0 5c b1 a6 bd ad a6 3f be c4 65 ed 3d 35 c1 44 bd
       -0.08139297 -0.18715926 0.11591676 -0.04803582
0003b0 bd e2 b3 3e a3 48 96 3e bd d2 41 be 63 4b 59 3d
       0.35133925 0.29352292 -0.18928047 0.05305041
0003c0 31 7e 26 be 80 cd 95 be d3 f2 97 3e 5a e7 22 3e
       -0.16259076 -0.29258347 0.29677448 0.15908566
0003d0 d5 45 aa be c8 db 47 3e 74 2f f5 3d 97 97 91 bd
       -0.33256403 0.19517434 0.119719416 -0.071089916
0003e0 ae 92 45 3e 4d 2e bb 3d 75 e4 98 bd 10 26 d6 bd
       0.19294235 0.091396905 -0.0746545 -0.104564786
0003f0 14 6d ad be 77 d9 75 be 6a d7 9a 3e d6 62 3d 3e
       -0.33872283 -0.24008738 0.30242473 0.18494734

model.model.embed.weight f4 [2, 32]
000000 00 00 00 00 00 00 00 00 00 00 00 00 00 00 00 00
       0.0 0.0 0.0 0.0
000010 00 00 00 00 00 00 00 00 00 00 00 00 00 00 00 00
       0.0 0.0 0.0 0.0
000020 00 00 00 00 00 00 00 00 00 00 00 00 00 00 00 00
       0.0 0.0 0.0 0.0
000030 00 00 00 00 00 00 00 00 00 00 00 00 00 00 00 00
       0.0 0.0 0.0 0.0
000040 00 00 00 00 00 00 00 00 00 00 00 00 00 00 00 00
       0.0 0.0 0.0 0.0
000050 00 00 00 00 00 00 00 00 00 00 00 00 00 00 00 00
       0.0 0.0 0.0 0.0
000060 00 00 00 00 00 00 00 00 00 00 00 00 00 00 00 00
       0.0 0.0 0.0 0.0
000070 00 00 00 00 00 00 00 00 00 00 00 00 00 00 00 00
       0.0 0.0 0.0 0.0
000080 a2 c0 8f be 62 3e 39 be b2 61 b4 be 81 28 93 be
       -0.28076655 -0.18090203 -0.35230786 -0.2874184
000090 16 57 8f bf 8d ef 22 be c4 7e 04 3f 09 a0 74 3f
       -1.1198452 -0.15911694 0.5175593 0.95556694
0000a0 ed ff e6 bf 5c 40 86 3e 55 41 fa 3f 65 92 71 3d
       -1.8046852 0.26220977 1.9551188 0.058977503
0000b0 59 f2 fd bf a9 30 9a 3f ba 84 84 bf 2c c2 b3 bf
       -1.9839584 1.20461 -1.0353005 -1.4043632
0000c0 bb 06 c8 3f b3 6b 93 3f ba 82 b8 bd 33 ec 0f 3f
       1.5627054 1.1517242 -0.09009309 0.56219786
0000d0 cb 94 86 bf 48 29 03 bf 98 ce 1f bf 00 80 a2 bf
       -1.0514158 -0.51234865 -0.6242461 -1.2695312
0000e0 f3 a3 f9 3e 49 0b 8c 3e 92 41 f7 3e 42 f4 97 be
       0.48757896 0.2735236 0.48292214 -0.2967854
0000f0 2d 68 00 c0 83 8a 83 3f f8 44 b5 3e dc c1 00 3f
       -2.0063584 1.0276645 0.3540418 0.50295806

model.model.decoder.encoder.layers.0.self_attn.in_proj_weight f4 [96, 32]
000000 1b 4d b0 bc c9 68 ef bd c4 0a 48 3e 8c 63 ba 3d
       -0.021521142 -0.11689908 0.19535357 0.09101018
000010 f2 c5 3b be 77 83 3e be ad db ec bc 99 19 37 3e
       -0.18337229 -0.18604837 -0.028913343 0.17880858
000020 95 82 22 bd ec c1 2f bd 38 8f bd 3d 35 fb e7 3d
       -0.039675314 -0.042909548 0.092558324 0.11327211
000030 09 49 43 3e cc 93 24 bd 19 d7 5f bd 8e 5d 05 be
       0.1907083 -0.040180013 -0.054648492 -0.1302397
000040 2b 80 ac bb 75 0b 23 be 31 0c e8 bb dc a7 51 3e
       -0.0052643022 -0.1592234 -0.0070815315 0.2047419
000050 bc 30 f7 3c a2 08 57 be a3 8a 38 3e 81 0b ce bd
       0.030174606 -0.20999387 0.18021636 -0.10060788
000060 3e d5 d2 bd f1 a0 43 3e 74 4f 2b be 0a 80 94 3d
       -0.10294579 0.19104363 -0.16729528 0.07250984
000070 04 8e 27 3d 73 ab 62 3d 55 45 2b 3e 3b 59 e3 3d
       0.04090692 0.055339288 0.16725667 0.11101004
000080 a5 5f 2e be 73 8d a2 3d 17 ba 5b be 54 f8 1f bd
       -0.17028673 0.079371355 -0.21457706 -0.039055184
000090 10 39 2b bd 10 2b 4f 3e b1 83 2a be b6 f3 88 3d
       -0.041802466 0.20231271 -0.16651799 0.06687109
0000a0 d6 58 3d be ca b1 73 bd 3b a3 9f 3d b9 ef 05 3e
       -0.1849092 -0.059495725 0.077948056 0.13079728
0000b0 81 cc 06 3e 9a 4f bb 3d c7 85 37 3e 8c df 74 3d
       0.1316395 0.09146042 0.17922126 0.059783503
0000c0 cd 3e 3c 3e 67 cc 4d be 65 9e 25 be ee 7c 5e be
       0.18383332 -0.20097505 -0.16173704 -0.21727344
0000d0 c3 31 12 be 41 ac bf bd 1d 5e 4e 3e 04 9e 5c bc
       -0.14276795 -0.09359027 0.20153089 -0.013465408
0000e0 1a 36 e9 bc 60 37 22 3e 04 49 3e be 26 e3 50 be
       -0.02846818 0.15841436 -0.18582541 -0.2039915
0000f0 6a 0e ae bd b5 31 17 3e e4 71 4f 3e 43 54 31 be
       -0.08498843 0.14765055 0.2025829 -0.173173
000100 16 48 b2 3d dd 51 3e be 74 d9 56 bb 89 9b 1b 3e
       0.087051556 -0.18585916 -0.003278342 0.1519605
000110 16 0e 7a 3d a3 c8 d5 3d 88 00 14 be d2 d4 50 3d
       0.06104859 0.10438659 -0.14453328 0.05098421
000120 86 56 3b 3e 87 83 30 be 05 29 fe bd c2 03 fd 3d
       0.18294725 -0.17237674 -0.124101676 0.12354232
000130 21 b3 e8 bd 99 c2 0e 3c 66 71 e4 3d 83 4a 4f 3e
       -0.11362291 0.008713388 0.111544415 0.20243268
000140 7b b9 61 3e 36 34 bd bc 94 fe 16 be b5 e5 22 be
       0.22043411 -0.023096185 -0.14745551 -0.15907939
000150 61 27 e2 3b c3 e5 38 bb 54 4a de 3d da 3d 56 be
       0.006901667 -0.002821312 0.10854021 -0.20922032
000160 a0 8e 5b 3d 94 12 95 3c aa 7e 33 3e cf 4d 8b bd
       0.053602815 0.018197335 0.17528787 -0.0680195
000170 d0 bd 4c 3e 98 d9 e2 bd 0b 45 42 be 92 41 61 3e
       0.19994283 -0.11076659 -0.1897165 0.2199767
000180 43 c6 58 bd 61 d7 13 3e 99 71 4e bb e8 57 0d bc
       -0.052923452 0.1443763 -0.0031500815 -0.0086269155
000190 a9 e7 12 3e 90 44 9c 3d 98 ca 5e 3e df 5e f3 3d
       0.14346184 0.07630265 0.21756971 0.118833296
0001a0 12 64 53 3e 3c 03 9a bd a7 23 27 3e 4d 6d 23 3d
       0.20643643 -0.07520148 0.16322194 0.03989916
0001b0 6d 5d db bd cf a7 9b bd 38 9b 1e 3e 82 c8 41 be
       -0.10711179 -0.07600366 0.15488899 -0.18924144
0001c0 28 64 e4 3d f1 8f 55 be 80 8c 10 3d 97 87 41 3e
       0.11151916 -0.2085569 0.03529024 0.1889938
0001d0 9d 53 97 3d b0 75 9f 3d 86 63 41 be 38 32 3f be
       0.07388995 0.07786119 -0.18885621 -0.186715
0001e0 18 45 51 be 47 f6 f7 3d 89 c6 02 be d5 29 0c be
       -0.20436513 0.121075206 -0.12771048 -0.13687833
0001f0 8b 68 d5 3d 79 15 22 be c5 d2 30 bc 49 12 4e bd
       0.104203306 -0.15828504 -0.010792439 -0.050310407
000200 8f 83 4c 3e 13 2f 2c 3d f8 2e d4 3d a8 04 a0 3d
       0.1997206 0.04203708 0.10360521 0.07813388
000210 1e 2e ac 3d ca 4e 32 be f7 76 c0 3d c8 17 44 3d
       0.08407234 -0.17412868 0.09397691 0.047874242
000220 b6 21 53 3e e7 30 69 3d ec 1a 9f bd 6a 1e 5a bd
       0.20618328 0.056931403 -0.07768807 -0.05325166
000230 2d 15 84 bd 67 f1 ab bd 14 b9 34 3e 90 c2 2b be
       -0.064493515 -0.08395653 0.17648727 -0.16773438
000240 27 9a 0c 3e 7e e8 f3 bd bd 4c c6 3c 4c a7 47 be
       0.1373068 -0.11909579 0.024206514 -0.19497412
000250 6b 13 47 be 83 7d 3f be 65 c4 05 3e d3 f5 1a be
       -0.19441001 -0.18700223 0.130632 -0.15132837
000260 f8 7a 42 3e d6 8b 75 3d 88 f7 92 3c 7a 9d 3d bc
       0.18992221 0.05994781 0.017940298 -0.01157319
000270 1c ca 52 3e d5 85 8b 3d a0 8a ca 3d 99 92 2e be
       0.20584911 0.06812636 0.09889722 -0.1704811
000280 21 e5 48 3e 25 c7 49 3e ce 70 3c 3e d8 7a 54 be
       0.19618656 0.19704874 0.18402407 -0.20749986
000290 6e 26 47 bd 0a 6d 8c bd 59 99 0d 3e ea 15 4a 3d
       -0.048620634 -0.06856735 0.13828029 0.049337305
0002a0 e6 56 0e be ac a5 cb bd ba 95 1e be e5 9a 8d bd
       -0.13900337 -0.09943709 -0.15486804 -0.069143094
0002b0 2d 61 e0 3d ed f0 85 bd fc 56 6c 3d f9 0d a2 bd
       0.10956035 -0.065400936 0.057700142 -0.07912821
0002c0 b7 33 56 3e 6e ef e0 3d 5a 56 c4 3d 4e 07 50 be
       0.20918165 0.109831676 0.09586783 -0.20315287
0002d0 6e 2b 16 be 0e 8d 29 bb 08 96 5c bd 6c c5 04 bd
       -0.14665005 -0.0025871429 -0.05385402 -0.03241484
0002e0 cb 51 96 bd 2a a3 9f bc 77 8c 54 3e e3 0c c7 bd
       -0.073398195 -0.019486982 0.20756708 -0.09719255
0002f0 e6 db 08 bb 15 94 c3 3c 06 b1 c6 3d 68 51 42 be
       -0.0020883023 0.023874322 0.09701733 -0.18976367
000300 a8 78 b2 bc 41 37 d6 3c ec cb 4b 3e fa d1 48 3e
       -0.021786049 0.026149394 0.19902009 0.1961135
000310 a3 b2 a8 bd b7 28 24 3e ca 69 1e bd d6 e7 2d 3e
       -0.08237197 0.16031156 -0.038675107 0.1698297
000320 c4 16 42 be 5e f0 98 bb 20 4b a8 bd 4a 23 92 3c
       -0.18953997 -0.004667326 -0.08217454 0.017839093
000330 4f d1 27 3c ea 9e 07 3e c2 2b 3d bd ff 16 4e 3e
       0.010242774 0.13244215 -0.04618431 0.2012596
000340 da 37 ef bd f6 03 01 bd 74 e5 a3 3c 39 45 00 be
       -0.11680575 -0.031497918 0.020006873 -0.12526406
000350 19 31 4f 3d 36 fd a3 3d 1c 2f 9b 3d 03 bc bd 3a
       0.050583933 0.080072805 0.07577345 0.0014475588
000360 21 1e d4 bc 3c 79 e5 3d 0b 2c f5 bd fe d7 af bd
       -0.025893273 0.11204764 -0.11971291 -0.08586119
000370 10 cb ef bd 19 02 cc bd 66 85 26 3e 16 47 82 bc
       -0.11708653 -0.099613376 0.16261825 -0.015903037
000380 d9 ce 17 3e d4 6f 39 bd 73 02 f6 3d d9 98 fc 3c
       0.14825 -0.045272663 0.12012186 0.030834602
000390 ae 27 33 3c 49 58 3d be e7 88 fd bd c5 db 4f 3e
       0.010934753 -0.1849071 -0.12379628 0.20298679
0003a0 73 61 06 be 62 37 3b 3e c3 ab 54 be 41 da a6 bc
       -0.13123111 0.18282846 -0.20768647 -0.020367743
0003b0 c6 6e 2d 3e f3 1a 3f 3e c9 7f 99 3b 86 28 02 be
       0.16936788 0.18662624 0.0046844226 -0.12710771
0003c0 3a fc 09 3e a7 72 52 be 2f 86 8d 3c fc c9 bc bc
       0.13475123 -0.20551549 0.017275898 -0.023045532
0003d0 d7 78 0b be ed 89 00 bc 6a f4 5c be c6 6f b9 bc
       -0.13620315 -0.007845384 -0.21577612 -0.022636306
0003e0 5e 08 da bd 1d cf 45 bb 3d d0 f7 bc fd e4 18 3e
       -0.10646127 -0.0030183264 -0.030250663 0.14931102
0003f0 b2 5e 6a bd 61 73 4b bb bc 46 77 bd 75 ee 5d 3e
       -0.057219215 -0.0031044113 -0.060370192 0.21672995

model.model.decoder.encoder.layers.0.self_attn.in_proj_bias f4 [96]
000000 09 d3 57 bb 5c 2b 9d bb c0 d0 2f bb b2 39 3e bb
       -0.0032932183 -0.0047964286 -0.0026827306 -0.0029026088
000010 14 2f 41 3b c0 38 8e 3a 2a 60 44 3b d3 e2 47 bb
       0.0029477524 0.0010850653 0.0029964545 -0.0030500188
000020 d4 58 26 3b 07 0f 16 bb d7 61 2b bb 79 19 93 bb
       0.0025382536 -0.002289714 -0.0026150846 -0.0044891206
000030 16 f5 37 bb 3c a9 3d bb c4 95 6e bb d5 78 1f 3b
       -0.0028069667 -0.0028939983 -0.0036405185 0.0024333496
000040 c9 2f 4f bb 48 54 2d 3b 15 a2 4f bb 1b ba 5d 3b
       -0.0031614176 0.002644794 -0.0031682302 0.0033832851
000050 0a 36 17 bb 32 13 17 bb 34 98 67 bb 8a 92 32 bb
       -0.0023072981 -0.0023052213 -0.0035338523 -0.0027247989
000060 ad 71 24 3b d1 f1 40 3b 98 0a 31 3b 85 3a 38 bb
       0.002509217 0.0029441009 0.002701437 -0.0028111052
000070 cf c2 6b bb 5d 9d 4a bb 51 0f 4f 3b 44 31 52 bb
       -0.003597427 -0.003091655 0.0031594823 -0.0032072822
000080 3a bb 3c b7 af 55 3d b7 78 15 c6 37 52 11 b3 b7
       -1.1249265e-05 -1.1285228e-05 2.3613436e-05 -2.1346528e-05
000090 1d 67 5d b7 59 7f dc b7 1f fe 48 37 42 b4 d0 b7
       -1.3196634e-05 -2.6285345e-05 1.1980096e-05 -2.4879471e-05
0000a0 44 31 19 36 89 85 04 38 43 ba 20 37 71 54 48 b7
       2.2827453e-06 3.1595617e-05 9.580111e-06 -1.19405895e-05
0000b0 3c 0a 0d b5 39 7c 2b b7 49 e3 aa b7 43 fe 59 37
       -5.2541486e-07 -1.0221317e-05 -2.0371417e-05 1.2993408e-05
0000c0 16 19 e8 b7 9a b4 21 36 d5 c6 d8 b6 9a 41 d0 36
       -2.7668237e-05 2.4095993e-06 -6.4604487e-06 6.20652e-06
0000d0 3f b7 12 37 64 3a e2 37 fe 04 09 b8 ce a9 90 37
       8.744943e-06 2.696849e-05 -3.2667995e-05 1.724521e-05
0000e0 30 1e 87 b7 46 66 18 36 07 3c 2d b8 95 89 a5 b5
       -1.6107311e-05 2.2709296e-06 -4.130232e-05 -1.23335e-06
0000f0 3d cd b5 b7 1c 2b 0b b8 f3 cd fb 37 5a 88 c6 b7
       -2.1672453e-05 -3.318033e-05 3.0017434e-05 -2.3666933e-05
000100 1e f8 f8 b8 96 87 d1 38 86 8d 36 3a 82 c0 0a b8
       -0.00011871777 9.9911515e-05 0.00069638377 -3.308105e-05
000110 4e 29 aa 38 bd bc 71 b9 b8 e4 13 3b 83 cb 9d b9
       8.113925e-05 -0.00023053862 0.0022566747 -0.00030097002
000120 4f c9 e2 b9 0e b0 80 ba 32 c1 cc 3a 30 37 b4 ba
       -0.00043256066 -0.0009818093 0.0015621542 -0.0013749357
000130 7c ef ea 39 b6 11 21 3a d0 77 19 ba 66 29 d3 39
       0.00044810388 0.0006144302 -0.000585434 0.000402759
000140 c6 23 16 3a 43 c2 fc 39 2e 17 4b ba 24 1b 77 b9
       0.00057273766 0.00048209922 -0.00077472895 -0.00023565866
000150 df d6 f2 ba a6 e4 c0 38 50 07 b4 b7 de c4 96 38
       -0.0018527171 9.1978625e-05 -2.1461077e-05 7.189227e-05
000160 53 64 5f 3a 96 81 ed 3a 82 f8 a1 3a 4f 4c 40 bb
       0.00085217244 0.0018120285 0.0012357386 -0.0029342358
000170 55 8f 04 bb e9 05 14 38 78 e4 40 ba 2e 64 84 38
       -0.0020227034 3.5291454e-05 -0.0007358263 6.3129104e-05

model.model.decoder.encoder.layers.0.self_attn.out_proj.weight f4 [32, 32]
000000 67 c6 1d be 64 45 8e 3b 9d 39 18 bd 7a ae a6 3d
       -0.15407716 0.004341768 -0.03716432 0.081387475
000010 f6 19 92 bd ea e8 08 3e 59 72 0d be d0 10 21 3e
       -0.07133858 0.133701 -0.13813151 0.1572907
000020 f5 6b e5 bd 5e 2b c7 3d ff 6c 26 bc 82 2e bc 3d
       -0.11202232 0.097250685 -0.010157823 0.09188558
000030 74 a6 f0 bd 11 3e 01 3e ee f8 b7 3d 88 9b ad bd
       -0.117504984 0.12621333 0.089830264 -0.08476931
000040 3f ca f2 3b 70 1b b5 3d 4a 79 98 bd f2 37 70 3d
       0.0074093635 0.08843124 -0.07445009 0.058647104
000050 b4 36 d2 bd 30 95 c6 bd 14 1e 1f be b7 cb 4c bd
       -0.1026434 -0.09696424 -0.15538818 -0.049998965
000060 c0 3f b8 bd 31 9a 4c 3d 31 bb 15 be c9 51 df bd
       -0.08996534 0.049951736 -0.14622189 -0.10904271
000070 f9 23 9e 3c 5b 98 1e bd 95 bf c2 bd d1 e4 1b 3d
       0.019304262 -0.038719516 -0.095091976 0.038060013
000080 28 35 08 be 0d 53 5e 3c c3 ba 32 be 8c ea 30 bd
       -0.13301528 0.013569606 -0.17454056 -0.04319243
000090 24 1c dc 3d f4 10 8c bd c7 65 25 be b7 82 79 3c
       0.10747555 -0.06839171 -0.16152106 0.015228919
0000a0 c2 64 d0 3d 7c 79 98 3d 62 c7 ab bd 3b bc ab bd
       0.10175468 0.07445046 -0.08387639 -0.083855115
0000b0 91 1c ad 3b 6a 6e d2 3d a8 bb 14 3e 6e e3 8f bd
       0.0052829464 0.10274966 0.1452471 -0.07025801
0000c0 68 4b 01 be 2c 97 ee 3c da 82 df bd 5f 4c 12 3e
       -0.12626421 0.029124819 -0.1091363 0.14286946
0000d0 00 1c d3 3b 13 e0 ed 3c 10 33 31 3e 08 fa a9 3c
       0.006442547 0.029037511 0.17304635 0.020749107
0000e0 5a 0f b1 3d e4 62 bd 3b ff cc 8a bd 82 66 04 be
       0.08645506 0.005779611 -0.06777381 -0.12929729
0000f0 6b 75 1c 3e 67 0f 30 3e b0 1a c6 3d 81 19 47 bd
       0.15279166 0.17193376 0.09673059 -0.048608307
000100 01 bf 5f bc 33 79 0d 3e 7d cc 90 3c 9d ec b9 3d
       -0.013656379 0.13815765 0.017675633 0.090783335
000110 4b 48 25 be 72 ed 4c 3c 7f 6d 57 bd ac 6e 24 3e
       -0.16140859 0.012507783 -0.052594658 0.16057843
000120 99 db 19 bd a8 fa 0a be d1 68 96 bd ad b6 cc bd
       -0.03756294 -0.1357218 -0.07344211 -0.0999578
000130 66 20 01 be 90 66 a0 bd 8c f0 23 bc 6f d3 b5 3c
       -0.12610015 -0.07832062 -0.010006081 0.022195546
000140 a3 c0 f4 3d a4 d8 17 3e f1 58 02 3e 58 7f 24 be
       0.11950805 0.14828736 0.12729241 -0.16064203
000150 b2 ec 0f be 37 6e 3d 3d 18 da 7d bc 13 27 0c be
       -0.14055136 0.046247687 -0.015493892 -0.1368678
000160 dc 7a 21 3e d5 37 e4 3d 80 c9 df bd 56 08 be 3c
       0.15769523 0.111434616 -0.10927105 0.023197334
000170 7b d0 25 be a6 b6 de bb e1 a2 8b 3d 19 2c 1f 3e
       -0.1619281 -0.0067966757 0.06818176 0.15544166
000180 e0 9f 2b 3c fc fb 94 3c a9 25 19 3d 55 c8 d8 bd
       0.010475129 0.018186562 0.03738943 -0.10585085
000190 0e ee b7 bd 9b 91 11 be d6 d9 0d 3e 2b 02 12 be
       -0.08980952 -0.142157 0.13852629 -0.1425864
0001a0 c4 11 08 3e c7 c4 02 be 20 7b a0 3d e1 d3 c3 bd
       0.13288027 -0.12770377 0.07835984 -0.09561897
0001b0 b6 35 10 3e 47 7e 01 3e 28 04 20 3e af 73 01 3e
       0.14082989 0.12645827 0.15626585 0.12641786
0001c0 1e 5a 0f 3e 44 cb 9f bd 2e f7 23 be 54 72 eb bd
       0.1399922 -0.07802442 -0.1601226 -0.11496416
0001d0 ef 65 04 be bb 0a 8b 3d 31 ee 0e 3e 1c c7 9d bd
       -0.1292951 0.06789156 0.1395805 -0.07703993
0001e0 8a 33 1f bd 6f a9 57 3d e6 11 17 3e d7 d3 1a be
       -0.03886751 0.05265182 0.14752921 -0.15119873
0001f0 27 b4 f4 bc 81 a9 11 3e c7 5b 11 3e cb 6b 4a 3d
       -0.02987106 0.14224817 0.14195167 0.049419206
000200 0a a7 28 3e a1 55 01 be 4b 94 11 be 0e 37 d9 3d
       0.1646997 -0.12630321 -0.14216726 0.10606204
000210 47 0f 96 3c 97 c9 9c bd 18 01 ac bd 94 b1 b2 3d
       0.018317832 -0.07655638 -0.08398646 0.087252766
000220 d8 20 82 bd b0 ef 51 bb ff 0d 43 3d 4c 6d 1e 3d
       -0.06353921 -0.0032033734 0.04762077 0.038678452
000230 08 6b b2 bd e1 36 03 3d 13 a4 09 be ce 51 df 3c
       -0.08711821 0.03203476 -0.13441496 0.027260687
000240 69 ba fe bd 6f 91 17 be 81 41 21 bd 27 97 ca 3d
       -0.12437899 -0.14801572 -0.03936911 0.09892111
000250 d9 3c d6 3d 0d a8 2f 3e 23 7b fd 3d 7b 5f d5 3d
       0.104608245 0.1715395 0.12377002 0.10418602
000260 6d 14 09 be d3 ae ef bd e5 8e 07 3e 3a c1 1f 3e
       -0.13386698 -0.11703267 0.13238104 0.15601054
000270 7c 41 65 3d f9 41 49 bd 52 56 54 3d e9 f3 c4 bd
       0.055970654 -0.049135182 0.051840134 -0.09616835
000280 c2 5a ca 3d bb 31 25 be 95 b0 13 3d f5 04 03 be
       0.09880592 -0.16132252 0.036057074 -0.1279486
000290 fd 20 21 3e 34 9d 33 be f5 ea 19 bd 1d de 0b be
       0.1573524 -0.17540437 -0.037577588 -0.13658948
0002a0 45 ad 6d bd c4 3c 1c be 4e 2d 07 be e7 f0 25 3e
       -0.05802657 -0.15257555 -0.13200876 0.16205178
0002b0 fd f9 76 3b 27 c3 61 bc 6d 31 e9 3d c8 3f db bd
       0.0037685626 -0.013779438 0.1138638 -0.10705525
0002c0 ae ce 0c be 12 67 73 bd d5 57 26 be db 24 a3 3d
       -0.13750717 -0.059424467 -0.16244443 0.07966014
0002d0 82 60 77 3c f0 be 29 bd f4 39 5f bd e0 57 14 be
       0.015098693 -0.041441858 -0.054498628 -0.14486647
0002e0 f2 b8 06 be 29 5f c6 bc 07 2f f7 bc 43 d4 a1 3d
       -0.13156489 -0.024215298 -0.030173792 0.07901814
0002f0 19 60 12 be ec 2e 28 3d 9a df 40 3d cd bc 8d 3d
       -0.14294471 0.041060373 0.047088243 0.069207765
000300 49 c5 4f 3d 4a b9 9d bd cf d8 23 be 41 b9 67 3d
       0.050725255 -0.07701357 -0.16000675 0.056573156
000310 28 ec 2e be 26 77 4d 3c 38 76 35 bd 9b 00 02 3e
       -0.17082274 0.012540614 -0.044302195 0.12695543
000320 5b 2a b6 3c c6 5d 23 be c0 01 f4 bd f3 44 ca 3d
       0.022236994 -0.1595374 -0.11914396 0.09876432
000330 8d d2 81 3c 0d da e3 3d 2e a8 f8 3d 32 04 1e be
       0.015847469 0.11125574 0.12141453 -0.15431288
000340 f2 21 1e bd 02 05 e2 3d 85 ca 93 bd a0 dd 11 3e
       -0.03860659 0.110361114 -0.07216362 0.142447
000350 9d 80 15 be d2 c0 62 3d 15 fd 16 bd ed 04 a5 3d
       -0.14599843 0.05535967 -0.03686245 0.0805758
000360 5f d1 f6 3d 66 a6 b0 3d b8 d5 24 3e cf 2e c9 bd
       0.12051653 0.08625488 0.16097152 -0.09823381
000370 57 46 7c bd a6 cb e2 bb 86 0a 08 be 35 d3 de 3d
       -0.06159052 -0.0069212494 -0.13285264 0.10880128
000380 a3 0f c1 bd 1c 12 ac 3d 76 fd 02 3e 79 70 18 3e
       -0.094268106 0.084018916 0.12792 0.14886655
000390 9c 0a 8a 3d a3 bf 4f bd 90 24 ae 3d 11 2a 76 bd
       0.06740305 -0.05071987 0.085030675 -0.06009871
0003a0 41 b1 12 3e 84 96 5d bc 36 9f 28 3e d0 61 c3 bd
       0.1432543 -0.013524655 0.16466984 -0.09540141
0003b0 4b 4e 2f 3e c1 72 6b 3d a9 3e 05 3e ef 0b 6a bd
       0.1711971 0.057482485 0.13012184 -0.057140287
0003c0 66 2e 32 3e 54 ef 06 be 61 22 06 3e bd d7 4f bd
       0.17400512 -0.13177234 0.13099052 -0.050742853
0003d0 e9 1e b3 3d a5 20 2b 3e fa d0 6f 3d ff 77 06 be
       0.0874613 0.16711672 0.058548905 -0.13131712
0003e0 f4 a9 ed bd 5a 7f 09 3e c3 06 e8 3c 7a 47 ed 3d
       -0.116046816 0.13427487 0.028323537 0.11585899
0003f0 20 1e 54 bd 5e 55 3a 3c e9 c4 10 3e 03 1c 19 3e
       -0.051786542 0.011372892 0.14137615 0.14952092

model.model.decoder.encoder.layers.0.self_attn.out_proj.bias f4 [32]
000000 d0 9c 04 ba bc 99 89 b9 0b e2 91 39 f8 14 ed 3a
       -0.0005058767 -0.00026245217 0.0002782497 0.0018087914
000010 40 25 e7 b9 b5 df e8 39 a6 83 c1 3a 0a ac d4 b8
       -0.00044087507 0.00044417163 0.0014763966 -0.000101409925
000020 ba 71 aa ba b6 ea 45 ba 5f 47 a1 ba 05 33 6c 3a
       -0.0013003864 -0.0007549928 -0.0012304595 0.0009010288
000030 50 cf 73 3a 2d c8 fe b8 20 50 83 b9 2d 59 c0 39
       0.00093006063 -0.000121489495 -0.00025045965 0.00036687535
000040 42 38 37 39 91 b4 bb 3a 9b 1d eb ba 1c 54 18 39
       0.00017473198 0.0014320781 -0.00179379 0.00014527183
000050 32 fc 0a 3b b2 26 a8 ba 96 ac 0a 39 5a 8b 1d bb
       0.002120745 -0.0012828915 0.00013224999 -0.0024039359
000060 b5 b6 4a 38 39 e2 22 3a cf b5 a6 ba ec 49 60 b7
       4.8330712e-05 0.00062135194 -0.0012718978 -1.3368652e-05
000070 11 1d 8f b9 23 5c ef 38 0b 63 79 3a 0d ec d6 39
       -0.00027296742 0.0001141357 0.0009513355 0.00040993132

model.model.decoder.encoder.layers.0.linear1.weight f4 [128, 32]
000000 ed 95 92 bd 64 d7 ac 3d e3 65 b7 bc 51 08 84 3d
       -0.07157502 0.0843952 -0.02238745 0.06446899
000010 8e ef 49 bc 7e 22 b5 bd a1 c1 34 3e b4 69 2f 3e
       -0.012325181 -0.088444695 0.17651989 0.17130166
000020 35 5c 2a 3e 62 66 a2 3d 5a 87 5f 3d 45 ce be bc
       0.16636737 0.07929684 0.05457244 -0.023291716
000030 fd b9 25 3e d9 ca 81 bd 5b 3d ca 3d 38 77 23 3e
       0.1618423 -0.06337518 0.09874984 0.15963447
000040 d3 39 06 be 56 42 e0 3d 99 d4 e5 bd 5d ed 2f be
       -0.13107996 0.109501526 -0.112221904 -0.1718039
000050 08 3a 1c be 32 39 88 bd fd e3 fb 3d b6 86 5c 3d
       -0.15256512 -0.06651534 0.12299345 0.053839408
000060 5c 8d b1 3d 46 ae 2b 3d 51 ad 3a 3a be c1 14 3e
       0.0866954 0.041914247 0.0007121163 0.14527032
000070 b2 b4 b2 3d 0c 38 4a bd 78 cd 90 3d e7 99 13 3e
       0.08725871 -0.049369857 0.0707044 0.14414178
000080 ce e7 b4 3d 0a 9c 02 be 66 ce 2f 3e d3 8d 0d be
       0.08833276 -0.12754837 0.17168579 -0.13823633
000090 4b d8 4a 3d 08 f6 2d be bb 34 10 bc 2a 89 fd bd
       0.04952268 -0.16988385 -0.008801634 -0.123796776
0000a0 93 fa b8 3d 5d 4c 38 bd 68 e7 31 be 2c e6 a4 bd
       0.09032168 -0.0449947 -0.1737343 -0.08051714
0000b0 0e 8d a5 bd 7e 2f 9c bd 13 a6 53 bd 30 97 be bc
       -0.08083545 -0.07626246 -0.051672053 -0.023265451
0000c0 b2 74 be 3d a0 8a b2 3c e2 97 a2 3d 66 88 2b 3e
       0.092996016 0.021794617 0.079391256 0.1675125
0000d0 a8 e6 c1 bd d8 ef 07 3e 4a 81 c5 bd a3 39 f6 3d
       -0.09467822 0.13275087 -0.096438006 0.12022712
0000e0 cf c8 a5 3d 07 a4 2e be f3 67 e9 3c 3b 25 07 3e
       0.08094942 -0.17054759 0.02849195 0.13197796
0000f0 73 03 d3 3d 10 80 05 3e 08 38 71 bc 5b f8 23 bd
       0.10303392 0.13037133 -0.014722832 -0.040031772
000100 cb 1a 61 bd 14 40 28 be c5 fd 29 3c fb cc 99 bb
       -0.054957192 -0.16430694 0.010375445 -0.004693625
000110 2a 48 0e 3d fe 5f d9 3c 42 35 8f 3d be 70 cc bd
       0.03473679 0.02653503 0.0699258 -0.09982441
000120 fb 04 19 3d df d0 30 bd e4 97 c3 3d 3c b8 35 3d
       0.037358265 -0.043167945 0.09550455 0.044365153
000130 29 bb 98 bd 5f 69 83 ba 6b 76 b3 bb 48 e5 e1 bd
       -0.07457573 -0.001002591 -0.005476763 -0.1103006
000140 e0 a1 af bc 22 39 fb bd 59 05 d2 bd 7f 0c 36 3e
       -0.021439493 -0.122667566 -0.10254926 0.17778204
000150 c2 8c fe 3d ae c8 b6 bd d7 e2 aa bd e7 77 10 3d
       0.12429191 -0.08924995 -0.083440475 0.035270598
000160 95 09 2a 3e 37 48 34 bd b4 82 ee bd 8d 08 b5 bd
       0.16605218 -0.044014182 -0.116460234 -0.088395216
000170 41 52 3b 3d 00 c3 af 3d 63 b4 43 3d f0 19 b6 bc
       0.04573274 0.08582115 0.047779452 -0.022229165
000180 9f 40 1e be 3b b2 27 3d 5c 63 42 3a 90 cf e0 3c
       -0.15454338 0.04094146 0.00074153184 0.027442724
000190 85 fc 2c 3e e3 8f 99 3d 51 c8 ab 3d 58 25 97 3d
       0.16893204 0.07498147 0.08387817 0.0738017
0001a0 de 58 d0 bd 16 02 bf bd 4b 24 dd bd 84 3b 8f bd
       -0.101732 -0.0932657 -0.10797938 -0.069937736
0001b0 46 ea df 3d 3d 36 b5 3d c8 a3 ea bd 0b c3 07 be
       0.10933356 0.08848236 -0.1145702 -0.13257997
0001c0 2e 87 22 be 98 84 20 be 74 15 02 be 71 df fd 3d
       -0.1587188 -0.1567558 -0.12703496 0.12396134
0001d0 21 4a 61 bd 78 93 ac 3c e4 6f 3b 3d 80 e7 d6 3d
       -0.055002335 0.021066412 0.045761004 0.10493374
0001e0 eb af 94 3c 88 3f dc bd 35 b5 09 be 78 1e 9b 3d
       0.01815029 -0.10754305 -0.13448031 0.07574171
0001f0 b6 94 29 3e b1 09 26 3d ec 16 27 be d3 25 08 be
       0.16560635 0.040536586 -0.16317338 -0.13295679
000200 99 5c 9d 3d e4 e6 23 be e8 83 c8 3d ab be f2 3d
       0.07683677 -0.16006047 0.09790784 0.11852773
000210 6b 2f 32 3e 2d 60 bf bd 3b e5 1b be 29 e5 1d be
       0.17400901 -0.09344516 -0.15224163 -0.15419449
000220 e1 13 ef bd f1 97 21 be 7f 87 13 be 20 43 ee bc
       -0.116737135 -0.15780617 -0.14407156 -0.029084742
000230 0e d5 77 3d b3 b9 be bc f2 02 7f bc f9 6d 94 bd
       0.06050592 -0.023281908 -0.015564667 -0.07247538
000240 23 c5 01 be 3c 8a a1 bd a0 4c 97 3d 50 c9 a9 3d
       -0.12672858 -0.07887694 0.07387662 0.082903504
000250 d5 ed 25 3e 1e d9 dd bc a7 32 e9 bd 03 8b 33 3e
       0.16204007 -0.027081069 -0.11386614 0.17533498
000260 f3 a5 0a 3e 17 da ed 3d 86 ee 77 3d b6 d7 1b 3c
       0.13539867 0.11613863 0.060530208 0.009511879
000270 c2 29 c5 bc d8 fe 1d 3c f8 41 b7 bd 29 ef cf 3d
       -0.024067763 0.009643279 -0.089481294 0.10153038
000280 bd d9 b1 bc 69 c7 b3 3d c1 10 be 3d 3e e4 d7 bd
       -0.021710271 0.08778269 0.09280539 -0.105415806
000290 4f af a3 bd 52 d1 a4 bc 92 29 28 3e bc 4d 61 bc
       -0.07992422 -0.020119343 0.16422108 -0.0137514435
0002a0 7f 0b 13 bd 08 a1 84 bd d6 ff 01 bd f9 40 93 bc
       -0.035899635 -0.06476027 -0.031738125 -0.017975317
0002b0 60 ac 1b 3e 1a ef c1 3d 57 10 b8 bd 41 8f aa 3d
       0.15202475 0.09469433 -0.089874916 0.08328105
0002c0 48 72 f1 bd bf 26 2d 3e 16 fe aa bd 3f cb c9 bd
       -0.117893755 0.16909312 -0.08349244 -0.09853219
0002d0 df c1 71 3d d3 87 14 be d1 e7 1f be 15 10 79 3b
       0.05902278 -0.14504938 -0.15615775 0.003800397
0002e0 2d 97 99 3d 57 60 9d 3d 33 23 8d b6 8a e6 cf bc
       0.074995376 0.07684391 -4.206225e-06 -0.025378484
0002f0 f7 c2 8e bc de 36 dd bd 99 09 53 bc bd 84 df 3b
       -0.01742695 -0.10801481 -0.012880706 0.0068212436
000300 81 9f 29 3e 38 b2 29 3e df 54 ba 3b 25 bc 21 be
       0.16564752 0.16571891 0.005686387 -0.15794428
000310 43 30 0e be 51 aa ee 3c e8 fd 0b be 05 a1 70 3c
       -0.13885598 0.029133948 -0.13671076 0.014686828
000320 8f 74 d1 3b ee ad 2b 3e 72 18 cc 3d 92 7f 7d 3c
       0.0063920687 0.16765568 0.099656 0.01547231
000330 da 7d db 3d f8 9c 86 3d 75 13 f8 bd b4 b8 4c 3d
       0.10717364 0.06572908 -0.12113086 0.049980834
000340 1c ba a6 3d 6d dd 12 3e dc fa 69 3d 47 be 0b 3c
       0.08140966 0.1434228 0.057124004 0.008529252
000350 e5 9c de bd 2a 16 22 3e f2 6b 7e bd 79 81 30 bc
       -0.10869769 0.15828767 -0.062114663 -0.010773056
000360 da 8a 6c bd 28 7d 97 bd 27 77 b6 3c d7 72 25 3d
       -0.057749607 -0.073969185 0.022273613 0.040392723
000370 2f 07 28 be 76 db c1 3d 5a e4 e3 3d 6d 92 bf 3d
       -0.1640899 0.09465687 0.11127539 0.093541004
000380 07 ee d0 3d 20 2e ce 3d 3a 2b 00 be ba d1 d6 3d
       0.1020165 0.100673914 -0.1251649 0.10489221
000390 cb b5 96 bb 5f d9 01 3e 46 e5 cd bd ce 3b da 3d
       -0.004599308 0.12680577 -0.10053496 0.10655938
0003a0 5d 27 8b bd 22 24 9f 3d 23 01 a5 bd 58 ed 97 3c
       -0.06794617 0.07770564 -0.080568574 0.018545792
0003b0 95 ad 32 be d1 75 5e 3d 31 26 13 3e 74 65 17 be
       -0.17449029 0.054311577 0.14370038 -0.14784795
0003c0 39 d4 03 be 3c 75 04 bd 82 48 23 be 8e 62 28 be
       -0.12873925 -0.032338366 -0.15945628 -0.16443846
0003d0 9e d5 18 be 21 11 34 be ab 26 fb bd 8e 62 2e 3e
       -0.14925238 -0.17584659 -0.12263235 0.17029783
0003e0 25 30 89 bc 79 2b 18 3e 6a 54 1a be 18 1a bb 3d
       -0.01674659 0.14860334 -0.15071264 0.09135836
0003f0 6a 8c fc bc 58 45 00 3e 75 f4 0c 3e 48 6f 24 3e
       -0.030828673 0.12526453 0.13765128 0.16058075

model.model.decoder.encoder.layers.0.linear1.bias f4 [128]
000000 ba d3 c5 3d f8 25 96 bd 97 b4 84 3d f1 82 0d 3d
       0.09659524 -0.07331461 0.06479757 0.034548704
000010 35 93 63 3d 07 5a 8f 3c 5d bb 0f 3e 12 fe 01 3d
       0.05556031 0.017498983 0.14036317 0.03173644
000020 6e 25 22 be 5b 88 2d be 8c aa a1 bd dc c7 2a be
       -0.15834591 -0.16946547 -0.07893857 -0.16677803
000030 c9 33 0e 3e 9f 8b f8 bd e5 b7 b8 bb 1c 03 1b 3e
       0.13886942 -0.121360056 -0.0056371563 0.15137905
000040 30 9f 82 3d 4e a4 22 3d 77 cc 66 bc f7 fc ad bd
       0.06378019 0.039707474 -0.014086834 -0.08495515
000050 28 b7 06 be 5c c9 08 3e 8a 9c c1 3d 01 e2 04 be
       -0.13155806 0.13358063 0.094536856 -0.12976839
000060 b1 07 13 be a9 d9 24 3d d5 af 43 3c a6 c8 26 3e
       -0.14358403 0.04024664 0.011943777 0.16287479
000070 9d d7 37 3c 75 1f 22 3e 91 0b 90 3b e6 82 a4 3d
       0.01122084 0.15832312 0.00439591 0.080327794
000080 77 6c 25 be 36 b0 1d bd 72 b4 0f be d1 43 7f 3c
       -0.16154657 -0.038498126 -0.14033678 0.015580134
000090 97 9f 1c be b1 9b 44 bd 1d 63 7c 3d 50 fc d4 bc
       -0.15295254 -0.04800004 0.06161796 -0.025999218
0000a0 ed 1c 5c 3d bd 4c 49 bc bc 98 9e bc 5e 9d ce bd
       0.053738523 -0.012286362 -0.019359939 -0.10088609
0000b0 a0 e4 e9 bd f6 15 1e bd 67 72 a8 bd 3c 09 12 be
       -0.1142056 -0.038595162 -0.082249455 -0.14261335
0000c0 25 fa 91 3d 78 4a 29 3d 40 5e 65 3d 65 54 fb bd
       0.071277894 0.041330785 0.055998087 -0.12271956
0000d0 a7 3b ec 3d 10 d8 e9 bc a1 86 2d be aa d0 71 bd
       0.11534815 -0.02854541 -0.16945888 -0.05903689
0000e0 9c 32 fb 3c 5a 01 84 3d 2b dd 20 3e 32 2c 70 bd
       0.03066378 0.0644557 0.15709369 -0.058635898
0000f0 4a 51 9f 3d c1 6d a8 3c 78 cd 30 be cb ea e8 bd
       0.077791765 0.020560147 -0.1726588 -0.11372908
000100 42 b1 7b 3d b7 bd 62 bd a7 54 c6 3d 38 9a 61 bd
       0.061448343 -0.055356707 0.09684115 -0.055078715
000110 51 f9 07 3e 2d 5f 35 3e 45 3f fb bd db 3c 2d 3e
       0.132787 0.17712088 -0.12267927 0.16917746
000120 54 12 10 be 23 52 2e 3e 22 ba e0 bd 50 64 89 bc
       -0.14069492 0.1702352 -0.10973002 -0.016771466
000130 cf 4c 0c 3e 16 1e aa 3d 59 1a b8 bd c9 18 f3 3d
       0.13701175 0.0830652 -0.089894004 0.11869962
000140 2d ec 0f be 7a f8 86 bc 8d c8 ca bd 9c 2e 04 3e
       -0.14054938 -0.016475905 -0.09901533 0.12908405
000150 a7 7a 24 3e 13 2a a3 3c b4 16 26 be 5d d7 2b 3e
       0.16062413 0.019917523 -0.16219598 0.16781373
000160 d8 4a c2 3c 24 b4 b9 bc 99 f2 e0 3d d4 e1 38 bd
       0.023717329 -0.022668906 0.10983772 -0.04513724
000170 d7 20 19 3e 49 03 fa bc 4d 10 32 3e 7b e2 15 3e
       0.14953934 -0.030519145 0.17389031 0.14637177
000180 7b ab d6 bd 24 3e a3 bd c7 58 ec bd 1d 48 9e 3d
       -0.10481926 -0.07970837 -0.115403704 0.07728598
000190 f2 66 f8 bd c7 b6 1c 3e a5 d6 22 be 4c 85 0d be
       -0.1212901 0.15304099 -0.15902193 -0.1382038
0001a0 db 7f bf 3d 25 0f 0a 3e 7a 09 80 bd 79 97 01 3e
       0.09350558 0.1348234 -0.062518075 0.12655438
0001b0 90 2e 97 bd d4 52 c2 3d c8 bc 9e 3d 00 87 ca bd
       -0.07381928 0.094884545 0.07750851 -0.098890305
0001c0 25 2b 2c 3e 61 d6 a2 bc 22 41 e5 3d 3e 6c f6 3d
       0.16813333 -0.019877614 0.11194064 0.12032364
0001d0 49 23 8a bc 36 b3 f5 bd 34 f7 b6 3d 8f ac 8f bc
       -0.016862528 -0.119970724 0.08933869 -0.017538337
0001e0 3b e5 fd 3c 4a 21 8f 3d 43 75 cb bd 89 75 03 be
       0.030993095 0.06988771 -0.09934475 -0.12837805
0001f0 a7 5c 1a 3e 12 f9 5d bc 0d f0 80 bc a3 e6 8e 3b
       0.15074407 -0.0135481525 -0.015739465 0.00436099

model.model.decoder.encoder.layers.0.linear2.weight f4 [32, 128]
000000 ee 84 ab bd 5f 90 77 3d 19 bc c2 bc 39 78 1f bd
       -0.08374964 0.060440417 -0.023771333 -0.038933013
000010 90 af 39 3c 88 34 9c bd 63 0a ba 3d 74 24 a3 3c
       0.011333361 -0.07627207 0.09084012 0.019914843
000020 3f 2b a7 3c 17 63 87 3c 93 d2 13 3d 94 ce 93 3d
       0.020406364 0.016526742 0.03608949 0.07217136
000030 58 35 0a 3c f5 01 91 3d f5 a0 ba bc 6e 36 3b bc
       0.00843557 0.070804514 -0.022781828 -0.011426551
000040 0f be 94 3d 9a a2 97 3d 9c 76 f4 3c b9 4e ce bc
       0.07262813 0.07404061 0.029841714 -0.025184022
000050 aa ee 4e 3c 9b 44 bc bc 74 32 14 bd 03 13 9d 3d
       0.012630144 -0.022981932 -0.03618093 0.07669642
000060 7f 86 26 3d 36 6f c6 bb 9f ae 60 bd 2e b0 67 3d
       0.04065561 -0.006055738 -0.05485403 0.056564502
000070 11 f5 a1 bb b7 ce ab 3d 5c 66 d8 bc ba 7c 28 bd
       -0.0049425443 0.08389037 -0.026415996 -0.041134574
000080 ca 66 7a 3d db 4d bf 3c 6c 31 fa 3c dd 04 98 bc
       0.061133184 0.023352554 0.030541144 -0.018557006
000090 35 dd 8a bd 33 94 4e bc c4 cb 95 bd 35 b3 9e bd
       -0.06780473 -0.012608576 -0.07314256 -0.07749025
0000a0 06 91 44 3d ad d1 45 bd 14 c8 88 3d d6 81 07 3d
       0.047989868 -0.048295666 0.06678787 0.033082806
0000b0 d4 9a 81 3d 46 a3 f5 3c 23 49 81 3b e7 f0 36 bc
       0.06328359 0.029985081 0.003945486 -0.011165834
0000c0 3d 90 af bd 58 66 5e bd 0a 2f 86 3d 35 5b 80 3d
       -0.08572433 -0.05429682 0.06551941 0.06267396
0000d0 5a 47 01 bd 48 10 c4 3c 0c 5b 6d 3d 9f d4 12 bd
       -0.031562187 0.023933545 0.057948157 -0.035847303
0000e0 d3 1a 39 3b fe fd e0 bc b3 d8 03 3d 86 cf 92 bd
       0.0028244748 -0.027464863 0.032189082 -0.07168488
0000f0 5b 8d a2 3c 9f 67 2b bd 89 e9 1c bc 37 c1 80 bc
       0.019842794 -0.041846868 -0.0095771635 -0.015717132
000100 e0 56 98 3d a9 88 a7 3d 13 f1 aa bd 4e 37 12 bd
       0.07438445 0.08180363 -0.083467625 -0.035697274
000110 01 d7 62 bd a9 1d 42 3d ca 32 5a 3d 1a 45 90 3d
       -0.055380825 0.047391567 0.053271092 0.0704443
000120 4b 5b bc bb e5 26 8c 3d 89 fa 9c 3d 5b 3c 5f 3d
       -0.0057481877 0.06843356 0.07664973 0.05450092
000130 5c fd 92 bc 67 f6 5c 3d 39 c8 ed bc f6 9e 2b 3d
       -0.017943077 0.053945925 -0.029026138 0.041899644
000140 27 17 f4 3a c6 68 9f bd 3b 47 89 3d 0f 9f 47 bd
       0.0018622623 -0.07783656 0.06703039 -0.048735674
000150 ea ae 27 bd 37 7b b0 3d c6 d8 79 bd cb f3 49 3d
       -0.040938295 0.08617251 -0.060997747 0.049304765
000160 36 7f a1 bc 82 58 be 3b 72 32 e3 3c e3 f1 98 3d
       -0.01971398 0.005808891 0.027734015 0.07468011
000170 aa 16 48 bd 25 dd ed 3b 51 53 17 bd a5 a3 ab bd
       -0.04884974 0.0072590285 -0.03694469 -0.08380822
000180 33 c5 96 3d d5 53 79 3d d1 4e d6 3c 73 90 9a 3c
       0.073618315 0.060870964 0.02616063 0.018867707
000190 9e 02 37 bb bb fd ef 3b 38 1e 9b bd fd 94 12 bd
       -0.0027925144 0.007323948 -0.07574123 -0.035786618
0001a0 95 36 9e bc ec ca 72 3c b5 8a 11 bc aa da db 3c
       -0.019313136 0.014818888 -0.008883168 0.026837666
0001b0 32 04 aa 3d e0 d8 7e 3d 9d 3a 98 bd d3 fa 5e bd
       0.083015814 0.062218547 -0.074330546 -0.054438423
0001c0 35 20 74 3d 9a 8d 82 bd d0 74 27 bc 51 26 a3 bc
       0.059601028 -0.063746646 -0.010220721 -0.019915732
0001d0 b0 2f 54 3d cf 1e 2e 3d 0e 05 8a bc c3 62 46 bd
       0.05180329 0.04250985 -0.016848113 -0.04843403
0001e0 66 5a 9b 3d 23 af b4 bd 67 dd 96 3d 62 98 f5 3b
       0.075856015 -0.08822467 0.07366448 0.007494972
0001f0 3d 7f 7f 3b d9 d0 6b bc 43 5e f2 3a ec 3c e2 3c
       0.0038985752 -0.014393055 0.0018491227 0.02761694
000200 71 0e d4 3c 68 99 71 3d 85 9e 2f 3d d6 55 30 bd
       0.025885792 0.05898419 0.042875785 -0.04305061
000210 ca 29 c2 3b af 71 9a 3c 2e 0d 61 3d 12 27 b5 bc
       0.005925392 0.018853037 0.05494421 -0.022113357
000220 46 69 01 3d e5 fc 0f 3d a2 95 a6 3d 68 01 67 bd
       0.031594537 0.03515329 0.08134009 -0.056397825
000230 36 77 a3 bd 1d ea 08 3d 12 4f 77 bd e4 1a 67 3d
       -0.07981722 0.033426393 -0.06037814 0.05642213
000240 1d 4c 65 3c cf ee 72 3d ff c4 1a bd 17 00 82 bd
       0.013995198 0.059309777 -0.037785526 -0.063476734
000250 75 21 a1 3d 26 dc eb ba c6 18 a3 3d 8e 5c b2 bd
       0.078677095 -0.0017994686 0.079637095 -0.0870906
000260 a4 06 34 bd 34 64 53 bd f4 d6 a0 bd fc 5a 63 3d
       -0.043951645 -0.051609233 -0.07853499 0.05550669
000270 38 da e4 3c 3f 57 0a 3c b6 17 85 3d 98 cc 88 bd
       0.027936086 0.008443653 0.06498663 -0.06679648
000280 18 f3 43 3d 1d b2 b2 bd 09 09 33 3d fe 3f 2d bd
       0.047839254 -0.08725379 0.04370979 -0.042297356
000290 8e 0b 11 bd f0 04 83 bb 47 0e 13 3c a9 17 85 3d
       -0.03541141 -0.0039983913 0.008975572 0.064986534
0002a0 ac 99 52 bd cf aa 88 3d 8d 62 76 bb 64 84 63 3d
       -0.051416084 0.06673204 -0.0037595362 0.05554618
0002b0 b0 9e 06 3d dc 01 88 3d 47 14 a3 3d 89 ef 1a 3d
       0.03286618 0.0664098 0.07962852 0.037826095
0002c0 bf 49 8c 3d cd ff 8b 3c 56 4f 53 3d 04 36 a7 bd
       0.068500035 0.017089749 0.051589333 -0.081645995
0002d0 3d c7 8f 3d 15 5e 97 bb 88 52 44 3d 40 57 60 bd
       0.070204236 -0.0046193697 0.04793027 -0.054770708
0002e0 a7 a7 b9 bb 7f 50 5c bd 41 14 94 3d 30 3f 3b bd
       -0.0056657377 -0.053787705 0.072304256 -0.045714557
0002f0 86 cc ae bd 00 59 7e bd 0d 30 d7 3c b0 41 a9 3d
       -0.085351035 -0.062096596 0.02626803 0.08264482
000300 5f 33 31 3d db 2f 9d bd 0b be 95 3d 37 4e 98 3d
       0.043261882 -0.07675143 0.073116384 0.07436793
000310 f9 df 3e bb 02 d2 c0 bc 03 5e 89 bd 63 97 06 3d
       -0.0029125197 -0.02353764 -0.067073844 0.032859217
000320 14 84 4d 3d 82 85 2a 3d 19 24 a5 bc 23 98 85 bd
       0.050174788 0.04163123 -0.020158814 -0.065231584
000330 65 f9 f5 3c 37 fc 10 3d ec 13 3d bd 49 88 db bb
       0.030026147 0.03539678 -0.046161577 -0.006699596
000340 a9 88 74 bd 22 74 9c 3d 34 e4 9f bd b3 aa db bb
       -0.05970064 0.07639338 -0.07807198 -0.0067036985
000350 1a c2 81 3d f1 3c a9 bd cd d4 55 3b 55 c8 82 bd
       0.0633585 -0.08263577 0.003262806 -0.063858666
000360 40 f8 b0 3d d5 bb e2 bc 22 0e 9f bd 8c d8 a9 bb
       0.086411 -0.027677456 -0.077663675 -0.005183285
000370 17 53 25 bd 24 a7 a7 3d a5 ad 83 bc 73 a1 55 bd
       -0.040362444 0.081861764 -0.016074011 -0.052155923
000380 8e fc 1d bd 4f 4f 03 3d 5a 81 47 bd 49 b6 62 bd
       -0.038570933 0.032058056 -0.048707344 -0.055349622
000390 de d2 10 3c db 32 7d bd c8 ea 87 3d 84 e7 85 ba
       0.008839337 -0.061816078 0.06636578 -0.0010216092
0003a0 1e 61 0e bd 0b a5 27 3d 7e 04 37 3d 58 26 aa 3b
       -0.034760587 0.04092888 0.04468202 0.005192559
0003b0 f2 1f b0 bd a0 c6 37 3d 91 6e 91 3d 11 37 33 3c
       -0.08599843 0.044867158 0.07101167 0.010938422
0003c0 d6 3e 43 bc b7 6d 48 3d 1b 20 ee bc c0 02 90 3d
       -0.011916837 0.048932757 -0.029068043 0.070317745
0003d0 0b 8f a9 bd fe 30 44 bc c2 67 31 bd c5 f6 1c bd
       -0.082792364 -0.011974571 -0.04331184 -0.038321275
0003e0 1c 1b 76 3d 42 4b 10 bd a9 e3 1b bd 51 fb 88 3d
       0.060084447 -0.03522802 -0.03805891 0.0668856
0003f0 63 37 07 3d 94 7d df 3b 57 c7 8f 3a 29 72 c6 ba
       0.033011805 0.00682039 0.0010969442 -0.0015140224

model.model.decoder.encoder.layers.0.linear2.bias f4 [32]
000000 f4 34 a4 bd 47 81 00 3d 75 5c 82 3d a9 3a 86 3d
       -0.080179125 0.03137329 0.06365291 0.06554157
000010 d2 7e 1d 3d 85 4a 67 3d c9 a1 b5 3d ee 4c 40 bd
       0.038451023 0.05646755 0.08868749 -0.046948366
000020 fe 8b 9b bd e9 41 cb bc a3 a5 82 bb e1 13 ab 3c
       -0.07595061 -0.024811702 -0.0039870306 0.020883502
000030 a0 14 af bd 8d 2a a9 3d dc 75 9e 3c 88 69 a1 3c
       -0.08548856 0.08260069 0.01934331 0.019703642
000040 b8 2d 92 bc 6c 1a 5b 3d 21 ec 6e bd 1f fe 0c bd
       -0.017844066 0.053491995 -0.05833066 -0.034422036
000050 15 00 77 bd b5 eb 43 bc bc 3a 89 3d f8 c2 2c 3d
       -0.060302813 -0.011958052 0.06700656 0.042178124
000060 31 de 88 3d 8f 30 15 bd 5e 42 7d 3d c1 17 55 3d
       0.06683005 -0.036423262 0.06183087 0.052024607
000070 88 63 7a bd dc 9d 21 3c 59 3b 55 3d 93 17 af 3d
       -0.061130077 0.009864297 0.05205855 0.08549418

model.model.decoder.encoder.layers.0.norm1.weight f4 [32]
000000 f2 75 7f 3f e3 36 7f 3f 06 19 80 3f ae 2c 80 3f
       0.99789345 0.99693125 1.0007637 1.0013635
000010 a1 b3 7e 3f 6c 0c 80 3f 23 29 80 3f 97 47 80 3f
       0.9949284 1.0003791 1.0012554 1.0021847
000020 07 42 80 3f 17 c1 7f 3f 43 24 80 3f 1a 7c 7e 3f
       1.002015 0.99904007 1.0011066 0.99408114
000030 2f 5e 80 3f fb 35 80 3f 19 76 80 3f c4 c2 7e 3f
       1.0028743 1.0016474 1.003604 0.9951594
000040 89 a0 7f 3f 0f 1d 7f 3f 36 bb 7e 3f 07 4b 7f 3f
       0.9985433 0.99653715 0.9950441 0.9972386
000050 83 20 80 3f 96 48 80 3f be 14 80 3f ef df 7e 3f
       1.0009922 1.0022151 1.000633 0.99560446
000060 55 b5 7f 3f 6e e0 7e 3f a2 2e 80 3f e1 e7 7f 3f
       0.99886066 0.995612 1.0014231 0.99963194
000070 0b 9a 7e 3f e6 58 7f 3f 75 09 7f 3f 2f 10 7e 3f
       0.994538 0.99745023 0.99623805 0.99243444

model.model.decoder.encoder.layers.0.norm1.bias f4 [32]
000000 a4 ef e0 3a f1 27 0a 3b 99 cb f2 ba f8 09 86 39
       0.0017161262 0.0021080936 -0.0018523812 0.000255659
000010 f2 34 9d 3a a8 a0 01 bb 27 9d 4f 3a 41 c6 0c 3b
       0.0011993928 -0.0019779596 0.0007919841 0.0021480473
000020 33 a9 5a bb c7 4a c6 3a 50 57 5a ba d4 57 a0 ba
       -0.003336501 0.0015128487 -0.00083290506 -0.0012233206
000030 26 8a 10 bb 54 5e f0 3a 9a 66 1d bb 8b 21 0c 3b
       -0.0022055 0.0018338659 -0.0024017454 0.0021382298
000040 a0 25 40 3a 3e 3c a2 ba 16 cc bd ba 3c ae 03 bb
       0.00073298253 -0.0012377573 -0.0014480378 -0.0020092865
000050 72 4b e9 3a 18 1f 4c bb f0 20 08 bb 9e 37 c6 ba
       0.0017798974 -0.0031146463 -0.0020771585 -0.0015122776
000060 dd 1c 04 3b c3 a6 bb ba 0e a8 a2 3a a0 ca 06 bb
       0.0020158805 -0.0014316667 0.0012409703 -0.0020567551
000070 ad cb dc 3a 2a 0c 1b 3a 05 1a 54 ba 38 e3 ad ba
       0.0016845368 0.00059145933 -0.00080910354 -0.0013266569

model.model.decoder.encoder.layers.0.norm2.weight f4 [32]
000000 e5 c3 7f 3f 5d 74 7f 3f 8a 25 80 3f e2 5f 7f 3f
       0.99908286 0.9978693 1.0011456 0.9975568
000010 a2 a7 7e 3f 68 19 80 3f d5 94 7e 3f dc 5a 80 3f
       0.9947454 1.0007753 0.9944585 1.0027728
000020 2b 18 80 3f c8 9f 7f 3f 39 de 7e 3f d8 54 7e 3f
       1.0007375 0.9985318 0.99557835 0.9934821
000030 55 4b 80 3f 3d 3e 80 3f 3b 7a 80 3f f2 7d 7e 3f
       1.002299 1.0018994 1.0037302 0.9941093
000040 4d 33 7e 3f bb 03 7f 3f ea 61 80 3f 21 70 7f 3f
       0.9929703 0.9961507 1.0029881 0.9978047
000050 22 c9 7f 3f 08 48 80 3f ab f4 7f 3f e9 ad 7e 3f
       0.9991628 1.0021982 0.9998271 0.99484116
000060 dd 6e 7f 3f 8f e2 7e 3f 4a d0 7f 3f 03 fb 7f 3f
       0.9977854 0.9956445 0.999272 0.9999239
000070 77 84 7e 3f 7a 55 7e 3f 75 9e 7f 3f d8 23 7e 3f
       0.99420875 0.99349177 0.9985116 0.99273443

model.model.decoder.encoder.layers.0.norm2.bias f4 [32]
000000 52 80 e3 3a a3 d4 e3 3a a7 66 e3 ba e9 13 e4 ba
       0.0017356968 0.0017382096 -0.0017349318 -0.0017400953
000010 89 69 e3 3a 05 d2 e3 ba 8b 81 e2 ba 45 be e3 3a
       0.0017350178 -0.0017381316 -0.0017281038 0.001737543
000020 5e 40 e3 ba 9d cb e3 3a 41 13 e3 ba 10 48 e3 ba
       -0.0017337909 0.0017379407 -0.0017324464 -0.0017340202
000030 de 32 e5 ba 6d 86 e3 3a 5e 52 e4 ba 12 59 e1 3a
       -0.0017486473 0.0017358788 -0.0017419567 0.0017192683
000040 63 dd e2 ba d3 68 e3 ba 2c 24 e5 ba 2c b7 e3 ba
       -0.001730841 -0.0017349966 -0.0017482094 -0.0017373315
000050 c8 ce e7 3a c8 ba e4 ba 6a af e3 ba 81 9b de 3a
       0.0017685527 -0.0017450685 -0.0017371003 0.00169836
000060 b5 c7 e3 3a fc 75 e3 ba 93 3f e3 ba 52 b0 e3 ba
       0.0017378243 -0.0017353888 -0.0017337672 -0.0017371273
000070 12 48 e3 3a 10 ad e2 ba 6e 25 e3 ba b0 80 e3 ba
       0.0017340204 -0.0017294008 -0.001732988 -0.0017357077

model.model.projection.weight f4 [2, 32]
000000 14 94 cb 3d 20 8a 85 bd e9 45 5c bc 15 37 07 3e
       0.09940353 -0.06520486 -0.013444402 0.13204606
000010 72 e3 31 bc a7 22 fe bd 74 29 1d 3e 81 82 31 3e
       -0.01085745 -0.12408953 0.15347844 0.1733494
000020 34 90 20 bd 03 40 31 bc 6a 8c c8 bd 5e c6 23 3e
       -0.039200023 -0.010818484 -0.09792407 0.1599364
000030 9c a3 2f be a7 7a ed bd 73 40 04 3e a8 9f 1b bd
       -0.17152256 -0.1159566 0.1291521 -0.037994057
000040 18 df 97 3d 33 67 a7 bd c3 21 0b bd 33 f7 9c 3d
       0.07415599 -0.081739806 -0.033967745 0.07664337
000050 ba 3a ae bd 32 4b 8d 3d 0e e6 26 3e dd 54 c8 bb
       -0.08507295 0.06899108 0.16298696 -0.006113632
000060 54 2f ba 3d 88 34 38 bd 2a 0b 5a 3d 7d 44 b7 bd
       0.090910584 -0.044971973 0.053233303 -0.0894861
000070 6e dc 00 3d b0 e7 e5 bd fe 8f 2f bd 68 29 bc 3d
       0.031460218 -0.112258315 -0.04286193 0.09187585
000080 09 bb e0 bd 66 12 ac bd b1 52 86 3c 84 62 cd 3b
       -0.10973174 -0.08401947 0.016396852 0.0062678475
000090 22 12 e5 3b db 47 a1 bd b3 34 a9 bc c3 34 e4 bd
       0.006990687 -0.078750335 -0.020655012 -0.11142876
0000a0 71 09 b4 3d 96 a0 f3 bd a2 eb 21 3e 5f e5 73 3d
       0.08790863 -0.11895864 0.15812543 0.059544917
0000b0 7b 3b 90 3d 84 bd b7 bd ea 13 23 be 9a b1 e8 bd
       0.07042595 -0.08971694 -0.15925565 -0.11362
0000c0 bf 4a e3 3d 2f 80 e8 bd 26 20 f0 3b d4 cc 22 be
       0.11098241 -0.11352574 0.007328051 -0.15898448
0000d0 36 30 29 be 21 b6 07 be 1e cf 0d 3e a8 c8 d2 bd
       -0.16522297 -0.1325307 0.1384854 -0.102921784
0000e0 b8 90 0c 3e 9c 67 53 3d df 1c b7 bd ae 08 68 3c
       0.13727081 0.05161248 -0.089410536 0.014162226
0000f0 ea 31 1c 3e 29 e7 2c bd f8 3d 30 be 3d 1d f3 bd
       0.15253416 -0.04221264 -0.17211139 -0.11870811

model.model.projection.bias f4 [2]
000000 20 12 14 3e 06 19 c8 bd
       0.14460039 -0.09770398
